model_zoo/DAgger/LunarLander-v2/net_46.pth (torch, 141879 bytes, 8 tensors)

layers.0.weight f4 [128, 8]
0	0x3f1d0c21	0.6134663
1	0xbe0a6e1c	-0.13518566
2	0xbf2741db	-0.6533486
3	0xbcaad028	-0.02085121
4	0x3effc9b0	0.49958563
5	0x3d41a5c7	0.04727724
6	0xbe4be02a	-0.1990973
7	0x3eff01fd	0.49806204
8	0xbf31cc21	-0.694521
9	0xbe3989c5	-0.18118961
10	0xbe7625f1	-0.24037911
11	0xbcf56462	-0.029955093
12	0xbf05d68d	-0.52280504
13	0xbf18c0ac	-0.59668994
14	0x3f24a02c	0.643069
15	0x3dcbc2bd	0.09949253
16	0x3f54e751	0.8316546
17	0xbe6b1c37	-0.22959982
18	0xbecc387a	-0.39886838
19	0xbe3dc961	-0.18533851
20	0xbeb6f70d	-0.3573536
21	0xbeb2d1f1	-0.34925798
22	0x3e09ccf1	0.13457085
23	0xbe9bd530	-0.30436087
24	0x3ddadefb	0.106870614
25	0x3ef17d9c	0.47166145
26	0xbd8bbb84	-0.06822875
27	0x3e9f3f65	0.31103054
28	0x3da78d5d	0.0818126
29	0xbed1bd9c	-0.40964973
30	0xbe46ba0e	-0.19406912
31	0xbe2538b7	-0.16134916
32	0x3f373357	0.71562713
33	0xbeb9e2d2	-0.36305863
34	0x3f01b38a	0.5066458
35	0x3f020619	0.50790554
36	0x3e81c554	0.25345862
37	0x3f23d9dc	0.640043
38	0x3e81d238	0.25355697
39	0x3d3bf506	0.04588797
40	0x3e8caa22	0.2747355
41	0x3efac901	0.4898148
42	0xbe312414	-0.17298919
43	0x3f00fcd4	0.50385785
44	0xbc378faf	-0.01120369
45	0xbecf59d4	-0.4049822
46	0xbea7a169	-0.32740334
47	0x3d9bebf7	0.07613366
48	0xbe58a961	-0.21158363
49	0xbea32556	-0.31864423
50	0x3e5f4850	0.21804929
51	0xbeab2096	-0.334233
52	0xbe48cfd0	-0.19610524
53	0x3cae5a7d	0.021283383
54	0xbd1ea927	-0.038735535
55	0xbe8de2fc	-0.27712238
56	0xbea31398	-0.31850886
57	0xbd5a6bda	-0.05332551
58	0xbe9e4199	-0.30909422
59	0x3ed1a65e	0.4094724
60	0xbe959da3	-0.2922183
61	0xbf3f3452	-0.7468921
62	0x3e020841	0.12698461
63	0x3dc061cf	0.093936555
64	0xbee06283	-0.43825158
65	0xbefccf74	-0.49377024
66	0x3f02d61a	0.51107943
67	0xbee36e7f	-0.4442024
68	0x3e9169f7	0.28401157
69	0x3cc4504c	0.02396407
70	0x3ec03159	0.3753765
71	0xbe8cfd0e	-0.27536815
72	0x3ece9c43	0.40353593
73	0xbeca271d	-0.39482966
74	0x3d8908c7	0.06691127
75	0x3e8928a2	0.26788813
76	0xbe2605d0	-0.16213155
77	0xbf257abc	-0.646404
78	0xbe909643	-0.2823964
79	0xbdabb4f7	-0.08384126
80	0x3f48a67e	0.78379047
81	0x3e8f2af4	0.27962458
82	0x3ea6684c	0.32501447
83	0xbe31d44e	-0.17366144
84	0xbe3428c9	-0.17593683
85	0xbf33b93e	-0.7020453
86	0xbf124dbc	-0.57149863
87	0xbebf2a9a	-0.3733719
88	0xbd6fc190	-0.058534205
89	0x3e844ac8	0.25838304
90	0x3e32d11c	0.17462581
91	0x3ee78ce0	0.45224667
92	0xbf1868d9	-0.59534985
93	0x3cd4f216	0.025994342
94	0x3eacc649	0.3374503
95	0x3ecca5e9	0.3997033
96	0x3eaffe88	0.3437388
97	0xbee5d502	-0.44889075
98	0x3eac4f59	0.33654287
99	0xbd5fa89c	-0.054604158
100	0xbdbb462e	-0.09144245
101	0xbf277291	-0.6540919
102	0x3da9cea8	0.0829137
103	0x3ef75ed4	0.48314536
104	0x3dafc66d	0.085827686
105	0x3ed3f7f3	0.41400108
106	0x3db66bc4	0.089072734
107	0x3efaca0a	0.4898227
108	0xbeb08b2e	-0.34481186
109	0x3dd275ca	0.10276373
110	0x3eae6a9c	0.34065711
111	0x3e19f1ba	0.15033618
112	0x3f42b136	0.7605165
113	0x3e8efa6e	0.27925438
114	0x3f262539	0.6490055
115	0xbe83e5a5	-0.25761142
116	0xbdb3f738	-0.087873876
117	0xbf1aa637	-0.60409874
118	0x3e80a22c	0.25123727
119	0x3e215e0f	0.15758537
120	0xbf3fa9b7	-0.7486834
121	0xbcd83d8a	-0.026396532
122	0xbecbd5d9	-0.3981159
123	0x3e12964f	0.1431515
124	0x3d12902b	0.03578202
125	0x3f1fde28	0.6244836
126	0xbe2ab006	-0.1666871
127	0x3db863b6	0.09003393
128	0x3f17d6aa	0.59311926
129	0x3e8dedf2	0.277206
130	0x3f038b64	0.5138457
131	0xbc8d5055	-0.01725022
132	0xbf11e833	-0.5699493
133	0xbea09704	-0.31365216
134	0xbf7a0f11	-0.9767924
135	0xbf2a7768	-0.6658845
136	0x3e917f76	0.28417557
137	0x3e06da16	0.1316913
138	0x3e21b409	0.15791334
139	0x3f0277fd	0.5096434
140	0xbe01318e	-0.1261656
141	0xbf34bb00	-0.7059784
142	0x3dbbe62f	0.091747634
143	0x3e1d41ae	0.15357086
144	0x3dc0b9e4	0.09410456
145	0xbed695f4	-0.4191128
146	0x3f0a9c88	0.541451
147	0xbefe998b	-0.4972652
148	0x3ddfb28d	0.10922728
149	0xbe95afde	-0.2923574
150	0x3e8ea708	0.2786181
151	0xbea0f369	-0.31435707
152	0x3f226dd4	0.63448834
153	0x3e6e2470	0.23256087
154	0x3f1dcdd3	0.6164219
155	0x3e9d6214	0.3073889
156	0x3e1a4ce1	0.1506839
157	0x3e2a81cd	0.16651078
158	0xbe06ccde	-0.13164088
159	0x3eacd52b	0.33756384
160	0x3f044184	0.5166247
161	0xbebe9e31	-0.37230065
162	0xbbbefbfe	-0.0058283797
163	0xbe63a6e7	-0.22231637
164	0xbec4aee7	-0.3841469
165	0x3e3c5f3f	0.18395709
166	0xbe78a5b8	-0.24281967
167	0xbd7a8342	-0.061160333
168	0xbd9e4328	-0.07727653
169	0x3eb6569d	0.35612956
170	0x3f1dd5a3	0.6165411
171	0xbeb79180	-0.35853195
172	0x3eacf07c	0.33777225
173	0x3eeb12fd	0.45912924
174	0x3d74960c	0.05971341
175	0x3dc0984e	0.0940405
176	0x3e4fb214	0.20282775
177	0xbcc01e3b	-0.023451915
178	0xbef87571	-0.485271
179	0xbe80f8d1	-0.25189832
180	0x3ef149a2	0.4712649
181	0x3f136213	0.57571524
182	0x3ea87d67	0.32908174
183	0x3e1ec514	0.15504867
184	0x3f649a0a	0.89297545
185	0xbe6b3a1d	-0.22971387
186	0xbe0fd44a	-0.14045826
187	0x3dca16d2	0.09867634
188	0x3ce43ba5	0.027860472
189	0x3f4365d8	0.76327276
190	0xbeac9a38	-0.3371141
191	0xbe778d36	-0.24174961
192	0x3ebf7915	0.37397066
193	0x3eaac92e	0.33356613
194	0x3f4bb76d	0.7957676
195	0xbee48d02	-0.4463883
196	0x3d190656	0.037359558
197	0x3efe167e	0.49626535
198	0x3e749d8c	0.23888224
199	0xbde9260f	-0.11384212
200	0x3f818a3f	1.0120314
201	0x3ec730df	0.38904473
202	0x3d550b19	0.052012537
203	0xbd526c28	-0.051372677
204	0x3ea086d4	0.31352866
205	0x3f0c0d33	0.5470764
206	0xbe01eea6	-0.12688693
207	0x39b3cce5	0.000342942
208	0x3e7baec1	0.24578382
209	0xbdbfc79d	-0.09364245
210	0xbe9efd3c	-0.31052577
211	0x3ee849cb	0.453688
212	0x3edd6ca3	0.43246946
213	0x3f163c10	0.586854
214	0x3e16597e	0.14682576
215	0xbe0649c4	-0.13114077
216	0x3ecd116e	0.4005236
217	0x3f000c1c	0.5001848
218	0x3ed97aae	0.4247641
219	0x3e163366	0.14668044
220	0x3da6028b	0.08105954
221	0x3ed980fe	0.42481226
222	0xbe34bb20	-0.17649508
223	0xbec2fbd8	-0.38082767
224	0x3f42bb9f	0.7606754
225	0x3e6590ff	0.22418593
226	0xbdfd70f0	-0.12375057
227	0x3e50c125	0.20386179
228	0xbe57d7a0	-0.21078348
229	0xbe143e10	-0.144768
230	0x3e4d8527	0.20070325
231	0x3e947633	0.2899643
232	0xbf34c0f0	-0.706069
233	0xbe0f00db	-0.1396517
234	0x3ed03d05	0.40671554
235	0xbe1937c2	-0.14962676
236	0xbf1f7552	-0.6228839
237	0xbdfdf91c	-0.124010295
238	0xbe7033e7	-0.23457299
239	0xbe026f28	-0.12737715
240	0x3d66d1a1	0.05635226
241	0xbef4337b	-0.47695526
242	0xbe82f72f	-0.2557921
243	0xbc894e3c	-0.016760938
244	0xbe9ba978	-0.30402732
245	0xbe94eeb7	-0.29088375
246	0x3eb7ec1b	0.35922322
247	0x3ebc9ba9	0.3683751
248	0xbf1e952e	-0.6194638
249	0x3ee8b255	0.45448557
250	0xbf44fdda	-0.76949847
251	0xbcde2a92	-0.027119908
252	0xbd487c5d	-0.048946727
253	0xbd295687	-0.041342285
254	0xbd83aeed	-0.06429849
255	0x3d9d76df	0.076886885

layers.0.bias f4 [128]
0	0xbea89d6d	-0.32932606
1	0xbd9eabab	-0.07747587
2	0xbeb4c86c	-0.3530916
3	0xbeaab7ff	-0.33343503
4	0xbd2818e1	-0.04103935
5	0xbe018c4b	-0.12651174
6	0xbe2c2d23	-0.16814093
7	0xbcaace99	-0.020850467
8	0xbd655c69	-0.055996332
9	0x3e32b120	0.1745038
10	0xbe4629d0	-0.19351888
11	0xbe91d210	-0.28480577
12	0x3e3ddb17	0.18540607
13	0x3ea85e54	0.32884467
14	0x3e626237	0.22107778
15	0xbd47b2d1	-0.048754517
16	0x3e41c2d7	0.18921982
17	0x3d908d3b	0.070581876
18	0x3de0ff13	0.109861515
19	0x3dd8539c	0.10562822
20	0xbe84e62e	-0.25956863
21	0x3ed49903	0.4152299
22	0x3ea9cfba	0.33166295
23	0x3eb72e58	0.35777545
24	0x3ecf9779	0.40545252
25	0xbe06c352	-0.13160446
26	0x3dc488a4	0.09596375
27	0xbd5f1578	-0.054463834
28	0x3e588312	0.2114375
29	0xbe87643a	-0.26443654
30	0xbe7f2105	-0.2491494
31	0xbe9ed61e	-0.31022733
32	0xbeb1e521	-0.34745124
33	0x3ddf413f	0.109011166
34	0xbeae5fff	-0.34057614
35	0x3e9bc261	0.30421737
36	0xbcb45c93	-0.0220168
37	0xbe909ace	-0.28243107
38	0x3e6ff981	0.23435022
39	0xbe540802	-0.2070618
40	0x3ba4ebc6	0.005032989
41	0xbe822865	-0.25421444
42	0x3e5d51a5	0.21613176
43	0x3e7484bb	0.23878758
44	0x3d8090a9	0.06277592
45	0x3ebff307	0.37490103
46	0x3d327914	0.0435725
47	0x3ebe157c	0.37125766
48	0xbdf3d543	-0.11905911
49	0xbebca932	-0.36847836
50	0x3e60ea39	0.21964349
51	0x3e137f34	0.14403993
52	0x3e6ed20d	0.23322316
53	0xbdc7a5e6	-0.097484395
54	0x3eb15701	0.3463669
55	0x3eaa11e8	0.33216786
56	0x3e76b839	0.24093713
57	0x3e4f1da4	0.20226151
58	0x3e8eab68	0.27865148
59	0x3e8373ab	0.25674185
60	0xbe16eb9c	-0.14738315
61	0xbd6ef9d0	-0.05834371
62	0x3eb16eba	0.3465479
63	0x3c76e10d	0.015068305
64	0xbe17e40c	-0.14833087
65	0x3e585f37	0.21130072
66	0xbd9fa92f	-0.07795941
67	0xbd4f23bd	-0.050571192
68	0xbdfb68ec	-0.12275872
69	0x3dd4965e	0.10380243
70	0x3d95da69	0.07317049
71	0xbd634d3a	-0.05549357
72	0x3c2ce0fc	0.010551687
73	0x3e9535be	0.29142565
74	0x3eb3bfa9	0.35107163
75	0xbdc90dc7	-0.09817081
76	0xbecf5370	-0.40493345
77	0xbc3c26ad	-0.01148383
78	0xbe2338e7	-0.15939675
79	0xbdf1a374	-0.11798754
80	0x3ea9d932	0.3317352
81	0x3e01cece	0.12676546
82	0x3ebcecfc	0.36899555
83	0x3dc7c687	0.09754663
84	0x3d7a0061	0.061035518
85	0xbeb92909	-0.3616412
86	0xbaa88d41	-0.001285948
87	0x3ec34324	0.38137162
88	0xbe7e3fa4	-0.24828964
89	0x3e2de0e2	0.16980317
90	0xbe8bf603	-0.2733613
91	0x3e500b72	0.20316866
92	0xbe804b1b	-0.250573
93	0x3ea4e747	0.322077
94	0x3e7c006b	0.24609534
95	0x3e9a91ff	0.3018951
96	0xbe722fd5	-0.23651059
97	0x3ebd031e	0.3691644
98	0xbebf8e65	-0.37413326
99	0x3e023f17	0.1271938
100	0x3e82b566	0.2552902
101	0xbdf424af	-0.11921059
102	0x3ec4aef6	0.38414735
103	0xbe708cf2	-0.23491266
104	0xbe6bc121	-0.23022892
105	0x3e220769	0.15823139
106	0x3d47c260	0.048769355
107	0xbe6bf8ef	-0.2304418
108	0x3e596f81	0.21233942
109	0x3d5eacfa	0.054364182
110	0x3ec69a4c	0.38789594
111	0x3e975c64	0.29562676
112	0x3e230e6a	0.15923467
113	0x3dc12e2a	0.09432633
114	0x3e45bdd9	0.19310702
115	0x3e22d05d	0.15899797
116	0xbea628fd	-0.32453147
117	0xbe84c461	-0.25931075
118	0xbd1c7cfa	-0.038205124
119	0x3eb8d6c0	0.3610134
120	0xbe3c5e6c	-0.18395394
121	0x3eb8cc46	0.36093348
122	0x3e4ed7ce	0.2019951
123	0x3e09d26e	0.13459179
124	0xbe6c095b	-0.23050444
125	0xbebed095	-0.3726851
126	0xbea70008	-0.3261721
127	0x3e95392a	0.29145175

layers.1.weight f4 [128, 128]
0	0xbdfb766a	-0.12278445
1	0x3ec4459c	0.38334358
2	0xbe37e5a3	-0.17958693
3	0xbe0ab907	-0.13547145
4	0xbc36b442	-0.011151375
5	0xbe9db6cc	-0.30803525
6	0x3e908460	0.28225994
7	0x3d82cd3c	0.063868016
8	0x3ef510ed	0.47864476
9	0xbdd07ff5	-0.10180656
10	0xbea330d6	-0.31873196
11	0x3d42b25b	0.047533374
12	0xbe329e42	-0.17443183
13	0xbdac2f3b	-0.08407446
14	0xbe22b6c2	-0.15890029
15	0x3ef278a9	0.4735768
16	0xbe248537	-0.16066442
17	0xbed459a4	-0.4147464
18	0x3e23260a	0.1593248
19	0xbe4481c2	-0.19190124
20	0xbd1b31a2	-0.03788913
21	0x3d82a48a	0.063790396
22	0x3c5f051a	0.013612056
23	0xbea34f12	-0.31896263
24	0x3d0d705b	0.03453098
25	0xbe9cfef2	-0.30663258
26	0xbe50a03b	-0.20373623
27	0xbe566745	-0.20937832
28	0xbeac37a3	-0.33636197
29	0x3e98a22c	0.29811227
30	0x3c80f00a	0.01573946
31	0x3df01f28	0.117246926
32	0xbd8e2d29	-0.06942207
33	0xbed66f02	-0.41881567
34	0x3ded82ed	0.11597238
35	0xbdd09344	-0.10184339
36	0xbe52a239	-0.20569696
37	0xbd342576	-0.043981038
38	0xbd9471e2	-0.07248284
39	0x3c08305c	0.008312311
40	0x3ebc5c83	0.3678933
41	0xbcca317e	-0.024681803
42	0x3d095e3d	0.03353714
43	0x3e4ac729	0.19802536
44	0x3e1a4ff1	0.15069558
45	0xbe0a340c	-0.13496417
46	0xbec353e2	-0.38149935
47	0x3e25fa9a	0.16208878
48	0xbe9527e6	-0.29132003
49	0x3e259cbe	0.16173074
50	0x3ceb5d6c	0.02873107
51	0x3cd01c41	0.025404098
52	0x3e1f6670	0.1556642
53	0xbbcd580e	-0.0062666005
54	0x3e317467	0.1732956
55	0x3dddde0c	0.10833368
56	0x3de2cc4d	0.110741235
57	0xbc91880e	-0.017765071
58	0xbd05714c	-0.03257875
59	0xbe0a3e21	-0.13500263
60	0x3d88acbd	0.06673572
61	0x3e8de5a4	0.27714264
62	0xbe18382a	-0.14865175
63	0xbe9143b8	-0.28371978
64	0x3eca01b5	0.39454427
65	0x3dbf5ffd	0.0934448
66	0x3e732665	0.23745115
67	0x3e0e2e8e	0.13884947
68	0x3e420556	0.18947348
69	0x3e0eb59f	0.1393647
70	0xbe00ec87	-0.12590228
71	0x3dd83f5d	0.105589606
72	0xbd464f73	-0.048415612
73	0x3dc86b99	0.097861476
74	0xbe0575a0	-0.13033152
75	0xbdd48221	-0.103763826
76	0xbdb0c458	-0.086311996
77	0xbe207184	-0.15668303
78	0x3e84590c	0.25849187
79	0x3dbfcfed	0.093658306
80	0x3e05a14d	0.13049813
81	0xbc0aea50	-0.008478716
82	0x3e3b7225	0.18305261
83	0x3d4e1073	0.050308656
84	0x3e7b9730	0.24569392
85	0x3de54471	0.11194695
86	0x3e67c8e2	0.22635224
87	0x3db92f9b	0.09042283
88	0x3ea9dc19	0.33175734
89	0x3e09d517	0.13460194
90	0x3de6f20a	0.11276634
91	0xbe406bb8	-0.18791091
92	0x3e35d65d	0.17757554
93	0x3e1eb9f2	0.1550062
94	0x3dcad428	0.09903747
95	0x3e40ee37	0.18840872
96	0xbe8127d9	-0.25225714
97	0xbc6938f5	-0.014234771
98	0xbb6ef9d7	-0.0036464834
99	0x3e7ac62e	0.24489662
100	0x3dd49066	0.10379104
101	0xbce975bd	-0.028498525
102	0xbdaee5b2	-0.08539905
103	0x3da45236	0.08023493
104	0x3de919f3	0.113819025
105	0x3e0be242	0.1366053
106	0x3e25c69f	0.16189049
107	0x3e9a464a	0.3013175
108	0xbe689343	-0.22712426
109	0xbf07780f	-0.5291757
110	0x3cfb770a	0.03069641
111	0x3e0ae46a	0.13563696
112	0xbbfacdf9	-0.0076539484
113	0x3e485788	0.1956464
114	0xbe24a59c	-0.160788
115	0x3c78ea4a	0.015192578
116	0x3d8cf7f6	0.06883232
117	0x3e3e970b	0.18612306
118	0x3e274972	0.16336611
119	0xbe52b1e2	-0.2057567
120	0x3dc4efef	0.09616076
121	0x3da11568	0.07865411
122	0x3e59f103	0.21283345
123	0xbde9ce42	-0.11416294
124	0xbdb3298a	-0.08748157
125	0xbd597736	-0.053092204
126	0xbe135e53	-0.1439145
127	0x3e6d548d	0.23176785
128	0x3d17fd78	0.03710696
129	0xbd1aea9a	-0.03782139
130	0x3d96f67f	0.07371234
131	0xbbf3199e	-0.0074188253
132	0x3cbacf44	0.02280391
133	0xbc8de550	-0.017321259
134	0x3d8ff6dc	0.070295066
135	0xbcf833c1	-0.030298116
136	0x3d71c648	0.059026986
137	0x3b4a6d61	0.0030887949
138	0x3da45ce6	0.080255315
139	0x3d85d45b	0.06534644
140	0xbd465bcd	-0.04842739
141	0xb922bebb	-0.00015520577
142	0xbcecb723	-0.02889592
143	0x3cd4835c	0.025941543
144	0x3db28d6c	0.0871838
145	0xbd827357	-0.063696556
146	0x3cd35c02	0.025800709
147	0x3d829161	0.06375385
148	0x3d68ef03	0.056868564
149	0x3dae091e	0.08497833
150	0xbd901fe2	-0.07037331
151	0xbda1b3e0	-0.078956366
152	0x3dac98c4	0.08427575
153	0xbc95a7e8	-0.01826854
154	0x3c90eae9	0.017690139
155	0x3d8c36e5	0.06846408
156	0xbd006b98	-0.03135261
157	0x3c94f4e0	0.018183172
158	0xbbb86903	-0.0056277527
159	0x3d6ae982	0.057351597
160	0x3caf88fd	0.021427626
161	0x3d93d696	0.072186634
162	0xbcc19e43	-0.023635035
163	0x3cdf7249	0.027276175
164	0x3da50212	0.080570355
165	0xbd821ef7	-0.06353562
166	0xbd7143fa	-0.058902718
167	0x3d2415ad	0.040059734
168	0xbd63dbd0	-0.05562955
169	0xbd745dfb	-0.05965994
170	0xbdac6ea3	-0.0841954
171	0x3d4759ad	0.048669506
172	0x3d71a7b6	0.058997832
173	0x3d557d25	0.0521213
174	0xbd884450	-0.066536546
175	0xbd7f1a2c	-0.06228082
176	0xbcb65e6a	-0.022261817
177	0x3da8ea07	0.08247762
178	0xbd6ae8fd	-0.0573511
179	0x3d288cfe	0.041150086
180	0xbd950009	-0.07275397
181	0xbd863373	-0.06552782
182	0x3b39b29c	0.002833522
183	0xbd4375ef	-0.047719892
184	0x3d386b6e	0.045024328
185	0xbd53458f	-0.051580008
186	0x3ba0e827	0.004910487
187	0xbd95a51b	-0.07306882
188	0xbd4ce2c3	-0.050020944
189	0x3dafa4f4	0.08576384
190	0xbd91b045	-0.07113699
191	0x3d6c32c4	0.0576656
192	0xbacd35ca	-0.0015656289
193	0xbd86e3b5	-0.065864004
194	0x3c02a479	0.007973784
195	0xbdaa5632	-0.08317222
196	0x3d41e22b	0.04733483
197	0x3d792bd6	0.06083282
198	0x3d8eb944	0.0696893
199	0xbdb1babc	-0.08678195
200	0x3caaf4b2	0.020868633
201	0x3ca4a4bc	0.020098083
202	0xbda4a4ce	-0.080392465
203	0xbd1411a7	-0.036149647
204	0xbd0ab4ef	-0.033863958
205	0x3d10381c	0.03520976
206	0x3c536a70	0.012903795
207	0x3cb64862	0.022251312
208	0xbc805f84	-0.015670545
209	0xbbeb9ec5	-0.0071905577
210	0x3d17963e	0.037008516
211	0xbc29f41a	-0.01037314
212	0x3d58ccd8	0.05292973
213	0xbd7214ac	-0.059101745
214	0xbdb158c0	-0.08659506
215	0xbc3b518d	-0.011433017
216	0xbc39f021	-0.011348755
217	0xbbf8e35c	-0.0075954627
218	0x3d8bd5bd	0.06827877
219	0xbce9155c	-0.028452568
220	0xbd98c26e	-0.074589595
221	0xbd79acf0	-0.06095594
222	0x3c5e11c0	0.013554037
223	0xbd56f2df	-0.052477714
224	0x3cda3e35	0.02664099
225	0xbc715d55	-0.014731725
226	0x3daf3eee	0.08556925
227	0xbd0b0dd8	-0.03394875
228	0x3c407541	0.0117467055
229	0xbdac4417	-0.084114246
230	0xbd0c1fc2	-0.034209974
231	0xbdb2471d	-0.0870497
232	0x3c34b31a	0.011029029
233	0x3d84e009	0.06488044
234	0xbd6004c4	-0.054692045
235	0x3ce0d92a	0.027447302
236	0xbd85e240	-0.065372944
237	0xbc887543	-0.016657477
238	0x3d2fa1b4	0.04287882
239	0x3d1ed3bc	0.038776144
240	0x3d934ad2	0.07192005
241	0xbd71a501	-0.05899525
242	0x3cfe7f29	0.031066494
243	0x3d504270	0.05084461
244	0x3da2caa8	0.0794881
245	0xbdb4dd97	-0.088313274
246	0x3cb0aa6b	0.021565637
247	0xbd94658f	-0.07245933
248	0xbd07f5a7	-0.033193257
249	0xbd5c917b	-0.05384968
250	0x3d124e65	0.035719294
251	0xbdad47ea	-0.08460982
252	0x3d8538e3	0.06504991
253	0xbbe121fa	-0.0068705054
254	0x3ce2db8a	0.027692575
255	0x3d4fcee4	0.050734416

layers.1.bias f4 [128]
0	0x3d1868ba	0.03720925
1	0xbd7133ca	-0.05888728
2	0x3d42c603	0.04755212
3	0x3c2b74e9	0.010464885
4	0xbb9803c0	-0.004639119
5	0x3d81bac4	0.06334451
6	0x3bb35706	0.0054730205
7	0x3dccca17	0.09999483
8	0x3d7dc0fa	0.061951615
9	0x3e1178e7	0.14206277
10	0xbdc11fd7	-0.09429901
11	0x3e346ac3	0.17618851
12	0x3d8869ec	0.06660828
13	0x3c94e78a	0.018176813
14	0x3b287e77	0.0025710145
15	0x3ce562b1	0.028001161
16	0x3dec0b68	0.11525613
17	0x3cec41e1	0.028840007
18	0x3dee5e9c	0.11639139
19	0x3d969bad	0.073539115
20	0x3e98a554	0.29813635
21	0x3d8e08c9	0.069352694
22	0x3d8329b5	0.06404439
23	0x3e943f07	0.28954336
24	0x3e0ca7f0	0.13735938
25	0xbdb0cc72	-0.08632745
26	0x3d6c2de4	0.057660952
27	0x3e0f380d	0.13986225
28	0x3d9edd91	0.07757104
29	0x3d191ac0	0.037379026
30	0xbdbdc54e	-0.092661485
31	0x3b846281	0.004040063
32	0x3d89f297	0.067357235
33	0x3dd7e40f	0.105415456
34	0x3dd552e7	0.10416203
35	0x3c8e6dac	0.01738628
36	0x3c59e142	0.013298335
37	0x3ddc9313	0.1077024
38	0x3d7aa247	0.061189916
39	0x3e0ecb22	0.13944677
40	0xbc9ea7d1	-0.01936713
41	0x3d872446	0.065987155
42	0x3e3a03aa	0.1816546
43	0x3d5b322a	0.053514637
44	0xbcfaae6c	-0.030600749
45	0xbce2189b	-0.027599623
46	0xbdabfddb	-0.083980285
47	0xbd9d1f2c	-0.07671961
48	0x3c5e1425	0.0135546075
49	0xbdbac81e	-0.091202006
50	0x3d87ae78	0.06625074
51	0x3d7e4a35	0.062082488
52	0x3e7b4e99	0.24541701
53	0x3de76d99	0.11300201
54	0x3dbb76dd	0.09153531
55	0x3e2d0a66	0.16898498
56	0xbb96e683	-0.004605116
57	0x3d8ac920	0.06776643
58	0x3ddf6b5e	0.109091505
59	0x3d906031	0.07049597
60	0xbd165b07	-0.036707904
61	0x3dba3372	0.09091844
62	0x3d8b171e	0.06791519
63	0x3e3b6dae	0.18303558
64	0x3e07dd82	0.13268092
65	0x3e091869	0.13388218
66	0xbd1d686d	-0.038429666
67	0x3e276e09	0.16350569
68	0xbd5683b5	-0.0523717
69	0x3dfc8daa	0.12331708
70	0xbde44c97	-0.11147421
71	0xbadd2089	-0.0016870658
72	0xbd3d0bde	-0.046153896
73	0xbd773946	-0.060357355
74	0x3ca733e9	0.020410495
75	0x3dad151d	0.08451293
76	0xbe151ccb	-0.14561765
77	0x3bfe15ae	0.0077540493
78	0x3dd70b2d	0.105001785
79	0xbd212367	-0.039340403
80	0x3e3f89e7	0.1870495
81	0x3d36aadf	0.04459655
82	0xbc2c35e9	-0.0105109
83	0xbd087bfb	-0.033321362
84	0x3d072bf3	0.033000898
85	0x3d521642	0.051290758
86	0x3d3c3120	0.045945287
87	0xbd80897b	-0.06276222
88	0x3d611adc	0.054957256
89	0x3d0c86b3	0.034308147
90	0x3cfb97ca	0.030712027
91	0xbdcdd3c7	-0.10050159
92	0x3d4fbd24	0.050717488
93	0x3d1b4465	0.037907023
94	0xbd4b5e5a	-0.049650528
95	0x3e25a506	0.16176233
96	0xbc92fd58	-0.01794307
97	0x3d8835bc	0.06650874
98	0x3e07a868	0.13247836
99	0x3d848556	0.06470744
100	0xbb9e2d88	-0.004827205
101	0x3df1419c	0.11780092
102	0x3ea842e7	0.32863542
103	0x3e1a315b	0.1505789
104	0xbd90e9e0	-0.07075858
105	0x3da08f10	0.07839787
106	0xbd4db6af	-0.05022305
107	0xbdb7012e	-0.08935772
108	0x3dfdbfc8	0.12390095
109	0x3dac5c9a	0.084161
110	0x3db606a7	0.088879876
111	0x3dac208e	0.08404647
112	0xbcafff18	-0.021483943
113	0xbe1572fc	-0.14594644
114	0x3d0a8b08	0.033823997
115	0x3e15302d	0.14569159
116	0x3d8f4055	0.06994692
117	0x3e7cbbd9	0.24681033
118	0xbb8e6599	-0.0043456075
119	0x3c2aef36	0.010433009
120	0x3d1e7a06	0.03869059
121	0x3db649db	0.089008056
122	0x3dd9a7b5	0.10627691
123	0xbdf3a9f4	-0.1189765
124	0x3d3d3d45	0.04620101
125	0x3dcc3ca6	0.09972505
126	0x3c8f2c1e	0.017477091
127	0xbdb92dff	-0.09041976

layers.3.weight f4 [128, 128]
0	0x3e246a76	0.16056237
1	0x3d807d79	0.06273932
2	0xbe74950a	-0.23884979
3	0x3d9a84b6	0.07544844
4	0x3cac88bb	0.021061292
5	0x3e0fb755	0.1403478
6	0x3d7f6690	0.06235367
7	0x3dafbd85	0.0858107
8	0x3d5b9b6a	0.05361501
9	0xbd183c44	-0.03716685
10	0xbcc1fbd9	-0.02367966
11	0x3dc82efa	0.09774585
12	0x3d8cf416	0.06882493
13	0x3c2e800a	0.010650644
14	0x3c67fc7a	0.014159316
15	0x3e9a52f3	0.3014141
16	0xbd10e444	-0.03537394
17	0x3e1aaa20	0.1510396
18	0xbdf6086d	-0.12013326
19	0x3d802709	0.06257445
20	0xbc7b825e	-0.015350906
21	0xbd1d5152	-0.03840763
22	0x3d06c437	0.03290197
23	0x3bf323ce	0.0074200397
24	0xbd73dd77	-0.059537377
25	0xbd9abb44	-0.07555249
26	0xbd3dd8db	-0.046349388
27	0x3daf20aa	0.08551152
28	0xbda93d30	-0.08263624
29	0xbd2fffeb	-0.04296867
30	0xbe981832	-0.2970596
31	0x3e52d181	0.20587732
32	0x3dc96315	0.098333515
33	0x3dacdec1	0.084409244
34	0x3d5217fc	0.051292405
35	0xbcfeb05f	-0.03108996
36	0xbe503d69	-0.20335926
37	0x3b16a332	0.0022985456
38	0x3c86b13a	0.01644193
39	0x3dd2e8be	0.10298298
40	0x3d91cb0b	0.071188055
41	0xbd892a59	-0.0669753
42	0x3d8a42cf	0.06751024
43	0x3d0719b7	0.032983508
44	0x3d1876d6	0.037222706
45	0x3d1e65d3	0.038671326
46	0x3cf2c4fc	0.029634945
47	0xbde79e3a	-0.11309476
48	0xbd127484	-0.03575565
49	0x3e819b74	0.25313914
50	0x3d72df95	0.059295256
51	0x3da923c6	0.08258776
52	0x3dcc5cbe	0.09978627
53	0xbd072a56	-0.03299936
54	0x3d9d5d12	0.076837674
55	0x3df70184	0.12060836
56	0xbe29b457	-0.165727
57	0x3c2b4b45	0.010454957
58	0x3da2c013	0.079467915
59	0x3e1c8677	0.1528567
60	0x3dc42e9c	0.095792025
61	0x3ca133e1	0.019678058
62	0x3d853d39	0.06505818
63	0x3d0b9bff	0.034084316
64	0x3bcb9cd0	0.006213762
65	0x3bd022b0	0.0063517913
66	0x3df9e512	0.12201895
67	0x3d89d583	0.06730177
68	0x3c7ce9ac	0.015436571
69	0x3e01ad72	0.1266382
70	0xbc71fa45	-0.014769142
71	0x3db2e940	0.08735895
72	0x3d009f7a	0.03140209
73	0xbe1c566f	-0.15267347
74	0xbb3d7693	-0.0028909787
75	0x3eb25934	0.34833682
76	0x3b8f053a	0.0043646367
77	0x3eb1326c	0.3460878
78	0x3d6f5ad7	0.05843624
79	0xbdcfa5d7	-0.10139053
80	0x3d564574	0.05231233
81	0x3d805ab0	0.06267297
82	0x3e991d49	0.29905155
83	0x3e85fcb0	0.26169348
84	0xbe59ef2b	-0.21282642
85	0x3d32036c	0.043460295
86	0xbd1e75aa	-0.038686432
87	0x3e9f4478	0.31106925
88	0x3e85467a	0.26030332
89	0x3d028d27	0.031872895
90	0x3c33e260	0.010979265
91	0xbe451ec2	-0.19250014
92	0x3d007192	0.03135831
93	0xbbf215dc	-0.0073878597
94	0x3dc6e35f	0.09711336
95	0x3c2fc92b	0.0107291145
96	0xbe3a813e	-0.18213364
97	0x3d0ff187	0.035142448
98	0xbd8103be	-0.06299542
99	0xbdabb8d9	-0.08384866
100	0x3cfac3f3	0.030611014
101	0x3cd14090	0.025543481
102	0x3e255f3d	0.16149612
103	0x3e608713	0.21926527
104	0x3d38b1ab	0.045091312
105	0x3e973ebf	0.2954006
106	0xbd88d249	-0.06680734
107	0xbe3f270c	-0.18667239
108	0x3d883ebc	0.06652591
109	0x3d14fd19	0.036374185
110	0xbca489c8	-0.02008523
111	0x3cc3b495	0.02388982
112	0x3ceb20ca	0.028702158
113	0x3e769db8	0.24083602
114	0x3da4108b	0.08010968
115	0x3dbb92f0	0.091588855
116	0x3edb13be	0.427885
117	0x3d78bc65	0.060726542
118	0x3e5a12fe	0.21296307
119	0xbc8f3671	-0.017482014
120	0xbdfd9682	-0.12382223
121	0xbc204da3	-0.009784135
122	0x3ddfc5be	0.10926388
123	0xbe1a73c7	-0.15083228
124	0x3de5ec13	0.11226668
125	0xbd87f6fb	-0.06638905
126	0xbd32133e	-0.043475382
127	0xbda04565	-0.07825736
128	0xbe4d583a	-0.20053187
129	0xbb472e00	-0.0030392408
130	0xbe844aed	-0.25838414
131	0x3e8a0ad4	0.26961386
132	0x3f16fab9	0.5897632
133	0x3e146778	0.14492595
134	0x3caca7d6	0.021076124
135	0x3e9fa29a	0.31178743
136	0x3e193044	0.14959818
137	0xbdf439ae	-0.11925064
138	0xbcfe5405	-0.031045923
139	0xbb8c11a9	-0.004274566
140	0xbd6c139a	-0.05763588
141	0x3e5a93c9	0.21345438
142	0xbdc9a201	-0.09845353
143	0xbde9df70	-0.114195704
144	0x3ea59e07	0.32347128
145	0xbe5209cd	-0.20511551
146	0xbd515f32	-0.051116176
147	0x3c868089	0.016418712
148	0xbda72904	-0.0816212
149	0x3d2febc8	0.042949468
150	0x3e1dbfee	0.15405247
151	0x3d886728	0.066603005
152	0xbd3346c4	-0.04376866
153	0xbda0cd67	-0.078516774
154	0x3db31a7e	0.08745287
155	0xbd9131c7	-0.070895724
156	0x3d2de533	0.04245491
157	0xbda847ab	-0.082167946
158	0x3d32cac7	0.043650415
159	0x3d354312	0.044253416
160	0xbd4c8ed6	-0.049940906
161	0xbd1f05c2	-0.03882385
162	0x3e864ec0	0.26231956
163	0x3d3a2680	0.045446873
164	0xbdf9d583	-0.12198927
165	0xbdf0164e	-0.11723004
166	0xbd105492	-0.035236903
167	0x3d303974	0.04302354
168	0x3e38bc8e	0.18040678
169	0x3eb529e7	0.3538353
170	0x3ca75f88	0.020431295
171	0xbc91c348	-0.017793313
172	0xbda0ef18	-0.078581035
173	0x3e867ab0	0.26265478
174	0xbd8b2132	-0.06793441
175	0xbe012bde	-0.1261439
176	0x3e2dc4a4	0.16969544
177	0x3cf4be14	0.029875793
178	0x3e6ee13f	0.23328112
179	0xbdaf84c1	-0.08570243
180	0xbd423584	-0.047414318
181	0xbda3b662	-0.07993771
182	0x3e5534e4	0.20820957
183	0x3e2d241f	0.1690831
184	0x3df6aaf8	0.120443285
185	0x3d2cd854	0.042198494
186	0xbcf2690b	-0.029591104
187	0x3ced2e04	0.028952606
188	0x3e4d9ae4	0.20078617
189	0xbd6d705f	-0.057968494
190	0x3e11b5c6	0.14229497
191	0x3ca26cf6	0.019827347
192	0xbd7bfd48	-0.061520845
193	0x3db87655	0.09006945
194	0x3d54270a	0.051795043
195	0xbd035482	-0.032063015
196	0xb9187f12	-0.00014543187
197	0x3e5af845	0.2138377
198	0xbf137952	-0.57606995
199	0xbdfaec76	-0.122521326
200	0x3da6aeb3	0.0813879
201	0x3e292e13	0.16521482
202	0xbf076dec	-0.529021
203	0xbcc423d8	-0.023942873
204	0x3cf1c7b8	0.029514179
205	0x3edde87f	0.43341443
206	0x3e0a7203	0.13520055
207	0xbd86f7e6	-0.065902516
208	0x3d663035	0.056198318
209	0xbd938e91	-0.07204927
210	0x3c12125c	0.00891551
211	0xbcd6be3a	-0.026213754
212	0x3e7bbf2d	0.24584647
213	0x3e000232	0.12500837
214	0x3e4fa951	0.20279433
215	0x3ea478d1	0.32123426
216	0x3e3e71b1	0.18598057
217	0xbc8d2dd9	-0.017233776
218	0xbe653c00	-0.2238617
219	0xbf0fbe56	-0.56149805
220	0x3d676931	0.056496803
221	0x3d30c92d	0.043160606
222	0x3e44ac3b	0.19206326
223	0xbde39978	-0.11113256
224	0x3c754ca8	0.01497189
225	0x3e5046ac	0.20339459
226	0x3e94d0b8	0.2906549
227	0xbbc7799a	-0.006087494
228	0x3c133a13	0.008986014
229	0x3de8b1d7	0.11362045
230	0x3d9aebf7	0.07564538
231	0x3d962bb3	0.07332554
232	0xbdff6029	-0.12469513
233	0xbda08e5e	-0.078396544
234	0x3d8b59b4	0.06804219
235	0xbe2c2d37	-0.16814123
236	0x3e6fc862	0.23416284
237	0x3e722082	0.23645213
238	0x3e2abd81	0.16673853
239	0x3e3df4ff	0.1855049
240	0x3e7b587a	0.2454547
241	0xbcf0655a	-0.029345203
242	0x3e035349	0.1282474
243	0x3e04fc5e	0.12986895
244	0x3e9f736e	0.31142753
245	0xbbb9ac0c	-0.0056662615
246	0xbddc6b10	-0.10762608
247	0x3e489c27	0.19590817
248	0xbd2f517e	-0.042802326
249	0x3ef8f5a5	0.48624912
250	0xbd33217b	-0.0437331
251	0x3d74f98b	0.059808295
252	0xbdea7ea4	-0.11449936
253	0x3e04a7ad	0.12954588
254	0xbd89d04a	-0.06729181
255	0x3d750ad2	0.059824772

layers.3.bias f4 [128]
0	0x3c483cd6	0.012221536
1	0x3d5ea5e4	0.054357424
2	0xbd94d3a7	-0.07266932
3	0x3d191139	0.03736994
4	0x38041b21	3.149652e-05
5	0x3dda8222	0.10669352
6	0xbd106bc2	-0.035259016
7	0x3d8581ab	0.06518873
8	0xbd740194	-0.059571818
9	0xbc4f7e4c	-0.012664389
10	0xbc4477e8	-0.0119914785
11	0xbdd8c076	-0.10583584
12	0x3e52fa47	0.20603286
13	0x3dbbdc79	0.09172911
14	0x3dbc5d32	0.09197463
15	0xbda8b868	-0.08238298
16	0xbd92352d	-0.07139049
17	0x3e0a0a79	0.13480558
18	0x3ddb2e6a	0.10702212
19	0x3df26925	0.11836461
20	0x3d9b6a1f	0.075886
21	0x3de4860d	0.11158381
22	0xbda0960c	-0.07841119
23	0xbd823b3d	-0.06358955
24	0x3e418d17	0.18901478
25	0xbcb6cce1	-0.02231449
26	0x3d83c845	0.06434683
27	0x3de49ad0	0.11162341
28	0xbcbbc35f	-0.022920309
29	0x3dbbd25c	0.09170982
30	0x3e1779d2	0.14792565
31	0xbd8cd6da	-0.06876917
32	0xbd93d981	-0.0721922
33	0xbcbe6a3a	-0.023244012
34	0x3d9618aa	0.07328923
35	0xbe177287	-0.14789782
36	0x3e077b03	0.13230519
37	0x3e1e05be	0.15431878
38	0xbd644107	-0.055726077
39	0x3de7689c	0.112992495
40	0x3dd0cb4e	0.10195027
41	0x3dab08c8	0.08351284
42	0x3e488858	0.19583261
43	0x3aaa42fa	0.0012989931
44	0x3d775c75	0.06039091
45	0xbc1340b0	-0.008987591
46	0xbd899514	-0.067178875
47	0xbc8edeb6	-0.017440181
48	0x3e3a476a	0.18191305
49	0x3da8fa72	0.08250894
50	0x3e115312	0.14191845
51	0x3d3a1c55	0.045437176
52	0xbb4ca625	-0.003122696
53	0x3e1932f4	0.14960843
54	0x3e0e96c8	0.13924706
55	0x3c8bd92e	0.017071333
56	0x3dec7099	0.11544914
57	0xbda26f9c	-0.07931444
58	0x3c977842	0.01848996
59	0x3dcdeffd	0.1005554
60	0x3d621726	0.055197857
61	0xbd18e193	-0.0373245
62	0x3d78b759	0.06072173
63	0xbdb04d15	-0.08608452
64	0x3d82c6df	0.06385588
65	0x3ca35755	0.019939104
66	0x3e0ee0fe	0.13953015
67	0x3da98edc	0.082792014
68	0x3c45ba10	0.012068287
69	0x3ca5e441	0.020250442
70	0x3dc49855	0.095993675
71	0x3d9ec697	0.07752722
72	0x3d428e6b	0.0474991
73	0x3de2702b	0.110565506
74	0x3d397fc2	0.045287855
75	0xbdfb6ea2	-0.12276961
76	0x3dcff2b9	0.101537175
77	0x3db4aa66	0.088215634
78	0x3dc9b75d	0.09849427
79	0x3ccbe3aa	0.024888832
80	0xbd169a9a	-0.036768533
81	0x3dd53fbc	0.10412547
82	0x3cc4388c	0.023952745
83	0x3df65481	0.120278366
84	0x3dc05f65	0.09393195
85	0x3e1ee322	0.15516332
86	0x3e5c5fc2	0.21520904
87	0x3c9bf5ca	0.0190381
88	0xbd260eda	-0.040541507
89	0x3da18158	0.078859985
90	0xbe1bde6e	-0.15221569
91	0x3d9e85ae	0.07740341
92	0x3d8dbb30	0.06920469
93	0x3d3cf2a7	0.04612985
94	0x3d3cb27a	0.046068646
95	0x3e1a4e48	0.15068924
96	0x3dbacaa3	0.09120681
97	0xbd3797bf	-0.04482245
98	0x3e63c549	0.22243227
99	0x3e0ef542	0.13960746
100	0x3de431bb	0.11142298
101	0x3db5152a	0.08841927
102	0xbc7cde7c	-0.015433904
103	0xbdcca0d3	-0.09991612
104	0x3c7a840c	0.0152902715
105	0x3e2ee104	0.17078024
106	0x3dd5c500	0.104379654
107	0x3ceae9a6	0.028675865
108	0x3c19f857	0.009397588
109	0x3e3934d3	0.18086557
110	0xbc32abb3	-0.010905194
111	0x3d086799	0.033301923
112	0x3df08791	0.11744607
113	0x3d80bfef	0.062866084
114	0x3e1b5536	0.15169224
115	0x3d8da258	0.0691573
116	0xbe1846d7	-0.14870773
117	0x3b5f6c52	0.0034091664
118	0x3d9b6809	0.075882025
119	0x3e053ee2	0.13012269
120	0xbe1fc8a6	-0.15603885
121	0xbd9283de	-0.07154058
122	0x3e0cad51	0.1373799
123	0x3d6fb568	0.05852261
124	0xb8fe856a	-0.00012136514
125	0xbd0c473c	-0.034247622
126	0xbcf7cf23	-0.030250138
127	0x3d2af8e5	0.04174127

layers.5.weight f4 [4, 128]
0	0x3dbb6155	0.09149424
1	0x3d619e20	0.05508244
2	0x3e081dc2	0.13292602
3	0xbf100f03	-0.56272906
4	0x3e5baa6f	0.21451734
5	0x3db6acaf	0.089196555
6	0x3ee6120f	0.44935653
7	0xbd7b6ecd	-0.061384965
8	0xba3d6631	-0.00072250055
9	0xbd76cdef	-0.060254987
10	0xbf1edcbb	-0.6205556
11	0x3f4ccbe8	0.79998636
12	0xbee204d8	-0.4414432
13	0xbe5ff84c	-0.21872061
14	0x3e6c008d	0.23047085
15	0xc01f9300	-2.4933472
16	0xbed470c9	-0.41492298
17	0x3d1b6968	0.03794232
18	0x3cfb03df	0.030641494
19	0xbb6bbfd8	-0.0035972502
20	0x3e4cdc54	0.20005924
21	0xbdd749b0	-0.10512102
22	0xbca17b81	-0.019712212
23	0xbf4146ba	-0.75498545
24	0xbd8501e2	-0.064945
25	0x3e53260f	0.20619987
26	0xbe0825d8	-0.13295686
27	0x3dc5c402	0.09656526
28	0x3e69dec5	0.22838886
29	0x3e3ed1d6	0.18634734
30	0x3e7e54e6	0.24837074
31	0x3d248bdf	0.040172454
32	0xbf1a43db	-0.6025979
33	0x3dc910c0	0.09817648
34	0xbd79b513	-0.0609637
35	0xbe45ef13	-0.19329481
36	0x3bf31b02	0.007418991
37	0xbde2214a	-0.11041506
38	0x3f4a394b	0.7899367
39	0xbe8e0e10	-0.27745104
40	0xbe22da60	-0.15903616
41	0x3d706bf5	0.058696706
42	0xbdea4bec	-0.11440262
43	0xbdf44951	-0.119280465
44	0x3d8c95e1	0.06864525
45	0x3da0e8b6	0.07856886
46	0xbe647e29	-0.22313751
47	0x3cdac831	0.026706787
48	0xbda84bfa	-0.082176164
49	0x3cc1e40a	0.023668308
50	0xbfccffc5	-1.6015555
51	0xc0094d65	-2.1453488
52	0xba9215e7	-0.0011145443
53	0x3d816217	0.06317537
54	0x3e46b4f4	0.19404966
55	0x3e0125d2	0.12612084
56	0xbe52c10f	-0.20581459
57	0x3d1f88b0	0.038948715
58	0x3e90043d	0.28128234
59	0xba39495c	-0.00070681213
60	0xbd137960	-0.036004424
61	0x3dc7e3d6	0.09760253
62	0x3e34ed2b	0.17668597
63	0x3d00f49d	0.03148328
64	0x3e162d5d	0.14665742
65	0xbee93db2	-0.45554882
66	0x3d316e29	0.043317948
67	0x3ed9c34b	0.4253181
68	0x3e64d7e0	0.22347975
69	0xc0166c1b	-2.3503482
70	0x3decb6e9	0.11558325
71	0x3ed8ba92	0.42329842
72	0x3e07523d	0.13214965
73	0x3d03b324	0.032153264
74	0x3e25b886	0.16183671
75	0x3ee612d8	0.44936252
76	0x3d98233f	0.07428598
77	0x3e42a4ff	0.19008254
78	0x3da59970	0.080859065
79	0x3ec4af0a	0.38414794
80	0xbc5318c3	-0.012884322
81	0x3e3a6a1c	0.1820454
82	0x3e5ea8b3	0.21744041
83	0xbe0385b3	-0.12843971
84	0x3e09417d	0.13403888
85	0x3d0dd48f	0.03462654
86	0xbeb5f966	-0.35541838
87	0xbfe03137	-1.7515019
88	0xbea7c0cc	-0.3276428
89	0x3dcff6c5	0.101544894
90	0xbe08b08a	-0.13348594
91	0xbfe41819	-1.7819854
92	0x3e02a7ff	0.12759398
93	0x3e7a793a	0.24460307
94	0x3ba40816	0.0050058467
95	0xbf078d7f	-0.5295028
96	0x3dc52a69	0.0962723
97	0xbf5fcd79	-0.874229
98	0x3e8b15e4	0.2716514
99	0xbc2ceac7	-0.010554022
100	0x3e30b7f6	0.17257676
101	0xbed8d3aa	-0.42348987
102	0x3dd84487	0.105599456
103	0xc04b1b78	-3.1735516
104	0x3f0ecc54	0.5578053
105	0xbc4ebf3e	-0.012618838
106	0x3e96e972	0.2947498
107	0xbf367f87	-0.7128834
108	0xbddc12b9	-0.107457586
109	0x3e7ff5bb	0.24996082
110	0xbf842802	-1.032471
111	0xbfd14b46	-1.6351097
112	0xbd746f34	-0.059676364
113	0x3c9a090e	0.018803146
114	0xbd712c34	-0.058880046
115	0xbdf2a42a	-0.11847718
116	0xbec190d4	-0.37805808
117	0x3db9ccf9	0.090722986
118	0xbc6a45ec	-0.014298897
119	0x3ca217be	0.019786712
120	0x3cd894cc	0.02643814
121	0x3d61f41e	0.05516445
122	0xbf18dd31	-0.5971251
123	0xbe6f29a4	-0.23355728
124	0xc00aa170	-2.1661034
125	0xbc43e6c1	-0.0119568715
126	0xbbae580e	-0.0053205555
127	0xbfce9425	-1.613896
128	0xbe85751c	-0.2606591
129	0x3e427adb	0.18992178
130	0xbee36b54	-0.44417822
131	0x3f481ada	0.7816597
132	0xbd101ff0	-0.035186708
133	0xbd2ada39	-0.04171202
134	0xbe3f2235	-0.18665393
135	0x3d1d9157	0.038468685
136	0x3e387fb7	0.1801747
137	0x3d2337bb	0.03984807
138	0xbdda043c	-0.10645339
139	0xbea5a29b	-0.3235062
140	0x3f9258bf	1.1433333
141	0x3f86808b	1.0507978
142	0xbe857668	-0.260669
143	0xbd11ca51	-0.035593335
144	0xbe377e77	-0.17919336
145	0xbf28516c	-0.6574924
146	0x3ef6b4f0	0.4818492
147	0x3f2fb8d7	0.6864142
148	0xbda96a69	-0.08272249
149	0xbf075aad	-0.52872735
150	0xbd4e268c	-0.05032973
151	0xbccfb767	-0.025356008
152	0x3f2e8681	0.68173987
153	0x3e2ae8dd	0.16690393
154	0x3e889c07	0.2668154
155	0xbddac720	-0.10682511
156	0x3de54f41	0.11196757
157	0xbdb8cfc3	-0.090240024
158	0xbf9deb9d	-1.2337528
159	0x3d1317fa	0.035911538
160	0xbe5b4e69	-0.2141663
161	0x3ee98cac	0.45615137
162	0x3c9e1257	0.019295854
163	0x3f54a524	0.83064485
164	0xbed20bf1	-0.41024736
165	0xbf5105f9	-0.8164974
166	0xbedc28fa	-0.43000013
167	0x3e8f615e	0.28003973
168	0xbfb31c3e	-1.3992994
169	0x3d9fa3e8	0.077949345
170	0xbf841347	-1.0318383
171	0x3e19fb83	0.1503735
172	0x3e94e6b9	0.29082277
173	0x3e81b0bd	0.25330153
174	0xbe034f1a	-0.12823144
175	0x3e446a32	0.19181135
176	0xbecadbf8	-0.39620948
177	0xbf434979	-0.76283985
178	0x3e2c7032	0.16839674
179	0x3be1debb	0.0068930066
180	0x3eab9d53	0.33518466
181	0xbf2aa879	-0.6666332
182	0x3ca4c94d	0.020115519
183	0x3e0857f1	0.13314797
184	0x3d982e83	0.074307464
185	0x3d26ab3f	0.040690657
186	0x3ef16531	0.47147515
187	0x3e3faaf4	0.18717557
188	0xbe5c6c50	-0.21525693
189	0x3ea19ff4	0.31567347
190	0xbe4a546f	-0.19758771
191	0xbd6cdd5f	-0.057828303
192	0x3d01ec5c	0.03171955
193	0x3e0b6db2	0.13616064
194	0x3f5a5d76	0.8529886
195	0x3f2fd0fb	0.68678254
196	0x3e55f866	0.20895538
197	0x3c346c7e	0.011012195
198	0x3ea66fdd	0.3250722
199	0xbf53696a	-0.82582724
200	0x3e4f32cb	0.2023422
201	0x3eada615	0.33915773
202	0x3e09b0cc	0.13446349
203	0xbf183d23	-0.5946829
204	0xbeb3b549	-0.35099247
205	0xbeb6bb3d	-0.35689726
206	0x3eb99af8	0.36251044
207	0xbf19fb3d	-0.60148984
208	0xbd2faa61	-0.042887095
209	0x3cf24ec5	0.029578576
210	0xbe1aaa75	-0.15104087
211	0x3e8aa3c0	0.27078056
212	0xbf348dd1	-0.70528895
213	0xbf0de22e	-0.5542325
214	0x3f6b158d	0.9182976
215	0xbce16b22	-0.027516905
216	0xbc6dbe54	-0.01451071
217	0x3d74e531	0.059788886
218	0x3f6de516	0.9292768
219	0xbf8ba6aa	-1.0910237
220	0x3d942476	0.07233517
221	0xbea34381	-0.3188744
222	0xbead9611	-0.33903554
223	0xbf3e0aea	-0.74235404
224	0xbf15504b	-0.5832564
225	0x3f8fbbaa	1.1229146
226	0xbecc3bd0	-0.39889383
227	0xbf4f7061	-0.8103085
228	0x3dc3f531	0.09568251
229	0xc021b2cc	-2.526538
230	0x3e47558e	0.1946623
231	0x3d2ccbba	0.042186476
232	0xbe42b841	-0.190156
233	0xbeb45189	-0.35218456
234	0xbe50d8a0	-0.20395136
235	0x3f40c0e8	0.7529435
236	0xbd1e2469	-0.038608942
237	0xbe4afa1a	-0.19821969
238	0x3f96457d	1.1739956
239	0x3c8643f7	0.01638983
240	0xbebf99fe	-0.37422174
241	0xbefd366e	-0.4945559
242	0xbf3ead76	-0.7448343
243	0x3e94b498	0.29044032
244	0xbfca551c	-1.5807223
245	0x3b8d192d	0.0043059797
246	0xbe8e4bb1	-0.27792123
247	0xbf0ad489	-0.5423055
248	0xbff19d5b	-1.8876146
249	0x3e564370	0.20924163
250	0xbdc920c3	-0.09820702
251	0xbf3998b6	-0.72498643
252	0x3cca9c9f	0.024732886
253	0x3e67f8d0	0.22653508
254	0x3d3d4088	0.04620412
255	0x3ea8e89f	0.32989976

layers.5.bias f4 [4]
0	0x3ccf4834	0.025302984
1	0xbe3864f0	-0.18007255
2	0x3d93990d	0.072069265
3	0x3c547c8d	0.012969148
