model_zoo/GAIL/LunarLander-v2/critic_10000.pth (torch, 140233 bytes, 7 tensors)

layers.0.weight f4 [128, 8]
0	0xbf8750d3	-1.057154
1	0xbec473ab	-0.38369498
2	0x3ebae8fa	0.36505872
3	0xbe0726d8	-0.13198411
4	0x3d7f2ed0	0.062300503
5	0xbebf654e	-0.37381977
6	0xbdc58e8a	-0.09646328
7	0x3e5f8cde	0.2183108
8	0x3f217414	0.63067746
9	0x3e52abef	0.205734
10	0xbe9486e7	-0.29009172
11	0x3f0aba0b	0.5419013
12	0xbe64512d	-0.22296591
13	0xbc8b0f0a	-0.016974945
14	0xbe344498	-0.17604291
15	0x3e251700	0.16122055
16	0xbf81f010	-1.0151386
17	0xbe5fd609	-0.21858992
18	0x3e882076	0.26587266
19	0x3ed4f97d	0.41596594
20	0xbef43c17	-0.47702095
21	0xbe7ebc73	-0.24876575
22	0xbdd7390a	-0.10508926
23	0x3dc3366a	0.09531863
24	0xbedebc54	-0.43503058
25	0x3e0761ce	0.13220903
26	0xbf5f07ce	-0.87121284
27	0xbec7c525	-0.39017597
28	0xbef27141	-0.4735203
29	0x3d9236bf	0.07139348
30	0xbddfe28e	-0.10931884
31	0x3d84231c	0.06452009
32	0xbf13bcdb	-0.57710046
33	0xbeffa037	-0.49926922
34	0xbecda1f7	-0.40162632
35	0xbc469312	-0.012120025
36	0x3b7187fc	0.0036854735
37	0xbe2b0186	-0.166998
38	0x3e64f4ad	0.22358961
39	0xbe48c6f7	-0.19607149
40	0xbec591eb	-0.3858789
41	0xbf01b5ff	-0.5066833
42	0xbef0f30e	-0.47060436
43	0xbe8a036d	-0.2695574
44	0x3e6f6ab5	0.23380549
45	0xbe69146f	-0.22761701
46	0xbe4356e0	-0.19076109
47	0x3de24895	0.11049
48	0xbe8c8b59	-0.27450064
49	0xbecf3805	-0.40472427
50	0x3ef84fd0	0.48498392
51	0x3edf9dbe	0.43675035
52	0xbf03686c	-0.5133121
53	0xbdbe1630	-0.09281576
54	0xbe5a337c	-0.21308702
55	0x3e6350bc	0.22198766
56	0x3f08be9c	0.53415847
57	0xbeb24003	-0.34814462
58	0xbc7cbbc7	-0.015425629
59	0xbeee571a	-0.46550828
60	0x3f1374ad	0.5759991
61	0xbe631b38	-0.22178352
62	0x3d2bfb24	0.041987553
63	0x3e966497	0.2937362
64	0xbf643e05	-0.89157134
65	0x3d874fd0	0.0660702
66	0xbf6e5852	-0.93103516
67	0x3d81bad0	0.0633446
68	0xbef0747b	-0.46963868
69	0xbe453257	-0.19257484
70	0x3e934b2f	0.28768298
71	0xbd6c93be	-0.057758085
72	0x3d89f0ad	0.067353584
73	0xbe719fb5	-0.2359608
74	0xbf2d3816	-0.67663705
75	0xbdcd3ab8	-0.10020965
76	0x3f0b857c	0.54500556
77	0x3eaf9b7a	0.34298307
78	0x3c95aa80	0.018269777
79	0x3cc73b05	0.024320135
80	0xbe98733b	-0.29775414
81	0xbeaca8e6	-0.3372261
82	0x3c87d05d	0.016578848
83	0x3e7fe0e3	0.24988131
84	0x3ed146be	0.40874285
85	0xbd00ba67	-0.031427767
86	0xbe0ee2dc	-0.13953727
87	0xbde905c8	-0.11378056
88	0xbf515fbe	-0.81786716
89	0xbee10e85	-0.4395639
90	0xbee70cb3	-0.45126876
91	0xbdd08274	-0.10181132
92	0xbe4fb462	-0.20283654
93	0xbe2bac0f	-0.16764854
94	0x3dde7f53	0.10864129
95	0xbd3552de	-0.04426848
96	0x3f2b1449	0.6682783
97	0x3beb3a30	0.0071785673
98	0x3ed23bcc	0.41061246
99	0x3e83617c	0.25660312
100	0x3f40f667	0.7537598
101	0x3e9a27d6	0.30108517
102	0x3d1620f0	0.036652505
103	0x3da9fffe	0.0830078
104	0xbf62b892	-0.8856288
105	0x3ddea5ee	0.10871492
106	0x3ed55cc7	0.41672346
107	0x3eb7b1a7	0.35877725
108	0x3f878dea	1.0590184
109	0x3d87e318	0.066351116
110	0x3c094332	0.008377837
111	0x3d4f5413	0.05061729
112	0xbfa69ead	-1.3017174
113	0x3d47f545	0.04881789
114	0xbda7981c	-0.081833094
115	0xbe2fa592	-0.17153004
116	0x3e73957a	0.2378749
117	0xbc1fcc33	-0.009753275
118	0xbb55feff	-0.003265321
119	0x3e0af8b2	0.13571432
120	0x3ec40bc8	0.38290238
121	0x3f45a2fc	0.7720182
122	0xbc895835	-0.016765693
123	0xbec1024d	-0.37697068
124	0xbdfdac64	-0.123863965
125	0xbda007df	-0.07814001
126	0x3b9df1c5	0.004820081
127	0x3d41c463	0.04730643
128	0x3fa1a46c	1.2628303
129	0xbd80ed3e	-0.0629525
130	0x3ef7b88d	0.4838299
131	0xbe8ae784	-0.27129757
132	0xbf18e132	-0.5971862
133	0xbe6f7eb5	-0.23388179
134	0xbcd5c1f9	-0.02609347
135	0xbe1e94b4	-0.15486413
136	0x3f4ca307	0.7993626
137	0x3f08fe46	0.5351299
138	0x3e8bc8fa	0.2730177
139	0x3e6b7bf2	0.229965
140	0xbd21f945	-0.039544363
141	0xbe8b5f56	-0.27221173
142	0xbcd8553c	-0.02640783
143	0x3e998ec2	0.29991728
144	0xbdedc2b0	-0.11609399
145	0x3f39cd03	0.7257845
146	0x3e897484	0.26846707
147	0xbdab54d7	-0.08365791
148	0x3e6cb9fe	0.23117825
149	0x3d4dd150	0.050248444
150	0x3c4ef4d8	0.0126316175
151	0x3e9c72fb	0.30556473
152	0xbe11c08e	-0.1423361
153	0xbee62c5d	-0.44955721
154	0xbf1d1a61	-0.61368376
155	0x3e2371c8	0.15961373
156	0xbe7b237b	-0.24525253
157	0xbe8bfcab	-0.27341208
158	0xbe3d0192	-0.1845763
159	0x3e76608f	0.24060272
160	0x3de00b1b	0.10939618
161	0x3f0a8f5b	0.54124993
162	0x3e8b5946	0.27216548
163	0x3f00096f	0.50014395
164	0x3d56a492	0.05240304
165	0x3deaa3c9	0.11457021
166	0x3d71bec8	0.059019834
167	0x3dbf2c0d	0.09334574
168	0x3e72a55d	0.23695894
169	0xbec3bf75	-0.38232008
170	0xbd830e89	-0.06399257
171	0xbc2c7d3c	-0.010527905
172	0x3f1f182f	0.62146276
173	0x3f02d8ad	0.5111187
174	0xbd79fa6f	-0.061029848
175	0xbe3c3d02	-0.18382648
176	0xbf9046a4	-1.1271558
177	0x3dab2389	0.08356387
178	0xbea3713f	-0.31922337
179	0xbed5b0a5	-0.41736332
180	0x3f7203be	0.9453696
181	0x3e778d95	0.24175103
182	0xbdf667cf	-0.12031519
183	0xbd558541	-0.052129034
184	0x3f2d337d	0.6765669
185	0x3f1a27a7	0.60216755
186	0xbf05becf	-0.52244276
187	0x3ee32090	0.4436078
188	0xbedd8931	-0.4326873
189	0xbe6e51f5	-0.23273452
190	0x3ea5fa62	0.3241759
191	0xbd102abc	-0.035197005
192	0x3f176ee5	0.59153587
193	0x3ee896cf	0.45427558
194	0x3ed69886	0.4191324
195	0xbef12161	-0.4709578
196	0xbdbaf484	-0.09128669
197	0xbe83c9bf	-0.25739858
198	0xbdebe7d1	-0.11518825
199	0xbdf21af2	-0.11821546
200	0xbf3273ac	-0.6970775
201	0xbe2501ac	-0.16113919
202	0xbf0c3a37	-0.5477633
203	0xbe775c8e	-0.241564
204	0x3f7f2be1	0.9967633
205	0xbe230674	-0.1592043
206	0xbe93d237	-0.2887132
207	0x3e1d2cff	0.15349196
208	0x3fc19e5f	1.5126456
209	0x3cf74fed	0.030189479
210	0xbec7b117	-0.39002296
211	0x3e038a11	0.12845637
212	0xbe8f33fd	-0.2796935
213	0x3db29c59	0.08721227
214	0xbe02a9df	-0.12760113
215	0xbe2333f3	-0.15937786
216	0x3eccd3bd	0.40005293
217	0x3e7af8dd	0.24508996
218	0x3ea4f7c4	0.3222028
219	0x3d060c30	0.032726467
220	0xbf61b4a3	-0.88166255
221	0x3d83ef44	0.06442121
222	0xbe944749	-0.28960636
223	0x3d881463	0.066445135
224	0xbed790c0	-0.42102623
225	0xbf2f2b46	-0.68425405
226	0x3ebf324a	0.37343055
227	0x3e9ae68d	0.3025402
228	0xbecc7c7a	-0.39938718
229	0x3d0a1990	0.033715785
230	0x3dc5a4fe	0.096506104
231	0xbb70bcd6	-0.0036733649
232	0xbfaa347e	-1.3297269
233	0x3de400b1	0.111329444
234	0xbf0af871	-0.5428534
235	0xbe300d67	-0.17192613
236	0xbeeb4ff9	-0.45959452
237	0xbde88bce	-0.11354791
238	0x3dfaf2c0	0.12253332
239	0xbd553f70	-0.05206245
240	0x3f85ebaf	1.046255
241	0xbd0e64d7	-0.034764137
242	0x3e9ee760	0.310359
243	0xbe049769	-0.12948383
244	0xbf75c653	-0.96005744
245	0xbd711fbc	-0.058868155
246	0x3e2243cf	0.1584618
247	0xbd42a9a6	-0.04752507
248	0xbf54b6fd	-0.8309172
249	0xbee28c98	-0.4424789
250	0xbf1bde5c	-0.6088617
251	0xbe6a571e	-0.22884795
252	0xbe383df5	-0.17992385
253	0xbe752cef	-0.23942922
254	0xbe376cb2	-0.17912558
255	0x3db8a807	0.09016424

layers.0.bias f4 [128]
0	0xbda25e99	-0.07928199
1	0x3e668e5c	0.22515243
2	0x3ea08559	0.31351736
3	0x3e015e41	0.12633611
4	0xbd121c84	-0.035671726
5	0xbde853d7	-0.11344116
6	0x3dafa255	0.08575884
7	0xbe4ff322	-0.20307592
8	0x3dc2e663	0.09516599
9	0x3e828f25	0.25499836
10	0xbe247e8b	-0.16063897
11	0x3e9b6e74	0.30357707
12	0xbe2d0498	-0.16896284
13	0xbdb87c0e	-0.090080366
14	0x3d0e3b70	0.034724653
15	0xbe42a420	-0.19007921
16	0xbc68d26e	-0.014210327
17	0xbe8b5785	-0.2721521
18	0xbe9f081e	-0.3106088
19	0xbe03668e	-0.1283209
20	0xbe220db8	-0.15825546
21	0x3e52ee0e	0.20598623
22	0x3ccb3513	0.024805581
23	0xbe8fa14a	-0.2805274
24	0x3e88286a	0.26593333
25	0x3e82bfe6	0.25537032
26	0x3e447a17	0.19187199
27	0x3e34bf4b	0.17651097
28	0xbe052308	-0.13001645
29	0x3e5df38b	0.21674936
30	0xbe6d67b0	-0.23184085
31	0xbe57e458	-0.210832
32	0xbe0d5812	-0.13803127
33	0xbe08b6e9	-0.13351025
34	0xbcfdd50b	-0.030985376
35	0x3c052ad8	0.0081278905
36	0xbe3903b9	-0.18067826
37	0x3e4bc8e5	0.19900854
38	0x3c9a143e	0.01880848
39	0xbe372def	-0.17888616
40	0x3da2d749	0.07951219
41	0xbdb129d0	-0.08650553
42	0xbdd97848	-0.10618645
43	0xbea73f5a	-0.3266552
44	0xbdd7f2c7	-0.10544353
45	0xbde1faf6	-0.11034195
46	0xbdfc11f3	-0.12308111
47	0xbd83170a	-0.06400879
48	0x3e804495	0.25052324
49	0x3e476fd9	0.1947626
50	0xbe825f66	-0.25463408
51	0xbe6074f7	-0.21919619
52	0xbe3ec8c3	-0.18631272
53	0xbe28a465	-0.16468962
54	0x3e4cf417	0.20014988
55	0x3e93e31f	0.28884217
56	0xbd7c5006	-0.061599754
57	0xbbd1023d	-0.0063784407
58	0xbdfad406	-0.122474715
59	0x3e3c3fcf	0.18383716
60	0x3e85ec22	0.26156718
61	0xbe46bdbd	-0.19408317
62	0xbe01b4a0	-0.12666559
63	0x3e3093a7	0.17243825
64	0xbe8ff64b	-0.28117594
65	0x3da0ffea	0.07861312
66	0x3e07b4f5	0.13252623
67	0xbdd158d5	-0.102220215
68	0x3e5ec9b6	0.21756634
69	0xbe855095	-0.26038042
70	0x3e08394d	0.13303109
71	0x3e85476b	0.2603105
72	0xbc367920	-0.011137277
73	0xbe1b93c6	-0.1519309
74	0x3db0f49e	0.08640407
75	0x3e1214a7	0.1426569
76	0x3d969dda	0.073543265
77	0xbe533da1	-0.20628978
78	0xbe9fc453	-0.3120447
79	0x3e4441ba	0.19165698
80	0x3e9f0932	0.31061703
81	0xbe7fe26f	-0.24988721
82	0x3ea7bae5	0.32759777
83	0x3e121ec8	0.14269555
84	0x3dc1c7c7	0.09461933
85	0xbeaf342e	-0.34219497
86	0xbd485410	-0.048908293
87	0x3d65b629	0.056081925
88	0xbd5b2e19	-0.05351076
89	0xbdda1e1d	-0.10650275
90	0xbe59a864	-0.21255642
91	0xbe5899f3	-0.21152477
92	0x3dc48c8c	0.0959712
93	0xbe29e46a	-0.1659104
94	0xbe6a3541	-0.22871877
95	0x3e4ce67a	0.20009795
96	0xbdd1406f	-0.10217368
97	0xbe927c93	-0.28610668
98	0x3e714d46	0.23564634
99	0xbce1c644	-0.02756036
100	0x3e4b4682	0.19851115
101	0xbdc1f0e3	-0.094697736
102	0xbe6ca291	-0.23108889
103	0xbdcb73db	-0.09934207
104	0xbd157eb6	-0.036497794
105	0x3ce400f6	0.02783249
106	0x3e29f485	0.16597183
107	0x3e716d58	0.23576868
108	0xbe063ed6	-0.13109908
109	0x3cfa958a	0.030588884
110	0x3e4e2b61	0.20133735
111	0x3df7b0a8	0.120942414
112	0xbce78dde	-0.02826589
113	0x3e402f4e	0.18768045
114	0xbd6d0dd7	-0.057874527
115	0x3e240d08	0.16020596
116	0xbdbfd7d3	-0.09367337
117	0xbcb89d4f	-0.022535948
118	0xbc8a99ff	-0.016919134
119	0x3e3101f0	0.17285895
120	0x3e3c7f79	0.18408002
121	0x3e962ea8	0.2933247
122	0x3e43d875	0.1912554
123	0x3e14e16e	0.1453912
124	0xbd02fd35	-0.03197976
125	0x3df32567	0.11872368
126	0xbbd5bb3b	-0.0065225638
127	0x3e08edd9	0.13371982

layers.1.weight f4 [128, 128]
0	0x3e03534e	0.12824747
1	0xbdb92338	-0.090399206
2	0x3e1662f9	0.14686193
3	0x3d2f2295	0.04275759
4	0x3dfbd0f5	0.12295715
5	0x3d91415e	0.07092546
6	0xbd1a0004	-0.03759767
7	0x3dbcb764	0.092146665
8	0x3e11570d	0.14193363
9	0x3d0a8283	0.033815872
10	0x3ccac9fe	0.02475452
11	0x3dc2807f	0.09497165
12	0xbe40a10f	-0.18811439
13	0x3ce0dcbd	0.027449006
14	0x3e797bb5	0.24363597
15	0xbc80e73c	-0.015735261
16	0xbe3bb7b2	-0.18331793
17	0xbb4efe4c	-0.0031584678
18	0x3e189671	0.14901139
19	0x3d858726	0.06519918
20	0x3dce979f	0.10087513
21	0xbe4a4d82	-0.1975613
22	0x3d74d58c	0.059773967
23	0xbdb2d183	-0.087313674
24	0xbdb6a8a7	-0.08918887
25	0x3d9abe9e	0.075558886
26	0xbe9873b8	-0.29775786
27	0xbde06f59	-0.10958738
28	0x3d305a55	0.043054897
29	0x3e889fed	0.26684514
30	0xbcd29981	-0.025707962
31	0x3d3f7cf7	0.046750035
32	0xbe02d69a	-0.12777176
33	0x3e14bc09	0.14524855
34	0xbe276c94	-0.16350013
35	0x3d2ac734	0.04169388
36	0xbe255cc8	-0.16148674
37	0x3d09ab32	0.03361053
38	0x3e16cac0	0.1472578
39	0xbe1a7ab1	-0.15085866
40	0x3d8a249b	0.06745263
41	0xbe67c787	-0.22634707
42	0xbd239e5b	-0.03994594
43	0x3dd3e747	0.10346847
44	0x3cc60b37	0.02417527
45	0x3e44fc62	0.19236901
46	0x3d31a1e2	0.043367274
47	0x3e347c51	0.17625548
48	0x3d837de0	0.06420493
49	0x3bcac2e3	0.006187783
50	0xbe0693aa	-0.13142267
51	0x3d6e5632	0.05818767
52	0xbd9eb68d	-0.077496625
53	0x3e3de3e7	0.18543969
54	0xbdfabea6	-0.122433946
55	0xbdc09cea	-0.09404929
56	0x3e8a4890	0.27008486
57	0xbd99acdb	-0.07503673
58	0x3d486171	0.048921052
59	0x3d1a5271	0.03767628
60	0xbcd561ab	-0.026047548
61	0xbd937f6c	-0.07202038
62	0x3ad63e38	0.0016345447
63	0xbd05df11	-0.032683436
64	0xbd0ec52a	-0.034856
65	0x3dc7e034	0.0975956
66	0xbe46e443	-0.19423012
67	0x3e6f2cd2	0.23356941
68	0xbdbb2fa9	-0.0913995
69	0x3db6e7a6	0.08930902
70	0xbd92af66	-0.07162361
71	0xbd6ff6b2	-0.058584876
72	0xbda68211	-0.08130277
73	0x3e80c63e	0.25151247
74	0xbd1a1278	-0.03761527
75	0x3d139988	0.03603509
76	0xbe596f3e	-0.21233842
77	0xbcab0363	-0.020875638
78	0xbd8eabb8	-0.069663465
79	0x3cba690b	0.022755167
80	0xbe204bbf	-0.15653895
81	0x3c963448	0.018335477
82	0x3cf63f68	0.030059531
83	0x3d6dfe2d	0.05810373
84	0xbe1b2621	-0.15151264
85	0x3e0f1266	0.13971862
86	0x3e33240e	0.17494223
87	0x3d3a11f1	0.045427267
88	0x3dd17771	0.1022786
89	0xbc431980	-0.011907935
90	0x3d19cf39	0.03755114
91	0xbe24cc4c	-0.16093558
92	0xbe19dc81	-0.15025522
93	0x3e18b7c0	0.14913845
94	0x3e0e7089	0.13910116
95	0xbdff75c6	-0.124736354
96	0xbe3e262c	-0.18569249
97	0xbe0c6587	-0.13710605
98	0xbdd7db0a	-0.10539825
99	0xbe18612f	-0.14880823
100	0xbd8cd2a7	-0.06876116
101	0xbd8a1291	-0.067418225
102	0x3e3b4bae	0.18290588
103	0x3e83a3d6	0.25710934
104	0xbd8a04ef	-0.06739222
105	0xbe0a10c9	-0.13482966
106	0xbd1cfba2	-0.038325913
107	0xbe73eeda	-0.23821583
108	0x3d1c9ddf	0.038236495
109	0x3d965f30	0.07342374
110	0xbe1e2370	-0.15443206
111	0x3c27cb97	0.010241411
112	0xbb0425c6	-0.0020164116
113	0x3dbae61d	0.09125922
114	0xbeb12fba	-0.34606725
115	0xbe74ec5e	-0.23918292
116	0x3e6d2c40	0.23161411
117	0x3df345a9	0.11878521
118	0x3e0aabf0	0.13542151
119	0xbb58d4a8	-0.0033085737
120	0x3d97a2ac	0.07404074
121	0xbe4e4af9	-0.20145787
122	0xbe8a2a1e	-0.26985258
123	0x3d42c842	0.047554262
124	0xbd9e933d	-0.07742927
125	0xbd034b21	-0.03205407
126	0xbd9b95e7	-0.07596951
127	0xbe66a538	-0.22523963
128	0x3e58bada	0.21165028
129	0x3e1c2cfe	0.15251538
130	0x3ed394fd	0.41324607
131	0x3c9a962a	0.018870432
132	0x3a99aa9d	0.001172382
133	0xbb8034e7	-0.0039125565
134	0x3e6d802f	0.2319343
135	0xbeb73dce	-0.3578934
136	0x3e822f4a	0.25426704
137	0xbe7cd236	-0.24689564
138	0xbd928e75	-0.07156078
139	0x3daf14d8	0.085488975
140	0xbe106763	-0.14101939
141	0xbd5c128f	-0.053728636
142	0x3dc7aa07	0.09749227
143	0x3d5b77ac	0.053580925
144	0xbced4f6d	-0.028968537
145	0x3d9a13b1	0.07523287
146	0x3d8348a0	0.064103365
147	0x3d91e6a4	0.07124069
148	0x3e8172e1	0.25282958
149	0xbea0d899	-0.3141525
150	0xbe7f5b4e	-0.24937174
151	0x3e0aa090	0.13537812
152	0xbce2f52e	-0.027704801
153	0xbe8b1f8d	-0.2717251
154	0xbe88702f	-0.2664809
155	0x3e4212b5	0.18952449
156	0x3e124274	0.14283162
157	0x3e7b3730	0.24532771
158	0x3df80c93	0.12111773
159	0x3d9cb6b9	0.07652039
160	0x3c9117f9	0.017711626
161	0x3daadfe9	0.08343489
162	0xbe8b8bc2	-0.27255064
163	0x3ddb924c	0.10721263
164	0x3e26f1d6	0.1630319
165	0x3e51e15f	0.20496128
166	0x3ec55620	0.3854227
167	0xbe7439ba	-0.23850146
168	0x3e29a78a	0.16567817
169	0xbdb4a487	-0.088204436
170	0x3bd95274	0.0066321436
171	0x3d68af78	0.056807965
172	0x3ed0feb2	0.40819317
173	0x3d7a09bc	0.06104444
174	0xbdb3a227	-0.087711625
175	0xbe21334c	-0.15742224
176	0xbdbfcc27	-0.09365111
177	0x3de83bfe	0.113395676
178	0xbd886814	-0.06660476
179	0x3e14b69c	0.14522785
180	0xbe83d2d7	-0.25746796
181	0x3e10e0d2	0.14148262
182	0xbe3d67c8	-0.1849662
183	0xbd96f381	-0.073706634
184	0x3f097880	0.53699493
185	0xbe9ef272	-0.31044346
186	0x3d3a438c	0.045474574
187	0xbdf4eb7e	-0.11958979
188	0xbdc9c3a7	-0.09851771
189	0x3e1c2c36	0.1525124
190	0x3e296a8f	0.16544555
191	0xbd39be38	-0.045347422
192	0xbe85417a	-0.26026517
193	0xbe3214a4	-0.17390686
194	0xbeab4135	-0.33448187
195	0x3e58dbd2	0.21177605
196	0x3e415b4c	0.18882483
197	0xbd8c7280	-0.06857777
198	0x3cfe0468	0.03100796
199	0xbe63afc4	-0.22235018
200	0x3e1fbbcd	0.15598984
201	0x3dc0a668	0.094067395
202	0x3dc428c7	0.0957809
203	0x3b7821d8	0.003786197
204	0xbe64ebaa	-0.22355524
205	0xbe8722ee	-0.26393837
206	0x3ce70685	0.028201351
207	0xbe4055bb	-0.18782704
208	0xbec43e55	-0.38328806
209	0x3d116016	0.035492025
210	0x3e507dbb	0.20360462
211	0x3e4c45df	0.19948529
212	0x3e03525f	0.12824391
213	0x3e79fe42	0.24413398
214	0x3d74b9dc	0.05974756
215	0x3f07c7a3	0.53038996
216	0x3e10b6de	0.14132258
217	0xbc67a717	-0.014138958
218	0xbcead9f4	-0.028668381
219	0xbdd7a9dd	-0.10530446
220	0x3e1d7d28	0.15379775
221	0xbc1240e7	-0.008926607
222	0x3e59702b	0.21234195
223	0xbe66cabc	-0.22538275
224	0xbdacc574	-0.08436099
225	0xbe191368	-0.14948809
226	0xbd99e619	-0.07514591
227	0xbeda94fd	-0.42691794
228	0x3caa18ef	0.020763842
229	0xbea00dbe	-0.31260484
230	0x3d2ea1f6	0.042634927
231	0x3e81d28f	0.25355956
232	0xba5664ab	-0.0008178453
233	0xbe437a6d	-0.1908967
234	0xbcbc5643	-0.022990352
235	0xbeae5eaf	-0.34056613
236	0xbd2223f4	-0.03958507
237	0x3e18a6d2	0.14907387
238	0xbc53b8c6	-0.012922471
239	0x3c0b1df2	0.008491026
240	0xbdb03cc8	-0.08605343
241	0x39761a6f	0.00023470235
242	0xbf10adfb	-0.56515473
243	0x3cb354dd	0.021891052
244	0x3e43a124	0.19104439
245	0xbd7402eb	-0.059573095
246	0xbccea811	-0.025226625
247	0x3dc0473f	0.09388589
248	0x3e0f6708	0.14004147
249	0xbefad723	-0.4899226
250	0xbe81a580	-0.2532158
251	0xbe09a445	-0.1344157
252	0xbd3d8492	-0.046269007
253	0x3c180cec	0.009280425
254	0x3cd05ff8	0.025436386
255	0xbe6bcfce	-0.2302849

layers.1.bias f4 [128]
0	0x3c5e93df	0.01358506
1	0xbdda6100	-0.106630325
2	0x3d0b6050	0.034027398
3	0x3b49949e	0.0030758749
4	0x3c879bb2	0.016553733
5	0xbe1f4c78	-0.15556514
6	0xbe25bf99	-0.1618637
7	0x3db3486f	0.0875405
8	0xbd93452b	-0.07190927
9	0x3e2b3d37	0.1672257
10	0x3e956069	0.29175118
11	0x3dedacbf	0.11605214
12	0x3df50db5	0.11965505
13	0x3ce6c6a0	0.028170884
14	0x3e78cc85	0.24296768
15	0xbd675a9a	-0.05648289
16	0xbd8a50ce	-0.067536935
17	0xbd8f25a3	-0.069896005
18	0xbd989ea2	-0.07452132
19	0xbdad0f28	-0.084501565
20	0xbe60a791	-0.21938922
21	0xbe21bd62	-0.157949
22	0x3e1b3ac6	0.15159139
23	0x3e8c5213	0.27406368
24	0x3897d9be	7.240799e-05
25	0x3e14cebe	0.14531991
26	0x3c336532	0.01094942
27	0x3dbc26c7	0.09187084
28	0x3e12c880	0.14334297
29	0xbe18931c	-0.14899868
30	0xbd89c3aa	-0.06726773
31	0x3db31291	0.08743776
32	0xbce2cb71	-0.027684899
33	0x3e40f0e0	0.18841887
34	0xbdc8d268	-0.09805757
35	0x3e608ca6	0.21928653
36	0x3e0f8a1a	0.14017525
37	0xbd694556	-0.05695089
38	0x3db86067	0.09002762
39	0xbd6c5a82	-0.057703502
40	0x3d8d8067	0.069092564
41	0x3d3a68ec	0.045510218
42	0x3d4d4501	0.050114635
43	0x3c983d96	0.018584054
44	0x3d6c6d28	0.057721287
45	0xbe22a4cd	-0.15883179
46	0x3dd26656	0.10273425
47	0xbe03b98c	-0.1286375
48	0x3dc0a2be	0.094060406
49	0xbd477732	-0.048697658
50	0x3cc1dc76	0.023664694
51	0x3c82f81b	0.015987447
52	0x3d0fdace	0.035120778
53	0xbd18d46c	-0.037311956
54	0x3d1f583a	0.0389025
55	0xbc9e8e92	-0.019355092
56	0xbe45cb34	-0.19315797
57	0xbd88a427	-0.066719346
58	0xbe908966	-0.28229827
59	0x3d3bd1f7	0.045854535
60	0xbe1d0048	-0.15332139
61	0x3dfdc3b1	0.12390841
62	0xbcf896d4	-0.030345358
63	0x3d4dd2e6	0.050249957
64	0x3dfbc601	0.122936256
65	0xbcc45b84	-0.02396942
66	0x3c8b0303	0.01696921
67	0x3da957f0	0.08268726
68	0x3dea9357	0.11453884
69	0x3e081930	0.13290858
70	0x3cb1815c	0.021668129
71	0xbd4299d4	-0.047509983
72	0xbdf228a1	-0.118241556
73	0x3ccfc1c6	0.025360953
74	0xbe38305e	-0.179872
75	0xbe260b15	-0.16215165
76	0x3e02c519	0.127705
77	0x3df2d894	0.11857715
78	0x3cfd1242	0.030892495
79	0x3ded59d3	0.11589398
80	0x3dd21497	0.102578335
81	0x3e0f47bc	0.13992208
82	0x3dd667bd	0.10469005
83	0xbdb4eac3	-0.0883384
84	0x3e34e428	0.1766516
85	0x3e2bcc30	0.1677711
86	0xbd91b758	-0.07115048
87	0x3d32f500	0.04369068
88	0x3dfc0829	0.12306244
89	0x3d562aad	0.052286793
90	0x3d22686a	0.03965036
91	0x3c75270d	0.014962924
92	0xbe0e018c	-0.13867778
93	0x3d02ec7a	0.031963803
94	0xbe050314	-0.12989455
95	0x3b5ffeb9	0.0034178926
96	0xbcd03271	-0.025414677
97	0x3d0d5f41	0.03451467
98	0x3e8f8897	0.28033897
99	0x3d64fef5	0.05590721
100	0x3e16998b	0.1470701
101	0x3c451b20	0.012030393
102	0xbe2b1c5a	-0.16710034
103	0x3c0084dc	0.007844176
104	0xbc29ba2a	-0.010359326
105	0x3e329c29	0.17442383
106	0x3dea9b91	0.11455453
107	0x3c8d243c	0.017229192
108	0xbe0f98f4	-0.1402319
109	0x3d8fd8e3	0.0702379
110	0xbe10898d	-0.14114971
111	0xbcccc68c	-0.024997018
112	0xbb0465cd	-0.002020228
113	0x3d42fe32	0.0476057
114	0x3e5833a7	0.21113454
115	0x3d239a29	0.03994194
116	0x3da1be87	0.07897668
117	0xbe306b5d	-0.17228456
118	0x3e9096aa	0.28239948
119	0x3e0807ae	0.1328418
120	0x3d0e16f9	0.034689877
121	0x3db02ceb	0.086023174
122	0xbdd7c35d	-0.105353095
123	0xbdf374ea	-0.11887534
124	0x3c11b4d2	0.008893209
125	0xbd416dd0	-0.047223866
126	0xbd411289	-0.047136817
127	0xbdd5b393	-0.10434642

layers.3.weight f4 [128, 128]
0	0xbdb69b3c	-0.08916327
1	0xbe18dffe	-0.14929196
2	0xbe9c4a01	-0.3052521
3	0xbdf43614	-0.11924377
4	0x3de34709	0.11097533
5	0xbc91de68	-0.017806247
6	0x3e6de14c	0.23230475
7	0xbe0adce2	-0.13560823
8	0x3e554e25	0.20830591
9	0x3e256422	0.16151479
10	0xbd5259b8	-0.051355094
11	0x3db8e3f5	0.09027854
12	0xbd29bc90	-0.041439593
13	0xbeb6901e	-0.35656828
14	0xbdc7d233	-0.09756889
15	0x3d810519	0.062998004
16	0x3e8bde38	0.27317977
17	0xbd588e07	-0.052869823
18	0x3d743add	0.05962645
19	0x3da77af3	0.081777476
20	0x3e3ffa74	0.18747884
21	0x3cc344f7	0.023836596
22	0x3c714696	0.014726302
23	0xbe2890f1	-0.16461541
24	0x3ddc83e8	0.107673466
25	0x3dd54324	0.10413197
26	0x3d89ed13	0.067346714
27	0x3d71a94c	0.058999345
28	0xbe0afbcd	-0.13572617
29	0xbe526f72	-0.20550326
30	0xbccd273a	-0.025043119
31	0x3e1ba25d	0.15198655
32	0x3c95520d	0.018227601
33	0xbd16a7a7	-0.03678098
34	0xbe0f748f	-0.14009307
35	0xbe9f60eb	-0.3112863
36	0x3c75f015	0.015010853
37	0xbe0ef903	-0.13962178
38	0x3d349c90	0.044094622
39	0x3f12f5e1	0.5740643
40	0x3c80350a	0.015650291
41	0xbdba875f	-0.09107851
42	0xbdfb7086	-0.122773215
43	0x3cb03330	0.021508783
44	0x3d8c1ba1	0.06841207
45	0xbcafce04	-0.02146054
46	0x3d97bbc0	0.07408857
47	0x3c772b93	0.0150860725
48	0xbd1a03dc	-0.037601337
49	0x3e9fec47	0.31234953
50	0x3dc8feac	0.098142
51	0x3ce25bec	0.027631722
52	0xbdbd34d4	-0.09238592
53	0x3d989e53	0.07452073
54	0xbe302da6	-0.17204913
55	0xbeb54522	-0.35404307
56	0xbd24ce42	-0.040235765
57	0x3e971b03	0.29512796
58	0x3da39972	0.07988252
59	0x3e8003cf	0.25002906
60	0x3c93f618	0.018061683
61	0xbdd7f3ce	-0.10544549
62	0xbd50d29c	-0.050982103
63	0xbb9f0e86	-0.0048540263
64	0xbe2801e7	-0.16406976
65	0xbd8488db	-0.064714156
66	0x3de029f4	0.10945502
67	0x3ea360c3	0.3190976
68	0x3ce0a3de	0.027421888
69	0x3b96f0f2	0.0046063596
70	0x3e32ea72	0.17472246
71	0x3c9adf53	0.018905317
72	0x3d9859fb	0.074390374
73	0xbe225ce4	-0.15855747
74	0xbe2be5e7	-0.1678692
75	0xbde02070	-0.10943687
76	0x3e213769	0.15743794
77	0xbd02b241	-0.031908277
78	0xbd0a223f	-0.033724066
79	0xbe125ede	-0.14294001
80	0x3be6f688	0.007048432
81	0x3e3d3b83	0.18479733
82	0xbe8bd699	-0.27312163
83	0xbdfa5a82	-0.12224294
84	0xbdce9d8a	-0.10088642
85	0x3e23777a	0.15963545
86	0xbe705d40	-0.23473072
87	0xbea74492	-0.32669502
88	0xbbc4d544	-0.0060068686
89	0xbe2dda1c	-0.16977733
90	0x3e5dd808	0.2166444
91	0x3de79eb5	0.11309568
92	0xbdb0e327	-0.08637076
93	0xbd3225f4	-0.043493226
94	0x3db4b3f4	0.08823386
95	0xbdf6513d	-0.12027214
96	0xbba21726	-0.004946607
97	0x3dc371f4	0.09543219
98	0xbeb9c49f	-0.36282822
99	0x3e04f292	0.12983158
100	0xbdbb038e	-0.091315374
101	0xbd935bb1	-0.07195223
102	0x3e27b88b	0.16378991
103	0x3eb9174f	0.36150596
104	0x3d8cc42c	0.06873354
105	0xbd445473	-0.0479321
106	0xbe064a1e	-0.13114211
107	0x3de9cfcb	0.114165865
108	0x3dc33c8d	0.095330335
109	0x3d649db5	0.055814464
110	0x3e841138	0.25794387
111	0xbc13c711	-0.009019629
112	0xbdcfa871	-0.101395495
113	0xbe05defa	-0.1307334
114	0x3dd38139	0.10327382
115	0x3d7f5de9	0.06234542
116	0x3e45533b	0.19270031
117	0x3e45a2a0	0.19300318
118	0xbe313ec7	-0.17309104
119	0x3e19ebc5	0.15031345
120	0x3e1eeeb9	0.15520753
121	0x3dc6ca68	0.09706575
122	0xbcbc4d3f	-0.022986053
123	0xbe1cd60e	-0.1531603
124	0xbdecce5d	-0.11562798
125	0x3dc939a2	0.09825446
126	0xbdd2293c	-0.10261771
127	0xbd753b99	-0.05987129
128	0x3d8c4188	0.068484366
129	0xbbc41bed	-0.0059847743
130	0xbd45c872	-0.048286863
131	0xbd8d847f	-0.06910037
132	0x3db01caf	0.08599221
133	0xbe87cf8b	-0.2652553
134	0xbde647a9	-0.11244137
135	0x3d8aa6cf	0.067700975
136	0xbe33f0e4	-0.17572361
137	0x3e346a0e	0.17618582
138	0x3e521f5a	0.20519772
139	0xbdc64e83	-0.09682944
140	0x3d9bd79a	0.07609482
141	0x3e414dc5	0.18877323
142	0x3e88b95b	0.26703915
143	0x3ca0d15f	0.019631086
144	0xbe089be1	-0.13340713
145	0xbe916f31	-0.28405145
146	0xbe1f884a	-0.15579334
147	0x3e087031	0.13324048
148	0xbe8d88b8	-0.2764337
149	0xbe069d03	-0.13145833
150	0x3d9fc39c	0.078009814
151	0x3eba5c96	0.36398762
152	0xbe4196c9	-0.18905176
153	0x3df90113	0.12158408
154	0xbd525cf5	-0.051358182
155	0x3db4afef	0.08822619
156	0x3e5c05c7	0.21486579
157	0x3cd5606d	0.026046956
158	0xbe2e3025	-0.17010553
159	0x3dc55168	0.09634668
160	0xbdae9d17	-0.08526056
161	0x3e72e071	0.2371843
162	0x3d8a37f7	0.06748956
163	0x3de144d5	0.10999457
164	0x3e64cfe4	0.22344929
165	0xbd8089a2	-0.062762514
166	0xbda75a44	-0.08171514
167	0xbdaeebee	-0.08541094
168	0x3ea823f6	0.32839936
169	0x3d9bbf8d	0.07604895
170	0x3d8ee5e5	0.06977443
171	0x3e4dd75d	0.20101686
172	0x3daeb09a	0.08529778
173	0xbe869de5	-0.2629234
174	0xbd4b767d	-0.049673546
175	0xbdc7ef9e	-0.097625
176	0xbc226b83	-0.009913328
177	0xbd8de46b	-0.06928333
178	0xbdf2ffdb	-0.11865207
179	0xbca6d0a6	-0.020363163
180	0x3db6e39c	0.08930132
181	0x3c99d29f	0.01877719
182	0x3e1e88d9	0.1548189
183	0x3e36d6bf	0.17855357
184	0xbdb35992	-0.087573186
185	0xbe00b599	-0.12569274
186	0xbea0d018	-0.31408763
187	0x3dc8ceac	0.098050445
188	0x3d905bc1	0.07048751
189	0x3dff1b4f	0.124563806
190	0x3c36c7c7	0.011156029
191	0xbc4ce90f	-0.012506737
192	0x3e813ff8	0.25244117
193	0xbd2406ae	-0.040045433
194	0xbd80e123	-0.062929414
195	0x3ef2d9e7	0.4743187
196	0x3d099741	0.033591513
197	0xbd0c1ee7	-0.03420916
198	0xbde1d11b	-0.11026212
199	0x3e2b301a	0.16717568
200	0x3e094c8b	0.13408105
201	0xbd1fcf7c	-0.039016232
202	0xbe146b0c	-0.1449396
203	0xbe4c180f	-0.19931053
204	0x3d060b35	0.03272553
205	0x3e2cd010	0.16876245
206	0x3e24e0ab	0.16101329
207	0x3e8535c8	0.26017594
208	0x3bd63dbd	0.0065381215
209	0x3e49b6e1	0.19698669
210	0x3c660e69	0.014041522
211	0xbda9e18c	-0.08294973
212	0x3dadde19	0.084896274
213	0x3d96f0f6	0.073701784
214	0xbd971be1	-0.07378364
215	0x3e2c8241	0.16846563
216	0x3e1440c1	0.14477827
217	0x39709420	0.00022943364
218	0xbbe55779	-0.006998953
219	0x3da86d53	0.08223977
220	0xbe1c001d	-0.15234418
221	0xbddb32f7	-0.1070308
222	0x3b6ab819	0.0035815297
223	0xbe091fa1	-0.13390972
224	0x3e6d1642	0.23153022
225	0x3e05b3fb	0.13056938
226	0x3de83167	0.11337548
227	0x3d3ae26e	0.045626096
228	0x3e8d1fba	0.27563268
229	0xbdf42666	-0.119213864
230	0xbe8ecb89	-0.2788966
231	0xbd86eb5e	-0.065878615
232	0x3e09ea31	0.13468243
233	0xbcb26b23	-0.021779602
234	0x3cc87593	0.024470126
235	0x3c4ca23c	0.012489852
236	0xbe97b8a5	-0.2963306
237	0x3e4bd5ad	0.1990573
238	0xbbfbd90e	-0.007685787
239	0x3ae8cd0a	0.0017761302
240	0xbd2ad2e9	-0.041705046
241	0x3d0c9683	0.034323227
242	0x3d34f730	0.04418105
243	0x3da08cb3	0.07839336
244	0x3e2647a9	0.16238274
245	0xbe9f9018	-0.31164622
246	0x3ea85ca2	0.32883173
247	0x3dccd15c	0.1000087
248	0x3e1c5ef3	0.15270595
249	0xbcfcd7b9	-0.030864583
250	0xbe8a9ad7	-0.27071258
251	0x3d89b869	0.067246266
252	0xbe050aae	-0.12992355
253	0xbd84ec3a	-0.06490369
254	0x3e5182e1	0.20460083
255	0xbd8b9fa4	-0.068175584

layers.3.bias f4 [128]
0	0xbde90751	-0.113783486
1	0x3e294b6c	0.16532677
2	0x3e993d38	0.2992952
3	0x3d8cd24e	0.0687605
4	0xbdc29814	-0.09501663
5	0x3d46910d	0.048478175
6	0x3dd619d9	0.10454149
7	0x3d8b77c8	0.06809956
8	0xbba7cf5e	-0.0051211556
9	0x3bf3d41c	0.007441057
10	0x3e1cced0	0.15313268
11	0xbd8fc3a6	-0.07019739
12	0xbd514c34	-0.051098064
13	0xbd598feb	-0.053115766
14	0xbcb34c18	-0.02188687
15	0x3db18a43	0.086689495
16	0x3d91531b	0.07095929
17	0xbe0ac6a8	-0.13552344
18	0xbd7ad237	-0.061235633
19	0xbe7f354f	-0.2492268
20	0x3dca590e	0.09880267
21	0xbc4f72e2	-0.012661668
22	0xbde55a53	-0.111988686
23	0x3ec8c27d	0.39210883
24	0x3e82b73e	0.25530428
25	0xbdef188e	-0.11674605
26	0x3ccc8263	0.024964517
27	0xbe1afd83	-0.1513577
28	0x3befd4e7	0.007319081
29	0x3e37d30f	0.17951606
30	0x3d8bda4e	0.06828748
31	0xbd84a819	-0.064773746
32	0xbdb51db6	-0.088435575
33	0xbe8d598f	-0.2760739
34	0xbe72cf94	-0.23711997
35	0x3dda75ae	0.10666977
36	0xbdcdb218	-0.10043734
37	0x3ce0f834	0.027462102
38	0xbd8aa0ea	-0.06768973
39	0xbb84867f	-0.0040443535
40	0x3d0319ba	0.032006957
41	0xbdd751e5	-0.10513667
42	0x3e42798c	0.18991679
43	0x3e683dd8	0.22679842
44	0x3d0c8597	0.03430709
45	0x3e1b0d3f	0.15141772
46	0xbda097d6	-0.078414604
47	0xbce78be8	-0.028264955
48	0xbd33ef34	-0.043929294
49	0xbe571af5	-0.21006377
50	0x3dc73a1a	0.09727879
51	0x3d305db1	0.0430581
52	0xbe11ab1c	-0.1422543
53	0xbd32a3e1	-0.04361332
54	0x3e56e0da	0.20984212
55	0x3d108405	0.035282154
56	0x3e1bfa86	0.15232286
57	0xbe8d761b	-0.2762917
58	0x3d81a904	0.06331065
59	0xbb9d4373	-0.0047993003
60	0x3e5f8164	0.21826702
61	0x3dbf7216	0.09347932
62	0xbe9c2992	-0.30500466
63	0x3e565571	0.20931031
64	0xbd42bf93	-0.04754598
65	0x3da085e1	0.078380354
66	0xbe0b5438	-0.13606346
67	0xbe491d27	-0.19640027
68	0x3df4ebc8	0.11959034
69	0xbe2930a1	-0.16522457
70	0xbe4ae05c	-0.19812149
71	0x3d37d289	0.044878516
72	0x3e144d71	0.14482667
73	0x3dbda29c	0.09259531
74	0x3e433e62	0.19066766
75	0xbd1fd2c6	-0.03901937
76	0x3e453aed	0.1926076
77	0xbd150c84	-0.03638889
78	0xbdf64c67	-0.12026291
79	0x3cb0f34b	0.021600386
80	0x3e77a0ac	0.24182385
81	0x3e55071c	0.20803493
82	0xbea80668	-0.32817388
83	0x3bbd0c04	0.0057692546
84	0x3e07ea99	0.13273086
85	0xbd243096	-0.040085398
86	0xbdd84a5a	-0.105610564
87	0xbdacaead	-0.08431754
88	0xbb73474f	-0.003712136
89	0xbe71768d	-0.2358038
90	0x3df6f98a	0.120593145
91	0xbdfa9eae	-0.12237297
92	0xbe60c433	-0.21949844
93	0xbdfa5561	-0.12223316
94	0x3db22bad	0.08699737
95	0x3dd43e6e	0.1036347
96	0xbe2ee852	-0.1708081
97	0xbe327433	-0.17427139
98	0xbd436bef	-0.047710355
99	0xbc240359	-0.010010564
100	0x3dbc0823	0.091812395
101	0x3ce1d4ae	0.027567234
102	0x3d663beb	0.056209486
103	0x3dcc4e2c	0.099758476
104	0xbe515255	-0.20441563
105	0x3e0babbc	0.1363973
106	0x3e9c9622	0.30583292
107	0x3e5726d7	0.2101091
108	0x3dae41e3	0.08508661
109	0x3d8d57b1	0.069014914
110	0xbc294830	-0.010332152
111	0x3d19427a	0.037416913
112	0xbe2a6bb1	-0.16642644
113	0x3d82de80	0.06390095
114	0x3e43bd3e	0.19115159
115	0x3d95d2d1	0.07315601
116	0x3cba9313	0.022775209
117	0x3dfc9a5e	0.12334131
118	0x3e4652fa	0.1936759
119	0x3dab28e8	0.083574116
120	0x3e0fe5a9	0.14052452
121	0xbe2c843a	-0.16847315
122	0xbd96b9c0	-0.07359648
123	0x3e0a926b	0.13532417
124	0x3e171f5d	0.14758058
125	0xbd7ca8ba	-0.061684348
126	0xbea09189	-0.31361035
127	0xbe231015	-0.15924104

layers.5.weight f4 [1, 128]
0	0x3f5cc480	0.86237335
1	0x3f4cd15b	0.8000695
2	0x3f464bdf	0.7745952
3	0x3f7f8559	0.9981285
4	0x3f99f3e3	1.2027553
5	0x3f7159f1	0.94277865
6	0x3f5e579d	0.8685244
7	0x3f713b9c	0.9423158
8	0xbf69967e	-0.9124526
9	0x3f755d1a	0.95845187
10	0xbf87ebb6	-1.0618808
11	0x3f757cb5	0.9589341
12	0xbf78cebf	-0.9719047
13	0xbf73e453	-0.9527027
14	0x3f633f25	0.88768226
15	0xbf678d8d	-0.90450364
16	0xbf83ff56	-1.0312297
17	0xbf51b43c	-0.8191564
18	0xbf6f3d65	-0.93453056
19	0xbf4c31ac	-0.79763293
20	0xbfa2ca0a	-1.2717907
21	0x3f899820	1.074955
22	0x3f8ce478	1.1007223
23	0x3f4b1b92	0.79338944
24	0x3f40d585	0.75325805
25	0xbf510732	-0.81651604
26	0xbf5dc250	-0.8662462
27	0x3f69347e	0.9109572
28	0x3f81cddc	1.0140948
29	0x3f758c38	0.9591708
30	0xbf81fe12	-1.0155661
31	0x3f78991c	0.97108626
32	0xbf516d96	-0.8180784
33	0xbf55b6ca	-0.8348204
34	0xbf3f95a3	-0.748377
35	0xbf9987d0	-1.1994572
36	0xbf6798a9	-0.90467316
37	0xbf6d1546	-0.92610586
38	0x3f7fcdec	0.99923587
39	0x3f6d97fd	0.9281004
40	0x3f7af568	0.9803071
41	0xbf6c2b90	-0.9225397
42	0x3f8227a4	1.0168347
43	0x3f4d6c70	0.8024359
44	0x3f79d076	0.9758371
45	0x3f44c1fc	0.76858497
46	0xbf5f656a	-0.8726412
47	0xbf632ead	-0.88743097
48	0x3f681980	0.9066391
49	0xbf6f0001	-0.9335938
50	0x3f655c53	0.89594
51	0xbf92574f	-1.1432894
52	0xbf558ea4	-0.8342078
53	0xbf7d3770	-0.98912716
54	0x3f4d4f84	0.80199456
55	0xbf50832b	-0.81450146
56	0x3f73fe01	0.95309454
57	0xbf43d8ca	-0.7650267
58	0xbf8aa91a	-1.0832856
59	0xbf567dc9	-0.8378568
60	0x3f48e980	0.7848129
61	0xbf886397	-1.0655392
62	0xbf3c3ae4	-0.7352736
63	0xbf93d8eb	-1.1550573
64	0xbf6048cc	-0.8761108
65	0xbf86413e	-1.048866
66	0xbf633a3a	-0.8876072
67	0xbf642839	-0.89123875
68	0xbf6e19ce	-0.93008125
69	0xbf63127e	-0.8870009
70	0xbf861457	-1.0474957
71	0x3f7e5469	0.9934755
72	0x3f49c51b	0.78816384
73	0x3f790f31	0.97288805
74	0x3f4050dc	0.7512338
75	0xbf61cf93	-0.8820736
76	0x3f557c4d	0.8339279
77	0xbf64ea06	-0.8941959
78	0xbf6c9efe	-0.924301
79	0x3f7a91dd	0.9787882
80	0x3f5cd74b	0.8626601
81	0x3f69bb12	0.9130107
82	0xbf4ef9bc	-0.80849814
83	0xbf82062c	-1.0158134
84	0x3f51bbaf	0.8192701
85	0xbf5bbc60	-0.8583431
86	0xbf4ec400	-0.8076782
87	0x3f776579	0.9663921
88	0x3f5d4b30	0.8644285
89	0xbf38ca9b	-0.7218415
90	0xbf76872a	-0.96299994
91	0xbf59a6b8	-0.8502002
92	0xbf355530	-0.7083311
93	0xbf4bd488	-0.7962117
94	0x3f2b77ec	0.6697986
95	0x3f8dd670	1.1081066
96	0xbf750426	-0.95709455
97	0x3f6e8d13	0.9318401
98	0x3f8cc366	1.0997131
99	0xbf95829d	-1.1680485
100	0x3f76f92e	0.9647397
101	0xbf6100a3	-0.87891597
102	0x3f92402d	1.1425835
103	0x3f50503a	0.81372416
104	0xbf74fe09	-0.95700127
105	0x3f7b3209	0.9812322
106	0x3f487026	0.78296125
107	0x3f958272	1.1680434
108	0x3f501f34	0.8129761
109	0x3f5bfc38	0.8593173
110	0xbf7e117d	-0.99245435
111	0x3f848fc8	1.0356379
112	0x3f7e2dc1	0.99288565
113	0x3f647d8f	0.8925409
114	0x3f38dc43	0.7221109
115	0x3f88d9f2	1.0691512
116	0xbf5b17e8	-0.85583353
117	0xbf72a4ba	-0.947826
118	0x3f735fcc	0.9506805
119	0x3f7f6aba	0.99772227
120	0x3f84530d	1.0337845
121	0xbf6986ec	-0.912215
122	0xbf7672e7	-0.9626908
123	0xbf86657d	-1.0499722
124	0x3f674325	0.9033683
125	0x3f52e44e	0.82379615
126	0xbf45e8c2	-0.77308285
127	0xbf51c472	-0.81940377
