model_zoo/GAIL/LunarLander-v2/disc_10000.pth (torch, 142281 bytes, 7 tensors)

layers.0.weight f4 [128, 12]
-1.3645178 -0.18887328 -0.032779105 0.37462133 1.1803519 1.5865146 -0.5959969 -0.04139346
0.024553053 -0.7494382 0.34684384 0.28718704 0.28133753 -0.9768492 -0.8816689 1.2131095
-0.8061521 -0.55433583 -0.19080678 0.008812221 0.20502609 0.092641644 0.41782212 0.23571199
-1.121514 0.022129366 -0.22945702 -1.4623476 -1.0994554 -1.2960945 0.04190855 -0.18729952
0.21223621 -0.3793317 -0.22253409 0.3229943 0.4031649 1.3072067 0.20525496 -2.3981323
-1.1942691 -0.32163376 -0.35280868 0.14967181 0.24435593 -0.6013683 0.19593675 -0.3627653
-1.1467435 0.62353635 -1.1224718 -0.046056323 0.48214394 0.8547513 0.2356831 -0.11508596
0.22382908 -0.53189826 0.04001715 -0.23536761 0.49885094 -0.13820483 -0.60726476 -1.2844036
-0.15578052 0.37858343 0.68702936 -0.11129584 -0.33327413 0.29174328 -0.3426295 0.6988718
1.6768163 -0.24806854 -0.03974235 -0.47426358 -1.290209 -0.95771927 0.36126855 0.49366266
0.08430036 0.081600174 0.45563412 0.27077538 0.0044401158 -1.5428345 0.4300161 1.4406453
-1.3790317 -0.507706 -0.037693925 -0.017255107 0.03151222 0.2804865 -0.32331038 0.32840368
-1.1170778 0.6324741 -0.5983355 0.7407476 0.46586165 1.2431042 0.35184678 0.08672918
-0.3246738 -0.34180734 0.32719263 0.44358063 -0.97688437 0.35945165 0.8672194 -0.15402539
-2.7145014 -1.6407425 -0.06913174 -0.31400234 0.33611977 -0.5817946 0.058594774 -0.031354252
-0.49647045 0.0358596 -0.09227051 1.465662 0.33834994 -0.052632764 -0.2340837 0.39455536
-0.12535328 -0.39306003 0.074778095 -0.33947256 0.4452046 -1.8562634 -0.66213644 1.2047672
1.137516 1.1148653 0.1160544 0.13168599 -0.023444667 0.29608342 0.2864838 -0.40099508
-1.0572904 0.4113863 1.0850769 0.15685871 2.080775 -0.17869727 0.08830197 -0.2664157
0.00909777 0.16756105 -0.021601558 -0.5149565 1.657011 -0.119519144 0.35927433 -0.10166706
-1.50792 -1.7710267 0.29830527 0.16739145 0.10000463 0.037902232 0.11505725 -0.21879542
0.27397025 -0.48026225 2.4186432 -0.5222263 2.940635 -1.7338506 0.16248089 -0.13406155
0.041952003 -0.17657286 0.1829084 -0.6591994 -1.0076339 -0.4512452 0.19369487 0.33200353
0.96941197 0.9338135 0.36754432 -0.16731659 -0.423736 -0.25190789 0.45887494 1.0205418
1.5991215 0.74195826 -0.69096667 0.8818133 1.154481 -0.8583749 0.20381677 -0.15846278
-0.052807543 -0.8474311 0.44508144 -0.63127434 1.2734863 -0.52046806 0.59488106 0.1308606
-1.3209928 0.7152627 -0.08674159 0.045312293 -0.010179333 -0.6048135 0.2735645 -0.06761707
0.43544433 0.7774761 0.10344061 1.3944073 1.2337364 1.2371246 0.12457503 -0.28821918
0.285751 -0.2595555 0.29063207 0.32548475 -1.5642195 -0.53259563 -0.3190024 -0.13354622
1.4466137 1.5352081 -0.32804888 0.13799909 0.33511078 -0.56908756 0.2955596 0.41962576
-1.0861028 -0.87530977 -0.8650268 -0.17571239 -0.20688133 0.27089414 0.25815484 0.18517575
-0.44294304 0.31093207 0.36755428 0.68589884 -1.674549 -0.7610549 -0.54319555 -0.42670923
00000000: 85a8 aebf ff67 41be 6243 06bd 5ece bf3e
00000010: c515 973f e912 cb3f 4193 18bf 308c 29bd
00000020: 7c23 c93c 2fdb 3fbf 8495 b13e 2e0a 933e
00000030: 790b 903e ca12 7abf 0eb5 61bf 2c47 9b3f
00000040: fc5f 4ebf f4e8 0dbf da62 43be 2261 103c
00000050: 5cf2 513e e7ba bd3d c8ec d53e 7c5e 713e
00000060: c58d 8fbf a548 b53c c8f6 6abe 352e bbbf
00000070: f4ba 8cbf 6de6 a5bf 4da8 2b3d 72cb 3fbe
00000080: 7354 593e c437 c2be fadf 63be 825f a53e
00000090: a16b ce3e 8d52 a73f 5b2e 523e 007b 19c0
000000a0: cfdd 98bf 2ead a4be 57a3 b4be 9143 193e
000000b0: 7138 7a3e 46f3 19bf a5a3 483e 60bc b9be
000000c0: 7ec8 92bf 14a0 1f3f 28ad 8fbf 8ea5 3cbd
000000d0: 92db f63e fbd0 5a3f e956 713e 30b2 ebbd
000000e0: 7333 653e 7c2a 08bf 06e9 233d 3504 71be
000000f0: 6469 ff3e 9185 0dbe b475 1bbf 5667 a4bf
00000100: ee84 1fbe b0d5 c13e 28e1 2f3f 13ef e3bd
00000110: e8a2 aabe 605f 953e 226d afbe 43e9 323f
00000120: eba1 d63f ae05 7ebe e0c8 22bd add2 f2be
00000130: 9225 a5bf 172d 75bf 31f8 b83e 5ac1 fc3e
00000140: aba5 ac3d fe1d a73d e048 e93e 12a3 8a3e
00000150: 647e 913b 9a7b c5bf 122b dc3e 1167 b83f
00000160: 1c84 b0bf 05f9 01bf f264 1abd 955a 8dbc
00000170: f512 013d ed9b 8f3e f088 a5be 8724 a83e
00000180: 68fc 8ebf d3e9 213f 842c 19bf a2a1 3d3f
00000190: 6b85 ee3e 0a1e 9f3f 4325 b43e 119f b13d
000001a0: a53b a6be 5f01 afbe cb85 a73e 001d e33e
000001b0: 1815 7abf 0c0a b83e 1702 5e3f d5b8 1dbe
000001c0: 64ba 2dc0 da03 d2bf f194 8dbd eac4 a0be
000001d0: e417 ac3e 7ef0 14bf 1301 703d 516d 00bd
000001e0: 6031 febe 84e1 123d 52f8 bcbd d09a bb3f
000001f0: 343c ad3e 7495 57bd a3b3 6fbe 2903 ca3e
00000200: 9c5c 00be 2a3f c9be 4225 993d 59cf adbe
00000210: dbf1 e33e 0a9a edbf c681 29bf d035 9a3f
00000220: 209a 913f e8b3 8e3f eead ed3d b1d8 063e
00000230: 080f c0bc 3f98 973e 01ae 923e 3a4f cdbe
00000240: 4b55 87bf 3aa1 d23e cde3 8a3f 929f 203e
00000250: 6b2b 0540 6bfc 36be aad7 b43d a367 88be
00000260: d00e 153c 2095 2b3e c0f5 b0bc 30d4 03bf
00000270: f018 d43f 74c6 f4bd cef2 b73e d236 d0bd
00000280: 8603 c1bf 01b1 e2bf 78bb 983e aa68 2b3e
00000290: 3acf cc3d 5f3f 1b3d 23a3 eb3d e80b 60be
000002a0: d445 8c3e efe4 f5be 0dcb 1a40 9fb0 05bf
000002b0: 5d33 3c40 d1ee ddbf 6461 263e 6e47 09be
000002c0: ddd5 2b3d 84cf 34be 574c 3b3e 4bc1 28bf
000002d0: 26fa 80bf 9c09 e7be f357 463e 5efc a93e
000002e0: 622b 783f 670e 6f3f c52e bc3e 0a55 2bbe
000002f0: edf3 d8be 12fa 80be a8f1 ea3e 1da1 823f
00000300: 03b0 cc3f faf0 3d3f 31e3 30bf 84be 613f
00000310: 09c6 933f 75be 5bbf 58b5 503e 1144 22be
00000320: b94c 58bd 3ff1 58bf b7e1 e33e 329b 21bf
00000330: 9901 a33f 653d 05bf 204a 183f 5200 063e
00000340: 4b16 a9bf 751b 373f 93a5 b1bd 6299 393d
00000350: 38c7 26bc 0fd5 1abf a510 8c3e d27a 8abd
00000360: 8ff2 de3e ac08 473f acd8 d33d f07b b23f
00000370: 13eb 9d3f 195a 9e3f 3121 ff3d 7791 93be
00000380: f44d 923e 75e4 84be bacd 943e f0a5 a63e
00000390: 5838 c8bf 3058 08bf 4854 a3be 57c0 08be
000003a0: a32a b93f b381 c43f 06f6 a7be a24f 0d3e
000003b0: a493 ab3e b9af 11bf 9753 973e 30d9 d63e
000003c0: 6b05 8bbf 4d14 60bf 6572 5dbf f3ed 33be
000003d0: b3d8 53be a3b2 8a3e df2c 843e b69e 3d3e
000003e0: 6ec9 e2be 7d32 9f3e 1330 bc3e 1197 2f3f
000003f0: 9f57 d6bf 7ed4 42bf dd0e 0bbf a279 dabe

layers.0.bias f4 [128]
0.07529986 0.05140501 0.025416091 -0.16586523 -0.31918973 -0.15303285 -0.151032 0.005461752
-0.16650453 -0.016739309 -0.0485718 -0.22070837 0.12405128 0.09106196 -0.034671262 0.2520043
0.0005562625 -0.09685733 -0.08527715 -0.06189484 0.20474266 0.10203926 0.1153186 -0.31482735
-0.044145744 -0.0689709 0.3183514 -0.30387154 0.09460435 0.3400293 -0.36975375 0.15360211
0.12982066 -0.034353074 -0.058352225 0.34372658 -0.24764524 0.039235167 0.09919733 0.024547776
-0.16677798 0.09523495 0.033121023 0.13271113 0.3128535 -0.28080428 -0.086305074 0.15431175
-0.019647177 0.10402257 0.34903806 0.080140285 -0.11468086 -0.12872471 -0.3220697 -0.37090197
-0.04609235 0.14957087 -0.15126197 -0.2683902 0.30167758 -0.0732833 0.25574803 -0.06961507
-0.18702345 -0.26187336 -0.21380724 -0.29783127 -0.12879215 0.23993194 -0.06897352 -0.034189284
0.11769994 0.077336065 0.103711486 0.030175457 0.18165533 0.14200455 0.094719395 -0.29035774
-0.29775938 0.010420822 -0.16204934 0.0048930356 0.13766801 0.035821635 0.02311335 0.04923239
-0.13302894 -0.059310656 -0.09905158 -0.081591845 0.22170068 0.1668135 -0.15247872 -0.2544177
0.040464554 -0.010479054 0.23855828 0.40895063 0.00093962916 0.1368081 0.15988624 -0.18879479
0.21381707 0.0869005 -0.3483869 -0.011903984 0.016062323 -0.06201061 0.24535893 0.063090086
-0.3124526 -0.23602384 0.31980154 -0.4100429 0.27325174 -0.019499386 0.16923776 0.17601418
-0.31973597 -0.15510313 -0.108501084 -0.24168198 -0.32274973 -0.16460711 -0.008327508 -0.12052136
00000000: d036 9a3d 0f8e 523d 6835 d03c 93d8 29be
00000010: d66c a3be a5b4 1cbe 22a8 1abe 7ff8 b23b
00000020: 2a80 2abe e020 89bc 39f3 46bd 6001 62be
00000030: 990e fe3d b17e ba3d 7403 0ebd b506 813e
00000040: 25d2 113a 235d c6bd c9a5 aebd 7285 7dbd
00000050: 0fa8 513e f6f9 d03d 282c ec3d 0d31 a1be
00000060: 2bd2 34bd 9d40 8dbd f4fe a23e 0d95 9bbe
00000070: edbf c13d 5218 ae3e 5d50 bdbe df49 1d3e
00000080: b5ef 043e cfb5 0cbd be02 6fbd eefc af3e
00000090: b796 7dbe 0eb5 203d f827 cb3d 6b18 c93c
000000a0: d9c7 2abe 8b0a c33d e9a9 073d 6de5 073e
000000b0: 552e a03e 94c5 8fbe b7c0 b0bd e603 1e3e
000000c0: 1ef3 a0bc c909 d53d 1eb5 b23e 9720 a43d
000000d0: ccdd eabd 69d0 03be 52e6 a4be dde6 bdbe
000000e0: 55cb 3cbd 1b29 193e 6be4 1abe 716a 89be
000000f0: 7c75 9a3e 8e15 96bd 68f1 823e 5992 8ebd
00000100: 1383 3fbe 4414 86be 49f0 5abe 577d 98be
00000110: 17e2 03be b8b0 753e fd41 8dbd 100a 0cbd
00000120: ab0c f13d 5f62 9e3d b066 d43d 8532 f73c
00000130: db03 3a3e a469 113e 3efc c13d c5a9 94be
00000140: eb73 98be 18bc 2a3c 43f0 25be c255 a03b
00000150: d8f8 0c3e b5b9 123d 3558 bd3c e7a7 493d
00000160: bd38 08be bbef 72bd 8edb cabd a019 a7bd
00000170: 8105 633e 28d1 2a3e 6223 1cbe 0943 82be
00000180: 29be 253d 57b0 2bbc 9f48 743e fa61 d13e
00000190: 7251 763a 6c17 0c3e 38b9 233e 6c53 41be
000001a0: ddf2 5a3e e4f8 b13d c55f b2be ed08 43bc
000001b0: 2295 833c d6fe 7dbd 5f3f 7b3e 6035 813d
000001c0: caf9 9fbe 3cb0 71be 07bd a33e 25f1 d1be
000001d0: a7e7 8b3e 2dbd 9fbc aa4c 2d3e 103d 343e
000001e0: 6fb4 a3be 5bd3 1ebe d135 debd 7b7b 77be
000001f0: 743f a5be c48e 28be 1a70 08bc e7d3 f6bd

layers.1.weight f4 [128, 128]
-0.9811047 -0.35062164 -0.056808233 0.11540957 0.61623883 0.75120485 0.5847941 -0.2253316
0.16169865 -0.14319994 0.024270993 0.24016944 -0.012936643 0.35815668 0.17443374 -0.2579232
0.51512396 0.007190426 0.09977754 -0.52024806 -0.14120224 -0.5464315 -0.0021570788 -0.04486168
0.5740303 -0.14684168 -0.19257666 -0.118523985 -0.40253627 -0.4678159 0.5962138 0.04925673
-0.6953491 0.20475845 0.28117618 -0.5393883 0.40655646 -0.53246784 -0.1553645 0.09612262
-0.13665532 -0.1792006 0.41088462 -0.2327983 -0.42465326 0.10644348 0.08485898 -0.33921018
0.15486251 -0.25592443 -0.30438092 -0.10933833 -0.26491335 0.1588739 0.50757205 0.5215003
0.63347083 -0.4280482 -0.15027387 0.44846123 -0.54467434 0.21926093 -0.6114904 0.1391595
-0.0247029 0.31916225 0.37187606 0.42498845 -0.31575966 -0.49350217 0.3772115 0.27174285
-0.0754124 0.009578285 -0.3528344 -0.2194732 -0.14790198 -0.38053882 0.24764986 0.30804926
0.011397524 0.6565168 0.25266087 0.09308713 -0.13008784 -0.076583184 -0.44072494 -0.11493695
0.15238756 -0.1094378 0.035287272 0.28194058 -0.22010045 -0.07174306 0.23687364 0.6562553
0.022545643 0.68538344 -0.16245008 -0.03780333 0.15225236 -0.7493353 -0.22956559 0.39304754
-0.17860858 -0.080756776 0.35282254 0.1717689 0.23737079 0.2748218 -0.15185024 -0.020429665
0.45034054 0.33351493 -0.29746628 1.1884828 -0.28536442 0.35854828 -0.73857164 -0.7818733
0.30801985 0.55953574 -0.04526137 0.36645886 0.5734474 0.28466603 0.5309966 -0.24374047
-0.14863501 0.08802044 -1.2045944 -1.6800066 -0.07398003 0.39092198 -0.08167112 0.9645322
0.21143709 -1.1885765 0.3579614 1.7615492 -0.0011956099 -0.30357102 0.10127866 0.021491313
0.0198279 0.3787833 0.62106 -0.083602786 -0.27875882 -0.77353776 -0.6291905 -0.39806032
0.027250841 -0.17747414 -0.3172447 -0.49773052 -0.6069692 -0.3059742 -0.051341303 0.518603
0.41334122 -0.3643575 0.35699213 -0.82607204 0.9749194 -0.93890387 0.3897705 0.33686
-0.27764758 -0.054251254 -0.44688118 -0.006381481 0.77092695 0.3477068 0.79164994 -1.0922375
-0.21794069 -0.31359208 -1.1421008 -0.2237351 -0.7087569 0.67937046 0.27588445 0.4225263
0.22452243 -0.5548819 -0.12901607 1.1565561 -0.8069235 0.30790478 -0.99604243 1.217929
0.15947653 -0.0723702 0.36661053 0.21025966 -0.086799614 0.22270946 -0.20881084 0.3274422
-0.7072098 0.8519665 0.055057157 -0.13010117 -0.5506472 -0.02413412 0.51359403 0.9403412
0.1633147 -0.15576549 0.07583424 0.32667226 -1.3850414 -0.6702116 0.4457279 0.78250617
-0.5254442 0.022036955 0.22310168 0.032515865 -0.20159027 -0.51201916 -0.65914 -0.14270318
0.45868763 0.27864316 -1.1948977 -0.11636043 0.011203828 -0.44563234 -0.5376787 0.27508202
-0.09539037 -0.0027273037 0.10104023 -0.3478947 0.42519027 0.08515311 0.05374971 -0.32212654
0.09374024 -0.22096808 0.16485178 0.3326128 -0.8453141 0.17768362 -1.0347067 -0.25049224
0.11224649 -0.04453677 -0.084147535 0.22211033 0.050677426 0.8893365 0.48536742 0.14727893
00000000: ad29 7bbf ae84 b3be c0af 68bd da5b ec3d
00000010: d4c1 1d3f f64e 403f 11b5 153f 54bd 66be
00000020: 5594 253e 01a3 12be f6d3 c63c faee 753e
00000030: 37f4 53bc 5060 b73e c29e 323e 820e 84be
00000040: 2adf 033f aa9d eb3b 2b58 cc3d fa2e 05bf
00000050: 5297 10be efe2 0bbf c75d 0dbb e2c0 37bd
00000060: a6f3 123f aa5d 16be d132 45be b4bc f2bd
00000070: 3c19 cebe 9185 efbe 78a1 183f 6dc1 493d
00000080: 6602 32bf 33ac 513e 53f6 8f3e 5a15 0abf
00000090: 2b28 d03e d04f 08bf df17 1fbe f0db c43d
000000a0: 5fef 0bbe 5d80 37be 785f d23e ad62 6ebe
000000b0: 276c d9be 0aff d93d 8bca ad3d f5ac adbe
000000c0: 4794 1e3e 8708 83be d1d7 9bbe c6ec dfbd
000000d0: b9a2 87be d7af 223e 3ef0 013f 0b81 053f
000000e0: 252b 223f 2229 dbbe 65e1 19be b69c e53e
000000f0: c76f 0bbf f085 603e a38a 1cbf d47f 0e3e
00000100: bc5d cabc 3c69 a33e 8a66 be3e 1698 d93e
00000110: 40ab a1be 51ac fcbe de21 c13e e121 8b3e
00000120: d171 9abd 3dee 1c3c b6a6 b4be 95bd 60be
00000130: 9e73 17be fcd5 c2be ed97 7d3e a2b8 9d3e
00000140: aebc 3a3c 7c11 283f c45c 813e 77a4 be3d
00000150: bf35 05be a5d7 9cbd b3a6 e1be 1064 ebbd
00000160: 7c0b 1c3e ed20 e0bd 6389 103d 845a 903e
00000170: 0362 61be 07ee 92bd 018f 723e 5900 283f
00000180: a4b1 b83c 4a75 2f3f 5059 26be aad7 1abd
00000190: 0be8 1b3e 70d4 3fbf 3e13 6bbe 873d c93e
000001a0: 2be5 36be cf63 a5bd 28a5 b43e 30e4 2f3e
000001b0: 5411 733e 71b5 8c3e a17e 1bbe 1d5c a7bc
000001c0: 0993 e63e 78c2 aa3e 804d 98be 3420 983f
000001d0: 491b 92be a493 b73e 0813 3dbf d928 48bf
000001e0: c7b4 9d3e bc3d 0f3f fc63 39bd 7fa0 bb3e
000001f0: 73cd 123f bfbf 913e 65ef 073f 1a97 79be
00000200: c733 18be 0f44 b43d 2630 9abf 750a d7bf
00000210: d882 97bd ed26 c83e 3043 a7bd 95eb 763f
00000220: f782 583e 4623 98bf b746 b73e 727a e13f
00000230: 03b6 9cba a96d 9bbe 306b cf3d 8d0e b03c
00000240: 1f6e a23c e2ef c13e cafd 1e3f f037 abbd
00000250: 7ab9 8ebe 9206 46bf a112 21bf 90ce cbbe
00000260: 283d df3c c8bb 35be e66d a2be 89d6 febe
00000270: 5562 1bbf a6a8 9cbe 424b 52bd 2bc3 043f
00000280: 76a1 d33e 118d babe acc7 b63e 7579 53bf
00000290: 5194 793f 015c 70bf 0090 c73e ea78 ac3e
000002a0: d327 8ebe 9036 5ebd 9ccd e4be be1b d1bb
000002b0: 785b 453f a006 b23e 92a9 4a3f 70ce 8bbf
000002c0: d82b 5fbe 248f a0be 5c30 92bf d01a 65be
000002d0: 1871 35bf 39eb 2d3f ba40 8d3e 5e55 d83e
000002e0: 35e9 653e bd0c 0ebf ca1c 04be 080a 943f
000002f0: 8a92 4ebf b2a5 9d3e a3fc 7ebf 19e5 9b3f
00000300: d14d 233e d436 94bd 60b4 bb3e 4f4e 573e
00000310: ffc3 b1bd f30d 643e 82d2 55be 81a6 a73e
00000320: b40b 35bf 7a1a 5a3f 9d83 613d 3e39 05be
00000330: 37f7 0cbf ebb4 c5bc e67a 033f 33ba 703f
00000340: f83b 273e fd80 1fbe fb4e 9b3d 9641 a73e
00000350: 0949 b1bf fd92 2bbf 7336 e43e 5352 483f
00000360: 8383 06bf d886 b43c c474 643e 5b2f 053d
00000370: ae6d 4ebe b013 03bf 66bd 28bf c820 12be
00000380: 1bd9 ea3e 51aa 8e3e 68f2 98bf 614e eebd
00000390: 4390 373c ec29 e4be 50a5 09bf 8dd7 8c3e
000003a0: 075c c3bd 90bc 32bb 2eee ce3d 411f b2be
000003b0: 8ab2 d93e c164 ae3d a828 5c3d c5ed a4be
000003c0: e2fa bf3d 7545 62be e8ce 283e 3a4c aa3e
000003d0: 8166 58bf b2f2 353e 4571 84bf 8540 80be
000003e0: 7de1 e53d 306c 36bd 8b55 acbd e470 633e
000003f0: 2293 4f3d 8fab 633f 1482 f83e 4ad0 163e

layers.1.bias f4 [128]
-0.18128179 -0.44408992 0.036082793 -0.05385699 0.36413085 0.1319114 -0.25100875 0.2513714
-0.21371174 0.21011375 -0.14435196 -0.29307434 -0.014332286 -0.15633206 -0.7318455 0.38699585
0.12979677 0.33747083 -0.08334644 0.1950296 0.14697716 -0.49499166 -0.58856124 0.24924906
-0.5253931 0.10600716 -0.49056768 0.8250441 -0.2427654 -0.30815262 -0.63984835 0.022028016
0.33987722 -0.20796801 -0.07691856 -0.25284788 0.3926652 0.025904858 0.28366247 -0.07444483
-0.07773938 0.17971201 0.299804 0.5405193 -0.42127115 0.11227153 -0.6910115 -0.5710733
-0.2052249 -0.104403436 -0.11156438 0.24887857 0.041353736 -0.39816126 0.0704017 -0.36686775
-0.19569027 -0.2489022 0.17989637 -0.5283178 0.09143748 0.1235589 0.4343729 0.9336431
0.11962342 -0.33842075 -0.24660301 -0.10507995 -0.2673957 -0.2591544 0.0261966 0.05817796
0.020531893 0.014878377 0.61620706 -0.27360436 0.24652791 -0.27559367 -0.19354345 0.14746764
0.055479318 0.39616996 0.28497148 0.34935522 -0.0012921568 -0.05490009 0.29293656 0.13945054
-0.26214144 -0.51442116 0.13941197 -0.39054945 -0.50796545 0.04644914 0.26152912 -0.06743775
1.2678438 0.24679694 -0.22992401 -0.15500447 -0.41710207 -0.21236394 0.05947147 -0.31338835
0.11476558 0.05769789 0.37149382 -0.22989164 -0.6631727 0.15773797 -0.28832322 0.027357858
0.17730469 0.12537356 -0.07783691 -0.5730466 0.63789904 0.28181422 -0.05559472 -0.23852558
-0.1374346 0.113617435 0.5159704 0.34848458 -0.22510335 0.61754036 -0.51310986 -0.46850803
00000000: efa1 39be c15f e3be 8dcb 133d 2699 5cbd
00000010: 5c6f ba3e c813 073e 3884 80be c1b3 803e
00000020: 40d7 5abe 0f28 573e 00d1 13be d70d 96be
00000030: f7d1 6abc 8315 20be 3a5a 3bbf 5224 c63e
00000040: 72e9 043e fac8 ac3e 8ab1 aabd d7b5 473e
00000050: 2e81 163e 8c6f fdbe f3ab 16bf 253b 7f3e
00000060: 2a80 06bf 481a d93d b02b fbbe 1736 533f
00000070: 7e97 78be 2ec6 9dbe 1acd 23bf 1974 b43c
00000080: 6304 ae3e 91f5 54be 7a87 9dbd 4775 81be
00000090: 6a0b c93e 6d36 d43c 353c 913e 8876 98bd
000000a0: d335 9fbd 6d06 383e e97f 993e 795f 0a3f
000000b0: dab0 d7be 9eee e53d 21e6 30bf dc31 12bf
000000c0: 7a26 52be 78d1 d5bd de7b e4bd 06da 7e3e
000000d0: 8962 293d cbdb cbbe c42e 903d 17d6 bbbe
000000e0: 0863 48be 38e0 7ebe c136 383e d63f 07bf
000000f0: 9343 bb3d 730c fd3d 2066 de3e 3c03 6f3f
00000100: 20fd f43d 7c45 adbe 8085 7cbe 2834 d7bd
00000110: 17e8 88be e3af 84be 419a d63c 034c 6e3d
00000120: 8032 a83c 70c4 733c bfbf 1d3f df15 8cbe
00000130: d071 7c3e 9d1a 8dbe 4130 46be c201 173e
00000140: 483e 633d cad6 ca3e c8e7 913e b0de b23e
00000150: 965d a9ba ebde 60bd c8fb 953e 1fcc 0e3e
00000160: 6737 86be 1bb1 03bf 03c2 0e3e 19f6 c7be
00000170: 060a 02bf 7441 3e3d 25e7 853e ce1c 8abd
00000180: b548 a23f 56b8 7c3e 3371 6bbe 7eb9 1ebe
00000190: 678e d5be ef75 59be 5b98 733d 7074 a0be
000001a0: 370a eb3d 9f54 6c3d 7034 be3e b768 6bbe
000001b0: b0c5 29bf 1086 213e 1a9f 93be 961d e03c
000001c0: 5c8f 353e ed61 003e f568 9fbd 2fb3 12bf
000001d0: 5a4d 233f f449 903e 4ab7 63bd 0d40 74be
000001e0: a8bb 0cbe 42b0 e83d a316 043f 926c b23e
000001f0: 7e81 66be 2017 1e3f 2b5b 03bf 49e0 efbe

layers.3.weight f4 [128, 128]
0.70011055 0.2687481 -0.7068163 -0.3671018 -0.15856588 -0.72820187 0.103693604 -0.85279727
-0.245594 -0.43310112 0.33939314 -0.6179218 -0.067807086 -0.13097112 0.42431408 -0.5959475
0.2541265 -0.54450643 -0.6428206 -0.1953356 0.07742296 0.5445922 0.5994039 0.31945723
-0.3754338 0.08080268 0.072196975 -0.3044555 0.611344 -0.15506689 0.150768 0.36190873
-0.24212997 -0.011836318 0.115635246 -0.17117599 -0.3702937 0.40395072 -0.47321054 0.06322647
0.8953558 -0.5910781 0.48652694 0.17645198 0.89065206 -0.52020305 0.54712504 0.4412295
-0.057404228 -0.09369082 0.03508015 -0.216383 -0.3930549 0.30003676 -0.024884388 0.33863494
0.2325076 0.07807701 0.18010323 0.586374 0.101254806 -0.43525064 0.37788436 -0.032226223
-0.10191334 0.62413776 -0.26346388 0.1313885 -0.016097898 -0.08120349 0.27589905 0.114378355
0.5406773 0.3050921 -0.031452417 0.020189453 0.14255692 -0.054151658 -0.13968062 -0.41481915
-0.15876645 -0.07796297 0.10664191 0.22520548 -0.13084099 0.07816847 -0.3845132 0.25665197
0.050213795 -0.43962696 0.12738554 0.5189816 0.050450556 0.3922021 0.03761924 0.6176974
0.10835446 0.44609573 -0.3051603 0.2657886 0.3679424 0.31388387 0.08242842 0.020999385
0.12332539 -0.4548622 -0.64664817 0.098779805 -0.23752868 -0.21035174 -0.13006221 0.30458757
0.29266596 0.3590234 -0.028192773 0.7831615 -0.38687906 -0.2419835 0.10253729 0.18615513
-0.48419666 -0.49662903 0.17032029 -0.009335915 0.36469895 -0.74891335 -0.0790155 0.7167437
-0.49313995 -0.07525242 0.14505374 -0.36932945 -0.08432559 0.17487206 -0.3260795 -1.3486141
-0.17473055 0.54663223 -0.0072561293 0.19209112 -0.05788401 -0.22443104 -0.11241686 -0.20601954
1.0452207 0.312544 0.3986234 0.039414655 0.13151631 -0.12905936 -0.30287722 -0.5260551
-0.8041487 -0.24846736 -0.19590214 -0.34769815 -0.09566483 0.09627881 -0.24688968 -0.1135627
0.70457524 0.611243 -0.39608434 -0.053306956 -0.12606984 0.31175035 -0.18502858 -0.14985156
0.32978237 0.17539655 0.2129619 0.02185238 0.14863062 0.21021233 0.33467624 -0.409687
0.42982185 -0.6352012 0.0773079 -0.10104248 -0.7622938 -0.2933137 0.7837556 -0.1317191
0.23268338 0.50059646 0.5909463 -0.22131719 0.114048064 -0.16433659 0.74310714 0.18670684
0.64995635 0.3867111 -0.50039274 -0.036960445 0.1246425 0.33057734 0.07894358 0.39467397
0.21051815 0.043325547 0.3053511 0.24934196 0.22026429 -0.12189613 0.12255181 0.28648457
-0.19275035 0.32587224 -0.20368987 -0.07145606 -0.03578572 -0.09590668 -0.037155494 -0.11429268
-0.6038058 -0.35824594 0.054597728 0.6177926 -0.13990185 -1.2054414 -0.012479266 0.4332001
-0.00840478 -0.3342656 -0.1946125 -0.7527102 0.24337119 0.033137307 -0.21371853 0.02381199
-0.22100262 0.20516342 -0.08678828 0.3138921 -0.34769803 0.5471061 -0.2309049 -0.00042779182
0.03467391 0.07108163 0.17368236 -0.18867585 0.21049239 0.2497691 0.031253017 -0.66546446
-0.78458756 0.019769672 -0.108910106 -0.5594447 0.6048523 -0.45800942 0.031497892 0.0253277
00000000: 723a 333f 5a99 893e eaf1 34bf c4f4 bbbe
00000010: 185f 22be 706b 3abf 505d d43d ec50 5abf
00000020: fe7c 7bbe 6ebf ddbe f0c4 ad3e 2030 1ebf
00000030: 71de 8abd 4b1d 06be b23f d93e 0490 18bf
00000040: de1c 823e c664 0bbf e48f 24bf 0e06 48be
00000050: ee8f 9e3d 656a 0b3f 8972 193f e68f a33e
00000060: dc38 c0be e07b a53d 02dc 933d 97e1 9bbe
00000070: 0a81 1c3f dbc9 1ebe ed62 1a3e 1a4c b93e
00000080: ebf0 77be 1eed 41bc 2cd2 ec3d c248 2fbe
00000090: 2397 bdbe a1d2 ce3e a748 f2be e17c 813d
000000a0: 0a36 653f e550 17bf 0f1a f93e d4af 343e
000000b0: c601 643f 072c 05bf 6310 0c3f d5e8 e13e
000000c0: b220 6bbd f9e0 bfbd 34b0 0f3d 8193 5dbe
000000d0: 7e3e c9be 6b9e 993e 58da cbbc 8f61 ad3e
000000e0: 7916 6e3e d7e6 9f3d fb6c 383e 9b1c 163f
000000f0: ae5e cf3d 2cd9 debe 0f7a c13e a5ff 03bd
00000100: f1b7 d0bd 7ec7 1f3f bde4 86be b58a 063e
00000110: bddf 83bc 044e a6bd a442 8d3e 333f ea3d
00000120: d469 0a3f 0835 9c3e 40d4 00bd 5a64 a53c
00000130: 71fa 113e 21ce 5dbd 7008 0fbe 2d63 d4be
00000140: ac93 22be 0dab 9fbd 1367 da3d 449c 663e
00000150: 2efb 05be ca16 a03d eade c4be e367 833e
00000160: fbac 4d3d c916 e1be 5b71 023e fadb 043f
00000170: 3ea5 4e3d b7ce c83e a216 1a3d 6b21 1e3f
00000180: f1e8 dd3d a966 e43e f93d 9cbe 7215 883e
00000190: f262 bc3e 63b5 a03e 3bd0 a83d e706 ac3c
000001a0: 0692 fc3d b3e3 e8be bc8a 25bf 114d ca3d
000001b0: b83a 73be 7266 57be 072f 05be e7f2 9b3e
000001c0: 50d8 953e ead1 b73e 88f4 e6bc 467d 483f
000001d0: 0315 c6be 86ca 77be 12ff d13d 739f 3e3e
000001e0: a0e8 f7be 2946 febe 7168 2e3e aaf5 18bc
000001f0: d2b9 ba3e c9b8 3fbf e1d2 a1bd 847c 373f
00000200: d77c fcbe f11d 9abd f888 143e c018 bdbe
00000210: e5b2 acbd a911 333e e4f3 a6be 639f acbf
00000220: 91ec 32be 17f0 0b3f d3c4 edbb 89b3 443e
00000230: c917 6dbd 40d1 65be d03a e6bd c9f6 52be
00000240: cbc9 853f c405 a03e 5e18 cc3e 4371 213d
00000250: 36ac 063e 2328 04be b912 9bbe 8cab 06bf
00000260: b0dc 4dbf 3a6e 7ebe 929a 48be 7e05 b2be
00000270: eceb c3bd d32d c53d a6d0 7cbe 9093 e8bd
00000280: 0b5f 343f 6c7a 1c3f 91cb cabe 6558 5abd
00000290: 7418 01be be9d 9f3e 2278 3dbe b072 19be
000002a0: 3cd9 a83e 279b 333e af12 5a3e c303 b33c
000002b0: a032 183e e741 573e af5a ab3e 7fc2 d1be
000002c0: 9c11 dc3e 8c9c 22bf 9b53 9e3d 5cef cebd
000002d0: b025 43bf 372d 96be 35a4 483f 5fe1 06be
000002e0: 8d44 6e3e 1727 003f 4248 173f f9a0 62be
000002f0: 0892 e93d da47 28be 453c 3e3f 1430 3f3e
00000300: 8a63 263f fffe c53e bd19 00bf d663 17bd
00000310: 9144 ff3d 6f41 a93e 2cad a13d b512 ca3e
00000320: 1292 573e 2176 313d fb56 9c3e 8053 7f3e
00000330: f68c 613e aea4 f9bd 72fc fa3d 1bae 923e
00000340: 5960 45be bad8 a63e 1494 50be 8e57 92bd
00000350: 0c94 12bd b96a c4bd 5c30 18bd 4812 eabd
00000360: 0493 1abf 036c b7be dea1 5f3d a827 1e3f
00000370: 6e42 0fbe e74b 9abf d675 4cbc 67cc dd3e
00000380: 34b4 09bc dc24 abbe 8048 47be 9eb1 40bf
00000390: 4c36 793e fcba 073d 08d9 5abe 5d11 c33c
000003a0: 834e 62be 5c16 523e 0ebe b1bd 77b6 a03e
000003b0: 7a05 b2be 250f 0c3f 5672 6cbe 3f49 e0b9
000003c0: 3b06 0e3d 3f93 913d cad9 313e 3e34 41be
000003d0: 518b 573e 79c3 7f3e 2a03 003d e15b 2abf
000003e0: bbda 48bf 02f4 a13c 430c dfbd c537 0fbf
000003f0: 9ad7 1a3f 3680 eabe ef03 013d 097c cf3c

layers.3.bias f4 [128]
0.048373368 -0.29478464 -0.04076621 0.08252063 0.37112567 -0.51079386 -0.23705852 0.1315083
-0.05110904 0.10350545 0.01713177 -0.16876706 0.06562768 0.28227204 -0.3664712 0.2758778
0.059799656 -0.0076970514 -0.36549538 -0.76833665 -0.118430786 0.1517609 0.25000376 -0.76212996
-0.56904894 -1.0310695 0.41310823 -0.056776512 -0.35393515 0.34160638 0.57379717 0.018627716
-0.25336498 0.09295004 0.42308837 0.27222663 -0.9319536 0.16319911 -0.48940095 0.7095198
0.15927185 -0.3472723 -0.20599994 0.014441599 0.5676739 0.23598537 0.44513518 0.9853843
-0.12675767 0.050784443 -0.13325362 0.18717985 -0.4272419 0.12773058 -0.15067483 -0.49972758
0.34467936 -0.46308452 -0.35508156 -0.655823 0.2411361 -0.38127568 -0.31939846 0.28616333
0.024431603 -0.3143391 0.5329274 0.37943435 0.21155551 0.40783048 -0.034153 -0.2894827
0.042983614 -0.008764296 0.58485967 0.3431095 0.027911272 0.2163856 0.67257166 0.7185159
0.74585325 0.37536612 0.09053776 0.19024433 -0.19313619 0.57669497 0.111761674 -0.06635041
-0.04133412 -0.19417457 0.55151755 -0.2738843 0.55476874 -0.47351682 -0.08200171 -0.31990585
-0.5203131 -0.31267655 -0.262951 0.6675733 -0.05603272 0.42915347 -0.6884768 -0.46171921
0.65971607 -0.31584236 -0.3498123 0.14292604 -0.7174109 -0.31857875 0.06382346 0.28428653
-0.378142 0.6558462 -0.23837854 -0.18053322 0.20002523 -0.55536634 0.6705681 0.052072354
-0.21757568 -0.2532819 -0.17909878 -0.62475806 -0.08102373 0.3776365 0.23044024 0.69020605
00000000: 2723 463d 03ee 96be 78fa 26bd 9300 a93d
00000010: 2f04 be3e 63c3 02bf 78bf 72be 1daa 063e
00000020: b657 51bd aafa d33d ed57 8c3c 46d1 2cbe
00000030: ce67 863d f685 903e 1da2 bbbe db3f 8d3e
00000040: 7cf0 743d 8c37 fcbb 3622 bbbe b6b1 44bf
00000050: d78b f2bd 3667 1b3e 7e00 803e f31a 43bf
00000060: 31ad 11bf 16fa 83bf ec82 d33e 7d8e 68bd
00000070: fd36 b5be 08e7 ae3e 5fe4 123f 2799 983c
00000080: 0eb9 81be 975c be3d 0a9f d83e 4a61 8b3e
00000090: 8394 6ebf ab1d 273e c392 fabe 17a3 353f
000000a0: 2918 233e adcd b1be a6f1 52be 759c 6c3c
000000b0: 1453 113f 26a6 713e c2e8 e33e 2542 7c3f
000000c0: c3cc 01be 5903 503d a373 08be 13ac 3f3e
000000d0: 73bf dabe cecb 023e 814a 1abe 4bdc ffbe
000000e0: d079 b03e 6a19 edbe 40cd b5be 04e4 27bf
000000f0: 62ec 763e 9136 c3be 3288 a3be 0084 923e
00000100: c924 c83c 0ef1 a0be ee6d 083f 3845 c23e
00000110: 02a2 583e 28cf d03e 04e4 0bbd 1437 94be
00000120: 960f 303d 1f98 0fbc 5db9 153f 0cac af3e
00000130: 2ea6 e43c 3094 5d3e a82d 2c3f a8f0 373f
00000140: 3df0 3e3f fd2f c03e dc6b b93d 69cf 423e
00000150: 7ec5 45be 48a2 133f 4ee3 e43d b9e2 87bd
00000160: f74d 29bd b3d5 46be 4130 0d3f 903a 8cbe
00000170: 5305 0e3f cc70 f2be 83f0 a7bd b3ca a3be
00000180: 3d33 05bf 2417 a0be 83a1 86be 15e6 2a3f
00000190: 9182 65bd 01ba db3e 0440 30bf 7666 ecbe
000001a0: 27e3 283f 17b6 a1be 991a b3be 345b 123e
000001b0: 3ea8 37bf c11c a3be e0b5 823d 018e 913e
000001c0: d49b c1be 89e5 273f 8119 74be b3dd 38be
000001d0: 6ad3 4c3e 7d2c 0ebf 5aaa 2b3f d249 553d
000001e0: 29cc 5ebe 2aae 81be ac65 37be 25f0 1fbf
000001f0: c5ef a5bd 9259 c13e 87f8 6b3e 58b1 303f

layers.5.weight f4 [1, 128]
0.92194676 -0.94586265 -0.7783368 0.56933945 0.8636028 -0.9573703 -0.85612607 -0.57985556
1.6819825 -0.69822425 1.2492005 -0.41683522 0.7901368 0.8170651 -0.57077646 0.5080763
0.8786941 0.96177846 -0.72005785 -1.1772316 -0.0935403 0.88722575 0.9697391 -0.8676424
-0.6519518 -1.0123131 0.8146469 0.5359704 -0.8188544 0.6838755 0.6936568 -1.3475657
-0.5451524 1.2816033 0.83139616 0.6165679 -0.8969033 0.33783677 -0.639344 0.89713085
0.37280783 -0.9574246 -1.1275388 0.38846147 0.78402096 0.7624148 0.7683923 1.026387
0.8585638 1.19745 1.0417712 0.69507074 -0.64591324 -0.95713747 -0.60518724 -1.287257
0.75389457 -0.5784798 -0.85747176 -0.5386151 0.8851285 -0.7341731 -0.5850623 0.9977127
-1.0816413 -0.9632428 0.59118503 0.6239001 0.9515648 1.0553433 -1.0800699 -0.9731267
0.67530537 1.5907985 0.6436019 0.7679474 0.31950608 0.799508 0.5898168 0.23598173
0.4069048 0.7764635 -0.34320435 1.0183703 -0.6338381 0.6273161 1.1615279 -0.43936887
1.237433 -0.8987985 0.6329343 -0.56696326 0.825322 -0.96148753 -0.37371856 -0.44663104
-0.7610653 -0.8302152 -1.1297723 1.0974512 -0.6476992 0.7010295 -0.5563055 -1.1201104
0.5800133 -0.5189536 -0.7957647 0.6786609 -0.7127901 -1.0881188 0.7896857 0.5229943
-0.40872115 0.8731805 -0.8877443 -0.6939078 0.79561347 -0.8604354 0.85111797 0.8901978
-0.43475318 -0.8252842 -1.2597619 -0.6155672 -0.49309674 0.6739431 -0.01213971 0.9302782
00000000: b404 6c3f 0e24 72bf 1541 47bf 3bc0 113f
00000010: 1315 5d3f 3816 75bf 142b 5bbf 6a71 14bf
00000020: 344b d73f d3be 32bf cde5 9f3f 6d6b d5be
00000030: 6846 4a3f 2e2b 513f 681e 12bf 4a11 023f
00000040: 19f2 603f 1d37 763f b655 38bf 86af 96bf
00000050: 0f92 bfbd 3a21 633f d240 783f d01d 5ebf
00000060: 50e6 26bf 7a93 81bf b38c 503f 5b35 093f
00000070: 71a0 51bf 7712 2f3f 7e93 313f 087d acbf
00000080: 1c8f 0bbf 940b a43f 61d6 543f 65d7 1d3f
00000090: 749b 65bf f1f8 ac3e 0cac 23bf 5eaa 653f
000000a0: abe0 be3e c719 75bf 3153 90bf 6ce4 c63e
000000b0: 99b5 483f 9e2d 433f 5cb5 443f a660 833f
000000c0: d6ca 5b3f 0b46 993f c258 853f 28f0 313f
000000d0: 925a 25bf f606 75bf 8ded 1abf d6c4 a4bf
000000e0: 3cff 403f 4117 14bf 4583 5bbf aee2 09bf
000000f0: c897 623f c5f2 3bbf a5c6 15bf 196a 7f3f
00000100: 3973 8abf 1597 76bf e757 173f ebb7 1f3f
00000110: c099 733f 7d15 873f bb3f 8abf d51e 79bf
00000120: d0e0 2c3f 499f cb3f 18c3 243f 3398 443f
00000130: 4d96 a33e 8eac 4c3f 3cfe 163f 32a5 713e
00000140: d355 d03e 50c6 463f 7bb8 afbe f559 823f
00000150: 3743 22bf ca97 203f f2ac 943f f5f4 e0be
00000160: 3464 9e3f a917 66bf fb07 223f 8124 11bf
00000170: 4d48 533f 0c24 76bf 0a58 bfbe d3ac e4be
00000180: 2dd5 42bf fc88 54bf 619c 90bf 4879 8c3f
00000190: 9dcf 25bf ab76 333f 0a6a 0ebf c75f 8fbf
000001a0: c07b 143f 25da 04bf 3cb7 4bbf b9bc 2d3f
000001b0: 6979 36bf 7a47 8bbf d828 4a3f f4e2 053f
000001c0: e643 d1be c288 5f3f 3643 63bf f1a3 31bf
000001d0: 53ad 4b3f 7f45 5cbf dee2 593f 01e4 633f
000001e0: f897 debe d345 53bf e13f a1bf d095 1dbf
000001f0: 2d77 fcbe 8987 2c3f a2e5 46bc b626 6e3f
