model_zoo/DQN/LunarLander-v2/net_283217.pth (torch, 141767 bytes, 8 tensors)

layers.0.weight f4 [128, 8]
0	0x3e0d6172	0.13806704
1	0xbedc7602	-0.43058783
2	0xbe856f20	-0.26061344
3	0xbd200145	-0.03906371
4	0x3f862b9d	1.048206
5	0x3de86042	0.11346485
6	0xbd3616a5	-0.04445519
7	0x3ed443fd	0.4145812
8	0xbd503f05	-0.05084135
9	0xbeac6c7f	-0.33676526
10	0xbef743e5	-0.48293987
11	0xbdbbc958	-0.09169263
12	0x3dda9dda	0.10674639
13	0xbf10601f	-0.5639667
14	0x3f0d4964	0.5519011
15	0x3d239082	0.039932735
16	0x3f8738fb	1.0564264
17	0xbe8ae529	-0.2712796
18	0xbf4bedf1	-0.79659945
19	0x3daad124	0.08340672
20	0x3e31ba7d	0.17356296
21	0xbedc4b9f	-0.43026444
22	0x3e755767	0.23959123
23	0xbe39dc00	-0.1815033
24	0xbdc3b008	-0.0955506
25	0x3d8dd287	0.069249205
26	0x3d5a4f2d	0.053298164
27	0x3f37b4e9	0.7176042
28	0x3f11eb11	0.5699931
29	0xbd0c8f2c	-0.034316227
30	0xbe7224a1	-0.23646785
31	0xbe2cd61c	-0.16878551
32	0x3eeeb968	0.4662583
33	0xbf041dd5	-0.5160802
34	0x3f231430	0.6370268
35	0x3e74b72a	0.23897997
36	0x3dbbb5d2	0.09165539
37	0x3eba49ef	0.36384532
38	0x3ea82179	0.32838038
39	0xbe6d9975	-0.2320307
40	0x3edec717	0.43511268
41	0xbcc7ea0c	-0.024403594
42	0xbe7f332a	-0.24921861
43	0x3f5a004b	0.851567
44	0x3f543f94	0.8290951
45	0xbd68db2d	-0.056849647
46	0xbec7e09f	-0.3903856
47	0x3dde6587	0.108592086
48	0x3ef632ca	0.48085624
49	0xbd0e7561	-0.03477991
50	0xbe7dcb82	-0.24784663
51	0xbe012a28	-0.12613738
52	0xbf36ae36	-0.71359575
53	0xbefbb331	-0.4916015
54	0xbe0f1dae	-0.13976166
55	0xbe9ebe5b	-0.31004605
56	0xbf25dec4	-0.6479304
57	0xbeeccdfe	-0.4625091
58	0xbec89aab	-0.39180502
59	0x3ecbbe37	0.3979356
60	0x3ee86a61	0.4539366
61	0xbedee9b8	-0.43537688
62	0x3dafd117	0.085848026
63	0x3d886742	0.0666032
64	0xbf95638a	-1.1671002
65	0xbeb76096	-0.35815877
66	0x3f444e6b	0.76682156
67	0xbf35bb81	-0.70989233
68	0xbede0267	-0.43361208
69	0x3e9ed710	0.31023455
70	0x3ee29f19	0.44262007
71	0xbef1282b	-0.47100958
72	0x3b928bcd	0.004472232
73	0xbef0dd07	-0.4704363
74	0x3ed31291	0.41225103
75	0xbeab5510	-0.33463335
76	0xbe142337	-0.14466558
77	0xbe584acb	-0.21122281
78	0xbe80939e	-0.25112623
79	0xbe5ac5f0	-0.2136457
80	0x3f25fda1	0.6484013
81	0x3ed6b52f	0.41935107
82	0x3ee3ec06	0.4451601
83	0x3d10d6d9	0.035361145
84	0x3da82f36	0.0821213
85	0xbe929d72	-0.28635746
86	0xbd50499b	-0.050851446
87	0xbe4087ce	-0.18801805
88	0x3e67dda3	0.22643141
89	0xbdedef58	-0.11617917
90	0x3e68896c	0.22708672
91	0x3f166e96	0.5876249
92	0xbf489633	-0.78354186
93	0x3d31686d	0.04331248
94	0x3e2cfb62	0.1689277
95	0x3f14db3e	0.5814704
96	0xbe8c8638	-0.2744615
97	0xbf094f07	-0.5363621
98	0x3f24d561	0.6438809
99	0xbf18eafd	-0.59733564
100	0x3e84802c	0.25879037
101	0xbc601e2c	-0.013679069
102	0xbd6118c7	-0.05495527
103	0x3edf07be	0.43560594
104	0x3ee00661	0.43754867
105	0x3e1b6668	0.15175784
106	0x3cbb1346	0.022836339
107	0x3e3f3b0a	0.18674865
108	0xbeeef1eb	-0.46668944
109	0xbd59b355	-0.05314954
110	0x3eba8bd5	0.36434808
111	0x3ee3668c	0.44414175
112	0x3ec5cb35	0.38631597
113	0x3f0a517a	0.54030573
114	0x3f2e3675	0.68051845
115	0xbeffc14b	-0.49952158
116	0x3eae964a	0.34099036
117	0xbe265fd9	-0.162475
118	0x3e55ae9e	0.20867392
119	0x3ed59f6d	0.41723195
120	0xbecd9e3d	-0.4015979
121	0xbe856187	-0.2605097
122	0xbf4c5e0c	-0.79831004
123	0x3ee3f931	0.44526055
124	0xbe75f892	-0.24020603
125	0x3cacaa2e	0.021077242
126	0xbed3046d	-0.41214314
127	0x3e05ded1	0.13073279
128	0x3f424686	0.7588886
129	0x3efb6516	0.4910056
130	0x3ebb494c	0.3657936
131	0xbd222f39	-0.039595816
132	0xbf1247a1	-0.5714055
133	0xbd7b6c7f	-0.061382767
134	0xbe29a6a7	-0.16567479
135	0xbe5a4c61	-0.21318199
136	0x3f0c053b	0.5469548
137	0xbdbd8601	-0.09254075
138	0x3e8fa7d8	0.28057742
139	0x3f1d881a	0.615358
140	0x3ecb49ab	0.39704642
141	0xbea9dafe	-0.3317489
142	0x3d399f09	0.045317683
143	0x3e9044c8	0.28177476
144	0xbebe9c4b	-0.37228617
145	0xbc3845a4	-0.011247072
146	0x3f531359	0.824514
147	0xbf5d4ad2	-0.8644229
148	0xbf1f088c	-0.62122416
149	0xbdbc5193	-0.091952465
150	0x3eba039e	0.36330885
151	0xbeb4f25e	-0.3534116
152	0x3f5836bb	0.8445851
153	0xbe7189cf	-0.23587726
154	0x3f5a5124	0.8528006
155	0x3e0d11f2	0.13776377
156	0xbe322c2e	-0.17399666
157	0x3e9dfc66	0.30856627
158	0xbd98c61e	-0.07459663
159	0x3f226b12	0.63444626
160	0x3f4646e9	0.7745195
161	0xbead0fc3	-0.33801088
162	0xbdaa9ea3	-0.08331039
163	0x3d733638	0.05937788
164	0xbee23d68	-0.44187474
165	0xbe074e73	-0.1321352
166	0xbec0fa11	-0.37690786
167	0x3cc624d2	0.02418748
168	0xbeb6edb6	-0.35728234
169	0x3f43e11d	0.7651537
170	0x3eb5519f	0.35413834
171	0xbefda267	-0.49537966
172	0xbeb99b79	-0.3625143
173	0x3e4624cb	0.19349973
174	0x3e653169	0.2238213
175	0x3e56734d	0.20942421
176	0xbe03e6ad	-0.12880965
177	0x3eb9da18	0.36299205
178	0xbe92bd33	-0.28659973
179	0xbf29964b	-0.66244954
180	0x3e8b04f8	0.27152228
181	0x3e62eedb	0.22161429
182	0x3f05a5df	0.52206224
183	0x3cb1b711	0.021693738
184	0x3f49900c	0.78735423
185	0xbe29d826	-0.1658636
186	0xbe93445e	-0.28763098
187	0xbe27afe5	-0.16375692
188	0xbe8a41e3	-0.27003393
189	0x3b29ffa4	0.0025939727
190	0x3dd1446b	0.10218128
191	0xbd4a7fbc	-0.049438223
192	0x3e8c26b4	0.27373278
193	0x3f713951	0.9422808
194	0x3eb0bf32	0.3452087
195	0xbf1026e7	-0.5630936
196	0xbeafe971	-0.3435779
197	0x3dd38137	0.1032738
198	0x3ebae52b	0.36502966
199	0xbd794828	-0.06085983
200	0x3eb880c9	0.36035755
201	0x3f1a4c49	0.6027265
202	0x3e2b1055	0.16705449
203	0xbd4a3724	-0.049368992
204	0x3ee606f9	0.44927195
205	0x3e7d5635	0.24739917
206	0x3ecda513	0.40165004
207	0x3d3fe9ae	0.046853714
208	0x3efdcb78	0.49569297
209	0xbe88ff7a	-0.26757413
210	0xbe071bd1	-0.13194205
211	0x3ec85aeb	0.39131865
212	0x3e8a597e	0.27021402
213	0x3e8afb6b	0.27144942
214	0x3e5f0e0d	0.21782704
215	0xbf0406f6	-0.5157312
216	0x3e2f4619	0.17116584
217	0x3ed60d97	0.41807243
218	0x3f3571e0	0.70876884
219	0x3ed66b4e	0.41878742
220	0xbf573228	-0.8406091
221	0x3ee39fbe	0.4445781
222	0xbdedaf00	-0.11605644
223	0xbed3b6e2	-0.41350466
224	0x3f838652	1.0275366
225	0xbd3b84d2	-0.045780964
226	0xbe26d3b4	-0.16291696
227	0xbbc59096	-0.006029199
228	0x3f10a3cb	0.5649993
229	0xbe48d33e	-0.19611832
230	0x3e0e52c0	0.13898754
231	0x3f1df383	0.61699694
232	0xbf00056b	-0.5000827
233	0xbee92ff8	-0.4554441
234	0x3eb0f1f0	0.34559584
235	0x3eba6ee8	0.3641274
236	0xbfac696f	-1.3469676
237	0xbe6eb75d	-0.23312135
238	0xbf0a2977	-0.5396952
239	0xbdcab595	-0.09897915
240	0x3f37b489	0.7175985
241	0xbf23509c	-0.63794875
242	0xbf20c2d9	-0.62797314
243	0x3d70e8d0	0.058815777
244	0x3e9b9406	0.3038637
245	0xbe12df16	-0.14342913
246	0x3df648ae	0.12025581
247	0x3e596731	0.2123077
248	0xbe7e879a	-0.24856415
249	0x3eab82bd	0.33498183
250	0xbf0c4d31	-0.54805285
251	0x3ee1688f	0.44025084
252	0x3c4e877a	0.012605542
253	0xbe421558	-0.18953454
254	0xbe21b44b	-0.15791433
255	0x3ddea3a6	0.10871057

layers.0.bias f4 [128]
0	0xbe8d7069	-0.27624825
1	0xbde92a99	-0.11385078
2	0xbeebf3d9	-0.46084478
3	0xbf08ffca	-0.53515303
4	0x3d8155f2	0.06315221
5	0xbe92c18b	-0.28663287
6	0xbea4b87c	-0.32172
7	0xbd05b808	-0.03264621
8	0x3cb58b39	0.022161113
9	0x3eac97d0	0.33709574
10	0xbebecc2f	-0.37265155
11	0xbeda1ea9	-0.42601517
12	0x3f093f47	0.5361218
13	0x3efa5285	0.48891082
14	0x3e8d5491	0.27603582
15	0xbe1bd5e6	-0.15218315
16	0x3e4957b9	0.1966237
17	0x3e0a9410	0.13533044
18	0x3e3479eb	0.17624633
19	0x3e1ef339	0.1552247
20	0xbeb2ef84	-0.3494836
21	0x3ea53cc4	0.32272923
22	0x3ef272a3	0.47353086
23	0x3f1d375b	0.6141259
24	0x3ec6cbf9	0.38827494
25	0xbe83fc17	-0.25778267
26	0x3e7c13f9	0.24616994
27	0xbe62efb1	-0.22161748
28	0x3ecbf012	0.39831597
29	0xbee5b171	-0.4486194
30	0xbe8087b2	-0.25103527
31	0xbf0d71e7	-0.55251926
32	0xbefb534f	-0.49086997
33	0x3e4f167a	0.20223418
34	0xbef7e6c1	-0.4841824
35	0x3f03d390	0.51494694
36	0x3d92672b	0.07148584
37	0xbef30c59	-0.47470358
38	0x3f070d8f	0.52755064
39	0xbe8960c6	-0.26831645
40	0x3d0c3036	0.034225665
41	0xbe2b9ec2	-0.1675978
42	0x3e20bf0b	0.15697877
43	0x3edcafed	0.4310297
44	0x3c9c0738	0.01904641
45	0x3ee66ec1	0.45006374
46	0xbdb43764	-0.087996274
47	0x3ec77c32	0.3896194
48	0xbe874d91	-0.26426366
49	0xbf18947e	-0.5960158
50	0x3e612d0a	0.21989837
51	0x3dce15f0	0.10062778
52	0x3ec041e7	0.3755028
53	0xbe9b5107	-0.30335256
54	0x3f0044a6	0.5010475
55	0x3ed42c01	0.41439822
56	0x3edc1fcf	0.42993018
57	0x3ea98d5e	0.33115667
58	0x3e988ca5	0.29794803
59	0x3f0562fb	0.5210416
60	0xbe5c63e8	-0.21522486
61	0xbe40764d	-0.18795128
62	0x3edfa24c	0.4367851
63	0x3d15cb74	0.03657098
64	0xbe2bac4a	-0.16764942
65	0x3e8b40bc	0.27197826
66	0xbe0fd952	-0.14047745
67	0xbb98068f	-0.0046394537
68	0xbdc6722a	-0.09689744
69	0x3e48bb4f	0.19602703
70	0x3c84b7b5	0.01620088
71	0xbdd5d03a	-0.10440107
72	0xbe25597c	-0.16147417
73	0x3ea8161a	0.32829362
74	0x3f123172	0.571067
75	0x3dd58f58	0.10427731
76	0xbefa1790	-0.48846102
77	0xbd509f30	-0.050933063
78	0xbd8b4e09	-0.068019934
79	0xbeb6921a	-0.35658342
80	0x3ecb4e76	0.39708298
81	0x3e16ca66	0.14725646
82	0x3eea1a9e	0.45723432
83	0x3e07d6ee	0.13265583
84	0x3e638fba	0.22222796
85	0xbf12fcde	-0.57417095
86	0xbe3c43c8	-0.18385231
87	0x3efa890f	0.48932692
88	0xbec6a6f4	-0.3879925
89	0x3e8fb871	0.28070405
90	0xbef636a4	-0.48088562
91	0x3e6f800f	0.23388694
92	0xbee8ac60	-0.45444012
93	0x3ee02d7b	0.437847
94	0x3ea6fda5	0.3261539
95	0x3eab9615	0.3351294
96	0xbea00338	-0.31252456
97	0x3f212fdc	0.6296365
98	0xbf004256	-0.5010122
99	0x3e7893ba	0.24275103
100	0x3ee97447	0.45596525
101	0xbdbcdc12	-0.092216626
102	0x3ecf2d22	0.4046412
103	0xbecc9c18	-0.3996284
104	0xbe51f213	-0.205025
105	0x3ea71ce1	0.3263922
106	0x3d87a346	0.06622939
107	0xbeca22d8	-0.3947971
108	0x3ed1c8d3	0.4097353
109	0xbb8d2f84	-0.004308643
110	0x3eed32bb	0.46327767
111	0x3ef48b0a	0.47762328
112	0x3df9a2f1	0.12189282
113	0x3e60fce8	0.21971476
114	0x3e9cf630	0.30656576
115	0x3e38c12c	0.18042439
116	0xbee4b99e	-0.44672865
117	0xbeb6dade	-0.35713857
118	0xbbb633f4	-0.0055603925
119	0x3ecd3278	0.40077567
120	0xbdc6b592	-0.097026005
121	0x3eeaf9eb	0.45893797
122	0x3edb3859	0.42816427
123	0x3e8067e4	0.25079262
124	0xbecf537c	-0.4049338
125	0xbef8240a	-0.48464996
126	0xbef7685c	-0.48321807
127	0x3edd3254	0.4320246

layers.1.weight f4 [128, 128]
0	0x3d90d2e2	0.07071473
1	0x3c9b4eea	0.018958528
2	0xbd44d1ca	-0.048051633
3	0xbe03c32a	-0.12867418
4	0x3e3df9af	0.18552278
5	0xbe26aa1b	-0.16275828
6	0x3c9a4ecb	0.0188364
7	0xbde26c9e	-0.11055873
8	0x3e7c0a67	0.24613343
9	0x3de77052	0.1130072
10	0xbd41c57f	-0.047307488
11	0xbd8120c8	-0.06305081
12	0xbdb5a073	-0.08868494
13	0xbd24e385	-0.040256042
14	0xbdba936f	-0.09110152
15	0x3cc61c96	0.024183553
16	0xbd1a880e	-0.037727408
17	0xbe8bfcac	-0.2734121
18	0x3e0e5bf7	0.1390227
19	0x3da1d7cc	0.07902488
20	0xbd007b93	-0.03136785
21	0x3dc6f9e4	0.097156316
22	0x3e3a01a9	0.18164696
23	0x3db8df65	0.09026984
24	0x3dd5ce40	0.1043973
25	0x3e3a16f2	0.18172815
26	0x3e1439a6	0.14475116
27	0x3cce6f72	0.025199626
28	0xbd3a3d7b	-0.04546879
29	0xbdddca58	-0.1082961
30	0x3d851b2b	0.064993225
31	0xbe28bb0f	-0.16477607
32	0x3dcc3d05	0.09972576
33	0xbdb0032e	-0.085943565
34	0x3d688f9d	0.056777585
35	0x3da9c17c	0.08288857
36	0xbdd8e5e9	-0.10590727
37	0x3e2cbc3e	0.16868684
38	0x3e1b7280	0.15180397
39	0xbe229e2f	-0.15880655
40	0x3e54669f	0.20742272
41	0xbd866ea1	-0.065640695
42	0xbe1703f3	-0.147476
43	0x3e19d8ba	0.15024081
44	0x3e278f6a	0.16363302
45	0x3d3aa222	0.04556478
46	0x3d8b7517	0.068094425
47	0x3d5773d8	0.05260071
48	0xbe381654	-0.17977268
49	0x3d9be3dd	0.07611821
50	0x3e066853	0.13125734
51	0x3d549de2	0.05190838
52	0x3e279810	0.16366601
53	0x3c12aac5	0.008951847
54	0x3e1a1a7d	0.15049167
55	0x3e555f78	0.208372
56	0x3d1c91a8	0.038224846
57	0x3d42e549	0.047581945
58	0x3bca1d0c	0.0061680134
59	0x3d7722cc	0.06033592
60	0xbe49a81e	-0.19693038
61	0x3d905ecd	0.07049332
62	0xbd3bd512	-0.045857497
63	0x3d70f145	0.058823843
64	0x3ce92efe	0.02846479
65	0xbd60c947	-0.054879453
66	0xbce98633	-0.028506374
67	0xbd5cffd2	-0.053954907
68	0x3e1843e8	0.14869654
69	0x3e3eef92	0.18646076
70	0xbe46dcb8	-0.19420135
71	0xbe389d7a	-0.18028823
72	0x3c5de388	0.013543017
73	0x3dd99955	0.10624949
74	0x3d92175e	0.07133363
75	0xbda1aa83	-0.07893851
76	0x3d10d4d3	0.035359215
77	0xbd949357	-0.07254665
78	0xbd8332d2	-0.064061776
79	0xbc7c1a8e	-0.0153871905
80	0x3d95ee17	0.07320803
81	0x3da24504	0.0792332
82	0x3e2de89a	0.16983262
83	0xbcdd27ca	-0.026996512
84	0x3e6b150a	0.22957245
85	0x3d8921bd	0.06695888
86	0xbdd6e341	-0.10492564
87	0x3d71dd8c	0.059049174
88	0xb9833e3e	-0.0002503264
89	0xba05162b	-0.00050768506
90	0xbaa092aa	-0.001225074
91	0x3e4630f7	0.19354616
92	0xbe1af612	-0.15132931
93	0xbce1c057	-0.027557535
94	0xbd9b8b74	-0.07594958
95	0x3db77a88	0.08958918
96	0xbe49997f	-0.1968746
97	0x3e16eb92	0.147383
98	0x3ddeeff9	0.10885615
99	0x3d27ba06	0.04094889
100	0x3e244574	0.1604212
101	0xbd25c156	-0.040467583
102	0x3dda3fe7	0.1065672
103	0x3d095be2	0.033534892
104	0x3e8df81a	0.2772835
105	0x3d6b170f	0.057395037
106	0xbd58c4a0	-0.05292189
107	0x3cb689af	0.02228245
108	0xbe344e5d	-0.17608018
109	0x3da430a9	0.08017094
110	0xbcecc7fb	-0.028903952
111	0x3d03661c	0.0320798
112	0xbd25eea1	-0.040510777
113	0x3e6fa3bd	0.23402305
114	0x3e2c9446	0.16853437
115	0x3c044853	0.008073884
116	0x3d01ac93	0.03165872
117	0xbd82e34d	-0.063910104
118	0x3e2481d9	0.16065158
119	0x3e09cf85	0.13458069
120	0xbbaf9db9	-0.005359378
121	0xbd60efd2	-0.05491621
122	0x3d99e98f	0.07515251
123	0x3c4a24e7	0.0123379
124	0x3dcc06d5	0.099622406
125	0x3e14b48c	0.14521998
126	0xbde8b501	-0.11362649
127	0x3e0120ec	0.12610215
128	0xbf067cf4	-0.52534413
129	0xbca60940	-0.020268083
130	0xbd6c3a96	-0.05767306
131	0xbe64a281	-0.22327615
132	0xbc86b955	-0.016445795
133	0xbe922c60	-0.2854948
134	0x3e9a1af7	0.30098698
135	0xbe803fb6	-0.25048608
136	0x3e960d29	0.29306915
137	0x3dca57ba	0.09880014
138	0xbd27cc63	-0.040966403
139	0x3eb90598	0.3613708
140	0xbea2ff63	-0.3183547
141	0x3e50e036	0.2039803
142	0xbeb12779	-0.34600428
143	0x3ea9ac76	0.3313939
144	0x3ee159e4	0.44013894
145	0xbeab9648	-0.33513093
146	0x3d634419	0.055484865
147	0x3c720e9b	0.01477399
148	0x3e0b5b44	0.13609034
149	0x3e0106cb	0.12600248
150	0xbd9e1a9d	-0.0771992
151	0x3dfa1f1b	0.12212964
152	0x3de34cd0	0.11098635
153	0xbe812bf8	-0.25228858
154	0xbe126fa8	-0.14300406
155	0x3ea56b13	0.32308254
156	0xbe1d4b76	-0.15360817
157	0x3ef381f2	0.47560078
158	0xbe169e2b	-0.14708774
159	0x3c10f470	0.008847341
160	0x3dd536ac	0.104108185
161	0xbdbb048d	-0.09131727
162	0x3eb49a98	0.35274196
163	0x3d16a8ca	0.036782064
164	0xbc204491	-0.0097819725
165	0xbe47e238	-0.1951989
166	0xbe981de0	-0.29710293
167	0xbd5eb1d2	-0.0543688
168	0x3f3d4197	0.7392821
169	0xbd3312cb	-0.043719094
170	0xbd29fbf7	-0.041500058
171	0x3dd2ed74	0.10299197
172	0x3e9f2155	0.31080118
173	0xbdcb1884	-0.09916785
174	0xbe36ffeb	-0.17871062
175	0x3e3306e4	0.17483097
176	0xbe946f8a	-0.28991348
177	0x3e7c85b9	0.24660386
178	0x3c98d6a3	0.018657034
179	0x3f0023ee	0.50054824
180	0x3d016cc5	0.03159787
181	0x3e865e34	0.26243746
182	0x3c126a21	0.008936436
183	0x3a78a02c	0.00094843167
184	0x3e5e47eb	0.21707122
185	0xbe3701a4	-0.1787172
186	0x3e91a8c0	0.2844906
187	0x3c07454e	0.00825627
188	0xbe1970cf	-0.1498444
189	0x3eef39f9	0.46723917
190	0x3df5ba08	0.11998373
191	0xbec804c8	-0.39066148
192	0x3cb83a37	0.022488697
193	0x3ead25da	0.3381794
194	0x3ed1afd3	0.40954456
195	0x3d2cab51	0.042155568
196	0xbda05f21	-0.078306444
197	0x3e31bde5	0.17357595
198	0xbd8f45f9	-0.06995768
199	0xbd090189	-0.03344873
200	0x3dbaefcc	0.09127769
201	0xbea02a11	-0.31282094
202	0xbdd19d90	-0.10235131
203	0xbea1bff4	-0.3159176
204	0xbe779013	-0.24176054
205	0x3ee09583	0.43864068
206	0xbda7129a	-0.08157845
207	0x3f1ed0fe	0.62037647
208	0x3dfc1b03	0.123098396
209	0x3db572d4	0.08859792
210	0x3e1a372d	0.1506011
211	0xbdc9549e	-0.098305926
212	0x3e8bca61	0.2730284
213	0x3cd08ce9	0.025457816
214	0xbe24073c	-0.16018385
215	0x3dd03d8e	0.101679906
216	0xbba6956e	-0.0050837314
217	0x3c2cfd57	0.010558448
218	0x3eeca770	0.46221495
219	0x3dfd984c	0.12382564
220	0xbe005283	-0.12531476
221	0xbe02eda3	-0.12785964
222	0x3e516a3d	0.20450683
223	0x3d0a9f44	0.033843294
224	0xbe611c6e	-0.21983501
225	0x3c9e9f72	0.019363139
226	0x3d1f2e5e	0.03886258
227	0xbb14f6f2	-0.0022730199
228	0x3de61e9d	0.11236308
229	0xbe692fe2	-0.22772172
230	0x3e3ce286	0.18445787
231	0x3f0b047a	0.54303706
232	0x3ee0eb85	0.43929687
233	0x3ec82cd5	0.39096704
234	0x3eea2785	0.45733276
235	0x3e8a30b2	0.26990277
236	0xbe4f7d50	-0.20262647
237	0x3e05d0c2	0.13067916
238	0x3e951c87	0.29123327
239	0x3e3cd116	0.18439135
240	0x3f4a600e	0.7905282
241	0x3dacb627	0.0843318
242	0xbdce0a87	-0.10060602
243	0xbd8feda5	-0.07027749
244	0x3d10a21a	0.035310842
245	0xbe300d94	-0.1719268
246	0x3d9cd925	0.076586045
247	0x3caa426b	0.020783624
248	0xbe58ace4	-0.21159703
249	0xbd085bb3	-0.033290576
250	0xbe985a53	-0.29756412
251	0xbc50041f	-0.012696295
252	0x3d1888e4	0.037239924
253	0xbda8efa6	-0.08248834
254	0x3e884c55	0.26620737
255	0x3e9b8f56	0.30382794

layers.1.bias f4 [128]
0	0x3daa8b85	0.083273925
1	0xbddba298	-0.10724372
2	0xbdc90f3c	-0.09817359
3	0x3d12feae	0.035887413
4	0x3d8a1753	0.0674273
5	0x3e4396a4	0.19100434
6	0xbc3958af	-0.011312648
7	0x3e475b25	0.19468363
8	0x3da3ae5d	0.079922415
9	0x3e458e7c	0.19292635
10	0xbe4e943b	-0.20173733
11	0xbdc618f6	-0.0967273
12	0xbc98f218	-0.018670127
13	0x3d976f03	0.07394221
14	0x3c85525a	0.01627462
15	0x3ea6adf5	0.32554594
16	0x3e8a0bcd	0.26962128
17	0xbd7d8b93	-0.061900686
18	0x3e2468b2	0.16055563
19	0xbce57dc3	-0.02801407
20	0xbd25d96b	-0.04049055
21	0x3e36871c	0.17824978
22	0x3deccfaa	0.11563046
23	0xbc94a6c9	-0.018145936
24	0x3e8b376b	0.27190718
25	0xbe07ffc7	-0.13281165
26	0x3e09a107	0.13440333
27	0x3d0e0b52	0.034678765
28	0xbd408ab8	-0.047007293
29	0x3e4b43e6	0.1985012
30	0x3d80b91c	0.06285307
31	0x3d8c05d8	0.06837052
32	0x3dc971e8	0.09836179
33	0x3caea1ab	0.021317324
34	0x3da17f6e	0.078856334
35	0xbdfa9131	-0.12234724
36	0xbdca4423	-0.09876277
37	0x3df7e39b	0.12103959
38	0x3e2b4023	0.16723685
39	0x3ced1e5d	0.028945142
40	0x3dcb4183	0.09924605
41	0x3e10e125	0.14148386
42	0x3e919d0e	0.28440136
43	0x3e448893	0.19192724
44	0xbe19e9c1	-0.15030576
45	0x3c77ebdf	0.01513192
46	0x3d4088b4	0.04700537
47	0x3cffb831	0.031215759
48	0x3d19b2ad	0.037523914
49	0x3bd43a83	0.0064767017
50	0xbdf11e4f	-0.11773359
51	0x3d7b721b	0.061388116
52	0x3e4f1690	0.2022345
53	0xbdb08cbb	-0.08620592
54	0x3dc0f508	0.09421736
55	0xbdfa6d10	-0.12227833
56	0x3d9de24a	0.07709177
57	0x3d999e2e	0.075008735
58	0xbd85b9a8	-0.06529552
59	0x3d9cfb5b	0.0766513
60	0x3e0470dd	0.12933679
61	0x3da62338	0.08112186
62	0x3d9b32a4	0.07578018
63	0x3e731660	0.23739004
64	0x3e3ca904	0.1842385
65	0x3d9a7ce8	0.07543355
66	0xbe54a04a	-0.2076427
67	0x3c23b63c	0.0099921785
68	0xbdcb683f	-0.09931993
69	0x3d315983	0.043298256
70	0x3cf51449	0.0299169
71	0x3dbb8c04	0.09157565
72	0x3de8a1b1	0.11358965
73	0xbab6f1cb	-0.0013957558
74	0x3b7fafa5	0.0039014604
75	0xbdb54c46	-0.08852439
76	0xbdaeb050	-0.08529723
77	0x3d472a87	0.04862454
78	0xbd0884fe	-0.033329956
79	0xbe2bcda3	-0.16777663
80	0x3e333e14	0.1750415
81	0x3db105df	0.08643698
82	0xbd9dc8bd	-0.077043034
83	0x3c4761a7	0.012169278
84	0x3d34df30	0.04415816
85	0x3dc8a745	0.09797529
86	0x3e2eefdf	0.17083691
87	0xbe31d572	-0.17366579
88	0x3ccccfe3	0.025001472
89	0x3df2630f	0.118353
90	0x3dfb456c	0.122691005
91	0xbbc91662	-0.0061367014
92	0xbdba0c79	-0.0908441
93	0xbd71922f	-0.058977302
94	0xbde7c0c6	-0.113160655
95	0xbc8c3118	-0.017113253
96	0xbc604a44	-0.013689581
97	0xbcd8ed9b	-0.026480487
98	0x3d96e96a	0.07368739
99	0x3dc2f810	0.095199704
100	0x3e0e6e6e	0.13909313
101	0x3e6f3053	0.23358278
102	0x3e65839e	0.22413489
103	0x3cd683ea	0.026185948
104	0x3d625cf8	0.055264443
105	0xbdeb5c03	-0.11492159
106	0xbe0ea0ff	-0.13928603
107	0xbcc9b2ee	-0.024621453
108	0x3ea98260	0.3310728
109	0x3d1a560a	0.03767971
110	0xbd91cc90	-0.07119095
111	0x3d59198f	0.05300289
112	0xbd822874	-0.06355372
113	0xbe36d5d5	-0.17855008
114	0x3dd20458	0.10254735
115	0x3dd05356	0.10172145
116	0xbe31065c	-0.17287582
117	0x3e8a4c04	0.2701112
118	0x3d743fdc	0.059631214
119	0x3c7cb8b0	0.015424892
120	0x3da4a38f	0.08039009
121	0x3d88952d	0.06669078
122	0xbe00c439	-0.12574853
123	0x3d30003d	0.042968977
124	0x3dc2fd9b	0.09521028
125	0x3e39e47d	0.18153568
126	0x3e0678c2	0.13132003
127	0xbdc3c35e	-0.09558748

layers.3.weight f4 [128, 128]
0	0x3e48b976	0.19601998
1	0xbe861244	-0.2618581
2	0x3e496aba	0.19669619
3	0x3de68455	0.11255709
4	0x3e070e1b	0.13188975
5	0xbcbe77c0	-0.02325046
6	0x3e277387	0.16352664
7	0x3d16d043	0.036819708
8	0x3e4ea6cb	0.20180814
9	0xbe80b2c4	-0.25136387
10	0xbeb12108	-0.34595513
11	0x3f08c147	0.5341992
12	0x3e2c0850	0.16800046
13	0x3dd6d5f5	0.10490028
14	0x3db2cce6	0.087304875
15	0xbedb4cae	-0.4283194
16	0xbea0d772	-0.31414372
17	0xbd1b86cf	-0.03797036
18	0x3d37b0ff	0.04484653
19	0x3d5340c6	0.051575445
20	0x3d27c4a0	0.040959
21	0xbe0e952c	-0.13924092
22	0x3d4c07a4	0.049811974
23	0x3d78505b	0.060623508
24	0xbe8a29d4	-0.26985037
25	0x3f032911	0.5123454
26	0x3e2b4f7b	0.16729538
27	0x3ddf14b1	0.108926184
28	0x3eedc463	0.46438894
29	0xbc380bd3	-0.011233288
30	0x3e30a2dc	0.17249626
31	0x3d2be320	0.04196465
32	0x3dc521f4	0.09625617
33	0x3ee27348	0.44228578
34	0xbcbe61e2	-0.023240034
35	0x3ecee071	0.4040561
36	0xbcf67099	-0.030082988
37	0xbe6f906e	-0.2339494
38	0xbe43bb5d	-0.19114442
39	0x3e284860	0.16433859
40	0x3c91a191	0.017777236
41	0x3da574a7	0.0807889
42	0xbdc9507f	-0.098298065
43	0xbe7691c6	-0.24079046
44	0x3ec4070b	0.38286623
45	0xbde90503	-0.11377909
46	0x3e0400e6	0.12890968
47	0xbe4efc5e	-0.20213458
48	0xbcc97c37	-0.024595363
49	0x3e177f31	0.14794613
50	0x3e5c4243	0.21509652
51	0x3e2cc8af	0.1687343
52	0xbd5f53f2	-0.054523416
53	0x3cc09192	0.023506913
54	0xbd17ee00	-0.03709221
55	0xbe7ac1c8	-0.24487984
56	0x3d4994d7	0.04921421
57	0x3e02930a	0.12751403
58	0x3e90f8b0	0.28314734
59	0x3e215605	0.1575547
60	0xbe3b5965	-0.1829582
61	0x3d614fef	0.05500787
62	0x3e2bbb5f	0.16770695
63	0xbdf408d3	-0.119157456
64	0xbe9589db	-0.29206738
65	0x3d9ae03e	0.07562302
66	0x3e379b95	0.17930444
67	0x3c1b97f9	0.009496682
68	0xbdbeaff9	-0.09310908
69	0xbe8b7f1d	-0.27245417
70	0x3ed154fa	0.40885144
71	0xbe284724	-0.16433388
72	0xbc8e0047	-0.017334117
73	0x3dbbf668	0.09177858
74	0x3d8c0bd9	0.06838197
75	0xbef19fa5	-0.47192112
76	0x3df4e1b9	0.11957116
77	0x3e421b81	0.18955804
78	0xbda496f2	-0.08036603
79	0x3e160ec3	0.14654069
80	0x3bd219c1	0.0064117615
81	0xbeb0cfd2	-0.34533554
82	0x3ef2d288	0.47426248
83	0x3ea8b0d4	0.3294741
84	0x3e00a1ab	0.12561671
85	0x3c47ccb7	0.012194804
86	0xbe347577	-0.17622934
87	0x3e669779	0.2251872
88	0x3e4a2ce9	0.19743694
89	0xbce5adbc	-0.028036945
90	0xbbd1d4ca	-0.0064035403
91	0x3d9fb700	0.07798576
92	0x3a57b27a	0.0008228194
93	0x3de7cd48	0.11318451
94	0x3ed20821	0.41021827
95	0x3ec3162d	0.38102856
96	0x3f0b84ed	0.54499704
97	0x3e15d2e5	0.14631231
98	0x3ce4a529	0.027910786
99	0x3d51e8fc	0.05124758
100	0x3dc79ee3	0.09747102
101	0x3cbac814	0.022800483
102	0xbd871b7b	-0.06597038
103	0x3e9f64c1	0.31131557
104	0xbe296c00	-0.16545105
105	0x3e990500	0.29886627
106	0x3c64e801	0.01397133
107	0x3e2a9934	0.16660005
108	0xbd2455c1	-0.040120844
109	0x3dea4e6a	0.114407375
110	0xbd7ba3cc	-0.061435506
111	0x3ea28ad3	0.3174654
112	0xbe28e9af	-0.16495393
113	0x3ec3dd14	0.38254607
114	0x3d84dd43	0.06487515
115	0xbe91f590	-0.28507662
116	0x3eb676cd	0.35637513
117	0xbd804117	-0.06262415
118	0x3e01a92b	0.12662189
119	0x3cdbd2f4	0.026833989
120	0xbb984c9e	-0.0046478054
121	0x3dfff12e	0.12497173
122	0x3c475f5b	0.012168731
123	0xbc852deb	-0.016257247
124	0x3e140fb7	0.1445912
125	0xbe6a0bc1	-0.22856046
126	0x3e929f23	0.28637037
127	0x3e212550	0.1573689
128	0x3b8197d6	0.003954868
129	0xbdf27fba	-0.11840768
130	0x3e1bdad1	0.1522019
131	0x3d963c90	0.0733577
132	0x3db83223	0.08993938
133	0xbdf5cbe5	-0.120017804
134	0x3da56163	0.08075216
135	0x3def6c0f	0.116905324
136	0xbd6b66d1	-0.0574711
137	0xbe4f9de4	-0.20275074
138	0xbe525633	-0.20540695
139	0x3e3fad48	0.18718445
140	0x3d6b85f1	0.057500783
141	0x3e0810bc	0.13287634
142	0xbdafdb07	-0.08586698
143	0xbef79db6	-0.4836251
144	0xbca4c457	-0.020113153
145	0x3ea121a6	0.31470984
146	0x3e37e84b	0.17959706
147	0x3e09d238	0.13459098
148	0x3e16b4cf	0.1471741
149	0x3dfec494	0.12439838
150	0x3dbb0f7b	0.09133812
151	0x3e2e4cc8	0.17021477
152	0xbeb0e52f	-0.34549853
153	0x3e499a61	0.19687797
154	0x3cf87846	0.030330788
155	0xbc6d5d66	-0.0144876
156	0x3ea1e3d4	0.31619132
157	0xbd9674f3	-0.07346525
158	0x3daae2ff	0.08344077
159	0xbde14fd3	-0.110015534
160	0x3d3a3da5	0.045468945
161	0x3ea2408c	0.3168987
162	0x3e0752f0	0.13215232
163	0xbdad5b22	-0.08464648
164	0x3d9893a2	0.07450034
165	0xbed26b1c	-0.41097343
166	0x3ca40fee	0.020027127
167	0x3dded240	0.10879946
168	0xbcc30e00	-0.023810387
169	0x3d6424f3	0.0556993
170	0xbddb6f35	-0.107145704
171	0xbeb3ae53	-0.35093936
172	0x3e830e7f	0.25596997
173	0xbaf1989c	-0.0018432322
174	0xbd74d57a	-0.0597739
175	0x3d80a309	0.062810965
176	0x3aab99b5	0.0013092073
177	0xbc9bb34a	-0.01900639
178	0x3d1000bb	0.035156947
179	0xbd3af4f7	-0.045643773
180	0xbe004f28	-0.12530196
181	0x3d780f49	0.060561452
182	0x3d00e565	0.031468768
183	0x3e0e1233	0.1387413
184	0x3dc639fa	0.09679027
185	0x3dc67e20	0.09692025
186	0x3e9ac8e2	0.30231386
187	0x3e109306	0.14118585
188	0xbdae042a	-0.08496888
189	0x3d75b561	0.05998743
190	0x3cbc9c65	0.023023793
191	0xbda6420c	-0.08118066
192	0xbe6c95f4	-0.23104078
193	0xbc989236	-0.018624406
194	0x3e8663cd	0.26248017
195	0x3dfdea87	0.12398248
196	0x3d771b2f	0.06032866
197	0xbdd34f68	-0.1031788
198	0xbea77e52	-0.32713562
199	0xbe127157	-0.14301048
200	0x3e11defb	0.14245217
201	0x3dc4ef0b	0.09615906
202	0xbd8b724e	-0.06808911
203	0xbeac17a6	-0.33611792
204	0xbe0167e5	-0.12637289
205	0x3e29a28f	0.16565917
206	0xbcea7652	-0.028620873
207	0x3dcd930a	0.10037811
208	0x3c8223c9	0.015886204
209	0xbeb444f5	-0.3520886
210	0x3e1e72a1	0.15473415
211	0xbb257c7f	-0.0025251207
212	0xbe96bcef	-0.2944102
213	0xbbf3354e	-0.007422126
214	0xbd20ca96	-0.0392557
215	0x3e2f594e	0.17123911
216	0x3cabc2ca	0.020966906
217	0x3cea5e99	0.02860956
218	0xbc9085a0	-0.017641842
219	0x3d848fd9	0.06472749
220	0x3e287c80	0.16453743
221	0x3e141981	0.14462854
222	0x3e571d78	0.21007335
223	0x3e69d16c	0.22833794
224	0x3e915984	0.28388608
225	0x3e29e421	0.1659093
226	0x3d677766	0.05651035
227	0x3def6f56	0.116911575
228	0x3d9b2dc9	0.07577092
229	0xbd2ceb24	-0.042216435
230	0xbdf8c15f	-0.121462576
231	0x3e62f90a	0.22165313
232	0xbcbd15c9	-0.023081677
233	0x3ecabf2f	0.39598987
234	0x3e67de9f	0.22643517
235	0xb97ac728	-0.0002391605
236	0xbd2584f9	-0.040410016
237	0x3e13d6b7	0.14437376
238	0x3eca6f66	0.39538115
239	0x3e969551	0.29410794
240	0x3e58347b	0.2111377
241	0x3ebdb3c5	0.37051216
242	0xbcc430a1	-0.02394897
243	0xbe42e4fc	-0.19032663
244	0x3ec70df9	0.38877848
245	0xbd8d7bd0	-0.06908381
246	0xbd0e5c16	-0.03475579
247	0x3e24ff8f	0.16113113
248	0xbe303d1e	-0.17210814
249	0x3e4a8c12	0.19779995
250	0xbeba049b	-0.3633164
251	0xbcb546c2	-0.022128467
252	0xbd9a92a3	-0.075475
253	0x3d123677	0.035696473
254	0xbd6820be	-0.05667185
255	0xbca8af12	-0.020591293

layers.3.bias f4 [128]
0	0xbe837325	-0.25673786
1	0xbe25a665	-0.16176756
2	0xbe2a356f	-0.16621946
3	0xbe1cb2ff	-0.15302657
4	0xbc11767d	-0.008878347
5	0x3edcc4c3	0.43118867
6	0xbc318637	-0.010835222
7	0xbdba774e	-0.09104787
8	0x3e49bee5	0.19701727
9	0xbc1876b1	-0.009305642
10	0x3d8cd500	0.06876564
11	0xbe6c9948	-0.23105347
12	0x3dea98bf	0.11454915
13	0xbda2c370	-0.07947433
14	0xbe35b56c	-0.17744988
15	0x3dd1c594	0.10242763
16	0xbe969653	-0.29411563
17	0xbccaf500	-0.024775028
18	0xbe267e39	-0.16259088
19	0x3d233e12	0.039854117
20	0xbd772c63	-0.060345065
21	0xbd6b43fb	-0.057437878
22	0xbe616563	-0.22011332
23	0xbdebf7b8	-0.11521858
24	0xbe079861	-0.13241722
25	0x3e46cf94	0.19415122
26	0x3caf7347	0.021417273
27	0xbe2e5d4c	-0.17027777
28	0xbe1b7040	-0.15179539
29	0xbe1d6d97	-0.15373836
30	0xbe844a4c	-0.25837934
31	0x3d81927f	0.0632677
32	0xbe2ed566	-0.17073593
33	0xbdc72f83	-0.09725859
34	0x3ebaa05e	0.36450475
35	0xbdae6a45	-0.08516363
36	0xbd87bdcf	-0.06628
37	0x3c868ad2	0.016423617
38	0x3e3ff278	0.18744838
39	0x3e8c5c06	0.27413958
40	0xbe3bc27a	-0.18335906
41	0xbdb32138	-0.0874657
42	0x3d517fdc	0.051147327
43	0xbd83ec92	-0.064416066
44	0x3d92d3d1	0.07169307
45	0xbe68fc46	-0.22752485
46	0x3cfebdb6	0.03109632
47	0xbdaf0de1	-0.08547569
48	0xbca25bef	-0.019819228
49	0xbe1997c7	-0.14999305
50	0xbd14738b	-0.036243003
51	0x3c03b5c6	0.008038944
52	0xbd9044d5	-0.07044379
53	0xbc690e64	-0.014224622
54	0x3e0a7e0b	0.13524644
55	0xbe0fd257	-0.14045082
56	0x3ea68e38	0.3253038
57	0xbd12dbef	-0.035854276
58	0xbd4fc5d0	-0.050725758
59	0x3eb320e3	0.34986028
60	0xbe672388	-0.22572148
61	0xbdbc0ef3	-0.09182539
62	0x3e932a74	0.28743327
63	0x3d92f45c	0.07175514
64	0xbd33d151	-0.04390079
65	0xbdcfafe1	-0.10140968
66	0xbdbfc4c8	-0.09363705
67	0xbe223353	-0.15839891
68	0x3e33742b	0.17524783
69	0xbe02e11b	-0.12781183
70	0xbc79e141	-0.015251459
71	0xbd4fa647	-0.050695684
72	0xbe42530c	-0.18976992
73	0xbcd71569	-0.026255326
74	0x3e09890c	0.13431185
75	0xbe1a78e7	-0.15085183
76	0x3e16f746	0.14742765
77	0xbc4b6b7d	-0.012415764
78	0x3e9950d9	0.29944494
79	0xbe392d53	-0.18083696
80	0xbe2d7e74	-0.1694277
81	0x3e820c81	0.25400165
82	0xbe307a66	-0.17234191
83	0x3d9dc1df	0.077029936
84	0x3d45a4d7	0.048252907
85	0x3ce0ed69	0.027456956
86	0x3c416d12	0.01180579
87	0x3cae119e	0.021248635
88	0xbd9a87f0	-0.07545459
89	0x3e59bc7a	0.21263304
90	0x3e3b9c45	0.18321331
91	0xbe479e0c	-0.19493884
92	0x3d80f7f6	0.06297295
93	0xbc6a97b6	-0.014318397
94	0xbdb6d079	-0.08926482
95	0xbdada0cc	-0.08477935
96	0xbcf4898b	-0.029850742
97	0xbe58079a	-0.2109665
98	0xbd6eefe0	-0.05833423
99	0x3d44b809	0.048027072
100	0x3e871d85	0.2638971
101	0xbd744cc4	-0.059643522
102	0xbd79158d	-0.060811568
103	0xbdde55eb	-0.10856231
104	0xbd35c931	-0.044381324
105	0x3d5ab6c1	0.053396944
106	0xbdf23787	-0.11826997
107	0xbe036b83	-0.12833981
108	0xbe0aebb2	-0.13566473
109	0xbdd38436	-0.103279516
110	0xbe7049bb	-0.23465626
111	0x3d20d31e	0.039263837
112	0xbdc36707	-0.09541135
113	0x3d2686d3	0.040655922
114	0x3c63da4c	0.0139070265
115	0x3e90d7dc	0.28289688
116	0xbe7c099e	-0.24613044
117	0xbe43c007	-0.19116221
118	0x3db4c08b	0.08825787
119	0xbd38d9ab	-0.04512946
120	0xbdfc5928	-0.12321693
121	0xbe713714	-0.23556167
122	0x3ca260d7	0.019821567
123	0xbdf716a5	-0.12064866
124	0xbe2afb7c	-0.16697496
125	0x3da274e7	0.079324536
126	0xbe73770a	-0.23775879
127	0xbd9ed559	-0.077555366

layers.5.weight f4 [4, 128]
0	0xbf0ddc4d	-0.5541428
1	0xbc08f071	-0.008358107
2	0xbf2d2648	-0.6763654
3	0x3d3983ab	0.045291584
4	0x3f1bbb7c	0.60832953
5	0x3ee5e081	0.44897845
6	0x3d985aca	0.07439192
7	0xbe5a5c87	-0.21324359
8	0x3ef562bc	0.4792689
9	0xbda8d0bf	-0.0824294
10	0x3f071244	0.52762246
11	0xbeccc7b2	-0.39996105
12	0x3e85e82a	0.2615369
13	0xbd516e9c	-0.051130876
14	0x3d0d356b	0.03447477
15	0x3ebfdf05	0.37474838
16	0xbe8eb251	-0.2787042
17	0x3d55fb85	0.05224182
18	0xbe67f828	-0.22653258
19	0x3e2fd3ff	0.17170714
20	0xbe40be0b	-0.18822496
21	0xbe5e107f	-0.2168598
22	0xbe4ea2bc	-0.20179266
23	0xbf0f93ab	-0.560847
24	0xbe4c8458	-0.1997236
25	0x3ea3d50c	0.3199848
26	0x3ee253e4	0.44204628
27	0xbe907db0	-0.28220892
28	0xbe66f200	-0.22553253
29	0xbde1ed0d	-0.11031542
30	0xbe42148f	-0.18953155
31	0x3f0ced43	0.5504953
32	0xbe85c5ca	-0.26127464
33	0xbe741626	-0.23836574
34	0x3ec6e874	0.38849223
35	0x3cf1703a	0.02947246
36	0xbe3f8020	-0.1870122
37	0xbe51f0ad	-0.20501967
38	0x3ea3a0e7	0.31958696
39	0x3ebf0d24	0.37314713
40	0xbe758186	-0.2397519
41	0xbeedf7aa	-0.46478015
42	0x3f11756d	0.568198
43	0xbe2298f8	-0.15878665
44	0xbecd7cf9	-0.4013441
45	0xbd9f2edb	-0.07772609
46	0x3f733382	0.9500047
47	0xbe878c67	-0.26474306
48	0xbd83abca	-0.064292505
49	0x3f24498d	0.6417473
50	0xbeb1fa11	-0.34761098
51	0xbea61772	-0.32439762
52	0xbe9f68a0	-0.3113451
53	0xbd9e5a08	-0.07732016
54	0x3efd1821	0.4943247
55	0xbe32b920	-0.17453432
56	0x3e82176d	0.25408497
57	0xbdcb770a	-0.09934814
58	0x3bb983c4	0.0056614596
59	0x3efbe44d	0.49197617
60	0xbe56b0ca	-0.20965877
61	0x3f1a8bb5	0.60369426
62	0x3ef28fa3	0.4737521
63	0x3e955881	0.29169086
64	0x3f113a62	0.5672971
65	0xbee811f9	-0.45326212
66	0xbeb432e0	-0.35195065
67	0xbf43a4e9	-0.7642351
68	0x3f6083aa	0.87700903
69	0xbf274f8f	-0.6535577
70	0xbea79b3c	-0.32735622
71	0x3d92314d	0.0713831
72	0xbed99b0e	-0.4250111
73	0xbea93a34	-0.33052218
74	0x3e8a885c	0.2705716
75	0xbe8d7c0c	-0.27633703
76	0x3ed43cca	0.41452628
77	0xbe6ce8b0	-0.23135638
78	0x3e57c320	0.21070528
79	0xbf09c336	-0.53813493
80	0xbf01a837	-0.506473
81	0x3f294c74	0.66132283
82	0xbf196ae0	-0.59928703
83	0xbe556428	-0.20838988
84	0xbe32034e	-0.17384073
85	0xbe4f90ab	-0.2027003
86	0xbeafbadb	-0.34322247
87	0xbe9545de	-0.29154867
88	0x3eeda43c	0.46414363
89	0x3ecb348c	0.39688528
90	0x3fabed0d	1.3431717
91	0xbe974c73	-0.29550514
92	0x3ed13f50	0.40868616
93	0xbe105d47	-0.14098082
94	0x3ce50667	0.027957154
95	0xbe74dd53	-0.23912553
96	0x3c9efd4b	0.019407889
97	0xbf92927b	-1.1450952
98	0xbed1b6e2	-0.4095984
99	0xbe5111ec	-0.20416993
100	0x3ee6ef80	0.451046
101	0xbec08bae	-0.37606567
102	0x3f4867a0	0.7828312
103	0xbe9455fe	-0.28971857
104	0xbe962d6c	-0.2933153
105	0xbef32d2c	-0.474954
106	0xbe9a844a	-0.30179054
107	0xbf36b677	-0.7137217
108	0xbecc4eb3	-0.39903793
109	0xbe3c3303	-0.18378834
110	0xbf42ed81	-0.7614365
111	0xbed4a18a	-0.41529495
112	0xbf3064d0	-0.6890383
113	0x3f0adb45	0.5424083
114	0x3ed683d3	0.4189745
115	0x3ec894a7	0.39175913
116	0xbed5e591	-0.41776708
117	0xbf104f74	-0.56371236
118	0x3e29b2c9	0.16572107
119	0xbe8a5cf3	-0.2702404
120	0xbebdf94a	-0.37104255
121	0xbea5da86	-0.32393283
122	0xbe99b89d	-0.3002366
123	0x3edcc4cd	0.43118897
124	0xbea0b528	-0.3138821
125	0x3f0fd20f	0.561799
126	0xbe9ab26d	-0.30214253
127	0xbefae734	-0.4900452
128	0xbf0c6905	-0.5484775
129	0xbe72621c	-0.23670238
130	0xbf8e76af	-1.1129969
131	0xbed05fa5	-0.4069797
132	0x3f1e25e3	0.6177656
133	0x3eeb86a5	0.46001163
134	0xbd88b9af	-0.06676041
135	0xbe858689	-0.26079205
136	0x3ee5b3e0	0.44863796
137	0x3ccf3b0f	0.025296716
138	0x3f0d0cf9	0.5509792
139	0x3d201b7c	0.03908871
140	0x3ec658d3	0.38739643
141	0x3ece2d0e	0.4026875
142	0xbf098733	-0.5372192
143	0x3ee134fc	0.43985736
144	0xbe8a99d2	-0.2707048
145	0xbcc14562	-0.023592655
146	0xbf2df03b	-0.6794469
147	0x3ed69a4d	0.41914597
148	0xbe88de6e	-0.267322
149	0xbe8e9860	-0.27850628
150	0xbefcabf6	-0.49349946
151	0xbebb0cd5	-0.36533228
152	0xbe885663	-0.26628408
153	0x3e3a33cc	0.18183821
154	0x3efbc01e	0.4917001
155	0xbea486c0	-0.32134056
156	0xbe9d82a4	-0.30763733
157	0xbee15369	-0.4400895
158	0xbe9d6624	-0.3074199
159	0x3ef54c6d	0.4790987
160	0xbea631e4	-0.3245994
161	0xbe18047f	-0.14845465
162	0x3f01cbb5	0.5070146
163	0x3d89344c	0.06699428
164	0xbed3d7bf	-0.4137554
165	0xbec44d29	-0.3834012
166	0x3eae42f0	0.34035444
167	0x3f10384f	0.5633592
168	0xbe07273f	-0.13198565
169	0xbf1166c5	-0.5679744
170	0x3f5f78ac	0.87293506
171	0xbdcd694d	-0.1002985
172	0xbd5147f3	-0.051094007
173	0xbd95171f	-0.072798006
174	0x3f6ea558	0.93221045
175	0xbe702987	-0.23453341
176	0xbe9f7994	-0.31147444
177	0x3f11982e	0.5687283
178	0xbecd0a76	-0.40047044
179	0xbea26992	-0.3172117
180	0xbe97fecf	-0.2968659
181	0xbeefa963	-0.4680892
182	0x3ef995ee	0.487472
183	0xbe986ada	-0.2976902
184	0x3e7a3b71	0.24436738
185	0x3cd087fb	0.025455466
186	0x3da8f3da	0.08249636
187	0x3f0ad1b3	0.54226226
188	0xbe9e7ff3	-0.30956993
189	0x3f5a8fb3	0.8537552
190	0x3ed1e510	0.40995073
191	0x3ed0aac4	0.40755284
192	0x3ee97916	0.45600194
193	0xbf23bbf7	-0.63958687
194	0xbefa9cff	-0.48947904
195	0xbe2bdb65	-0.16782911
196	0x3f33f83d	0.70300657
197	0xbe8f2607	-0.279587
198	0xbdf67ea4	-0.120358735
199	0xbd91d508	-0.071207106
200	0xbee9fd8f	-0.45701262
201	0xbdfebfb7	-0.124389105
202	0x3e68e5ab	0.22743861
203	0xbdff5e45	-0.12469152
204	0x3ea97ff0	0.3310542
205	0xbe9d17c4	-0.30682194
206	0x3e8e0384	0.27737057
207	0xbe9fbe66	-0.3119995
208	0xbe2f95ce	-0.1714699
209	0x3f452a73	0.770179
210	0xbf1d5d98	-0.6147094
211	0x3dabdd4b	0.08391818
212	0xbe976768	-0.2957108
213	0xbec645cb	-0.38725123
214	0xbe4635b0	-0.19356418
215	0xbe86d583	-0.26334772
216	0x3f0d7237	0.55252403
217	0x3ebacb94	0.36483443
218	0x3f9f9be3	1.2469448
219	0xbeb84dfb	-0.35996994
220	0x3f0795d2	0.5296298
221	0xbe852de6	-0.2601158
222	0xbc4b3dc5	-0.012404864
223	0xbe5dad5f	-0.21648167
224	0xbc17da07	-0.00926829
225	0xbf782ac3	-0.9694025
226	0x3c040432	0.008057641
227	0xbede2c5a	-0.43393213
228	0x3ec20aa2	0.37898737
229	0xbea5a403	-0.32351694
230	0x3f6bb180	0.9206772
231	0xbe26e105	-0.16296776
232	0xbe6536d4	-0.22384197
233	0xbea96034	-0.3308121
234	0xbe217b44	-0.15769678
235	0xbf1b865e	-0.60751903
236	0xbe413daa	-0.18871179
237	0xbefc06a0	-0.49223804
238	0xbe9feb89	-0.31234387
239	0xbe1b2ac5	-0.15153034
240	0xbde584eb	-0.11206993
241	0x3eae8255	0.3408381
242	0x3ecfb9c0	0.40571404
243	0x3ee39f0a	0.44457275
244	0xbeb1ae46	-0.34703273
245	0xbf1d8e90	-0.6154566
246	0x3d4e86a0	0.050421357
247	0xbea10b50	-0.31453943
248	0xbeef4cd0	-0.4673829
249	0xbe122620	-0.14272356
250	0xbe48c16d	-0.19605036
251	0xbe249a79	-0.16074552
252	0x3e859f44	0.26098073
253	0x3f138ac0	0.5763359
254	0xbec2a5d0	-0.3801713
255	0xbd1a8f25	-0.03773417

layers.5.bias f4 [4]
0	0x3e101b69	0.14072956
1	0x3d40c1f4	0.047059968
2	0x3e3eaea8	0.18621314
3	0x3e5f46db	0.21804373
