model_zoo/DQN/LunarLander-v2/target_283217.pth (torch, 141767 bytes, 8 tensors)

layers.0.weight f4 [128, 8]
000000 91 92 0d 3e f7 33 dc be bb 7e 85 be ab e3 1f bd
       0.13825442 -0.43008396 -0.2607325 -0.03903548
000010 57 29 86 3f 58 d8 e7 3d 68 99 36 bd f6 3a d4 3e
       1.0481366 0.11320561 -0.044579893 0.41451234
000020 9b 37 53 bd 37 8c ac be 84 1d f7 be b8 79 bb bd
       -0.0515667 -0.33700725 -0.48264706 -0.091540754
000030 c8 80 d9 3d 4c 67 10 bf 7e 43 0d 3f b8 42 23 3d
       0.10620266 -0.5640762 0.5518111 0.03985855
000040 c4 3a 87 3f c4 87 8a be 20 1d 4c bf 9a 6c ab 3d
       1.0564809 -0.27056706 -0.7973194 0.083703235
000050 ff 8b 31 3e cc 67 dc be 31 52 75 3e 93 05 3a be
       0.1733856 -0.4304794 0.23957135 -0.18166189
000060 44 20 c2 bd 35 23 8e 3d 6e 57 5b 3d 2c ac 37 3f
       -0.094788104 0.06940309 0.053550176 0.7174709
000070 d3 d9 11 3f 8e 3e 0e bd 42 25 72 be 98 dd 2c be
       0.56973 -0.034727626 -0.23647025 -0.16881406
000080 4f 47 ef 3e 24 f0 03 bf 09 38 23 3f e1 16 75 3e
       0.46734092 -0.515383 0.6375738 0.23934509
000090 c6 51 bc 3d e3 74 ba 3e 39 1b a8 3e 8b ad 6d be
       0.091952845 0.36417302 0.3283327 -0.23210733
0000a0 35 f9 de 3e a0 7d c6 bc 1a 9d 7f be e3 f8 59 3f
       0.43549505 -0.024229825 -0.24962273 0.85145396
0000b0 3f 1f 54 3f 44 ba 69 bd c3 e3 c7 be d6 23 de 3d
       0.8286018 -0.057062402 -0.39040956 0.10846679
0000c0 a1 21 f6 3e fc 4c 0e bd 08 1d 7e be a6 d0 00 be
       0.48072532 -0.034741387 -0.24815762 -0.12579593
0000d0 3a 98 36 bf c1 b8 fb be 1a 0a 0f be e3 b5 9e be
       -0.7132603 -0.49164394 -0.13968697 -0.30998144
0000e0 bf ea 25 bf 17 e4 ec be b1 55 c8 be 86 b0 cb 3e
       -0.6481132 -0.4626777 -0.39127877 0.39783114
0000f0 d8 f7 e7 3e 84 df de be 97 a7 af 3d 2f 6a 88 3d
       0.45306277 -0.43529904 0.08576887 0.06660878
000100 91 49 95 bf 2e 85 b7 be 89 8a 44 3f 8c b6 35 bf
       -1.1663076 -0.35843796 0.7677389 -0.7098167
000110 9d a4 dd be 85 d9 9e 3e f9 a6 e2 3e 10 16 f1 be
       -0.43289652 0.3102533 0.44268015 -0.47087145
000120 2a 40 bc 3b 51 ec f0 be dc 64 d3 3e 57 f8 aa be
       0.0057449536 -0.47055295 0.41287887 -0.33392593
000130 2d 50 14 be f8 1e 57 be 19 78 80 be 70 b5 5a be
       -0.1448371 -0.21007907 -0.25091627 -0.21358275
000140 a8 0f 26 3f 73 20 d7 3e 37 97 e3 3e de 09 12 3d
       0.6486764 0.42016944 0.44451305 0.03565394
000150 39 22 a9 3d bc c3 92 be 82 d2 4f bd 9f 91 40 be
       0.082584806 -0.28664958 -0.050737865 -0.1880555
000160 4d f4 67 3e 35 bd ed bd 55 89 68 3e 25 80 16 3f
       0.22651787 -0.11608354 0.22708638 0.58789283
000170 04 85 48 bf b1 bd 31 3d a8 ee 2c 3e f7 d9 14 3f
       -0.78327966 0.043393794 0.16887915 0.5814509
000180 58 4a 8c be 7d 45 09 bf 59 b8 24 3f 9e ca 18 bf
       -0.2740047 -0.53621656 0.6434379 -0.5968417
000190 ec bd 84 3e 3a 7e 5c bc 21 a4 60 bd e8 1b df 3e
       0.2592615 -0.013457829 -0.054844026 0.43575978
0001a0 f6 fe df 3e c2 95 1b 3e df 4f be 3c 2e 69 3f 3e
       0.43749207 0.15193847 0.023231445 0.18692467
0001b0 67 05 ef be 56 2b 57 bd 2a 8a ba 3e a7 55 e3 3e
       -0.4668381 -0.052531563 0.36433536 0.44401285
0001c0 b6 f1 c5 3e 74 68 0a 3f eb fc 2d 3f 02 bf ff be
       0.38660973 0.5406563 0.6796405 -0.49950415
0001d0 d3 ed ae 3e d3 50 26 be fc b9 55 3e 1c 9b d5 3e
       0.3416582 -0.1624177 0.20871729 0.41719902
0001e0 59 f2 cd be 7a 9d 85 be 9b 34 4c bf 78 ea e3 3e
       -0.4022396 -0.26096708 -0.7976777 0.44514823
0001f0 97 91 76 be 7e 7a ad 3c 56 1d d3 be f9 e8 05 3e
       -0.24078976 0.021176573 -0.4123332 0.13077153
000200 e7 5d 42 3f 6e 7b fb 3e 1c 07 bb 3e 50 88 21 bd
       0.75924534 0.49117607 0.36528862 -0.03943664
000210 26 33 12 bf e6 d7 79 bd e8 82 29 be b7 4f 5a be
       -0.57109296 -0.060996912 -0.16553843 -0.21319471
000220 39 20 0c 3f 04 28 bd bd 44 7f 8f 3e b5 8b 1d 3f
       0.5473667 -0.09236148 0.28026783 0.615413
000230 d7 14 cb 3e 41 c0 a9 be 10 9d 39 3d 58 36 90 3e
       0.39664337 -0.3315449 0.045315802 0.2816646
000240 63 53 be be 00 4c 39 bc cb 03 53 3f 5b 3a 5d bf
       -0.37172994 -0.011309624 0.8242766 -0.8641717
000250 5b cd 1e bf 4e 64 bc bd 42 21 ba 3e 5d df b4 be
       -0.620321 -0.09198819 0.363535 -0.35326663
000260 fd 56 58 3f 56 bc 70 be ec 49 5a 3f af c6 0d 3e
       0.84507734 -0.23509344 0.85269046 0.13845323
000270 9a 42 31 be 48 31 9e 3e 79 e8 98 bd 65 67 22 3f
       -0.17310563 0.30896974 -0.07466216 0.6343902
000280 0b 51 46 3f b4 00 ad be 38 60 ab bd 01 3b 74 3d
       0.7746741 -0.337896 -0.08367962 0.059626583
000290 67 1b e2 be 28 59 07 be b3 fa c0 be b6 11 c6 3c
       -0.4416153 -0.13217604 -0.37691268 0.024178367
0002a0 6e 17 b7 be 17 c6 43 3f 4d 90 b5 3e 67 93 fd be
       -0.35760063 0.76474136 0.35461655 -0.49526522
0002b0 2d 35 b9 be 1e df 45 3e 96 3a 65 3e 09 9d 56 3e
       -0.36173382 0.19323394 0.2238563 0.20958342
0002c0 4f 2c 04 be 71 c6 b9 3e 76 8e 92 be 55 a0 29 bf
       -0.12907527 0.3628421 -0.28624314 -0.6626027
0002d0 94 f3 8a 3e 33 f2 62 3e 8b a5 05 3f 09 d6 b1 3c
       0.2713896 0.22162704 0.52205724 0.021708505
0002e0 36 8d 49 3f 0c b5 29 be ff 5b 93 be 17 9d 27 be
       0.78731096 -0.1657297 -0.28781125 -0.16368519
0002f0 80 3c 8a be 6c cc 48 3b 92 4a d1 3d 90 b4 4a bd
       -0.26999283 0.0030639423 0.10219301 -0.049488604
000300 40 27 8c 3e 7b 38 71 3f 49 90 b0 3e 25 1a 10 bf
       0.27373695 0.9422681 0.3448508 -0.56289893
000310 e7 9c af be f1 f8 d2 3d 3b f3 ba 3e 44 0f 79 bd
       -0.34299394 0.10301388 0.36513695 -0.060805574
000320 b1 a4 b8 3e bf 5b 1a 3f d3 c9 2a 3e fd 97 4a bd
       0.3606315 0.60296243 0.16678552 -0.049461354
000330 c8 1d e6 3e 5e 14 7d 3e b3 96 cd 3e 00 45 3f 3d
       0.44944596 0.247148 0.40154037 0.046696663
000340 5f fa fd 3e a2 f4 88 be 24 98 06 be 23 3a c8 3e
       0.4960508 -0.2674914 -0.13143975 0.39106855
000350 24 04 8a 3e c0 06 8b 3e fd 05 5f 3e c5 0b 04 bf
       0.26956284 0.27153587 0.21779628 -0.5158046
000360 74 02 30 3e b6 13 d6 3e bd 86 35 3f 51 88 d6 3e
       0.17188436 0.41811913 0.7090872 0.41900876
000370 59 f7 56 bf 66 a6 e3 3e 3a 35 ed bd 78 ac d3 be
       -0.8397117 0.4446289 -0.11582418 -0.4134252
000380 d2 90 83 3f a3 65 3a bd d1 bc 27 be db c9 c1 bb
       1.0278571 -0.045507085 -0.16380621 -0.0059139556
000390 e4 88 10 3f 36 70 48 be fc 44 0e 3e bf de 1d 3f
       0.5645888 -0.19574055 0.13893503 0.6166801
0003a0 33 16 00 bf 41 6b e9 be 6b 09 b1 3e 14 9b ba 3e
       -0.50033873 -0.4558964 0.34577498 0.3644644
0003b0 2f 61 ac bf 3b b2 6e be d3 26 0a bf f7 8c ca bd
       -1.3467158 -0.23310177 -0.5396549 -0.09890168
0003c0 04 be 37 3f 7b 39 23 bf 6d d3 20 bf 7b 2b 72 3d
       0.71774316 -0.63759583 -0.6282261 0.059123497
0003d0 e0 75 9b 3e 22 d8 12 be 5a 1d f6 3d be 4b 59 3e
       0.3036337 -0.1434026 0.12017317 0.212203
0003e0 3a 36 7f be fc 75 ab 3e 0f 43 0c bf df 54 e1 3e
       -0.2492303 0.33488452 -0.54789823 0.44010064
0003f0 1c f3 46 3c a2 a9 42 be 2c c4 21 be ee 9c de 3d
       0.012142923 -0.19010022 -0.1579749 0.10869776

layers.0.bias f4 [128]
000000 cb 8d 8d be a5 52 e9 bd ae 15 ec be 66 00 09 bf
       -0.27647242 -0.11392716 -0.4611029 -0.5351623
000010 45 09 81 3d a9 d5 92 be 55 a1 a4 be f8 12 06 bd
       0.06300596 -0.28678635 -0.32154337 -0.032732934
000020 f2 d3 b7 3c b7 88 ac 3e ab c9 be be 26 1c da be
       0.02243993 0.33698055 -0.37263235 -0.425996
000030 49 24 09 3f da 42 fa 3e ff 35 8d 3e 6a b7 1b be
       0.5357099 0.4887913 0.27580258 -0.15206686
000040 37 6c 49 3e 8a 53 0a 3e 90 b2 34 3e 84 c8 1e 3e
       0.19670187 0.1350843 0.17646241 0.15506178
000050 5f f2 b2 be ea 50 a5 3e 6a 6b f2 3e ab 2f 1d 3f
       -0.3495054 0.32288295 0.47347575 0.6140086
000060 33 dc c6 3e 42 12 84 be ee e6 7b 3e 73 79 62 be
       0.38839874 -0.2579518 0.24599811 -0.22116642
000070 31 ab cb 3e 2d 8c e5 be 0c 9f 80 be 44 67 0d bf
       0.39779046 -0.44833508 -0.25121343 -0.55235696
000080 12 4d fb be 67 eb 4e 3e a8 dc f7 be 1d d1 03 3f
       -0.49082237 0.20206986 -0.48410535 0.51490957
000090 e9 eb 91 3d 84 17 f3 be 1d 07 07 3f e1 65 89 be
       0.071250744 -0.47478878 0.5274523 -0.2683554
0000a0 8a b4 0c 3d cc b3 2b be c0 d7 20 3e 10 af dc 3e
       0.034351863 -0.16767806 0.15707302 0.43102312
0000b0 4a 8e 9d 3c 02 6e e6 3e 45 17 b4 bd c1 8c c7 3e
       0.019232888 0.45005804 -0.08793501 0.38974574
0000c0 e4 3a 87 be 26 7f 18 bf a3 4f 61 3e 1b 71 ce 3d
       -0.26412117 -0.59569013 0.22003035 0.10080167
0000d0 18 46 c0 3e 02 2d 9b be 14 47 00 3f 9a 31 d4 3e
       0.37553477 -0.30307776 0.50108457 0.41444093
0000e0 69 2c dc 3e fd 8a a9 3e 7e 95 98 3e a1 57 05 3f
       0.43002632 0.33113852 0.29801553 0.52086836
0000f0 1a 6c 5c be ff 39 40 be 1e 94 df 3e dd f9 14 3d
       -0.21525612 -0.18772124 0.43667692 0.0363711
000100 1b cd 2b be ca 4b 8b 3e dc 83 0f be ca 40 8e bb
       -0.1677746 0.2720626 -0.14015144 -0.0043412196
000110 35 86 c6 bd 4a d9 48 3e 00 5b 86 3c d8 6e d5 bd
       -0.09693567 0.19614139 0.016400814 -0.104215324
000120 eb 25 25 be 48 06 a8 3e 8e 25 12 3f 91 43 d5 3d
       -0.16127746 0.32817292 0.57088554 0.10413278
000130 d0 20 fa be 84 b9 4f bd 57 70 8b bd 94 5e b6 be
       -0.4885316 -0.05071403 -0.068085365 -0.35619032
000140 7a 58 cb 3e 00 ba 16 3e 7a 1b ea 3e 82 eb 07 3e
       0.3971594 0.14719391 0.45724088 0.13273433
000150 17 cc 63 3e aa f9 12 bf 3b 23 3c be 82 91 fa 3e
       0.22245823 -0.5741221 -0.18372814 0.4893914
000160 e6 96 c6 be 60 c2 8f 3e 05 25 f6 be 45 7e 6f 3e
       -0.38787 0.28077984 -0.4807512 0.23388012
000170 df a7 e8 be d3 39 e0 3e b0 15 a7 3e 53 a2 ab 3e
       -0.45440575 0.43794116 0.32633734 0.3352228
000180 0f 0c a0 be 27 1f 21 3f 26 40 00 bf 9c 84 78 3e
       -0.312592 0.6293816 -0.5009788 0.24269336
000190 4a 56 e9 3e 3b 0c bd bd d8 15 cf 3e cc 89 cc be
       0.45573646 -0.092308484 0.40446353 -0.3994888
0001a0 31 ec 51 be dd 14 a7 3e 0d 32 89 3d aa 03 ca be
       -0.20500256 0.32633105 0.066989996 -0.3945592
0001b0 99 8e d1 3e 2d 47 8d bb bc 3c ed 3e 47 92 f4 3e
       0.40929106 -0.0043114633 0.463354 0.4776785
0001c0 5d 26 fa 3d dc 08 61 3e 1a c2 9c 3e c0 d0 38 3e
       0.122143485 0.21976036 0.30616838 0.18048382
0001d0 16 a9 e4 be 2c ee b6 be d7 15 b3 bb b6 31 cd 3e
       -0.44660252 -0.35728586 -0.00546525 0.4007699
0001e0 25 cc c6 bd 40 0d eb 3e 2b 37 db 3e e5 5e 80 3e
       -0.09706906 0.45908546 0.42815527 0.250724
0001f0 63 57 cf be 88 0e f8 be 14 50 f7 be 9e 3f dd 3e
       -0.40496358 -0.48448586 -0.48303282 0.432126

layers.1.weight f4 [128, 128]
000000 70 e2 90 3d 16 20 9b 3c 20 8c 44 bd 97 a9 03 be
       0.070744395 0.018936198 -0.047985196 -0.12857662
000010 38 fe 3d 3e 2f 8c 26 be 7a f2 9a 3c 4f 59 e2 bd
       0.18554008 -0.16264413 0.01891445 -0.110521905
000020 a5 e7 7b 3e 8d 41 e7 3d eb ab 41 bd 61 f8 80 bd
       0.24600084 0.112918 -0.047283094 -0.062973745
000030 b9 e0 b5 bd 0d 21 25 bd fe c4 ba bd a3 1d c7 3c
       -0.08880753 -0.040314723 -0.091196045 0.024306124
000040 1e a4 1a bd 53 fb 8b be 8d 35 0e 3e 4d cf a1 3d
       -0.03775417 -0.27340183 0.13887616 0.079008676
000050 fe 1c 00 bd 6b d4 c6 3d 2a e9 39 3e 20 b8 b8 3d
       -0.03127765 0.09708484 0.18155351 0.09019494
000060 9c a9 d5 3d 0a 08 3a 3e d4 4b 14 3e 9f 39 cf 3c
       0.10432741 0.18167129 0.14482051 0.02529603
000070 29 8a 3a bd ea 9a dd bd ae 33 85 3d c9 99 28 be
       -0.045541916 -0.10820563 0.06503998 -0.16464914
000080 03 6f cc 3d 0a d2 af bd 63 d2 68 3d bf 9b a9 3d
       0.09982111 -0.08584984 0.056841265 0.08281659
000090 87 c4 d8 bd b7 d6 2c 3e e3 50 1b 3e db 8d 22 be
       -0.105843596 0.16878782 0.15167575 -0.15874426
0000a0 53 64 54 3e 4d 47 86 bd c3 f7 16 be e0 b8 19 3e
       0.20741396 -0.06556568 -0.14742951 0.1501193
0000b0 cc 9a 27 3e 78 80 3a 3d 6a a6 8b 3d 8d 6e 57 3d
       0.16367644 0.045532674 0.0681885 0.052595664
0000c0 99 09 38 be 08 0f 9c 3d d7 69 06 3e b2 cd 54 3d
       -0.17972411 0.076200545 0.13126312 0.05195398
0000d0 41 8c 27 3e a2 47 14 3c a5 02 1a 3e 22 49 55 3e
       0.16362096 0.009050282 0.15040071 0.20828679
0000e0 23 2a 1c 3d b7 8a 42 3d 7b a5 c8 3b c9 d1 76 3d
       0.038126122 0.04749557 0.0061232424 0.06025866
0000f0 ab 88 49 be 2c 8b 90 3d 98 fb 3b bd 6c d3 70 3d
       -0.19681041 0.07057795 -0.045894235 0.058795378
000100 a0 18 e9 3c be e3 60 bd 96 3b ea bc 5b bf 5c bd
       0.028454125 -0.054904692 -0.028592866 -0.05389343
000110 a3 46 18 3e c7 e2 3e 3e 23 ca 46 be 52 77 38 be
       0.14870696 0.18641196 -0.19413047 -0.18014267
000120 44 be 5e 3c 6d 88 d9 3d 6c e9 91 3d 14 99 a1 bd
       0.013595168 0.10621724 0.071246 -0.078905255
000130 d1 34 11 3d 84 3d 94 bd 42 36 83 bd 08 86 7a bc
       0.03545076 -0.07238296 -0.06406833 -0.015290745
000140 14 d9 95 3d 4e 20 a2 3d d3 d3 2d 3e de 40 dd bc
       0.07316795 0.07916318 0.16975336 -0.02700847
000150 73 23 6b 3e 86 57 89 3d 36 bb d6 bd 88 aa 71 3d
       0.22962742 0.06706147 -0.104849264 0.059000522
000160 88 34 6f b9 42 d1 1f ba 85 b2 92 ba f1 38 46 3e
       -0.00022812386 -0.00060965505 -0.0011192119 0.19357659
000170 b5 d5 1a be 2f 71 e2 bc 74 ba 9b bd 92 77 b7 3d
       -0.15120585 -0.02764186 -0.076039225 0.08958353
000180 ca 8a 49 be 6f d3 16 3e 3b 0e df 3d 5c 7a 27 3d
       -0.1968185 0.14729093 0.10891386 0.040888175
000190 9c 41 24 3e 38 71 25 bd 44 1f da 3d 44 bd 09 3d
       0.16040653 -0.040391177 0.10650495 0.033627763
0001a0 57 f5 8d 3e 4b ed 6a 3d 6c 55 58 bd ea 95 b7 3c
       0.27726242 0.057355206 -0.05281584 0.022410352
0001b0 93 60 34 be 94 2e a4 3d 8e 30 ed bc 10 fc 02 3d
       -0.17614965 0.080166966 -0.028953817 0.031978667
0001c0 5b a7 25 bd 01 79 6f 3e 2e 7a 2c 3e d9 b7 02 3c
       -0.040442806 0.23386003 0.16843483 0.007978403
0001d0 b3 0e 02 3d fe bf 82 bd 72 69 24 3e 5d cc 09 3e
       0.0317523 -0.06384276 0.16055849 0.13456865
0001e0 68 a9 af bb 33 0c 61 bd f5 95 99 3d fa 99 48 3c
       -0.005360771 -0.054943275 0.07499305 0.012243742
0001f0 01 4e cc 3d 3b c9 14 3e 38 ae e8 bd cb 11 01 3e
       0.099758156 0.14529888 -0.113613546 0.12604444
000200 46 85 06 bf 80 2a a9 bc 77 dd 6d bd 5b d8 64 be
       -0.5254711 -0.020650148 -0.058072533 -0.22348158
000210 6a 3b 83 bc 54 41 92 be ff b5 99 3e 12 50 80 be
       -0.016019542 -0.28565466 0.30021665 -0.2506109
000220 e7 4a 96 3e 52 b7 cb 3d a9 fc 29 bd 6e f8 b8 3e
       0.2935402 0.09947075 -0.04150072 0.36127037
000230 44 ac a2 be 93 32 51 3e 61 12 b1 be 76 84 a9 3e
       -0.31772053 0.20429449 -0.34584334 0.33108872
000240 7b 69 e1 3e 45 77 ab be 87 3f 64 3d 1a 2d 7d 3c
       0.44025788 -0.33489433 0.055724647 0.015452648
000250 23 21 0b 3e 86 21 01 3e bd dc 9d bd 0e c8 fa 3d
       0.1358686 0.12610444 -0.07708118 0.12245189
000260 d1 7a e3 3d f0 59 81 be db e2 11 be 4d 92 a5 3e
       0.1110741 -0.2526393 -0.14246695 0.3233818
000270 e6 ec 1c be 8f 6f f3 3e e9 ca 16 be fc e5 07 3c
       -0.15324745 0.4754605 -0.14725842 0.008294579
000280 4b cd d4 3d ba 47 bb bd 13 8d b4 3e 0c 79 17 3d
       0.10390719 -0.0914454 0.3526388 0.036980674
000290 ab 7f 1e bc 2c 13 48 be 57 04 98 be 70 0f 5f bd
       -0.009673993 -0.19538563 -0.2969081 -0.05445808
0002a0 85 4d 3d 3f 1e c4 32 bd fa ed 2a bd eb e1 d3 3d
       0.7394641 -0.043644063 -0.04173086 0.10345825
0002b0 95 f5 9e 3e bb e3 ca bd 08 20 37 be 84 40 33 3e
       0.3104674 -0.099067174 -0.17883313 0.1750508
0002c0 42 6e 94 be 7e 38 7c 3e c0 3d 9a 3c 5d 0e 00 3f
       -0.2899037 0.24630925 0.018828273 0.50021917
0002d0 3a ef 03 3d 8f f1 85 3e 8e e2 16 3c cf 09 96 3a
       0.032210566 0.26160857 0.009209288 0.0011447015
0002e0 b2 39 5e 3e 90 b1 36 be 64 99 91 3e 5d b4 08 3c
       0.21701697 -0.17841172 0.2843734 0.008343783
0002f0 c0 a7 19 be 16 d0 ee 3e 83 f8 f5 3d 9c 25 c8 be
       -0.15005398 0.46643132 0.120102905 -0.39091194
000300 c2 31 b2 3c 25 3d ad 3e cd 85 d1 3e 6b 4f 2d 3d
       0.021752242 0.33835712 0.40922394 0.042312067
000310 45 c1 9f bd 48 08 32 3e 41 fd 8d bd e0 f4 08 bd
       -0.07800535 0.17385972 -0.0693307 -0.033436656
000320 95 e6 b9 3d 4f 31 a0 be 78 05 d1 bd ca 8d a1 be
       0.09077183 -0.3128762 -0.10206121 -0.3155349
000330 8c ce 77 be 9e b9 e0 3e 92 14 a7 bd 24 96 1e 3f
       -0.24199885 0.43891615 -0.0815822 0.61947846
000340 9a 37 fc 3d 29 c3 b5 3d 08 3b 1a 3e aa cf c8 bd
       0.12315293 0.088751145 0.15061581 -0.09805234
000350 7f 22 8c 3e ca 85 cd 3c 7b 81 24 be 11 93 d0 3d
       0.27370068 0.02508821 -0.16065018 0.10184301
000360 34 a9 ba bb 15 29 30 3c c0 8e ec 3e ab 34 fe 3d
       -0.00569644 0.010751982 0.4620266 0.12412389
000370 61 ba 00 be 2c bb 02 be 1f 81 51 3e b5 b7 0a 3d
       -0.12571098 -0.12766713 0.20459412 0.033866603
000380 ef 39 61 be 03 ae a0 3c fe 70 1e 3d 0c fc e3 ba
       -0.21994756 0.019614225 0.038681976 -0.0017393841
000390 bd 6c e7 3d bc 02 69 be 3b 2d 3d 3e 66 06 0b 3f
       0.11300037 -0.2275495 0.18474285 0.5430664
0003a0 2b 92 e0 3e 12 73 c8 3e 30 87 ea 3e a0 df 89 3e
       0.43861517 0.39150292 0.45806265 0.26928425
0003b0 3a 19 4f be db 01 06 3e df 3d 95 3e ad eb 3c 3e
       -0.20224467 0.13086645 0.29148766 0.18449278
0003c0 1a 86 4a 3f ae 40 ad 3d 0b f6 cc bd de 16 90 bd
       0.7911087 0.08459602 -0.100078665 -0.070356116
0003d0 d1 cb 0f 3d 61 71 30 be c5 55 9d 3d e4 45 ab 3c
       0.035106484 -0.1723075 0.07682375 0.02090735
0003e0 88 ac 58 be 15 a9 06 bd b3 19 98 be 67 92 45 bc
       -0.21159565 -0.032876093 -0.29707107 -0.012058831
0003f0 0c cc 17 3d 67 52 a9 bd b4 e8 87 3e 91 b5 9b 3e
       0.03705983 -0.0826767 0.26544726 0.30411962

layers.1.bias f4 [128]
000000 d3 63 aa 3d fb e2 da bd 64 37 c9 bd cf 3c 13 3d
       0.08319821 -0.10687824 -0.09825018 0.035946663
000010 9a 1c 8a 3d fe 87 43 3e 6d 5c 3a bc db 2e 47 3e
       0.067437366 0.19094846 -0.011374575 0.19451468
000020 cf a8 a3 3d 79 98 45 3e 9e 94 4e be 0c 3c c6 bd
       0.07991182 0.19296445 -0.2017388 -0.09679422
000030 1c 00 99 bc 16 66 97 3d f9 8c 84 3c fc a6 a6 3e
       -0.01867681 0.07392518 0.016180502 0.32549274
000040 a7 0c 8a 3e ff 3b 7d bd 1a 61 24 3e 71 a2 e4 bc
       0.26962778 -0.061824795 0.16052666 -0.02790949
000050 3e 59 25 bd 22 6e 36 3e a2 0e ed 3d 4e a6 94 bc
       -0.04036831 0.1781545 0.115750566 -0.018145707
000060 6b 30 8b 3e c9 fa 07 be 3c af 09 3e 15 5f 0e 3d
       0.27185377 -0.1327926 0.13445753 0.034758646
000070 e3 b9 3d bd 88 f9 4a 3e fd af 80 3d 0d 0a 8c 3d
       -0.046319854 0.19821751 0.06283567 0.068378545
000080 de 9a c9 3d 89 1b af 3c 80 6c a1 3d c0 9c fa bd
       0.09843992 0.021375434 0.07882023 -0.12236929
000090 0d 5c ca bd 3d 25 f8 3d aa 51 2b 3e f8 81 ee 3c
       -0.098808385 0.12116478 0.16730371 0.029114708
0000a0 1f 0c cb 3d 5f f4 10 3e dd 97 91 3e 39 78 44 3e
       0.09914421 0.1415572 0.28436175 0.19186486
0000b0 92 f8 19 be 9f a0 77 3c ec c9 40 3d 18 cb 00 3d
       -0.15036228 0.015113979 0.047067568 0.031443685
0000c0 ce a6 19 3d 96 9a d6 3b 0a 1e f1 bd 2a 87 7b 3d
       0.037512593 0.00654919 -0.117733076 0.0614082
0000d0 70 1f 4f 3e d5 b3 b0 bd 45 e3 c0 3d da 6c fa bd
       0.20226836 -0.0862805 0.09418348 -0.12227793
0000e0 1e d1 9d 3d 44 9a 99 3d f5 40 85 bd 5e 9d 9c 3d
       0.077059016 0.07500127 -0.0650653 0.07647203
0000f0 8b 63 04 3e b1 4b a6 3d 8d 6b 9b 3d a9 0f 73 3e
       0.12928598 0.08119906 0.07588873 0.23736443
000100 5d 97 3c 3e 2e c4 9a 3d 5d dc 54 be d1 8e 29 3c
       0.18417116 0.075569496 -0.20787187 0.0103489915
000110 91 40 cb bd 3a f3 30 3d 8c 95 f4 3c b8 9f bb 3d
       -0.099244244 0.04320071 0.029856466 0.09161323
000120 3e 73 e8 3d 0d e5 b7 ba 15 31 89 3b eb ca b4 bd
       0.11350106 -0.0014030054 0.0041867592 -0.08827766
000130 0a b2 ae bd 0b 5c 47 3d 06 db 07 bd f9 d9 2a be
       -0.08530052 0.048671763 -0.03316786 -0.16684712
000140 81 38 33 3e 68 9d b0 3d 6c c8 9d bd 65 4e 49 3c
       0.17502023 0.08623773 -0.07704243 0.012286757
000150 1f 95 34 3d 47 bc c8 3d 3b f2 2e 3e 3f d1 31 be
       0.044087525 0.09801536 0.17084591 -0.17364977
000160 b7 55 cd 3c 54 4e f2 3d 6e 41 fb 3d 65 b6 c9 bb
       0.025065286 0.11831346 0.12268339 -0.0061557763
000170 89 2e ba bd 84 90 73 bd cc bb e7 bd c5 e9 8a bc
       -0.09090907 -0.059463993 -0.11315116 -0.016957173
000180 df 9d 62 bc b8 28 d9 bc 3c 01 97 3d 43 03 c3 3d
       -0.013831585 -0.026508674 0.07373282 0.095221065
000190 4f 79 0e 3e 8b c7 6e 3e be 77 65 3e 0c 05 d7 3c
       0.13913463 0.23318307 0.2240896 0.026247524
0001a0 74 3b 62 3d d1 5b eb bd bb a0 0e be 9f d4 c9 bc
       0.05523248 -0.11492122 -0.13928501 -0.024637518
0001b0 14 7b a9 3e cf 17 19 3d 0e 9d 91 bd 38 4a 59 3d
       0.33101714 0.03737622 -0.07110034 0.053049296
0001c0 62 48 82 bd 68 15 37 be 4c dc d1 3d 9f a0 cf 3d
       -0.06361462 -0.1787926 0.102470964 0.10138058
0001d0 bb 0d 31 be 14 55 8a 3e 57 66 74 3d 3c 56 7d 3c
       -0.17290394 0.27018034 0.05966791 0.015462454
0001e0 3c 35 a4 3d 36 5b 88 3d 00 c4 00 be 5d ec 2f 3d
       0.08017966 0.06658022 -0.12574768 0.042950023
0001f0 85 1e c3 3d 99 e8 39 3e f7 76 06 3e 88 32 c4 bd
       0.095273055 0.18155135 0.13131319 -0.095799506

layers.3.weight f4 [128, 128]
000000 7a 96 48 3e d2 d7 86 be 9c 56 49 3e 76 72 e6 3d
       0.19588652 -0.26336533 0.19661945 0.112523004
000010 ab 0e 07 3e 78 88 be bc cd 5a 27 3e b5 98 16 3d
       0.13189189 -0.023258433 0.16343231 0.036766727
000020 ac 8c 4e 3e f6 a2 80 be c6 20 b1 be 2a 99 08 3f
       0.2017085 -0.2512433 -0.34595317 0.5335871
000030 78 00 2c 3e dc 87 d6 3d 41 d6 b4 3d db 4d db be
       0.16797054 0.10475132 0.08829928 -0.42832837
000040 d6 b5 a0 be 15 26 17 bd 81 f4 36 3d 04 09 55 3d
       -0.3138873 -0.036901552 0.04466677 0.05201055
000050 bc f2 28 3d 2f 7d 0e be 68 b9 4b 3d b0 2f 78 3d
       0.041247115 -0.13914941 0.049737364 0.060592353
000060 46 28 8a be 87 07 03 3f 98 3b 2b 3e cf f2 de 3d
       -0.2698385 0.5118336 0.16721952 0.10886156
000070 11 46 ee 3e 07 87 38 bc db 8b 30 3e 98 f4 2b 3d
       0.4653783 -0.011262662 0.1724085 0.04198131
000080 c2 fa c4 3d 58 6f e2 3e 34 25 be bc ce 94 ce 3e
       0.09618141 0.44225574 -0.0232111 0.40347904
000090 c0 f2 f5 bc f0 5d 6f be 7f a5 43 be ec 28 28 3e
       -0.030022979 -0.23375678 -0.191061 0.1642186
0000a0 ac 9a 91 3c d0 89 a5 3d bd 67 c9 bd 05 9b 76 be
       0.017773949 0.08082926 -0.0983424 -0.24082573
0000b0 95 17 c4 3e a8 9c e8 bd 6e ed 03 3e 60 df 4e be
       0.38299242 -0.11358005 0.12883541 -0.20202398
0000c0 f6 27 c9 bc 5b 75 17 3e 93 42 5c 3e 81 be 2c 3e
       -0.024555188 0.14790861 0.21509771 0.16869546
0000d0 40 64 5f bd e6 91 c0 3c 53 1e 18 bd 9e c1 7a be
       -0.054538965 0.02350707 -0.037138294 -0.24487922
0000e0 11 96 49 3d 5e 36 02 3e 1f 2c 91 3e ae 4d 21 3e
       0.04921538 0.12716052 0.28353974 0.15752289
0000f0 db 67 3b be fc 2c 61 3d 55 8f 2b 3e 3e 0e f4 bd
       -0.18301336 0.05497454 0.16753896 -0.11916779
000100 28 8e 95 be 8e 35 9a 3d 20 80 37 3e 43 98 1b 3c
       -0.2921002 0.07529746 0.1791997 0.009496751
000110 d3 ae bb bd 2e 2b 8b be c7 56 d1 3e 4a 31 28 be
       -0.091642044 -0.2718138 0.40886518 -0.16425052
000120 c5 e5 8d bc 57 db bb 3d cb 0b 8c 3d b9 9f f1 be
       -0.017321477 0.09172695 0.06838187 -0.4719217
000130 fe 6d f4 3d ce 03 42 3e 24 ad a1 bd c2 23 17 3e
       0.11935042 0.18946764 -0.07894352 0.14759734
000140 a1 0c d3 3b ad d9 b0 be 5e d2 f2 3e 2f 5b a8 3e
       0.0064407145 -0.34541073 0.47426122 0.32882068
000150 70 b5 00 3e 75 94 48 3c 04 6d 34 be 3e 9f 66 3e
       0.12569213 0.012242426 -0.17619711 0.22521684
000160 59 26 4a 3e 72 7f e6 bc 39 08 d2 bb 9d a0 9f 3d
       0.19741191 -0.028136943 -0.0064096716 0.077943064
000170 df 33 3d 3a 57 43 ea 3d 48 0a d2 3e 18 57 c3 3e
       0.0007217507 0.11438625 0.4102347 0.38152385
000180 46 7f 0b 3f 96 bf 15 3e e3 85 e4 3c cd c7 51 3d
       0.5449108 0.14623865 0.027895873 0.051215935
000190 73 78 c7 3d 00 6e ba 3c 7c 33 87 bd 4c 4e 9f 3e
       0.09739771 0.02275753 -0.06601617 0.31114423
0001a0 7d 86 29 be 47 05 99 3e 40 e8 64 3c b8 3f 2a 3e
       -0.1655521 0.2988684 0.013971388 0.1662587
0001b0 45 8f 24 bd ec 65 ea 3d 98 02 76 bd a8 a2 a2 3e
       -0.040175695 0.11445221 -0.060061067 0.31764722
0001c0 6a bc 28 be b3 e6 c3 3e 30 df 84 3d 3e d0 91 be
       -0.16478124 0.38261947 0.06487882 -0.2847919
0001d0 2d 77 b6 3e c7 52 80 bd 87 94 01 3e 56 59 dc 3c
       0.356378 -0.062657885 0.12654315 0.026898067
0001e0 58 8d a8 bb 84 f7 ff 3d b2 5f 47 3c c5 0b 85 bc
       -0.0051438026 0.12498382 0.012168812 -0.016240964
0001f0 37 01 14 3e 3e c8 69 be bc 82 92 3e fb 23 21 3e
       0.14453588 -0.22830293 0.28615367 0.15736382
000200 9f 97 81 3b 8e 7f f2 bd ac da 1b 3e c7 3c 96 3d
       0.003954842 -0.118407354 0.15220135 0.07335811
000210 89 32 b8 3d b2 cb f5 bd bc 61 a5 3d 70 6c ef 3d
       0.08994014 -0.120017424 0.08075282 0.11690605
000220 c1 66 6b bd db 9d 4f be 57 56 52 be fe ac 3f 3e
       -0.05747104 -0.20275061 -0.20540749 0.18718335
000230 00 86 6b 3d 0a 11 08 3e fd da af bd b6 9d f7 be
       0.05750084 0.1328775 -0.085866906 -0.4836251
000240 51 c4 a4 bc d8 21 a1 3e 52 e8 37 3e 42 d2 09 3e
       -0.020113142 0.31471133 0.17959717 0.13459113
000250 17 b5 16 3e f5 c4 fe 3d 5a 0f bb 3d f0 4c 2e 3e
       0.14717518 0.1243991 0.091337875 0.17021537
000260 02 e5 b0 be 67 9a 49 3e 75 78 f8 3c 19 5d 6d bc
       -0.3454972 0.19687806 0.030330876 -0.014487528
000270 fc e3 a1 3e a4 74 96 bd 1c e3 aa 3d 8d 4f e1 bd
       0.3161925 -0.07346466 0.08344099 -0.11001501
000280 f9 3d 3a 3d f4 40 a2 3e 32 53 07 3e 25 5b ad bd
       0.045469258 0.3169018 0.1321533 -0.0846465
000290 9c 93 98 3d 0c 6b d2 be 3c 10 a4 3c 6f d2 de 3d
       0.07450029 -0.41097295 0.020027272 0.10879981
0002a0 d7 0d c3 bc 54 25 64 3d 40 6f db bd 4a ae b3 be
       -0.02381031 0.05569966 -0.10714579 -0.3509391
0002b0 9e 0e 83 3e 4e 98 f1 ba 99 d5 74 bd 2f a3 80 3d
       0.2559709 -0.0018432231 -0.059774015 0.06281125
0002c0 ec 99 ab 3a 38 b3 9b bc 13 01 10 3d ca f4 3a bd
       0.0013092137 -0.019006357 0.035157274 -0.045643605
0002d0 02 4f 00 be 61 0f 78 3d 97 e5 00 3d 8a 12 0e 3e
       -0.12530139 0.06056154 0.031468954 0.1387426
0002e0 56 3a c6 3d eb 7d c6 3d d8 c8 9a 3e 2b 93 10 3e
       0.096790954 0.09691986 0.30231357 0.1411864
0002f0 e5 03 ae bd d1 b5 75 3d 3a 9c bc 3c f5 41 a6 bd
       -0.084968366 0.059987847 0.023023713 -0.08118049
000300 e1 95 6c be 6f 92 98 bc 22 64 86 3e 99 ea fd 3d
       -0.2310405 -0.018624512 0.2624827 0.123982616
000310 a0 1b 77 3d 2c 4f d3 bd fa 7d a7 be 4c 71 12 be
       0.06032908 -0.10317835 -0.327133 -0.14301032
000320 33 df 11 3e 7a ef c4 3d aa 72 8b bd 51 17 ac be
       0.142453 0.09615989 -0.0680898 -0.3361154
000330 93 67 01 be cc a2 29 3e 84 76 ea bc cf 92 cd 3d
       -0.12637167 0.16566008 -0.028620966 0.10037767
000340 da 23 82 3c ae 44 b4 be bb 72 1e 3e 4d 7c 25 bb
       0.015886236 -0.35208648 0.15473454 -0.002525109
000350 e8 bc 96 be 32 35 f3 bb 59 ca 20 bd b0 59 2f 3e
       -0.29441 -0.007422113 -0.039255474 0.17124057
000360 f0 c2 ab 3c b0 5e ea 3c 80 85 90 bc c7 8f 84 3d
       0.020966977 0.028609604 -0.017641783 0.06472736
000370 a8 7c 28 3e e7 19 14 3e c7 1d 57 3e ac d1 69 3e
       0.16453803 0.14463006 0.21007453 0.2283389
000380 38 59 91 3e 6c e4 29 3e b8 77 67 3d 90 6f ef 3d
       0.2838838 0.16591042 0.056510657 0.11691201
000390 03 2e 9b 3d 09 eb 2c bd 1e c1 f8 bd f1 f8 62 3e
       0.075771354 -0.042216334 -0.12146209 0.22165276
0003a0 b6 15 bd bc 5e bf ca 3e 75 de 67 3e 16 c7 7a b9
       -0.023081642 0.39599127 0.22643454 -0.00023916023
0003b0 e5 84 25 bd 1b d7 13 3e ae 6f ca 3e 73 95 96 3e
       -0.04040994 0.14437525 0.3953833 0.29410896
0003c0 af 34 58 3e 90 b3 bd 3e 77 30 c4 bc 36 e5 42 be
       0.21113847 0.37051058 -0.023948891 -0.1903275
0003d0 0e 0e c7 3e c3 7b 8d bd fb 5b 0e bd b0 ff 24 3e
       0.3887791 -0.06908371 -0.03475569 0.16113162
0003e0 6d 3d 30 be 32 8c 4a 3e 8e 04 ba be 7e 46 b5 bc
       -0.17210932 0.19780043 -0.363316 -0.02212834
0003f0 8c 92 9a bd b3 36 12 3d 79 20 68 bd 0d af a8 bc
       -0.07547483 0.035696696 -0.056671593 -0.020591283

layers.3.bias f4 [128]
000000 03 76 83 be 19 a6 25 be bf 27 2a be 13 b3 1c be
       -0.25675973 -0.16176642 -0.16616724 -0.15302686
000010 e1 88 03 bc ea ba dc 3e f2 85 31 bc 02 77 ba bd
       -0.00802824 0.43111354 -0.010835158 -0.0910473
000020 b8 a7 49 3e b4 76 18 bc a2 14 8d 3d dd 61 6c be
       0.19692886 -0.009305645 0.06888701 -0.23084207
000030 84 39 ea 3d 01 d5 a2 bd b5 b0 35 be ad 8c d1 3d
       0.114367515 -0.079507835 -0.1774319 0.1023191
000040 3c 96 96 be e3 f4 ca bc cf 58 26 be 29 0c 23 3d
       -0.29411495 -0.024774974 -0.16244815 0.03980652
000050 1f e9 76 bd f0 0a 6b bd 6d 65 61 be 44 6f ec bd
       -0.060280915 -0.057383478 -0.22011347 -0.1154466
000060 b5 99 07 be cf ca 46 3e 85 a1 ae 3c f5 5c 2e be
       -0.13242228 0.19413303 0.021317253 -0.17027648
000070 a3 63 1b be 68 6d 1d be 3f 4a 84 be cb 9c 81 3d
       -0.15174727 -0.15373766 -0.25837895 0.06328734
000080 45 d5 2e be 1e 1b c7 bd 80 7d ba 3e 3d 6a ae bd
       -0.17073543 -0.09721969 0.36423874 -0.08516357
000090 d3 7f 87 bd bb 57 87 3c 94 ed 3f 3e 79 4a 8c 3e
       -0.066161774 0.016521325 0.18742973 0.27400568
0000a0 c8 c4 3b be 73 1f b3 bd 7e 82 50 3d ed 0f 84 bd
       -0.18336785 -0.08746233 0.050905697 -0.0644835
0000b0 8b f9 92 3d b5 3b 69 be df a9 fd 3c f1 21 af bd
       0.07176503 -0.22776683 0.03096479 -0.08551396
0000c0 71 9b a1 bc c4 97 19 be 3f 09 14 bd 20 38 05 3c
       -0.01972744 -0.149993 -0.03614163 0.008131057
0000d0 44 1a 90 bd 1e 3b 66 bc 79 a8 0a 3e cc f8 0f be
       -0.0703626 -0.014052181 0.1354083 -0.14059752
0000e0 35 87 a6 3e d1 8b 13 bd b3 c5 4f bd b3 1a b3 3e
       0.3252503 -0.03602201 -0.05072565 0.34981307
0000f0 59 23 67 be d2 0e bc bd 6e 24 93 3e 8b f4 92 3d
       -0.22572078 -0.09182514 0.2873873 0.07175549
000100 cd bf 34 bd 75 65 cf bd a6 ef bf bd d6 46 22 be
       -0.044128228 -0.10126773 -0.09371881 -0.15847334
000110 b8 bb 33 3e a9 54 02 be 5e 5d 7a bc 0f a6 4f bd
       0.17552078 -0.12727608 -0.01528105 -0.050695475
000120 85 4b 42 be d5 35 d7 bc 1b 8c 09 3e bb d5 1a be
       -0.18974121 -0.026270786 0.13432352 -0.15120594
000130 1c f7 16 3e 1b 1c 48 bc ff 43 99 3e 2e 31 39 be
       0.14742702 -0.012213732 0.2993469 -0.18085167
000140 1f f5 2c be 69 05 82 3e aa 8e 30 be 94 0f 9e 3d
       -0.16890381 0.25394753 -0.17241922 0.07717815
000150 3a ee 45 3d f1 d7 e0 3c 2c cd 41 3c 3f ca ae 3c
       0.048322894 0.027446719 0.011828702 0.021336673
000160 9c 87 9a bd 11 bd 59 3e a5 8a 3b 3e cf 9d 47 be
       -0.07545397 0.2126353 0.18314607 -0.19493793
000170 2e a2 80 3d fe 61 68 bc 3e d0 b6 bd ad a0 ad bd
       0.06280933 -0.014183519 -0.08926438 -0.08477912
000180 6e 89 f4 bc 60 07 58 be 27 80 6e bd 66 60 45 3d
       -0.029850688 -0.21096563 -0.058227684 0.048187636
000190 f4 12 87 3e 7d d0 73 bd d1 74 7a bd bb 04 de bd
       0.26381648 -0.059525 -0.06114656 -0.10840746
0001a0 f0 ea 35 bd dd be 5a 3d f8 2d f2 bd 97 68 03 be
       -0.044413507 0.053404678 -0.11825174 -0.12832867
0001b0 b1 e4 0a be e8 83 d3 bd 8a 49 70 be 60 29 20 3d
       -0.13563801 -0.103278935 -0.23465553 0.03910196
0001c0 ee c8 c3 bd 6d 65 26 3d 20 35 64 3c 9b b0 90 3e
       -0.09559809 0.04062407 0.013928682 0.2825974
0001d0 5a 09 7c be f7 bf 43 be 1c ad b4 3d d2 a5 38 bd
       -0.24612942 -0.19116198 0.088220805 -0.045080014
0001e0 53 05 fc bd 0a 37 71 be ad 31 a4 3c 44 ed f6 bd
       -0.12305703 -0.23556152 0.020043219 -0.120569736
0001f0 1a e9 2a be 6b eb a2 3d 8f 6c 73 be 0a 7c 9e bd
       -0.16690484 0.07955059 -0.2377188 -0.07738502

layers.5.weight f4 [4, 128]
000000 56 ed 0d bf 7a f0 08 bc a9 70 2d bf a6 83 39 3d
       -0.5544027 -0.008358115 -0.6775003 0.045291565
000010 23 d5 1b 3f 53 e8 e5 3e 94 5a 98 3d a3 5c 5a be
       0.60872096 0.44903812 0.074391514 -0.213244
000020 fd 61 f5 3e 08 d1 a8 bd cd 06 07 3f aa 25 cd be
       0.47926322 -0.082429945 0.5274475 -0.40067798
000030 f7 bf 85 3e 25 e1 51 bd 36 bd 0b 3d ff e6 bf 3e
       0.2612302 -0.051240105 0.034115992 0.37480924
000040 b2 b2 8e be 8c fb 55 3d df 13 68 be 05 dc 2f 3e
       -0.2787071 0.052241847 -0.2266383 0.17173775
000050 ed ce 40 be d9 0e 5e be 12 a3 4e be 45 b5 0f bf
       -0.18828936 -0.21685351 -0.20179394 -0.5613597
000060 d4 77 4c be 71 da a3 3e f3 b2 e2 3e 13 7e 90 be
       -0.19967586 0.32002595 0.44277152 -0.28221187
000070 55 00 67 be 5c ed e1 bd 9e 14 42 be 57 e7 0c 3f
       -0.2255872 -0.11031601 -0.18953177 0.55040497
000080 ee c5 85 be bd 2f 74 be 8e e6 c6 3e 75 70 f1 3c
       -0.2612757 -0.23846336 0.38847774 0.029472569
000090 9b 7e 3f be 5c 0b 52 be 3e aa a3 3e 13 03 bf 3e
       -0.1870064 -0.20512146 0.31965822 0.37307033
0000a0 47 da 75 be 65 f8 ed be 58 75 11 3f 83 96 22 be
       -0.24009047 -0.46478572 0.5681968 -0.15877728
0000b0 88 85 cd be f7 d5 9e bd 0c 16 73 3f ae 96 87 be
       -0.4014094 -0.07755654 0.94955516 -0.26482147
0000c0 e4 40 84 bd 45 49 24 3f 5a ea b1 be c7 20 a6 be
       -0.064576894 0.641743 -0.3474911 -0.32446882
0000d0 15 6d 9f be b9 7e 9e bd 7d b2 fc 3e 8b e2 32 be
       -0.3113791 -0.07739014 0.49354926 -0.17469232
0000e0 e1 1b 82 3e b8 64 cb bd c4 83 b9 3b 89 ea fb 3e
       0.25411895 -0.0993132 0.0056614596 0.49202374
0000f0 2f b1 56 be e7 8b 1a 3f fc 8e f2 3e a7 58 95 3e
       -0.20966028 0.60369724 0.47374713 0.291692
000100 48 21 11 3f d0 70 e8 be fb 48 b4 be a0 8d 43 bf
       0.5669141 -0.4539857 -0.3521193 -0.7638798
000110 55 4f 60 3f 1f 39 27 bf ba ab a7 be 9f 31 92 3d
       0.8762105 -0.65321535 -0.32748204 0.07138371
000120 cf 90 d9 be 5a 28 a9 be cb 8f 8a 3e 29 c0 8d be
       -0.42493293 -0.33038598 0.2706283 -0.2768567
000130 0f 3d d4 3e 90 f7 6c be d2 c6 57 3e c2 bd 09 bf
       0.41452834 -0.23141313 0.21071938 -0.5380517
000140 8a a3 01 bf 30 51 29 3f ab 7a 19 bf 93 76 55 be
       -0.50640166 0.6613951 -0.599528 -0.20846014
000150 6f 1f 32 be f6 a5 4f be e8 b1 af be 68 50 95 be
       -0.17394803 -0.20278153 -0.3431542 -0.29162908
000160 31 a4 ed 3e 1a 29 cb 3e 83 eb ab 3f a7 4c 97 be
       0.4641433 0.39679796 1.3431247 -0.2955067
000170 6e f6 d0 3e de 77 10 be b8 06 e5 3c 69 dd 74 be
       0.4081301 -0.14108226 0.027957305 -0.23912586
000180 67 fd 9e 3c e3 92 92 bf 1b bd d1 be 2c 1f 51 be
       0.019407941 -1.1451076 -0.4096459 -0.20422047
000190 87 f1 e6 3e 87 91 c0 be 49 3b 48 3f 33 5f 94 be
       0.45106146 -0.3761103 0.7821546 -0.2897888
0001a0 4e 3a 96 be 9d 37 f3 be 88 83 9a be 87 b3 36 bf
       -0.29341358 -0.47503367 -0.30178475 -0.71367687
0001b0 a0 45 cc be 25 33 3c be ce ed 42 bf 0b ab d4 be
       -0.3989687 -0.18378885 -0.7614411 -0.41536745
0001c0 9a 7b 30 bf 85 cc 0a 3f 48 66 d6 3e f6 a0 c8 3e
       -0.689386 0.5421832 0.4187491 0.39185303
0001d0 ab e5 d5 be 97 4f 10 bf 8a b3 29 3e ee 66 8a be
       -0.41776785 -0.56371444 0.16572395 -0.27031654
0001e0 7a f1 bd be d4 da a5 be 75 c1 99 be b5 d5 dc 3e
       -0.37098294 -0.32393515 -0.30030409 0.43131796
0001f0 77 d8 a0 be f8 c9 0f 3f aa aa 9a be 39 de fa be
       -0.3141515 0.56167555 -0.3020833 -0.48997667
000200 ac 51 0c bf de 61 72 be 72 5a 8e bf 9c 5f d0 be
       -0.5481212 -0.23670146 -1.1121352 -0.40697944
000210 5a 50 1e 3f e7 70 eb 3e ca b9 88 bd a6 86 85 be
       0.61841357 0.45984575 -0.066760615 -0.2607929
000220 2c b1 e5 3e 6a 3b cf 3c 91 22 0d 3f af 78 1a 3d
       0.44861734 0.025296886 0.5513087 0.03771275
000230 04 5b c6 3e d4 1e ce 3e e6 7c 09 bf 2d 46 e1 3e
       0.38741314 0.40257895 -0.53706205 0.43998852
000240 de 99 8a be 96 45 c1 bc 58 f6 2d bf c0 7e d6 3e
       -0.27070516 -0.023592751 -0.67954016 0.41893578
000250 67 cb 88 be 41 96 8e be 3d ac fc be d7 d8 ba be
       -0.26717684 -0.2784901 -0.49350157 -0.3649356
000260 91 67 88 be ad 05 3a 3e 73 7c fb 3e fc 86 a4 be
       -0.26641515 0.18166228 0.49118385 -0.32134235
000270 3c 7c 9d be d8 53 e1 be 5f 66 9d be 65 5b f5 3e
       -0.30758846 -0.4400928 -0.30742165 0.4792129
000280 f0 31 a6 be 09 e2 17 be c8 b7 01 3f 72 34 89 3d
       -0.32459974 -0.1483232 0.5067105 0.06699456
000290 7e b8 d3 be 80 44 c4 be 4c 2b ae 3e 99 3f 10 3f
       -0.41351694 -0.3833351 0.34017408 0.5634704
0002a0 c5 05 07 be 96 72 11 bf 0a 8a 5f 3f f1 ae cd bd
       -0.13185795 -0.5681547 0.87320006 -0.10043133
0002b0 79 c7 51 bd 37 76 95 bd bc cc 6e 3f 46 fd 6f be
       -0.051215623 -0.07297938 0.9328115 -0.2343646
0002c0 11 a1 9f be 7f 98 11 3f 48 11 cd be 79 57 a2 be
       -0.3117757 0.56873316 -0.40052247 -0.3170736
0002d0 12 f2 97 be 5f b1 ef be 53 40 f9 3e 23 6c 98 be
       -0.29676872 -0.4681501 0.48681888 -0.29770002
0002e0 9d 11 7a 3e 8e 74 ce 3c 30 f4 a8 3d 8b d0 0a 3f
       0.24420781 0.025202062 0.082497 0.5422446
0002f0 03 80 9e be 6c 8f 5a 3f 60 08 d2 3e ff aa d0 3e
       -0.3095704 0.85375094 0.41022015 0.4075546
000300 ab d8 e8 3e b0 a5 23 bf 75 9e fa be e2 ea 2b be
       0.45477805 -0.63924694 -0.48949018 -0.1678882
000310 c4 f4 33 3f 71 5e 8f be 48 3d f6 bd 6f d5 91 bd
       0.7029536 -0.2800174 -0.12023407 -0.07120787
000320 b2 fd e9 be 9a 09 ff bd 52 b7 68 3e 1d 79 ff bd
       -0.45701367 -0.12453003 0.22726181 -0.124742724
000330 a5 7f a9 3e 09 ed 9c be 03 f1 8d 3e 95 bc 9f be
       0.33105198 -0.30649593 0.2772294 -0.31198564
000340 78 10 30 be 41 2c 45 3f a9 42 1d bf 26 68 ac 3d
       -0.17193782 0.7702065 -0.6142984 0.08418302
000350 0f 66 97 be 68 38 c6 be 63 4d 46 be 7d c2 86 be
       -0.29570052 -0.3871491 -0.19365458 -0.26320258
000360 62 72 0d 3f 28 d4 ba 3e 92 95 9f 3f 45 4e b8 be
       0.5525266 0.36489987 1.246752 -0.35997215
000370 a7 86 07 3f b6 20 85 be 8b 3d 4b bc 77 ad 5d be
       0.5293984 -0.2600152 -0.01240481 -0.21648203
000380 10 da 17 bc 1d 2b 78 bf 29 d2 ea 3b 1a 18 de be
       -0.009268299 -0.96940786 0.0071661663 -0.43377763
000390 75 ef c1 3e 06 96 a5 be e3 b8 6b 3f a4 c6 26 be
       0.37878004 -0.3234102 0.9207899 -0.16286713
0003a0 2b 1c 65 be bf 56 a9 be 1f 95 20 be 21 7a 1b bf
       -0.22374026 -0.33073995 -0.15681885 -0.6073323
0003b0 29 6c 41 be 01 07 fc be af eb 9f be b2 1d 1b be
       -0.18888916 -0.49224094 -0.312345 -0.15148047
0003c0 76 4f e5 bd 4a a2 ae 3e 26 a7 cf 3e 9a cb e3 3e
       -0.111967966 0.34108192 0.40557212 0.44491273
0003d0 91 ae b1 be 38 8e 1d bf a5 81 4e 3d 14 fc a0 be
       -0.34703496 -0.61545134 0.050416607 -0.3144232
0003e0 f3 5f ef be 4b 26 12 be 1b a8 48 be eb c1 24 be
       -0.4675289 -0.1427242 -0.19595377 -0.16089599
0003f0 03 7b 85 3e 79 9c 13 3f ee b5 c2 be c2 2a 1a bd
       0.26070413 0.57660633 -0.38029426 -0.037638433

layers.5.bias f4 [4]
000000 b7 1a 10 3e d6 e7 3f 3d 2f a6 3e 3e 24 93 5f 3e
       0.14072691 0.046851955 0.18618082 0.21833473
