model_zoo/GAIL/CartPole-v0/actor_1980096.pth (torch, 138807 bytes, 8 tensors)

layers.0.weight f4 [128, 4]
00000000: 041f 8e3e da0a 4bbe c71f 2fc0 fd30 98bf
00000010: be80 cc3e b283 5abe 1462 0340 64c7 c73f
00000020: 307d c1bc 518a 68be 7603 1cc0 f86f 99bf
00000030: 783e d4be 49f9 7cbd 6542 3140 8160 893f
00000040: 61c5 f43e d2f3 80be 1643 1bc0 9f5b adbf
00000050: 734c a8be 45e1 84be 3abe f7bf c66a cabf
00000060: 085d ec3d f7ae fa3e 8174 0d40 931e b73f
00000070: 5c81 7b3e e581 ddbe 0559 23c0 d70c b2bf
00000080: af67 d03e 5bfa ddbe c347 2940 d8f2 da3f
00000090: cf13 c63e c350 e93d d408 f1bf e4e4 90bf
000000a0: ba16 553e 0120 fc3e 9a11 0540 7b4c d73f
000000b0: 1cb8 e33d 46d7 c9be 569e 26c0 14c8 77bf
000000c0: 883c 7e3c 5593 3abe 1c7d e3bf e6d2 bfbf
000000d0: 6722 47be f5d3 543d 1fce 18c0 8d1f cfbf
000000e0: 7e7b 48be 21ee 0dbe c275 0040 d7bb d43f
000000f0: 23a5 12be a6b9 8cbe 0f57 1940 e5e5 ad3f
00000100: 46ef a4be b1ec fbbe 357b eabf 22af d5bf
00000110: 9d34 fc3e a162 233e e9b3 b1bf fd8b bbbf
00000120: e6d3 ae3d 45f5 f0be 94af 0c40 1c6e b13f
00000130: e3a6 d03d 95dc 4dbe 4224 16c0 e414 9ebf
00000140: 94fb 973d 5c99 18be 4c13 323f 9830 04bc
00000150: 2326 0f3e c533 bcbe 5547 11c0 9c48 b8bf
00000160: 8371 1f3e e341 953e abb8 1740 da2e cf3f
00000170: ff25 03bf ec73 913e c4d5 2240 ab50 d23f
00000180: 9df9 813d 1a82 d1be c6fa 2440 80fc 8f3f
00000190: 0443 f63d e12f 9cbe 8d64 1140 582c d73f
000001a0: 2cec e43d 78a4 de3e 91ce 1940 fe87 d23f
000001b0: 7b6e e4be 6810 8d3e 9616 2e40 c259 b63f
000001c0: e9a0 a73e 91f2 853e 4a4c bbbf 8661 b3bf
000001d0: b9a7 f43c 032c abbe fcd1 2c40 ec9a bd3f
000001e0: e317 80be 1546 4b3a 15ab 22c0 c476 8cbf
000001f0: 593d 98be 80b9 873e 4e12 e23f 0f9e a83f
00000200: 1e81 b33e b1d7 a43e 8022 2940 3e15 913f
00000210: c076 98be 27b4 1d3d 97c5 1dc0 667f c4bf
00000220: b964 833e 2252 c33d eaa4 2040 904c d83f
00000230: 1fb5 d2bc 337e edbe 78dd 1340 7dc3 ba3f
00000240: 47de 563d 959d eebe 1fda e0bf 36f1 d1bf
00000250: 01d9 bc3e 2af3 adbd 8a36 f5bf 843e d1bf
00000260: aa96 df3e 155b 3d3e e43c 2e40 f244 c23f
00000270: 665f a23e 28b6 333e 955c 0440 06fd d53f
00000280: 2fc5 c93e 00f2 c3be 28e6 10c0 d603 aebf
00000290: d519 d3be e877 643b c4ad 21c0 f2d2 a8bf
000002a0: a11f 36bd ae87 cc3e 846d e0bf 4286 c7bf
000002b0: c02a 773e 3b94 b93e f40d 1a40 8fd1 b03f
000002c0: 1a53 653e 213c 31bd 5a05 32c0 8ce1 bbbf
000002d0: 20c7 7e3e 161f 243e abd7 2640 33aa a53f
000002e0: 9080 f93e 1af4 97be b238 1dc0 2f39 72bf
000002f0: d880 57be 0f2d a63e b51a 1a40 d297 813f
00000300: f596 443e 7a4c dc3e 4ec7 eebf 6f32 d3bf
00000310: 6a2f 1e3e 1337 a83e 6ec5 2340 75e9 873f
00000320: 71f5 d53e bb94 a33e ec4f 0dc0 7f26 a0bf
00000330: add1 a33e 7b96 843d 2bf6 1940 9584 9f3f
00000340: 43ca 0a3e f8c7 2bbe 8b30 ce3f 29d7 c63f
00000350: c7f2 833e f90b 4b3d 37eb fabf d9cd b4bf
00000360: 6581 343e ac19 fc3e e8df 2740 7990 973f
00000370: 6040 823e 96d0 d13e 06d2 13c0 3352 cbbf
00000380: 1bce 9a3e b9fc 413d 8115 fa3f 81e2 a03f
00000390: 11fc 85be 4278 2dbe ac12 2740 b769 ce3f
000003a0: 96f1 e1be 64a5 14bd 930b 2840 585d 973f
000003b0: 5f0c cbbe b05f 9b3e cf5d 2ac0 c937 a8bf
000003c0: 792d 363e 5557 febe 979a 18c0 dfc2 89bf
000003d0: 5d67 8dbe 1898 20bd 4e02 1d40 9e72 b13f
000003e0: d780 1ebe 344b e53e 47b1 30c0 4f12 b9bf
000003f0: 365d 0dbe 5fb9 963d a004 953f 0976 553f
0.27758038 -0.19828358 -2.7363145 -1.188995 0.39941972 -0.213393 2.0528612 1.5607724
-0.023619264 -0.22709014 -2.4377112 -1.1987295 -0.4145391 -0.061761174 2.7696774 1.0732576
0.47806838 -0.2518602 -2.4259696 -1.3543586 -0.32870826 -0.25953117 -1.9354928 -1.5813835
0.11541182 0.48961613 2.2102358 1.4306206 0.24561065 -0.43263164 -2.5523083 -1.3910168
0.40704104 -0.4335507 2.645005 1.710536 0.38686988 0.11392357 -1.8830819 -1.1319852
0.20809451 0.49243167 2.0791993 1.6820215 0.111191005 -0.39422053 -2.603414 -0.9678967
0.015517361 -0.18220265 -1.7772555 -1.4986236 -0.19446717 0.05195995 -2.3875806 -1.6181504
-0.19578359 -0.1386037 2.0071874 1.6619824 -0.14320807 -0.2748539 2.3959386 1.3585783
-0.322138 -0.4920402 -1.831885 -1.6694071 0.4925889 0.15955593 -1.3883029 -1.4652096
0.0853651 -0.47062126 2.1982164 1.3861728 0.10188081 -0.20103677 -2.345963 -1.2350125
0.074210316 -0.14902252 0.69560695 -0.008068226 0.13979392 -0.36758247 -2.2699788 -1.4397159
0.15570645 0.2915183 2.3706462 1.6186173 -0.5122985 0.28408754 2.5442972 1.6430868
0.06346438 -0.40919572 2.577806 1.1248932 0.12024501 -0.3050528 2.2717621 1.6810408
0.11177859 0.43484855 2.4032328 1.6447752 -0.4461554 0.2755158 2.7201285 1.4246142
0.32739952 0.26161626 -1.4632657 -1.4014137 0.029865133 -0.33432016 2.7003164 1.4812903
-0.25018224 0.00077542785 -2.541692 -1.0973744 -0.29734305 0.26508713 1.7661836 1.3173236
0.35059446 0.3219581 2.6427307 1.1334608 -0.297781 0.038501885 -2.465185 -1.5351379
0.25662783 0.0953715 2.5100656 1.6898365 -0.02572113 -0.46385345 2.3103924 1.4590908
0.052458074 -0.466046 -1.7566565 -1.6401737 0.3688431 -0.084936455 -1.9157269 -1.6347203
0.43669635 0.18491776 2.7224665 1.517729 0.31713408 0.17549956 2.0681508 1.6717842
0.39408252 -0.3827057 -2.2640476 -1.3594921 -0.41230646 0.0034861509 -2.5262308 -1.3189375
-0.044463757 0.39947265 -1.7533422 -1.5587847 0.24137402 0.36245903 2.4071016 1.3813952
0.22394982 -0.043270234 -2.7815766 -1.4678206 0.24880648 0.16027483 2.6069133 1.2942566
0.48730898 -0.29678422 -2.4565854 -0.94618505 -0.21045244 0.32456252 2.40788 1.0124457
0.1919821 0.43027097 -1.8654573 -1.6499766 0.15447775 0.32854518 2.5589252 1.061812
0.4178882 0.3194941 -2.208003 -1.2511748 0.31995907 0.06474014 2.40565 1.2462336
0.13553719 -0.16775501 1.6108564 1.5534412 0.25771162 0.049571965 -1.9603032 -1.412532
0.17627485 0.49238336 2.6230412 1.1840965 0.2543974 0.4097945 -2.3096938 -1.588446
0.3023537 0.047360156 1.9537812 1.2569124 -0.26168874 -0.16940406 2.6105146 1.6126012
-0.44129628 -0.03629054 2.6257064 1.1825361 -0.39657876 0.3034644 -2.6619756 -1.3142024
0.17790784 -0.49676004 -2.3844354 -1.0762595 -0.27617922 -0.039207548 2.4532657 1.3863103
-0.15478836 0.44783938 -2.7608202 -1.4458712 -0.13805088 0.073595755 1.1642036 0.8338323

layers.0.bias f4 [128]
00000000: 707f 2bbd 0c57 32be d62f 493b f635 05be
00000010: 9ffe 8ebe fde3 d3bc dbda d8bb 1498 8cba
00000020: 2b3a 5ebd 5bbc 563d f309 d03d 9dc2 3e3e
00000030: 643c 22bb 395f f33d 6c68 a33d eb02 513b
00000040: 3b73 94bd 8412 f9bc 976c f53c 2a23 77bd
00000050: 651e 32ba fce1 7cbe 06da 803d 8ebb 2bbe
00000060: 6254 22be 9ea4 53be 9d6b 223c 24f9 493e
00000070: bb58 4c3c ab02 b3bb 0cf0 3039 c25b 35bd
00000080: 1ced 9abc 4aee f2bd 817f 1a3e 7307 a7bb
00000090: 2b20 4f3e 8978 123e d346 183d 8fa4 2e3e
000000a0: 6089 89bd 36bb 9ebd 07ee bfbd fe3a fe3d
000000b0: 8a38 1e3d 7eea 0c3e 7ccf 3b3e 0e47 3c3b
000000c0: ab7f 6bbd 1ca6 843d 733d 293e 0992 e33d
000000d0: cb6d 603b 6d69 2dbd 9df9 34be 0f79 cbbc
000000e0: 2ae9 f2bb 7524 103e e098 b73d 4bab 9b3e
000000f0: eaec 62bc 3252 56bd 8198 ecba 2b90 6e3b
00000100: 08f7 97ba dce7 8a38 bb3f 1cbe f3cd 51be
00000110: c8b9 06be 8a99 0a3d 9190 8dbd 91bf 0a3b
00000120: f719 4a3c dee3 1b3e faa8 5abe e28e fcb9
00000130: 6527 953d 31e6 86bd 1842 5ebe 69a5 213c
00000140: 8859 653e e51a efba 993f 903d dea2 cdbb
00000150: fc9f 1c3c d1ce 633c 2b11 013b 67e8 41bb
00000160: 6add 3f3d 6ccb 2fbc 52b9 073d 15ec ba3e
00000170: 8a1d 3b3e 97db 8ebc 4ae6 bcbc 79a6 673e
00000180: f8f2 a33d 7fe8 daba fd05 513b 6226 e13c
00000190: 99ac 913d b75e 78bc 6735 58bd bd75 163e
000001a0: b637 693c f3cf 393b 8c50 613e 8fa4 813e
000001b0: ed0f 53b9 9e00 883d b8fa 1e3e 528d 0dbe
000001c0: 1d2f b8be 1b5e 7dbe 2ba1 74bc ac1b ac3d
000001d0: f334 8dbd 67e2 4abe 039e 963e 61e0 f23b
000001e0: 91c3 38bc e884 ed3b b6c3 973b 4edb 08be
000001f0: debb 54be 5c5a 4e3e 6c1f 42be 0186 21be
-0.04186958 -0.17416018 0.0030698678 -0.13008866 -0.27928635 -0.02586555 -0.0066178865 -0.0010726475
-0.054254692 0.052425724 0.10158148 0.18628927 -0.0024755234 0.11883397 0.07978901 0.0031892608
-0.07248541 -0.030404337 0.029959006 -0.06033627 -0.000679469 -0.24695581 0.06291585 -0.16770765
-0.15852502 -0.20668265 0.009913352 0.19723946 0.012472327 -0.0054629645 0.00016874092 -0.04427696
-0.01891189 -0.11861856 0.15087701 -0.0050973236 0.20227115 0.14303793 0.03717692 0.17054962
-0.06715655 -0.077505514 -0.09371572 0.124135956 0.03862814 0.13761327 0.18340868 0.0028728875
-0.0574948 0.06476995 0.16527347 0.11111838 0.003424513 -0.04233687 -0.17673345 -0.024837999
-0.007413049 0.14076407 0.089647055 0.30404124 -0.01385043 -0.05232448 -0.0018050821 0.0036401849
-0.0011594007 6.62354e-05 -0.15258686 -0.2048872 -0.13156807 0.033837833 -0.069123395 0.0021171311
0.012335292 0.15223643 -0.21353522 -0.00048171642 0.072829045 -0.06586874 -0.217049 0.009866097
0.22397435 -0.0018242268 0.0704338 -0.006275519 0.009559628 0.013904289 0.001969407 -0.0029587985
0.046842016 -0.010729652 0.03313572 0.3650824 0.18272987 -0.017438693 -0.02305903 0.22622098
0.08005327 -0.0016701369 0.0031894438 0.027484123 0.071129985 -0.0151593005 -0.052785303 0.14693351
0.014234474 0.0028352707 0.22003382 0.2532086 -0.00020128461 0.06640743 0.15525329 -0.1382344
-0.35973445 -0.2474293 -0.014931004 0.084037155 -0.06894865 -0.19812928 0.29417428 0.007412002
-0.011277095 0.0072485097 0.004631485 -0.13364908 -0.2077479 0.20151657 -0.18957299 -0.15773775

layers.1.weight f4 [128, 128]
00000000: 7500 a0be b5ad c43d 0902 e8be cf98 913d
00000010: b672 89bd ea77 91bd 0895 273e fdef 47bf
00000020: 5dff 923e ab7f 033d 3d76 453e e3be febd
00000030: b554 28be 68dd ebbd 8313 2e3e 6979 8c3e
00000040: a398 1ebe b851 8cbd 5f51 683c ac11 09be
00000050: b78c 5abc 80e8 833c 67f7 7a3e 4111 683e
00000060: ddb4 94bb c48b 273e 2d33 9f3e 2f50 4d3e
00000070: 5542 c1bc d9bb 103f 292d 6cbd e5c9 b43d
00000080: d869 aa3d 3b3a 2ebe 2b1f f33d 878c 9c3e
00000090: 948c c7bd b74b e2bc e964 e63d 8a70 a43d
000000a0: ca8e 5bbe 068a fbbc 65dc 71bd f52a e93d
000000b0: 1f89 bfbe e5a4 9b3d ae13 62bc 7327 5c3e
000000c0: 78bf 34be 5ebc 933d 8191 c9bd e5ce 35bb
000000d0: b486 173d a401 bdbd 6d1c 9b3c 8bfa 60be
000000e0: 3776 a13d ca81 673e f37b 103e 8d29 bbbd
000000f0: 6a9e 07be 67d1 6a3e f438 40bf 4940 053d
00000100: 25dc 783e d0ef 463d 2033 ad3d f281 0bbe
00000110: b94d 243e 1794 063e 0209 38be 7a73 803e
00000120: 5c14 c63e 0dbf 49bd a808 183e a92d 23bd
00000130: dd5e 4fbe fc31 54be 3edb 1e3e 9a18 9abd
00000140: ae59 fcbd 4420 68bc 9101 393e 09d9 38bd
00000150: 819a 503e 63b3 4dbe 5765 85bc 987f 4ebc
00000160: 1a26 57be 06e3 4b3e d3c7 af3d 25d4 d0bd
00000170: 8632 6a3d d5e6 77be 177d f43d a363 cbbd
00000180: 9a18 093d 031e 47be 29d0 92bc f372 96be
00000190: 18ad 083c 53a4 52be 7e1a ce3d 9681 abbd
000001a0: 5395 00be 0e59 0f3e f6a6 203a 5dc3 34be
000001b0: 66b8 cdbc 72e4 b73d e87b 40be 6c5d 06be
000001c0: ad16 1dbe 2327 babd 83ce fa3e bada f43d
000001d0: b9a0 89be 80bd 11be 56e4 d3bd 8946 0d3d
000001e0: be25 103f 3ab6 143f 4337 87be 932c 16be
000001f0: 0f40 723d 9823 243e 95cf 55be 7ad9 843c
00000200: 02a3 b23e 6a45 503c d3d3 e33e c714 12bd
00000210: da25 b53d db6a 973d dc2e 3fbe 4500 453f
00000220: 3ec9 81be 4107 c13c cd27 0ebe 8fc4 a83d
00000230: 6a7a 6d3e 554b 3e3e f7ec e5bd d008 64be
00000240: 7dec bf3d 88d7 6f3c 9c0a 22be 694e 463d
00000250: cfe5 8e3c d793 9f3d 038d 40be 5d25 29be
00000260: 9328 dcbd df87 3dbe 65bc d6be 7184 2bbe
00000270: 7a87 023e 04ac 07bf 251e b83d 1344 f43b
00000280: 7dc0 e4bd ef1b ed3c 04f2 63be e140 5bbe
00000290: aded e93c e2c6 1e3e b7f2 3cbe ac22 613c
000002a0: a8c8 3d3e 17ba 6a3d ff87 ec3d dd59 23bb
000002b0: 1b8a e03e d4ab c6bd f668 b3bc 1172 6cbe
000002c0: 0adb 583e aeb1 3cbd 1bcd bb3d 8aec 70bd
000002d0: 3bfc 15be 6f24 353e b22b 8dbc af6b 943e
000002e0: 3f89 a2bd 924b 63be b3a4 e9bc cc40 023e
000002f0: 0831 993d 19b9 cbbd 291b 253f febd 30bd
00000300: 5cd7 85be 486e 8abd 70b5 96bd 0f45 493d
00000310: c578 4dbe 7d3f 5abd 8069 763e 53c7 87be
00000320: 6eba ecbe 1af4 983c 447d 8eb8 4ad7 2a3d
00000330: e3ee af3d ce08 653e 3ff3 6bbb d8cb d03d
00000340: 08e0 b9bc ea9b dc3d 730e ddbd 269e 223e
00000350: 3b49 45be aafb a03e 6561 bbbc 18df c8bd
00000360: 195d 5f3e 0485 1cbd 3536 8abd 83f3 2e3d
00000370: 8340 dabd fa51 da3e 4b84 43be a478 db3d
00000380: dc6c 9dbc d9f7 a53e 78c0 d3b9 34c4 c03e
00000390: 6fb5 a4bd 3da0 e03d 94c5 0ebd 9b6f 3f3e
000003a0: 1fb2 f93d 1aee 1cbe b714 e43d 90f3 7d3d
000003b0: 7b3c cb3d 9ef3 b1bd f5ad bd3d bec9 e93d
000003c0: c361 963d 5401 c73c 0b13 cabe 0002 15be
000003d0: 421a 7b3e 7269 613d edab c33c 4ea4 1fbe
000003e0: 7c7b 1fbf 45f8 20bf 722d 4c3e b3d2 5d3d
000003f0: 5aad d4bd f190 e3bd 66e3 1a3e 2d96 003e
-0.3125035 0.096034445 -0.45314053 0.07109224 -0.067113325 -0.0710295 0.16365445 -0.7810057
0.28710452 0.032104176 0.19283386 -0.124387525 -0.16438563 -0.11516839 0.1699963 0.2743638
-0.15487914 -0.06851524 0.014179557 -0.13385648 -0.013339213 0.016102076 0.24508439 0.22662832
-0.004538162 0.1636191 0.31093732 0.20050119 -0.0235912 0.5653663 -0.057660256 0.08827571
0.08320969 -0.170144 0.11871179 0.30575964 -0.0974361 -0.027623994 0.11249716 0.080292776
-0.21441188 -0.030705463 -0.059048075 0.113851465 -0.37409303 0.075998105 -0.013798637 0.21499424
-0.17651165 0.072136626 -0.09842206 -0.0027741727 0.036993697 -0.092288285 0.018934453 -0.21970575
0.07883876 0.22608104 0.14109783 -0.091387846 -0.13244024 0.22931443 -0.75086904 0.03253201
0.24302728 0.048568547 0.08457017 -0.13623789 0.16045274 0.1314243 -0.17972186 0.25088102
0.38687408 -0.049254466 0.14847052 -0.039838467 -0.20251031 -0.20722193 0.15513322 -0.075242236
-0.123217925 -0.014167849 0.18067004 -0.045128856 0.20371439 -0.20087962 -0.016283674 -0.012603663
-0.21010628 0.19910821 0.08583035 -0.10196713 0.05717709 -0.24209149 0.119379215 -0.099311136
0.033470728 -0.19445042 -0.017921524 -0.29384574 0.00834205 -0.20570497 0.10063647 -0.08374326
-0.12556963 0.13998815 0.0006128395 -0.1765265 -0.025112342 0.08979119 -0.18797266 -0.13121575
-0.15340681 -0.09089496 0.4898568 0.11955781 -0.26880434 -0.14232445 -0.10346286 0.034491096
0.5630759 0.58090556 -0.2640935 -0.14665441 0.059143122 0.16029203 -0.20879968 0.016216982
0.3488999 0.012711862 0.44497547 -0.035664346 0.0884511 0.07393428 -0.18670219 0.76953536
-0.25348848 0.02356303 -0.1388237 0.082406156 0.23191229 0.18583424 -0.11226838 -0.22268987
0.093712784 0.014638789 -0.1582436 0.04841462 0.017443566 0.0779187 -0.18803792 -0.16518159
-0.107499264 -0.18508862 -0.4194061 -0.16749741 0.12746993 -0.5299685 0.089901246 0.007454404
-0.11169527 0.028943984 -0.2226029 -0.21411468 0.028555715 0.15505555 -0.18451963 0.013741177
0.18533576 0.057306375 0.11549377 -0.002492539 0.43855366 -0.09700742 -0.021900635 -0.23090388
0.21177307 -0.046067886 0.0916998 -0.05881933 -0.14647 0.1768968 -0.01723275 0.28988406
-0.07936334 -0.22196797 -0.028520918 0.1272003 0.07480055 -0.09947414 0.6449457 -0.04314994
-0.2614087 -0.06759316 -0.07358825 0.049138125 -0.20065601 -0.053283203 0.24063683 -0.2651926
-0.46235985 0.018671084 -6.79442e-05 0.041709222 0.08590486 0.2236664 -0.003600314 0.1019513
-0.022689834 0.10771926 -0.107937716 0.15880641 -0.19266216 0.31442004 -0.02287359 -0.09808177
0.21812858 -0.03821279 -0.067486204 0.0427127 -0.10656836 0.42640668 -0.19093435 0.1071637
-0.019216947 0.32415655 -0.00040388457 0.3764969 -0.08042418 0.10968063 -0.034856394 0.18694918
0.12192177 -0.15325204 0.111367635 0.061999857 0.09923645 -0.086890444 0.09261695 0.114154324
0.07342865 0.024292625 -0.39467654 -0.14551544 0.24521735 0.0550322 0.023885692 -0.15590021
-0.622978 -0.6287883 0.19939211 0.054156017 -0.10384627 -0.1111163 0.15125808 0.12557288

layers.1.bias f4 [128]
00000000: 0c83 2f3d bf41 f23c ba12 153d 9ec9 1a3c
00000010: 9217 87bd c5f7 a03c 1a71 063d 47af b1bc
00000020: 9dfd f53c 54df 463d 21bc 84bd f794 9fbc
00000030: 58ad a9bd 7478 50bd c4ec 84bd 40fd 6b3c
00000040: 2d1d 78bc 130e 9b3d ed5a 653d 7b6e a63c
00000050: 44f6 843d 45a6 37bd 337b 05bd 6b00 98bd
00000060: eb78 933d 515d 613c d255 b5bb 4c2b 21bd
00000070: 07fc 773d 5234 8ebd 8e2a 29bd 570e 193d
00000080: d2d8 1a3d 3807 0abd 5691 5bbd a1fd 9a3d
00000090: 34a5 83bd 44a4 ffbc cfa7 56bd 13b4 28bc
000000a0: fec0 8b3d e6a6 663d 9623 aa39 6d7d 3cbd
000000b0: 93a6 463b 2633 78bd 6891 63bd 5ad1 ab3d
000000c0: 2805 863d e2a8 973d 309b a13c e5a9 973d
000000d0: ab74 983d bec1 463c ec65 5bbd 7645 f839
000000e0: 1623 623d abf5 983c efac a03d b313 6a3d
000000f0: 4119 ddbb 7cac 3cbc acc3 093d 9df0 39bc
00000100: bc08 803c bcd1 92bb 26c5 5e3d 0db1 863d
00000110: f2b7 1f3d cbee 29bd ec83 8cbd 2bdd d33b
00000120: 66ce 5fb9 55c3 323d d46e c03d 714a ba3c
00000130: 0260 593d b39f c73b b912 6ebd 7a6d 793d
00000140: e77e 0d3d f483 2d3d bb4a 6d3c 2528 603c
00000150: ddd3 43bc bc5b fabc 4922 343d 33d1 61bd
00000160: eb36 e0bc 501c 07bd 21e2 553d ce0e 3abc
00000170: 52a0 953d 226e 51bd 30fe 56bc aa89 76bd
00000180: e71b 80bd e843 843d a717 d83c a751 19bc
00000190: 1754 6abc 0437 83bc 31d9 3f3d 0242 f33c
000001a0: 0505 b0bc 2f2e 7bbd e168 083d 9579 a2bc
000001b0: d723 4ebd 9a59 72bd 5e47 303d d799 843c
000001c0: 23ae 8bbd 2946 873d 1be9 9dbc 042e 33bd
000001d0: 71c5 82b9 4977 fe3c 5671 39bd e8ad 39bd
000001e0: 47e1 aebd 6b69 c23d 0e7d b3bc 0ca5 9f3c
000001f0: 7174 79bd 83a1 483d 2b4b 3dbc 9257 243d
0.042849585 0.029572366 0.036394812 0.009447483 -0.065962926 0.019649396 0.032822706 -0.021690024
0.030028159 0.048552826 -0.06481195 -0.019480212 -0.08285016 -0.050896123 -0.06490472 0.014403641
-0.015143675 0.07571044 0.055994917 0.020316353 0.06492284 -0.0448363 -0.032588195 -0.07421955
0.07200798 0.0137551585 -0.005533912 -0.03934793 0.060543086 -0.06943573 -0.04130035 0.03736719
0.037804432 -0.03369829 -0.0536054 0.07567907 -0.06427994 -0.031206258 -0.05240613 -0.010296839
0.0682392 0.05631151 0.0003245144 -0.046018053 0.0030311688 -0.060595654 -0.055558592 0.0838954
0.06543952 0.07405259 0.01972732 0.07405452 0.07444128 0.012131153 -0.053563997 0.00047353999
0.05520924 0.018671831 0.078454845 0.057147693 -0.0067473953 -0.011515733 0.033633873 -0.011348871
0.015629165 -0.0044805687 0.054387234 0.065767385 0.038993783 -0.041487496 -0.068610996 0.0064655743
-0.00021343827 0.043643314 0.09396139 0.022740575 0.053070076 0.0060920357 -0.058123324 0.06089542
0.03454485 0.04236217 0.014483149 0.013681446 -0.011952368 -0.03056132 0.04397801 -0.05513115
-0.027369937 -0.032985985 0.052217606 -0.011356069 0.07305969 -0.05113042 -0.013122126 -0.06018988
-0.06255322 0.064582646 0.026378466 -0.009357846 -0.014302275 -0.016017444 0.04683799 0.02969456
-0.021486768 -0.06132334 0.033303145 -0.019833365 -0.05032715 -0.059167482 0.04303681 0.016186638
-0.06820323 0.06605179 -0.019276192 -0.043745056 -0.00024942638 0.031062739 -0.0452741 -0.045331866
-0.08539062 0.09492763 -0.021910217 0.01948788 -0.060902063 0.048982155 -0.011553566 0.040122576

layers.3.weight f4 [128, 128]
00000000: 47b4 07be 2f16 bd3d 4b50 d93d 9c71 123d
00000010: 3c3d 683d ab33 9ebd cfa3 1abe 59ea c93d
00000020: a928 f53c d4c6 e73b 4433 8fbc 735f b33d
00000030: f501 38be 1447 77bd e0ee 37bc 2b8c 9fbc
00000040: c76a 8f3d eb30 9dbd e844 07bc 90e9 d63c
00000050: ac6a 803d 4275 97bd 88fe 313d e870 21bd
00000060: ab2d 043d 134f f9bd 895c d53c 9522 17ba
00000070: a0c9 1b3c 0418 b9bc 93bd 81bd 7afb ab3d
00000080: 1885 00bd 6e76 153d 32f3 9f3d b3c3 3a3d
00000090: 25df c93d 3c23 84bd 3432 ebbb 3d16 f3bb
000000a0: 4de6 04be 4ac9 66bd a683 103e ccb2 b9bd
000000b0: 07f5 92bd 9579 493e a8c6 c03d 70c3 eb3d
000000c0: 2c9c 45bc c969 3e3e 96a9 81bd 3b68 d7bc
000000d0: 4f1d a3bd e38a 69bd 0c75 68be 8a77 c63c
000000e0: ca4c 063d 9c14 38bd 677e 9d3c 3a09 9c3d
000000f0: 9dc5 d23b 59e1 0ebe 6b3a 503d 16f2 443d
00000100: 4940 06bc d6a0 bd3d 1f0f 4fbc e807 883d
00000110: 725d d4bb 461d 1b3d ec6c acbc 65b8 083e
00000120: 156d b63c 4520 3a3b 95d1 3f3c 650c 96bd
00000130: 406b 623d d9d2 d5bd f70e ee3c fd08 d7bd
00000140: 181a 743c 0b39 49bd bb14 193d c800 dabd
00000150: 77b2 493d 8933 89bc d621 89bd 7a2c 51bc
00000160: d215 9e3d 0da6 c83d 7f22 003d d896 d23d
00000170: 8183 76bb 6774 acbd 0ee3 783d aa5e c1bc
00000180: 5607 a93d 4676 04bd 33db 8abd a3c1 38bd
00000190: 440a b33a c77f 1ebd d446 34bc 64b5 27bd
000001a0: ed63 763d 962b c8bc 4aa2 5fbd 196d ba3c
000001b0: 8de3 25bd 922f 84bd 2913 b3bd 0723 fa3d
000001c0: 2da9 91bc 6b2e 713d 80f0 093d 2965 22bd
000001d0: a7be 9c3d 08df 5cbc 6484 8fbd e9c1 5f3d
000001e0: 6d7b 42bd 3f45 e8bc aacc b13d 7eac 7b3e
000001f0: 35e6 05bd 1d1c 523a 712f 8b3c b020 6fbd
00000200: 168d f13d cc50 1d3d 5f01 5a3c cb92 aabd
00000210: 307b 8e3c e6e6 3e3e 9fad 8e3d 72a8 95bd
00000220: 524c 6a3d 51f2 0cbd c4f3 933a c128 dabc
00000230: 1c94 823d 4aae c93c 86e0 9e3c 9983 31bd
00000240: 4935 9d3c 22d1 9dbc 80c6 d4bc 7122 1f3d
00000250: 54bc b7bd 0b27 7d3b 1746 023d 74c7 fd3d
00000260: 2577 453d e658 7b3d cdc8 8d3c 57e7 7a3d
00000270: 9700 dd3b e970 1cbd 4d3e 723d cd6e 31bc
00000280: 6910 8fbd b214 15bd 78bb 13be 5c80 f6bc
00000290: df17 36bd ba18 513d 9d28 55bd e132 a1bd
000002a0: 7c11 c03d 5700 053d da2d 3dbd 9d31 3ebd
000002b0: 92ae 49bb 48b9 1dbd bfa0 babd 2bc9 e2bd
000002c0: 8d98 a3bc f1e1 3ebe ad1e e8bb 9e42 883d
000002d0: 691e 7e3b 36de e43d b3e1 8c3e 9437 b43d
000002e0: 3e3b e0bc 8793 11bd 7fa1 a33c 8972 82bd
000002f0: cce7 0cbd d164 f53d 2756 99bc 580c 513c
00000300: caca e4bd 3990 9bbd 2b55 0dbc 8c3a 64bc
00000310: 3891 ac3c f527 b5bb 8f67 b63d 4326 1fbe
00000320: 46b5 9e3c acef 23bd 9ae9 86bd 9108 59bd
00000330: 26ba 873d 389b 583a bee8 123d c80b ba3d
00000340: dae9 5d3c 3fe8 1d3d 76e6 a1bd 93ef 6c3d
00000350: 435f b6bd eea9 ac3c 2195 56bd db13 603d
00000360: 5c30 e4bd 40eb b83c eb53 1bbc b9a0 53bd
00000370: dd84 02bd fb6f e03d 89b9 c5bd bd44 bc3d
00000380: f0f8 bcbd f80e 82bd ce5b 443d 070a 02bd
00000390: 8598 4cbc c4bc 01bd 8089 35bd 8897 09bd
000003a0: f96f b93d b574 debd 5e07 8ebb 635c 46bd
000003b0: 04bf 8e3d b7ef d63d 4d8f c6bb 92f2 74bd
000003c0: 2023 2abb c188 a7ba 31e6 183d 158c 1ebd
000003d0: c62f 783d 92af 8dbd 8176 8bbb 9be7 633d
000003e0: cebe 033d 54bb 8e3d f3e2 1fbc 12b4 dcbd
000003f0: 3f12 91bd 2ac4 433d 96a6 c73d 9860 f93c
-0.13252364 0.09232747 0.10611018 0.035752878 0.056699023 -0.07724699 -0.1510155 0.098591514
0.029926615 0.0070732627 -0.0174805 0.0875844 -0.17969497 -0.06037052 -0.011226386 -0.019476017
0.07002788 -0.07675346 -0.008256175 0.026234418 0.06270346 -0.07395412 0.04345563 -0.039414316
0.032270115 -0.12173285 0.0260451 -0.0005765346 0.00950852 -0.02259446 -0.063349865 0.08397575
-0.031376928 0.036489896 0.07810058 0.04559679 0.098570146 -0.06452033 -0.0071776155 -0.0074184225
-0.12978478 -0.056344308 0.1411272 -0.09067306 -0.071756415 0.19675286 0.09412891 0.11511886
-0.01206116 0.18595041 -0.06331174 -0.026294818 -0.079645745 -0.05701722 -0.227009 0.024226923
0.032788076 -0.04494153 0.019225312 0.07618947 0.0064322487 -0.13953151 0.05083696 0.048082434
-0.008194038 0.09259193 -0.0126378825 0.06642133 -0.006480866 0.037869714 -0.021048032 0.13351591
0.022268811 0.0028400582 0.011707683 -0.07326583 0.055278063 -0.104406066 0.02905987 -0.10499761
0.014898799 -0.049126666 0.037373286 -0.1064468 0.049242463 -0.016748207 -0.06695907 -0.012766952
0.07719006 0.09797297 0.031282898 0.102826774 -0.0037615004 -0.084206395 0.06076341 -0.02360471
0.08253352 -0.032339357 -0.0678009 -0.04510654 0.0013659676 -0.038696077 -0.011003215 -0.040944472
0.06015389 -0.024434846 -0.05459813 0.0227571 -0.040500212 -0.06454386 -0.08743889 0.12213712
-0.017780865 0.05888216 0.033676624 -0.039647255 0.076535515 -0.013480909 -0.070076734 0.054628287
-0.04748099 -0.028353332 0.08681615 0.2457752 -0.032690246 0.00080150535 0.016990395 -0.058380783
0.11794488 0.038407132 0.013305991 -0.0832878 0.017392725 0.18642768 0.06966709 -0.07307519
0.05720169 -0.03441078 0.0011287858 -0.026630761 0.06375906 0.02461924 0.01939417 -0.043338392
0.019190447 -0.019264761 -0.025973558 0.038851205 -0.089714676 0.0038628008 0.031805124 0.12391558
0.04820933 0.061364077 0.017307663 0.06125578 0.006744455 -0.038193617 0.059141446 -0.01082964
-0.06985552 -0.03639669 -0.14426982 -0.030090503 -0.04445636 0.05104897 -0.052040685 -0.078710325
0.09378335 0.032471027 -0.046186306 -0.046434034 -0.0030774218 -0.038506776 -0.09112691 -0.11073526
-0.019970203 -0.18640877 -0.007083735 0.06653331 0.003877545 0.11175196 0.27515945 0.08799663
-0.027371999 -0.035541084 0.019974468 -0.06369502 -0.034400746 0.1198212 -0.018717838 0.012759291
-0.111714914 -0.07595868 -0.008626263 -0.013929974 0.02106534 -0.005528445 0.08906471 -0.1554194
0.019373547 -0.04002349 -0.06587525 -0.052986685 0.06627302 0.00082628755 0.03586649 0.09084278
0.013544524 0.038551565 -0.07905285 0.057845663 -0.089048885 0.021077123 -0.052388314 0.054706436
-0.11142036 0.022573113 -0.009480457 -0.05166695 -0.03186499 0.109588586 -0.09654529 0.09192798
-0.092271686 -0.06350511 0.047939114 -0.031747844 -0.012487535 -0.03167416 -0.044320583 -0.033591777
0.0905456 -0.10862104 -0.0043343743 -0.04842795 0.06970027 0.10494941 -0.0060595633 -0.059801646
-0.0025960878 -0.0012781845 0.037328903 -0.03870781 0.060592435 -0.06918253 -0.00425607 0.055640798
0.032164387 0.06969324 -0.009758699 -0.10776533 -0.07083558 0.0477945 0.097485706 0.030441567

layers.3.bias f4 [128]
00000000: 0311 843c 58d1 46bc 43f5 6a3c 8c44 db3b
00000010: 42d2 5fbc 1097 d5bb 0672 c6bc f60e 033c
00000020: 6802 9a3b e63a 7a3d 5430 06bc 8eab e23c
00000030: 7ff7 32bc 0ae3 7a3c 8d1f 82bc 0590 983c
00000040: 48eb 3e3c f858 973c c716 073b 989c aa3b
00000050: 2207 ea3c 00f3 f7bc d102 4bbb 3ec8 49bd
00000060: 438d 99bc d67c e83c 2d53 693d da5e 48bd
00000070: ced1 8bbc d9fa f83b 146e 6bbc 393e 603b
00000080: 8c92 9f3c 3577 b53b 58b4 0fbd b81f 3e3c
00000090: ef5c 09bc 7d97 453c 76a4 9e3b eddd 233c
000000a0: d9bb 3d3c 02f5 783b d742 76bb 9fe9 6dbc
000000b0: 7431 73bc 8ba6 333b 51ad 83bd b7a0 303c
000000c0: ced8 653c d8d4 8bbc 43f2 d5bb 214a 89bc
000000d0: 8800 973b 05f6 c7bc eae2 09bd b6bd 693c
000000e0: 1b37 03bc 9f2c 81bc 5119 3dbc 5e89 b0bb
000000f0: c303 72b9 b9e8 8bbb 5ca2 103d b16e 81bb
00000100: d6ba 12bc 80ab 603c d8e0 3abd 713e e3bb
00000110: 0ce5 4a3c 971a 853c 1527 84bc ef86 08bd
00000120: bf8c 57ba f52d 8e3c d2f1 3bbc 5090 a9bb
00000130: b564 b53b b338 373c 92a3 e23b a0ff 5c3c
00000140: 8e96 b33b 4fe2 ecbb 3ac5 24bd 5f1f 023c
00000150: 18b7 29ba d553 3fbd 0681 bdbb 2906 acba
00000160: 736b 8bbc 1bbe 593c 5f2c abbb 271c 25bc
00000170: d3f9 2abd fc14 b2bb 9cd2 563c 7f78 2cbc
00000180: d7db fd3c 9856 57bb 350c c8bc 27ce 82bc
00000190: 9c52 2fbc d5b2 443b caf2 36bc 678e 16bd
000001a0: 606e c5bd 5f7a 6cbc a9bd f83b 718f 533c
000001b0: c5a3 273c 325a 0cbc ad68 973b cdf9 6abc
000001c0: 6be9 753c 8dd1 0d3b e9f1 a73c 909e b6bb
000001d0: 724e f2bc a3b9 043d e531 313d 7950 723d
000001e0: 7ce9 323b ce1e 15bd cc35 393c 8aa0 063c
000001f0: 68c1 ef3d 8652 d03c 11b4 ecbb f49a 02bd
0.016121393 -0.012134872 0.0143407015 0.006691521 -0.013660969 -0.006518252 -0.024224292 0.007999172
0.004699994 0.061091326 -0.008190233 0.027669694 -0.0109232655 0.015312919 -0.015884185 0.018623361
0.011652775 0.01847504 0.0020612942 0.0052066557 0.028567854 -0.030267239 -0.003097702 -0.04926323
-0.018744117 0.028379839 0.05696409 -0.048918582 -0.017067816 0.0075982627 -0.014369506 0.0034216775
0.019479059 0.005537892 -0.0350841 0.011604242 -0.0083839735 0.012060043 0.0048413826 0.010001642
0.011580431 0.0037987833 -0.003757646 -0.014521032 -0.0148433335 0.00274125 -0.06429542 0.010780505
0.014028741 -0.017069265 -0.006529124 -0.01675898 0.0046082176 -0.024409303 -0.033663668 0.014266422
-0.008008744 -0.015768347 -0.01154168 -0.005387469 -0.0002308032 -0.004269686 0.035311088 -0.003949963
-0.008955678 0.013712764 -0.045624584 -0.006934934 0.012383711 0.01624803 -0.016131917 -0.033331808
-0.0008222572 0.017355898 -0.011471229 -0.005174674 0.005535687 0.011182952 0.0069164718 0.01348868
0.005480594 -0.0072291265 -0.040227152 0.00794205 -0.00064741215 -0.046710808 -0.005783203 -0.0013124394
-0.01701901 0.013289954 -0.0052237953 -0.010077513 -0.041742157 -0.0054346304 0.013111737 -0.010526775
0.030988617 -0.003285801 -0.024419883 -0.015967442 -0.010700848 0.0030013819 -0.011166284 -0.0367569
-0.09640193 -0.014433472 0.0075909686 0.012912617 0.010231917 -0.008566426 0.0046206326 -0.014341784
0.015009264 0.0021639795 0.020501094 -0.0055731013 -0.029578421 0.0324036 0.043260474 0.059158776
0.0027299812 -0.03640633 0.01130433 0.008216986 0.11706811 0.025429975 -0.007223614 -0.031886056

layers.5.weight f4 [2, 128]
00000000: e05c 993d 1ac6 42bd 5355 a83b c924 79bd
00000010: bb8a 65bc ddb5 38bd 4866 be3d 44c4 963d
00000020: 1c98 643d 9fe2 ba3d 6f16 41bc 0810 1cba
00000030: 0a6c fa3c f916 ffba 43f3 783c c953 d3bb
00000040: 1453 5dbd 91f9 8ebd 61ca 06bd 451b 1d3d
00000050: 84a5 88bc f932 613d 2dfe 9cbd 0a18 1f3d
00000060: 1adc 7bbc 8aba d93d 8eea a4bd fba7 f8bd
00000070: 8d68 3b3c ab23 313d 20af 88bd 04ed f23c
00000080: cdd1 093c cbdf ed3c 5dd7 e53c 9cb2 28bb
00000090: 54b2 893c a529 6ebd 09d7 4f3d ea27 d73a
000000a0: c1e2 7fbb cd40 0c3d a725 2d3d 4757 87bd
000000b0: 46f3 313c a623 babc c537 ca3d c411 223d
000000c0: cde5 4abc 0b7f c13b a2d5 dbbb 8c8a 7cbc
000000d0: c1a2 543d 04a4 c5bc 6b91 8bbd 84d4 1bbd
000000e0: a4f8 343b 9ef5 f0b9 cf54 923c 520e 63bd
000000f0: 5cd3 70bd c3fc a7bd ad50 ffbc 2186 f7ba
00000100: 7dad bcbd 8b1f bdbc d4a0 a6bd bb48 843c
00000110: 82d8 71bd 665c 0a3d 83b9 3b3d 5c13 c13d
00000120: e0ee 6d3c 1449 333a 89ea 903c 2d41 aebd
00000130: 5b41 8fbc 2270 aebc b04c f73b b477 e7bd
00000140: d1f4 04bc 700d bebd d9d5 a5bd 74f6 70bd
00000150: d480 693d 5d0d dfbb d50d 95bd 99b4 9ebd
00000160: efde 9b3d e222 d7bb 5333 0b3b 9a09 bf3d
00000170: 5a99 923d d97b 0e3a f4b3 fd3c 402a 093d
00000180: 1d48 c2bd 0e8b 7ebc bae1 a73d 1af2 d7bd
00000190: 56d1 65bd c575 e7bc e947 bebc c2d7 c439
000001a0: 281d 7bbd e662 cdbd ec7a 613d 52b4 873c
000001b0: dd68 af3d b0e5 97bd 932d 87bd 3dc6 bb3d
000001c0: 30f5 3d3c df11 b1bc e0db 983d 35d2 143d
000001d0: ff75 c1bc c749 7c3d d4f6 81bd a283 703d
000001e0: 0e36 5ebd 514a 263d d57d b1bc 1c48 a43d
000001f0: 88a2 0c3e 0da9 773d 0f3d 07bd b0ff 8ebd
00000200: dbad 843c 18e5 10bc 5650 373d dd07 9f3b
00000210: 1a83 54bd 010f 41bd 3292 5bbc 9386 06bd
00000220: 641d afbc fdc1 e2bc 2e6c 51bb 1471 ce3d
00000230: 9e14 7bbc d719 cd3d e941 5cbd d3fa 2e3d
00000240: 4a3b d63c d3ef 943d 64e4 cc3d b921 1ebd
00000250: 98b1 b43d 3c3b 44bd 3704 033d b186 b5bd
00000260: 6c39 9c3d cf5c b73c bdb0 613d 5264 04bb
00000270: a940 27bd e771 ad3d 623d a2bd 2f9e af3d
00000280: a632 a0bd 48ce 96bd 1509 86bd 22e8 be3c
00000290: 3864 cb3d 89a8 19bd ee47 963c 45fb 3b3d
000002a0: ebf8 683c ec16 36bd b54b a83d 24fe de3d
000002b0: be32 e93d b522 a2bd c258 0dbe 3c21 f03c
000002c0: af21 bf3c 7700 77bd 0fec 783d c17c 92bd
000002d0: 5387 10bd e917 8a3d 4c6c c33d 6e82 6f3a
000002e0: 256e 0a3d f49a 34bc 2fd4 923d d8a2 a63b
000002f0: ca2d 8dbd dae6 603c a97d 953d b6a6 afbc
00000300: 8ecd e9bc 75c7 223c cc1f 793d f7cf 8cbd
00000310: dfad 1dbd 20ff 22bd 9ea1 c53c 22e2 97bd
00000320: 4ce5 8f3d daa1 813d 31ef 90bc f71d b4bc
00000330: dbf8 8ebd c1c1 163d 11f0 2c3d 982c 5939
00000340: 1ed2 68bd d95f 70ba 7246 ab3d ee05 8bbd
00000350: be14 753d 93e3 aa3d cdfe 51bc 4cd3 ce3d
00000360: 62c9 ddbd 3a4a 4a3d dc38 263d f068 67bb
00000370: d018 87bd 2580 343d a72d 8d3d e4f6 bc3d
00000380: 20cf ab3d 61b7 a83c 3301 04bd 26ef c13d
00000390: 4add 8a3d 1c3f 343d fe45 1fbd 40ee d03d
000003a0: d07d c53d 0503 4dbd 2960 f33c 66f5 b83d
000003b0: 924c 31bc a8f4 f4bc 7f8a 6e3c 5e44 dabc
000003c0: ee2e 633d 62fe 36bc 163c 84bc 398a c8bc
000003d0: ce11 813d 0489 92bd 07d3 d03d 7376 6cbd
000003e0: fd86 0d39 bed7 d1bd 0261 e53c 44ea 3d3d
000003f0: 178f 75bd 3c25 66bd a0c5 a43c c1f4 993d
0.074884176 -0.047552206 0.0051371246 -0.060826097 -0.014010127 -0.045095313 0.09296852 0.073616534
0.055809125 0.09125256 -0.011785134 -0.00059533166 0.030569095 -0.0019461802 0.015194717 -0.006449197
-0.054034308 -0.06981195 -0.032907847 0.038356084 -0.016680487 0.054980252 -0.07665668 0.038841285
-0.0153723005 0.10631283 -0.0805255 -0.12141415 0.011438501 0.043246906 -0.066740274 0.029654033
0.008411837 0.029037377 0.028056795 -0.0025741225 0.016808666 -0.058145184 0.050742183 0.0016415094
-0.0039045068 0.034241486 0.042272236 -0.06608444 0.010861224 -0.022722077 0.098739184 0.039567724
-0.01238389 0.0059050373 -0.0067088166 -0.0154138915 0.051913027 -0.02412606 -0.06814846 -0.038044468
0.0027614022 -0.00045959366 0.017862706 -0.05543358 -0.058795318 -0.08202507 -0.031166399 -0.0018884578
-0.09212778 -0.02308633 -0.08136144 0.016147962 -0.05904437 0.033779524 0.045831215 0.09427521
0.014522284 0.00068391976 0.01768996 -0.08508525 -0.017487219 -0.021293703 0.0075469837 -0.113021284
-0.008115009 -0.09279907 -0.08097429 -0.058828786 0.057007626 -0.006807013 -0.07278029 -0.0774929
0.076108806 -0.0065654377 0.0021240308 0.09328003 0.07158156 0.0005435325 0.030969597 0.03348756
-0.09486411 -0.015536083 0.08197351 -0.10544224 -0.05610784 -0.0282544 -0.023227649 0.00037544785
-0.061307102 -0.10028629 0.055048868 0.016565476 0.08564923 -0.07416856 -0.066004895 0.0916867
0.011594102 -0.021614967 0.07463813 0.03633328 -0.023615835 0.061593797 -0.06345907 0.058719285
-0.05425077 0.040598217 -0.021666447 0.08021566 0.13733876 0.060463954 -0.033017214 -0.06982362
0.016196182 -0.008843683 0.04475435 0.0048532323 -0.05188284 -0.04713345 -0.013401555 -0.032843184
-0.02137632 -0.027680391 -0.003195535 0.10080162 -0.01532474 0.10014694 -0.053773794 0.042719673
0.026151318 0.07272305 0.100044996 -0.03860638 0.08822936 -0.047908053 0.03198644 -0.08863581
0.0762814 0.022383122 0.05510019 -0.0020201397 -0.04083315 0.08468991 -0.07921864 0.08575093
-0.078221604 -0.07363564 -0.06544701 0.023304049 0.099312246 -0.037514243 0.018344846 0.045893926
0.014219503 -0.044455454 0.08217565 0.10888317 0.113866314 -0.07916776 -0.1380339 0.029312722
0.023331491 -0.060303178 0.060771998 -0.07152701 -0.035285305 0.06742842 0.0954214 0.0009136562
0.03379645 -0.011023272 0.07169377 0.0050853305 -0.06893499 0.013726914 0.072993584 -0.021441799
-0.028540399 0.00993525 0.06082134 -0.06875604 -0.038495895 -0.039794087 0.024124917 -0.07416178
0.07026157 0.06329699 -0.01769218 -0.021986945 -0.06981059 0.036805872 0.042221133 0.00020711345
-0.05684101 -0.0009169556 0.08363046 -0.067882404 0.059834234 0.083441876 -0.012817097 0.100988954
-0.10829426 0.049387194 0.04058157 -0.003531035 -0.065965295 0.04406752 0.06893473 0.09226778
0.08389115 0.020595254 -0.032227706 0.09469442 0.06780489 0.0440055 -0.03888511 0.102016926
0.096431375 -0.050051708 0.029708939 0.09031181 -0.010821478 -0.029901817 0.014559387 -0.026643928
0.055464678 -0.011169048 -0.016141932 -0.024479972 0.06302224 -0.0715504 0.101965 -0.05773015
0.00013497095 -0.10246228 0.028000358 0.04636599 -0.059950914 -0.056187853 0.020113766 0.07517386

layers.5.bias f4 [2]
00000000: f110 85bc 4bfb d6bc
-0.01624343 -0.026242873
