model_zoo/GAIL/CartPole-v0/critic_1980096.pth (torch, 138295 bytes, 7 tensors)

layers.0.weight f4 [128, 4]
0	0x3e67bc43	0.2263041
1	0xbf147ebf	-0.580059
2	0xbf360b33	-0.7111084
3	0xbf3157b9	-0.6927448
4	0x3f25ce9b	0.6476838
5	0x3ee8bb59	0.45455435
6	0x3ed445cc	0.414595
7	0x3eb1e3d6	0.34744138
8	0x3e26c21f	0.16284989
9	0x3eeb0aec	0.4590677
10	0x3f2f8755	0.68565875
11	0x3f22cb8b	0.6359183
12	0xbeea8c5a	-0.45810205
13	0xbeed5df5	-0.46360746
14	0xbf0f916f	-0.5608129
15	0x3eacd191	0.33753636
16	0x3f36367a	0.71176875
17	0xbd8aba7f	-0.067738526
18	0x3f144f13	0.5793316
19	0x3ea08fbb	0.31359658
20	0xbf2dafe7	-0.6784653
21	0x3ea80be1	0.32821563
22	0xbead4d29	-0.3384793
23	0xbe6f6cd0	-0.23381352
24	0x3f0c9da8	0.54928064
25	0xbf021530	-0.5081358
26	0x3d3f6129	0.04672352
27	0xbeff9d3b	-0.49924645
28	0x3dc07d59	0.09398908
29	0x3f0b54ce	0.54426277
30	0x3d871fb6	0.06597845
31	0x3ed7ea92	0.4217115
32	0xbf0b50ad	-0.54419976
33	0xbf2bfc94	-0.6718228
34	0xbf2e8f04	-0.68186975
35	0xbefdcd83	-0.49570855
36	0x3f1d07d3	0.61340064
37	0x3f174522	0.59089863
38	0x3d01a072	0.031647153
39	0x3f00857c	0.5020368
40	0x3ecfdfb2	0.40600353
41	0xbf2d3bb5	-0.6766923
42	0x3d3758c0	0.044762373
43	0xbe3957d4	-0.1809991
44	0x3f4bad03	0.7956087
45	0xbdb82e5e	-0.08993219
46	0x3f0999a1	0.53750044
47	0x3ee05687	0.43816015
48	0xbf036b16	-0.51335275
49	0xbf0eaff0	-0.5573721
50	0xbea7144a	-0.32632667
51	0x3e897425	0.26846424
52	0x3e8ce948	0.2752173
53	0x3d918ccc	0.07106933
54	0x3f104324	0.5635245
55	0xbebb4fc4	-0.36584294
56	0xbe58b261	-0.21161796
57	0x3f41aa8a	0.75650847
58	0x3f4d4240	0.80179214
59	0xbd4f3afe	-0.05059337
60	0x3ee5b08b	0.44861254
61	0x3ec8749e	0.39151472
62	0x3f05ca59	0.52261883
63	0xbe1cba94	-0.15305549
64	0x3eae8c86	0.34091586
65	0x3f2780ae	0.65430725
66	0x3dbeaa5e	0.09309839
67	0x3e279675	0.16365989
68	0x3f2812ae	0.656535
69	0x3f19eec2	0.6012994
70	0x3c10d6bf	0.008840262
71	0x3d3c705e	0.0460056
72	0xbf2bec32	-0.6715728
73	0xbe2e4242	-0.17017463
74	0xbe8e5d0a	-0.27805358
75	0x3e88fa21	0.26753333
76	0x3f306c24	0.6891501
77	0xbdfc7751	-0.12327445
78	0xbd7909cd	-0.060800362
79	0xbe49076d	-0.19631739
80	0xbea85688	-0.32878518
81	0xbeda1169	-0.42591408
82	0xbf33d566	-0.70247495
83	0x3ea42576	0.3205983
84	0x3ea7626c	0.32692277
85	0x3f18b3c8	0.59649324
86	0x3f4f12e1	0.8088818
87	0x3f06b828	0.5262475
88	0xbedf1c49	-0.43576267
89	0x3efe05e1	0.4961386
90	0x3dccc620	0.09998727
91	0xbe88e9db	-0.26740918
92	0x3e12e2c9	0.14344324
93	0xbe918e24	-0.28428757
94	0x3eaa16aa	0.33220416
95	0xbe8069ab	-0.25080618
96	0x3f1925be	0.59823215
97	0xbcdc7670	-0.026911944
98	0x3f43ccf8	0.7648463
99	0xbea9bb16	-0.33150548
100	0xbf669550	-0.9007158
101	0xbedfce94	-0.43712294
102	0xbf079914	-0.52967954
103	0xbec86fd7	-0.39147827
104	0x3e9ce89b	0.30646214
105	0x3ef15086	0.47131747
106	0xbdd7dcd0	-0.105401635
107	0x3f0aa540	0.541584
108	0xbe23c91b	-0.15994684
109	0xbe1a31b3	-0.15058021
110	0xbe9dddd7	-0.30833313
111	0xbefb61da	-0.49098092
112	0xbf23a9f2	-0.6393119
113	0x3ec40080	0.3828163
114	0xbea48b6e	-0.32137626
115	0x3e6df25c	0.23236984
116	0x3f2db688	0.67856646
117	0xbe22aa70	-0.15885329
118	0x3e524701	0.20534898
119	0x3e3f0103	0.1865273
120	0xbf03c3d7	-0.514707
121	0x3e94e9f3	0.2908474
122	0x3d6988b5	0.05701514
123	0xbe060e13	-0.13091306
124	0x3f16ac25	0.5885642
125	0x3f26474d	0.64952546
126	0xbe3d2376	-0.18470559
127	0x3e873736	0.2640931
128	0xbe895927	-0.2682583
129	0x3e962f29	0.29332855
130	0xbef28545	-0.47367302
131	0x3ef27104	0.4735185
132	0x3dc5d278	0.09659284
133	0x3f258d6b	0.6466891
134	0x3e6c4247	0.23072158
135	0x3e6bf265	0.23041685
136	0xbe8a79fb	-0.2704619
137	0xbf105129	-0.5637384
138	0xbef07b45	-0.46969047
139	0xbf1f2167	-0.6216034
140	0xbdd9cd8d	-0.10634909
141	0xbec5589e	-0.38544172
142	0xbf60cfd0	-0.87817097
143	0xbe8b2a75	-0.2718083
144	0xbf2676bb	-0.6502492
145	0xbf065880	-0.5247879
146	0xbecf357b	-0.4047049
147	0xbde1c10d	-0.1102315
148	0xbf2553f7	-0.64581245
149	0xbefa6b97	-0.4891021
150	0xbed6d258	-0.41957355
151	0xbed0c04d	-0.40771714
152	0x3eea3cf4	0.4574963
153	0x3f1660fc	0.58741736
154	0x3d6415a4	0.0556847
155	0x3e964649	0.29350498
156	0xbebd1a07	-0.3693392
157	0xbf278ec7	-0.65452236
158	0xbf37ee8e	-0.7184838
159	0xbf0a940a	-0.5413214
160	0x3f16e063	0.58936137
161	0xbef8625e	-0.48512548
162	0x3edc383a	0.43011647
163	0x3d095042	0.033523805
164	0xbeb63074	-0.35583842
165	0x3f24eba2	0.6442205
166	0xbee7d079	-0.4527624
167	0x3eecd9ff	0.46260068
168	0x3e78150c	0.24226779
169	0xbe0f3677	-0.1398562
170	0x3edb9236	0.42884988
171	0xbe9457a8	-0.28973126
172	0xbe9e3583	-0.309002
173	0xbf2e4345	-0.68071395
174	0xbdd9debc	-0.10638186
175	0xbf240648	-0.64072084
176	0x3effe693	0.49980602
177	0x3f1094b2	0.5647689
178	0x3e57d768	0.21078265
179	0x3dba2b79	0.09090323
180	0x3f09bde5	0.5380538
181	0xbea03046	-0.3128683
182	0x3f28d4c3	0.6594965
183	0xbef5a31c	-0.47976005
184	0xbeb3d3e1	-0.35122588
185	0x3f01a380	0.50640106
186	0xbea86dab	-0.3289617
187	0xbe9cc35b	-0.30617794
188	0x3dd603cb	0.10449942
189	0xbf0bceda	-0.54612505
190	0xbccdba02	-0.02511311
191	0xbe0c45e2	-0.13698533
192	0x3d901a2e	0.070362434
193	0xbee954c3	-0.4557248
194	0xbf23bcb8	-0.63959837
195	0x3ba7ab59	0.005116862
196	0x3ee260a6	0.44214362
197	0xbe87f909	-0.26557186
198	0x3e6b6d26	0.22990856
199	0x3e8f5310	0.2799306
200	0xbe500c04	-0.20317084
201	0xbf0a916f	-0.54128164
202	0xbf15b0b4	-0.5847275
203	0xbd6e037b	-0.058108788
204	0x3f2cb0c4	0.6745722
205	0xbe755976	-0.23959908
206	0x3e226ead	0.15862532
207	0x3ef079a4	0.46967804
208	0xbcc3eab6	-0.02391563
209	0x3f3f30c5	0.7468379
210	0x3f74e8a4	0.9566748
211	0x3e765507	0.24055873
212	0x3f378c69	0.71698624
213	0x3f036a73	0.51334304
214	0x3ea5bf32	0.32372433
215	0x3eda0c2b	0.42587408
216	0x3eca2c85	0.3948709
217	0xbdb04f97	-0.086089306
218	0x3f1894d9	0.59602123
219	0x3df8b4ee	0.121438846
220	0xbf0ae93f	-0.54262155
221	0x3f030b7e	0.5118941
222	0xbeb5598d	-0.35419884
223	0xbeb2bac1	-0.34908107
224	0x3f482fff	0.78198236
225	0x3bc66693	0.0060547083
226	0x3f0e6ed5	0.55637866
227	0x3e10a1b9	0.14124192
228	0xbf179cb3	-0.5922348
229	0xbe8979d3	-0.26850757
230	0xbe9f2a66	-0.31087035
231	0x3ee0b546	0.438883
232	0x3e1c5801	0.15267946
233	0x3e1a4be0	0.15068007
234	0x3eea0807	0.4570925
235	0x3ecbcf6b	0.39806685
236	0xbd56953e	-0.052388422
237	0x3f15a7d0	0.58459187
238	0x3f32f91b	0.69911355
239	0xbe0c126b	-0.13678901
240	0xbac7a52a	-0.0015231718
241	0x3f05d287	0.52274364
242	0xbecce8eb	-0.40021452
243	0x3d662564	0.056188002
244	0xbe959a29	-0.29219177
245	0xbec1f960	-0.3788557
246	0xbf6754a5	-0.9036353
247	0xbf238cdc	-0.6388681
248	0x3ec79f29	0.38988617
249	0xbf2b4391	-0.66899973
250	0x3d9f7aaf	0.07787072
251	0xbef22e0b	-0.47300753
252	0xbefab1a9	-0.4896367
253	0x3edd3bf9	0.43209818
254	0xbde22172	-0.110415354
255	0x3e3b4ebb	0.18291752

layers.0.bias f4 [128]
0	0x3d7e8f3a	0.06214831
1	0xbe7adef7	-0.24499117
2	0x3e69556f	0.22786497
3	0x3e98732e	0.29775375
4	0x3e24631e	0.16053435
5	0xbe50c65f	-0.20388173
6	0x3eb6ab04	0.3567735
7	0x3e571fd0	0.2100823
8	0x3ef0aa90	0.4700513
9	0xbea097d9	-0.3136585
10	0x3c02e4b4	0.007989097
11	0x3da82284	0.08209708
12	0x3c545b30	0.012961194
13	0x3e6b52fb	0.22980873
14	0xbd6f8541	-0.05847669
15	0x3e956fd7	0.2918689
16	0xbecc2f3c	-0.39879787
17	0xbcc9550c	-0.024576686
18	0xbec00342	-0.37502486
19	0x3e8b80e6	0.2724678
20	0xbe8b2b07	-0.27181265
21	0x3e0069b6	0.12540326
22	0xbe4b163e	-0.19832703
23	0x3e7f88c4	0.24954516
24	0x3e9de5b5	0.30839315
25	0x3cf1ba75	0.029507855
26	0xbda3799a	-0.07982178
27	0xbdf2cf81	-0.118559845
28	0xbe9a1e37	-0.30101177
29	0x3db34a10	0.08754361
30	0xbe945bb9	-0.2897623
31	0xbecc6064	-0.3991729
32	0xbeb0800e	-0.34472698
33	0x3d84e8fc	0.06489751
34	0xbe74c8e4	-0.23904759
35	0x3e60b932	0.21945646
36	0x3e37d469	0.17952122
37	0x3e8f7fcc	0.2802719
38	0xbed6dcca	-0.41965324
39	0xbe87d2b2	-0.26527935
40	0x3ecf2d8f	0.40464446
41	0x3eb9495f	0.3618879
42	0xbe8c40cb	-0.27393183
43	0x3bdcf611	0.0067432006
44	0x3ea7b0d0	0.32752085
45	0xbeb2e357	-0.34939072
46	0x3d3f5a45	0.046716947
47	0x3e97b5b3	0.29630813
48	0x3def14fb	0.116739236
49	0xbd68e145	-0.05685546
50	0xbe00a320	-0.12562227
51	0x3d59db71	0.05318779
52	0x3c05aa8c	0.008158337
53	0xbd1fd9d0	-0.03902608
54	0x3d481786	0.04885056
55	0xbe6f7bd8	-0.23387086
56	0x3dde8620	0.10865426
57	0x3e994806	0.29937762
58	0xbc35e5de	-0.011102168
59	0x3db3f865	0.08787612
60	0x3dc4f5c8	0.096171916
61	0x3d0b9e14	0.034086302
62	0xbe40da81	-0.18833353
63	0xbdd7ff5a	-0.10546751
64	0x3df05d96	0.117366
65	0xbeaba8c5	-0.33527198
66	0x3e98c49b	0.29837498
67	0xbd67beb8	-0.056578368
68	0xbe921f90	-0.28539705
69	0xbead5a04	-0.3385774
70	0xbe903783	-0.28167352
71	0xbea6e3d1	-0.32595685
72	0xbdb906c3	-0.09034493
73	0x3e26b65f	0.16280507
74	0xbd3f8603	-0.046758663
75	0x3d8488b6	0.06471388
76	0xbdc0ebd0	-0.09419978
77	0xbe76459c	-0.24049991
78	0xbe82d836	-0.2555558
79	0xbed7c63e	-0.42143434
80	0xbe1ee81e	-0.15518233
81	0x3e904924	0.28180802
82	0x3e0623f9	0.1309966
83	0xbe3439b1	-0.17600133
84	0xbd5ab314	-0.05339344
85	0x3e704f5f	0.23467778
86	0x3ea255b4	0.3170601
87	0xbe389999	-0.18027343
88	0x3e9eae25	0.30992237
89	0xbeaf63f0	-0.34255934
90	0x3e61dace	0.22056124
91	0xbe3c1776	-0.18368325
92	0x3e2337d5	0.15939267
93	0xbd2fdd6c	-0.042935774
94	0x3e242aa3	0.1603189
95	0xbe1d0090	-0.15332246
96	0xbeaa4ed3	-0.33263263
97	0x3e343057	0.17596565
98	0xbe211aa5	-0.1573282
99	0x3dab0ce7	0.0835207
100	0xbea8984e	-0.329287
101	0x3e8dbc03	0.27682504
102	0xbead221d	-0.3381509
103	0xbed19913	-0.409371
104	0x3e309c66	0.17247161
105	0xbe9c1021	-0.30481055
106	0x3d03773c	0.032096133
107	0xbeb49675	-0.3527104
108	0xbe728e29	-0.23687042
109	0x3d70514e	0.05867129
110	0xbec733b5	-0.38906637
111	0x3e9f4454	0.31106818
112	0x3eaccd73	0.33750495
113	0x3e77e004	0.24206549
114	0xbdae3667	-0.0850647
115	0xbea7fb70	-0.3280902
116	0x3ec28f13	0.37999782
117	0xbdf02500	-0.11725807
118	0x3db8bc0d	0.09020243
119	0xbe12027d	-0.14258762
120	0xbe80efe6	-0.25183028
121	0x3e18606c	0.14880532
122	0xbdf21ca6	-0.118218705
123	0x3e9290f2	0.2862621
124	0x3dac2978	0.08406347
125	0xbc4790b0	-0.012180492
126	0xbe4f85a2	-0.2026582
127	0xbe4789b8	-0.1948613

layers.1.weight f4 [128, 128]
0	0x3ec5fb16	0.38668126
1	0xbe629d8a	-0.22130409
2	0xbd80b13e	-0.06283806
3	0xbc80baba	-0.015714038
4	0xbd04583d	-0.032310713
5	0xbd9188e8	-0.07106191
6	0x3d44be1e	0.048032872
7	0xbd3d6a9f	-0.04624426
8	0x3e284073	0.16430835
9	0xbe9b54c8	-0.3033812
10	0x3ece037d	0.40237036
11	0x3d9187f4	0.07106009
12	0x3c19494d	0.009355855
13	0x3d979f11	0.074033864
14	0xbe4dc644	-0.20095164
15	0x3d94963a	0.07255216
16	0xbe1f29ae	-0.15543243
17	0xbd9c6b88	-0.076376975
18	0xbd703ec2	-0.0586536
19	0x3d9efc7e	0.07763003
20	0x3da69e07	0.0813561
21	0xbe3032fa	-0.17206946
22	0xbd78106b	-0.060562532
23	0x3e02a7e8	0.12759364
24	0x3d66561d	0.056234468
25	0x3dab650c	0.083688825
26	0xbe91fa4f	-0.28511283
27	0x3ddc04fc	0.10743138
28	0xbe09ccd8	-0.13457048
29	0x3daef41e	0.085426554
30	0xbc211022	-0.0098305065
31	0xbe024130	-0.1272018
32	0xbcb87822	-0.022518221
33	0xbe6d4dac	-0.2317416
34	0x3e14b4fd	0.14522167
35	0x3db9e088	0.09076029
36	0x3e0535ee	0.13008854
37	0x3e5a51c3	0.21320252
38	0xbddbcc42	-0.107323185
39	0x3c112635	0.008859207
40	0x3e23ce0c	0.1599657
41	0xbe421695	-0.18953927
42	0x3e0c3088	0.13690388
43	0x3e33302f	0.1749885
44	0x3d035a58	0.03206858
45	0x3e5d2e25	0.21599634
46	0xbe11c221	-0.1423421
47	0x3e24db4d	0.16099282
48	0x3dbf6929	0.093462296
49	0x3e1df3fa	0.15425101
50	0xbcf8cbd4	-0.03037063
51	0x3dcde3f2	0.10053243
52	0xbe6d53bb	-0.23176472
53	0xbe222fdf	-0.15838574
54	0x3e02ad2a	0.1276137
55	0xbdc8ade3	-0.09798791
56	0x3c1e2916	0.00965335
57	0xbdb540b1	-0.088502295
58	0xbdcc881e	-0.099869
59	0xbd8aa4c8	-0.06769711
60	0xbd37f56e	-0.044911794
61	0x3e6f4c93	0.23369054
62	0x3eac5352	0.33657318
63	0xbe758186	-0.2397519
64	0xbd6b8f08	-0.057509452
65	0x3e076722	0.13222936
66	0x3da9c643	0.082897685
67	0xbd8bb95c	-0.06822464
68	0x3dcddf87	0.100524
69	0xbd8018e3	-0.06254747
70	0xbe0a334d	-0.13496132
71	0xbe019ffa	-0.12658682
72	0xbd8687bb	-0.06568857
73	0x3da9c43c	0.08289382
74	0x3d8e75b8	0.06956047
75	0xbe28ad55	-0.16472371
76	0x3d736c08	0.0594292
77	0xbda8cb08	-0.0824185
78	0xbde78ab7	-0.11305755
79	0xba072e7e	-0.0005156769
80	0x3d096272	0.03354115
81	0xbdb0cef3	-0.086332224
82	0xbd981dba	-0.07427545
83	0xbc1c233b	-0.009529884
84	0x3d960cbf	0.0732665
85	0xbca6bbb2	-0.020353172
86	0x3cd8a188	0.026444212
87	0x3e95ec8c	0.29282033
88	0xbac1ef5e	-0.0014796068
89	0x3e1e3671	0.15450455
90	0x3d82003a	0.063476995
91	0x3cc0cb33	0.023534393
92	0x3c49c4b5	0.012314965
93	0x3f02058c	0.50789714
94	0x3e2c540f	0.16828941
95	0x3e33fa80	0.17576027
96	0xbb77a7b3	-0.0037789166
97	0xbe4c1ba6	-0.19932422
98	0x3e5465b2	0.20741919
99	0xbdac6ea1	-0.08419538
100	0xbd30dd63	-0.04317988
101	0xbe6a05f6	-0.22853836
102	0x3e02868c	0.12746638
103	0xbcdc2cd0	-0.026876837
104	0xbd5fd09c	-0.054642305
105	0x3cb016b6	0.021495204
106	0xbe0829ef	-0.13297246
107	0x3d9e7c23	0.07738521
108	0x3e1370f1	0.14398552
109	0x3cb8d149	0.022560732
110	0xbd83ccc0	-0.06435537
111	0x3dd5a6be	0.10432194
112	0x3d624360	0.055240035
113	0x3d889fd8	0.06671113
114	0x3f15ebe7	0.58563083
115	0xbc04a098	-0.008094929
116	0xbdbbf5ba	-0.09177728
117	0x3d87b77d	0.066267945
118	0x3dc165cb	0.094432436
119	0xbe246808	-0.1605531
120	0x3cd0c192	0.025482927
121	0x3db4504c	0.08804378
122	0x3d2fbb77	0.04290339
123	0x3b5c52b2	0.0033618626
124	0xbe1dc9df	-0.15409039
125	0xbc21a9c5	-0.009867136
126	0xbdd5bc20	-0.104362726
127	0xbe5a35e3	-0.21309619
128	0x3e1dae9d	0.15398641
129	0x3d6975e9	0.056997214
130	0xbe05f22a	-0.1308066
131	0xbe3215c7	-0.1739112
132	0x3d9eaa21	0.07747293
133	0xbca6051d	-0.02026611
134	0xba6fee38	-0.0009152624
135	0xbe2e02b0	-0.16993213
136	0xbdd7c691	-0.105359204
137	0x3dd3830a	0.10327728
138	0x3e7d35e3	0.24727587
139	0x3d93ef11	0.07223333
140	0xbda29347	-0.07938247
141	0x3d871c60	0.06597209
142	0xbd54fe89	-0.052000556
143	0xbd36abbd	-0.044597376
144	0x3d7b5285	0.061357994
145	0x3daeda9f	0.085377924
146	0xbd08da58	-0.033411354
147	0xbd46be30	-0.04852122
148	0x3d9d9e39	0.07696194
149	0x3d573841	0.052543882
150	0xbd31188a	-0.043236293
151	0xbdc80d4f	-0.097681634
152	0xbbd2762e	-0.0064227795
153	0x3cf79b1a	0.030225325
154	0xbd077c90	-0.033077776
155	0x3d41389f	0.04717314
156	0xbd722018	-0.05911264
157	0xbce3400e	-0.027740505
158	0xbd6a36b9	-0.057181094
159	0x3dea174e	0.11430226
160	0xbc64c8d7	-0.0139639
161	0xbca985ee	-0.020693745
162	0x3c56d257	0.013111672
163	0xbe23c552	-0.1599324
164	0xbdd317e8	-0.10307294
165	0xbd836a9d	-0.06416819
166	0x3d9c804a	0.07641657
167	0x3c2272d5	0.009915073
168	0x3d176102	0.03695775
169	0xbe5b2f16	-0.2140468
170	0x3df2b2d0	0.11850512
171	0xbc8e8c6a	-0.017400939
172	0xbdb54c92	-0.08852495
173	0x3e2e077f	0.16995047
174	0xbd8c4637	-0.0684933
175	0xbda9312e	-0.082613334
176	0xbe019587	-0.12654696
177	0x3dfab0b6	0.12240736
178	0x3d2af778	0.04173991
179	0x3c21713c	0.009853657
180	0xbc98526e	-0.018593993
181	0x3db0ce94	0.08633152
182	0x3c8bcdfc	0.017065994
183	0xbcb85d5c	-0.022505455
184	0x3ac8b06d	0.0015311368
185	0xbd860331	-0.065435775
186	0x3da99ac8	0.08281475
187	0xbdb242ca	-0.08704145
188	0xbdb712a2	-0.08939101
189	0xbdc5993f	-0.0964837
190	0x3eb15715	0.3463675
191	0xbdb5c943	-0.08876278
192	0x3b7b28fc	0.003832399
193	0x3e665efd	0.22497173
194	0xbe1ef4dd	-0.15523095
195	0x3d79bc7f	0.06097078
196	0x3db988f7	0.09059327
197	0x3d03b3d3	0.032153916
198	0xbd2b66ee	-0.04184621
199	0xbc5cb075	-0.013469805
200	0x3d1837ec	0.037162706
201	0x3cc25c36	0.02372561
202	0x3c4d66df	0.012536733
203	0xbe330c00	-0.17485046
204	0xbdbd803a	-0.09252973
205	0x3d0261aa	0.03183142
206	0x3d8940f4	0.06701842
207	0x3e51a921	0.20474674
208	0x3d5e8e8b	0.05433516
209	0x3ca80ad5	0.020512978
210	0xbd778c25	-0.060436387
211	0xbd4edb7c	-0.050502285
212	0x3c93ce92	0.018042836
213	0xbd2de60e	-0.042455725
214	0x3cb1efa3	0.021720713
215	0x3e24ab39	0.16080941
216	0xbe27948c	-0.1636526
217	0x3ce8a6fa	0.028399933
218	0xbd081c1c	-0.033229932
219	0xbd69cf36	-0.057082377
220	0xbdddb1b2	-0.10824908
221	0x3ec12cb2	0.37729412
222	0xbdf5e549	-0.12006623
223	0x3c958c75	0.018255452
224	0x3d96772c	0.07346949
225	0xbe114983	-0.14188199
226	0x3e438c6a	0.19096532
227	0xbe37870f	-0.17922615
228	0x3d4f4203	0.050600063
229	0xbdf537ae	-0.11973511
230	0x3e7082e8	0.23487437
231	0x3e0b7665	0.13619383
232	0x3c254888	0.010088094
233	0x3e121403	0.14265446
234	0xbe29a586	-0.16567048
235	0x3d9a858a	0.07545002
236	0x3ded19b7	0.1157717
237	0x3dcbb269	0.099461384
238	0x3e342a83	0.17594342
239	0xbd3a8440	-0.04553628
240	0xbd1d39da	-0.03838525
241	0x3b13336e	0.0022461074
242	0x3e972bc3	0.29525575
243	0x3e2a0714	0.16604263
244	0xbd804efa	-0.062650636
245	0x3cd0028f	0.025391845
246	0x3d2a8c42	0.041637667
247	0x3c6cfded	0.0144648375
248	0x3d37edb8	0.04490444
249	0x3d837b08	0.06419951
250	0x3e0fbc85	0.14036758
251	0xbc956b52	-0.01823965
252	0xbde51f92	-0.11187662
253	0xbdbd4914	-0.09242454
254	0x3da5d716	0.08097665
255	0x3cd3b11b	0.025841286

layers.1.bias f4 [128]
0	0x3d26fb86	0.040767215
1	0xbe0bb4fa	-0.13643256
2	0xbde2de23	-0.110775255
3	0xbdb4cba2	-0.088279024
4	0xbd148e9b	-0.03626881
5	0x3dbfafe3	0.093597196
6	0xbcd55da4	-0.026045628
7	0x3d275775	0.04085489
8	0xbc045b8c	-0.008078467
9	0xbc4bb52e	-0.012433333
10	0x3d83d214	0.064365536
11	0xbcc66daa	-0.024222214
12	0x3d352e26	0.044233464
13	0x3dafd1c6	0.08584933
14	0x3c459e23	0.0120616285
15	0x3d810672	0.063000575
16	0xbd8df350	-0.06931174
17	0xbc8c67ba	-0.017139304
18	0xbc3d50bc	-0.011554893
19	0x3e0ce6d1	0.13759924
20	0xbdb3c636	-0.0877804
21	0xbde10be3	-0.10988595
22	0x3c0f2489	0.008736738
23	0xbd628e0e	-0.055311255
24	0xbced0003	-0.02893067
25	0xbd15a789	-0.036536727
26	0xbdf4da8f	-0.11955749
27	0x3cd1518b	0.025551578
28	0x3d9e25da	0.07722063
29	0x3d33abb9	0.04386494
30	0x3c115c9e	0.008872179
31	0x3e113ab4	0.1418255
32	0xbd94dcad	-0.07268653
33	0xbaf2f668	-0.001853657
34	0x3c8b0356	0.016969364
35	0x3d614235	0.05499478
36	0xbd7fac3c	-0.062420115
37	0x3d363e73	0.04449315
38	0x3e055084	0.13018996
39	0xbd981bb4	-0.07427159
40	0x3d61c399	0.055118177
41	0x3c49682f	0.012292906
42	0x3d5f4ba8	0.05451551
43	0x3bf78f6f	0.0075549404
44	0xbd59c59e	-0.053166978
45	0xbcc4d8e7	-0.024029208
46	0x3bc3ee23	0.005979316
47	0xbd8aaef1	-0.06771649
48	0xbddae249	-0.10687692
49	0x3c91eb04	0.01781226
50	0x3d818aa3	0.06325271
51	0x3da74d4f	0.08169042
52	0x3d3bee85	0.045881767
53	0x3cd6d01e	0.026222285
54	0xbd5aab02	-0.053385742
55	0x3e022758	0.12710321
56	0xbd559b9b	-0.05215035
57	0x3e0a503b	0.13507168
58	0xbd1316b2	-0.035910316
59	0xbbf1602b	-0.0073662004
60	0x3caf318f	0.021385936
61	0xbdcf6e89	-0.10128505
62	0x3d961efe	0.0733013
63	0x3bc21cd4	0.0059238467
64	0xbdcd27a8	-0.100173295
65	0xbdd49322	-0.10379626
66	0xbd1829a1	-0.037149075
67	0xbc9788fc	-0.018497936
68	0x3de98092	0.11401476
69	0xbd04cac9	-0.032419953
70	0xbce8f9e0	-0.028439462
71	0xbdd535df	-0.10410666
72	0xbda381e1	-0.07983757
73	0x3d7c38eb	0.06157772
74	0xbd8c0e6d	-0.06838689
75	0xbcbee5fa	-0.02330302
76	0x3dbc0c65	0.091820516
77	0xbddc44c1	-0.10755301
78	0xbd7749d0	-0.060373127
79	0x3d21e1db	0.039522033
80	0x3ded13a4	0.11576012
81	0xbd4e50aa	-0.050369896
82	0xbd0497bd	-0.03237127
83	0x3ae145e1	0.0017186963
84	0x3d720500	0.0590868
85	0xbda44f27	-0.080229096
86	0x3da23b9f	0.07921528
87	0xbd988c66	-0.07448654
88	0x3d59f2d9	0.053210113
89	0xbcea57ba	-0.028606284
90	0xbc0beebf	-0.008540808
91	0xbd279893	-0.04091699
92	0xbd86e049	-0.06585748
93	0xbd680a1a	-0.05665026
94	0xbc95a1ff	-0.018265722
95	0xbd97c844	-0.074112445
96	0x3e0544b0	0.13014483
97	0x3d3dd5c0	0.046346426
98	0xbba6fffd	-0.005096434
99	0xbda69dca	-0.081355646
100	0xbcaf80ad	-0.021423662
101	0xbd3fa8b1	-0.046791736
102	0x3d9b0534	0.07569352
103	0xbd61fc01	-0.05517197
104	0xbd768895	-0.06018885
105	0xbd04551f	-0.03230774
106	0x3dc90f3c	0.09817359
107	0x3cfde94c	0.030995034
108	0xbd2f2fed	-0.042770315
109	0x3ce872e6	0.0283751
110	0xbcde6106	-0.027145874
111	0xbd2610ef	-0.040543493
112	0x3bc3a6a1	0.0059707914
113	0x3bc09bb3	0.005877936
114	0xbd400523	-0.0468799
115	0xbd53200d	-0.051544238
116	0xbd534f46	-0.051589273
117	0x3d859f59	0.06524534
118	0x3d70ee28	0.058820873
119	0x3cea8578	0.028628096
120	0xbcdbb58b	-0.026819965
121	0xbd0ad0fd	-0.033890713
122	0x3d86f0d7	0.06588905
123	0xbd66bf69	-0.056334887
124	0xbdc0279e	-0.093825564
125	0x3d0d8267	0.03454819
126	0x3d23395a	0.039849617
127	0xbd568660	-0.052374244

layers.3.weight f4 [128, 128]
0	0x3e847d61	0.25876907
1	0x3db455c0	0.08805418
2	0x3d12fe58	0.035887092
3	0x3e17be9b	0.14818804
4	0xbde92706	-0.11384396
5	0xbdf8adfa	-0.121425584
6	0xbcdaa7cc	-0.02669134
7	0xbe17985b	-0.14804213
8	0xbe2d5fcc	-0.16931075
9	0xbb6c1b0d	-0.0036026866
10	0x3bd4a4ed	0.0064893872
11	0x3c9377e2	0.0180015
12	0x3cc95177	0.024574978
13	0xbde57b85	-0.112052
14	0xbc9417de	-0.018077787
15	0xbe160aa2	-0.14652494
16	0x3dfb6dc2	0.12276794
17	0x3dffb293	0.12485232
18	0x3d4c6d8a	0.049909152
19	0xbde7f407	-0.113258414
20	0xbc9d7a47	-0.019223345
21	0x3d942956	0.07234447
22	0xbe3391c7	-0.17536078
23	0x3e7503c7	0.23927222
24	0x3dbbc306	0.09168057
25	0x3e00fa70	0.12595534
26	0x3e28ede1	0.16496994
27	0x3e471db1	0.1944492
28	0x3d95b884	0.07310584
29	0x3e2be10e	0.1678507
30	0xbc15c15d	-0.00914034
31	0xbd9dff87	-0.077147536
32	0x3ddf1dba	0.10894342
33	0xbd4b96d2	-0.04970438
34	0xbd477f26	-0.048705243
35	0xbe009684	-0.12557417
36	0x3e5085a9	0.20363487
37	0x3c3e7e5b	0.011626805
38	0xbe1da957	-0.1539663
39	0xbe692c8c	-0.227709
40	0xbe029b4e	-0.12754557
41	0x3cf01a75	0.02930949
42	0xbda125c7	-0.078685336
43	0x3dd0eecd	0.10201798
44	0x3d5b4501	0.053532604
45	0x3d43aac5	0.04777028
46	0x3e0556c9	0.13021387
47	0x3de4abad	0.11165557
48	0x3e24a86f	0.16079877
49	0x3d86acf9	0.06575961
50	0xbddb191a	-0.10698147
51	0xbddb0fdc	-0.10696384
52	0x3c05e75d	0.008172837
53	0xbdcb2c8c	-0.09920606
54	0x3d21e5bb	0.03952573
55	0xbda01821	-0.07817102
56	0x3c7f7b13	0.015593308
57	0xbe068c7e	-0.13139531
58	0xbcad802b	-0.02117928
59	0x3e0bff80	0.13671684
60	0x3dffdb10	0.12492955
61	0x3d822ad5	0.06355826
62	0x3d8dd317	0.06925028
63	0xbe4705b6	-0.19435772
64	0x3d27dd98	0.040982813
65	0x3d376c72	0.044781156
66	0x3d7706bb	0.060309153
67	0x3d9438ea	0.07237418
68	0xbdbc516d	-0.09195218
69	0x3c6283ed	0.013825399
70	0x3e559b77	0.20860086
71	0x3e25054f	0.16115306
72	0x3de21873	0.110398196
73	0x3dc08e9f	0.09402203
74	0x3ccefdf4	0.025267579
75	0x3dcdce9e	0.10049175
76	0xbe163b62	-0.1467109
77	0x3cfbd06c	0.030739032
78	0xbd0f1cc3	-0.03493954
79	0xbe0f5605	-0.13997658
80	0x3dfc0ae6	0.12306766
81	0xbdf03f03	-0.117307685
82	0x3e2cc0b4	0.16870385
83	0xbe3ca4dc	-0.18422264
84	0xbe3597e3	-0.17733721
85	0xbda774db	-0.08176585
86	0xbd3ad1ab	-0.04561011
87	0x3da4411c	0.08020231
88	0xbd304413	-0.04303367
89	0x3e5d8522	0.21632817
90	0xbdd0c1df	-0.10193228
91	0x3dbaa7d3	0.09114041
92	0xbde08463	-0.10962751
93	0xbc79d5e0	-0.015248746
94	0x3cbdd511	0.023172887
95	0x3e09d423	0.1345983
96	0x3d27f65f	0.041006442
97	0x3d63c87f	0.05561113
98	0x3cfd1795	0.030895034
99	0xbc829806	-0.015941631
100	0x3dbfc206	0.09363179
101	0xbd541f61	-0.051787738
102	0xbd9e43b4	-0.07727757
103	0x3d6b10e9	0.057389174
104	0x3da18b67	0.07887917
105	0xbd3db22a	-0.04631249
106	0xbced9b8c	-0.029004835
107	0x3ddd0e78	0.10793775
108	0x3dc4ba53	0.09605851
109	0x3e00787c	0.12545961
110	0xbd83d184	-0.06436446
111	0xbd471afc	-0.04860972
112	0xbdb7020f	-0.089359395
113	0xbda9d083	-0.082917236
114	0xbe47bc2f	-0.1950538
115	0xbe087943	-0.13327508
116	0x3dfde75d	0.12397645
117	0x3d2de597	0.042455282
118	0xbc99540c	-0.018716834
119	0xbe0aac44	-0.13542277
120	0xbab1f35a	-0.0013576553
121	0x3db0bdd2	0.08629955
122	0x3df1f4f9	0.11814303
123	0x3deb364c	0.11484966
124	0x3d290a2d	0.04126947
125	0x3e1adf0a	0.15124145
126	0x3d9f29b3	0.07771625
127	0x3c867ab2	0.016415928
128	0xbe40769e	-0.18795249
129	0x3d8fc051	0.07019103
130	0xbdf06f6b	-0.11740001
131	0x3b98e83f	0.0046663578
132	0x3d13ed1e	0.036114804
133	0xbd967a0f	-0.073474996
134	0xbe2387e8	-0.15969813
135	0xbe34fde1	-0.17674972
136	0xbbe7f8cd	-0.00707922
137	0xbe185e2c	-0.14879674
138	0xbca49f16	-0.02009539
139	0xbd811e9c	-0.063046664
140	0xbd55b775	-0.05217691
141	0x3e91d6bb	0.2848414
142	0x3dc6b2d0	0.097020745
143	0x3df0a7c7	0.11750751
144	0xbdae7791	-0.08518899
145	0xbe4e381f	-0.20138596
146	0xbd48a5cb	-0.048986237
147	0xbd031225	-0.031999726
148	0xbd07b670	-0.03313297
149	0x3d59659c	0.053075418
150	0x3e583ddb	0.21117346
151	0x3d63d55f	0.05562341
152	0xbdeddf0d	-0.11614809
153	0xbe36bcd8	-0.17845476
154	0x3da8a6f4	0.08234969
155	0xbe8047a1	-0.2505465
156	0xbe8e7cf5	-0.2782971
157	0xbdbc937b	-0.09207817
158	0xbe2167a4	-0.15762192
159	0xbe147165	-0.14496382
160	0x3d73e087	0.059540298
161	0x3e11cf18	0.14239156
162	0xbcb7ddf8	-0.02244471
163	0x3da8b05e	0.08236764
164	0xbdc41fe7	-0.095763974
165	0x3e02b43b	0.12764065
166	0xbb9e2e2d	-0.004827282
167	0x3e8a5d6c	0.270244
168	0xbcdf8a9f	-0.02728778
169	0xbdfaf302	-0.12253381
170	0x3c229eb1	0.00992553
171	0xbd84ebb0	-0.06490266
172	0xbe4da188	-0.2008115
173	0xba854547	-0.0010167741
174	0xbec8af82	-0.39196402
175	0xbdbc949c	-0.092080325
176	0xbe4dc7d9	-0.20095767
177	0xbcd6db41	-0.026227595
178	0xbe1e6ac9	-0.15470423
179	0x3e1f15d2	0.15535668
180	0xbd967ba7	-0.073478036
181	0x3dfbb838	0.12290996
182	0xbe6fa5ac	-0.23403043
183	0xbd965fd2	-0.07342495
184	0x3d8371c3	0.06418183
185	0xbe35fdef	-0.17772649
186	0x3da9eb43	0.08296826
187	0xbe8efa89	-0.27925518
188	0x3d7717b8	0.060325354
189	0xbe14afa0	-0.1452012
190	0xbe26f195	-0.16303094
191	0x3de7628b	0.112980925
192	0xbd8ee9b6	-0.069781706
193	0xbda13643	-0.07871678
194	0xbe57987e	-0.21054265
195	0x3d9ef10a	0.07760818
196	0xbd48f011	-0.04905707
197	0xbd4fc708	-0.05072692
198	0x3d45933e	0.048236124
199	0xbe52d8af	-0.2059047
200	0x3c1314ff	0.008977174
201	0xbe6741db	-0.22583716
202	0xbdf384a8	-0.118905365
203	0x3dbd94f9	0.0925693
204	0xbc98fa50	-0.018674046
205	0x3d986e87	0.074429564
206	0x3d5ec432	0.054386325
207	0xbe37f447	-0.17964278
208	0xbcd6171a	-0.026134063
209	0x3e4589a2	0.19290784
210	0xbe8d463a	-0.2759264
211	0x3dab938b	0.08377751
212	0x3e08fa9d	0.13376851
213	0xbd54cd1b	-0.051953416
214	0x3d883b08	0.06651884
215	0xbda01d8c	-0.078181356
216	0x3dd4bfef	0.10388171
217	0xbe1156da	-0.14193287
218	0x3e05b217	0.13056217
219	0xbdacf9ce	-0.08446084
220	0x3e21babf	0.15793894
221	0x3e59868c	0.21242732
222	0xbe5e6aa6	-0.2172037
223	0xbd96731d	-0.07346175
224	0xbda8e452	-0.08246674
225	0xbe1ef463	-0.15522914
226	0x3e1a27d0	0.1505425
227	0x3da1d2c3	0.07901528
228	0xbe843265	-0.25819698
229	0x3e763cab	0.2404658
230	0x3d6cfec3	0.057860147
231	0xbc314b3c	-0.01082116
232	0x3e7cbf24	0.2468229
233	0xbd52fb4d	-0.05150919
234	0xbe3afd61	-0.18260719
235	0xbeb14263	-0.34620962
236	0xbd16081c	-0.036628827
237	0xbe4a15cd	-0.19734879
238	0x3eb0718b	0.34461626
239	0x3a897074	0.0010485784
240	0x3e69953d	0.22810836
241	0x3d426b47	0.04746559
242	0x3cf52cc2	0.029928569
243	0x3e3a3f1f	0.18188141
244	0x3d2f2cb9	0.04276726
245	0x3ca8b5ab	0.020594439
246	0xbd99853b	-0.07496115
247	0xbca3d1e9	-0.019997554
248	0xbe32f29e	-0.17475364
249	0x3afc044f	0.0019227358
250	0xbeba2021	-0.36352637
251	0xbd37a65c	-0.044836387
252	0xbdadfe33	-0.0849575
253	0xbd7cc919	-0.06171522
254	0xbc16018f	-0.009155645
255	0x3e0c2969	0.13687672

layers.3.bias f4 [128]
0	0xbdf2fbfb	-0.11864468
1	0x3d2e5a2e	0.04256647
2	0x3c785854	0.015157778
3	0xbe15e105	-0.1463662
4	0xbca5c12c	-0.020233713
5	0x3d326815	0.04355629
6	0xbd75ac1b	-0.059978586
7	0xbd232199	-0.039826963
8	0x3c0b78b5	0.0085126655
9	0x3d69e95e	0.057107322
10	0x3b9d7315	0.0048049786
11	0x3d8af515	0.06785027
12	0xbd0ec04a	-0.03485135
13	0x3e0fb726	0.1403471
14	0xbdc12579	-0.094309755
15	0x3db724bc	0.089425534
16	0x3e1b76b1	0.15181996
17	0x3dae8de3	0.085231565
18	0xbdd091fc	-0.10184094
19	0xbe277af0	-0.1635549
20	0xbc2a30fb	-0.010387654
21	0xba8b2592	-0.0010616055
22	0xbcc79bed	-0.024366343
23	0xbc7392d1	-0.014866547
24	0x3e15bc4e	0.14622614
25	0x3cada65a	0.021197487
26	0x3d9f8067	0.07788163
27	0xbe054122	-0.13013127
28	0xbc3df34d	-0.011593652
29	0x3db3bd00	0.08776283
30	0xbd8c06f2	-0.06837262
31	0xbd828e6c	-0.06374821
32	0xbd9a4601	-0.075328834
33	0xbcbb772b	-0.022883972
34	0xbdd6f9f0	-0.104968905
35	0x3e0d5b92	0.13804463
36	0x3cf003df	0.02929872
37	0x3d244dde	0.040113322
38	0x3d1bb071	0.038010065
39	0xbd34f078	-0.04417464
40	0xbd44c6e6	-0.048041247
41	0x3bbe9e1a	0.005817187
42	0xbda57db3	-0.08080616
43	0x3daa3a90	0.08311951
44	0x3dd69ee4	0.10479525
45	0xbe23c107	-0.15991603
46	0x3dc3082a	0.095230415
47	0x3c2fbfac	0.0107268505
48	0xbb44e11e	-0.0030041407
49	0xbd14290b	-0.036171954
50	0x3dc36010	0.09539807
51	0x3c25e0f5	0.010124435
52	0xbd3ccffb	-0.046096783
53	0xbd168e70	-0.036756933
54	0x3cedb93e	0.029018994
55	0x3d104d6f	0.035230096
56	0x3e1a8934	0.15091401
57	0xbda40d03	-0.08010294
58	0xbc4f43e7	-0.0126504665
59	0xbad1834e	-0.0015984566
60	0xbce0e388	-0.027452245
61	0x3cf08f8b	0.029365322
62	0xbd91b83e	-0.071152195
63	0x3d33178e	0.043723635
64	0xbad93ca5	-0.001657386
65	0x3e4c7bee	0.1996915
66	0xbd50a8cc	-0.050942227
67	0x3c593c13	0.013258952
68	0x3db934fc	0.09043309
69	0x3ddb2eaa	0.1070226
70	0x3de106b1	0.109876044
71	0xbccb68d1	-0.024830254
72	0xbd844b35	-0.06459657
73	0x3dab442b	0.083626114
74	0xbd0032f1	-0.03129858
75	0x3c16a8e4	0.00919554
76	0x39c106bd	0.0003681685
77	0x3dcf8adb	0.101339065
78	0x3db2dd37	0.087336
79	0xbdb8fe89	-0.09032924
80	0x3cd46082	0.025924925
81	0xbd25a169	-0.040437136
82	0xbd427b2a	-0.04748074
83	0x3d446f48	0.04795769
84	0x3cdf71d3	0.027275955
85	0x3ddbb9ef	0.107288234
86	0x3dd014aa	0.10160191
87	0xbdcbc66c	-0.09949955
88	0x3db6f977	0.089343004
89	0xbd616213	-0.05502517
90	0x3e04ba6d	0.12961741
91	0xbdde96e6	-0.10868625
92	0xbb002ecf	-0.001955915
93	0xbd51faf1	-0.051264707
94	0xbda4c456	-0.080452606
95	0xbcb097a8	-0.02155669
96	0xbda685f4	-0.08131018
97	0xbdcd754d	-0.10032139
98	0xbd5c8603	-0.05383874
99	0xbd3b78f6	-0.045769654
100	0xbdeaa84c	-0.11457881
101	0x3d97cd2e	0.07412182
102	0xbcc89898	-0.024486825
103	0x3bfa1676	0.007632072
104	0x3c3d49a5	0.011553203
105	0x3ba5f0f7	0.0050641256
106	0x3d6d1c92	0.057888575
107	0x3d360d57	0.044446316
108	0x3d4d29bf	0.05008864
109	0xbdd8d428	-0.105873406
110	0xbd7cc2e2	-0.061709292
111	0x3cd3dd0f	0.025862245
112	0xbc0fe3f0	-0.008782372
113	0x3bffc590	0.0078055337
114	0x3d978312	0.073980466
115	0x3df3d451	0.119057305
116	0xbcd19414	-0.025583304
117	0xbcf77035	-0.030204872
118	0x3d533ae7	0.051569846
119	0x3d7f0425	0.062259812
120	0xbd29c952	-0.04145176
121	0xbe08b2df	-0.13349484
122	0xbdcdb991	-0.100451596
123	0x3d3fe270	0.046846807
124	0xbe111459	-0.14167918
125	0x3dfc09e5	0.12306575
126	0x3d8e9ac6	0.069631144
127	0xbd7703db	-0.06030641

layers.5.weight f4 [1, 128]
0	0xbee98d84	-0.4561578
1	0xbf011450	-0.5042162
2	0x3f14fe11	0.58200175
3	0xbf055df6	-0.520965
4	0x3ece81b2	0.40333325
5	0xbee1fc70	-0.44137907
6	0xbef1408c	-0.47119558
7	0xbede1639	-0.4337633
8	0xbef9cbce	-0.48788303
9	0x3ef9de8d	0.48802605
10	0x3ec31d2f	0.38108203
11	0x3f042069	0.51611954
12	0xbef06dc7	-0.46958753
13	0x3ef7bb01	0.4838486
14	0xbecc58c7	-0.39911482
15	0x3eebc7da	0.46050912
16	0x3f19467e	0.5987319
17	0x3f074265	0.52835685
18	0xbefd4493	-0.4946638
19	0xbed08060	-0.40722942
20	0x3efa656b	0.489055
21	0xbf00901b	-0.5021989
22	0x3ec8a2a3	0.39186582
23	0x3eb20514	0.347695
24	0x3ee1cd78	0.44102073
25	0x3ec95383	0.39321527
26	0x3ed9dc09	0.42550686
27	0xbef1e71f	-0.47246644
28	0x3ee7b20d	0.4525303
29	0x3efe3a67	0.49653932
30	0xbed88682	-0.4229012
31	0x3ec2ab6c	0.3802141
32	0xbf0796f4	-0.5296471
33	0xbebf9056	-0.37414807
34	0xbf038fc7	-0.5139126
35	0x3f0c9ff9	0.549316
36	0xbec7a6b0	-0.3899436
37	0xbed3a84a	-0.41339332
38	0xbf015f23	-0.5053579
39	0xbef49981	-0.47773364
40	0xbeb12a26	-0.3460247
41	0xbf16130b	-0.5862281
42	0xbef4e660	-0.47832012
43	0x3eefa699	0.4680679
44	0x3f029dc5	0.5102199
45	0xbed5b9d3	-0.41743335
46	0xbefddc40	-0.495821
47	0xbeda43e3	-0.42629918
48	0xbee10bb5	-0.43954244
49	0xbee6d08c	-0.45080984
50	0x3f0b6563	0.5445158
51	0x3ef12551	0.47098783
52	0xbedc467b	-0.43022522
53	0xbedf19ef	-0.43574473
54	0x3ed26a58	0.4109676
55	0x3f093e53	0.53610724
56	0x3efa85be	0.48930162
57	0xbf09ec19	-0.5387588
58	0xbec54815	-0.38531557
59	0xbefa5715	-0.48894563
60	0xbebc6f7e	-0.36803812
61	0xbf08e12b	-0.5346858
62	0xbefce728	-0.49395108
63	0xbefc9e2c	-0.49339426
64	0x3ec46de3	0.38365087
65	0x3edeb7d4	0.43499625
66	0x3ec1c1b4	0.37843096
67	0xbf0b60ca	-0.54444563
68	0x3eebd51a	0.4606102
69	0x3eb80e4b	0.35948405
70	0xbecc6788	-0.39922738
71	0x3ec10cc5	0.37705055
72	0xbf12e26b	-0.57376736
73	0x3f07c86c	0.53040195
74	0xbeca5fac	-0.39526117
75	0xbefe61ae	-0.496839
76	0xbf031193	-0.5119869
77	0x3f161fbe	0.58642185
78	0x3f0d1b34	0.55119634
79	0xbecac084	-0.39600003
80	0x3f11aa2f	0.56900305
81	0x3ed74745	0.42046562
82	0xbec3560d	-0.3815159
83	0x3ef7894a	0.4834693
84	0x3eeee7a5	0.46661106
85	0x3f038efb	0.51390046
86	0x3ef73c2c	0.48288095
87	0xbeea2037	-0.45727703
88	0x3f017ef4	0.5058434
89	0xbf0d7a6b	-0.5526492
90	0x3f17a7cd	0.5924042
91	0xbec818d7	-0.3908145
92	0x3f04b8b9	0.51844364
93	0xbecc7b74	-0.39937937
94	0xbef06e61	-0.46959212
95	0xbec24a94	-0.37947524
96	0xbf0727ea	-0.5279528
97	0x3ed5cab6	0.4175622
98	0xbebdec76	-0.37094468
99	0xbebd3cd3	-0.36960468
100	0xbf018b10	-0.5060282
101	0x3ef1a11d	0.47193232
102	0xbef37899	-0.47552946
103	0xbefddec8	-0.4958403
104	0x3f14e247	0.5815777
105	0x3ee5c06d	0.44873372
106	0x3ed8c26c	0.42335832
107	0xbefe7112	-0.4969564
108	0xbed7e420	-0.42166233
109	0xbf159afa	-0.584396
110	0xbef9f313	-0.48818263
111	0x3f1a1f35	0.6020387
112	0xbf009713	-0.5023052
113	0xbf05e970	-0.5230932
114	0xbec7d506	-0.3902971
115	0x3edad1b2	0.4273811
116	0x3ee056bd	0.43816176
117	0xbf0db8b4	-0.5535996
118	0xbeef8e18	-0.46788096
119	0x3edefcf2	0.43552357
120	0x3ed571aa	0.4168828
121	0xbeeb7903	-0.45990762
122	0xbefd6feb	-0.4949945
123	0x3ef74e19	0.4830177
124	0xbedbf269	-0.42958382
125	0x3eefb629	0.46818665
126	0x3ed5c7ee	0.41754097
127	0xbf0f2beb	-0.5592639
