model_zoo/GAIL/LunarLanderContinuous-v2/actor_2471552.pth (torch, 141120 bytes, 9 tensors)

log_std f4 [2]
0	0xc01548b7	-2.3325632
1	0xc009d7a4	-2.1537867

layers.0.weight f4 [128, 8]
0	0x3da59c48	0.08086449
1	0xbbefe7ce	-0.0073213344
2	0xbed8878e	-0.4229092
3	0xbe046fbd	-0.1293325
4	0x3f034237	0.5127291
5	0x3e98b900	0.29828644
6	0xbe32217e	-0.17395589
7	0x3ea83266	0.3285095
8	0xbd1873c1	-0.037219767
9	0xbd7865e9	-0.060644064
10	0x3de6bf93	0.11267009
11	0xbd405ba5	-0.0469624
12	0xbefd7102	-0.4950028
13	0xbedee728	-0.43535733
14	0x3ebaed31	0.36509088
15	0xbde945a9	-0.1139024
16	0x3ebd064c	0.36918867
17	0xbe0bc488	-0.1364919
18	0xbd6313e6	-0.0554389
19	0xbe86125f	-0.2618589
20	0xbf0223aa	-0.5083567
21	0xbf055732	-0.52086174
22	0x3e2cc39d	0.16871496
23	0xbea8d1cf	-0.3297257
24	0x3dd7fbb5	0.10546056
25	0x3eeaede1	0.45884612
26	0x3c234e49	0.009967395
27	0x3e437506	0.1908761
28	0x3e19723b	0.14984982
29	0xbeb75dca	-0.35813743
30	0xbd8dbc43	-0.06920674
31	0xbe5423f1	-0.20716836
32	0x3ed6e1bf	0.41969106
33	0x3c589ecb	0.013221453
34	0x3e1bc9b6	0.15213665
35	0x3e67ae13	0.22624998
36	0x3e14efe3	0.14544635
37	0x3dab546b	0.08365711
38	0x3ed6edca	0.41978294
39	0x3e24bd1f	0.16087769
40	0x3e340f46	0.17583951
41	0x3ef3496a	0.47516948
42	0xbd2fb3b6	-0.042895995
43	0x3ed2d3ff	0.41177365
44	0x3aa5096e	0.0012591311
45	0xbecfc9c9	-0.40583637
46	0xbe46c0ef	-0.19409536
47	0x3d8b754e	0.068094835
48	0x3d3020a3	0.042999875
49	0xbe7de9ec	-0.24796265
50	0x3e6f6fad	0.23382445
51	0xbe908459	-0.28225973
52	0xbe8004ba	-0.25003606
53	0xbe17563f	-0.14778994
54	0xbe07a4d2	-0.13246468
55	0xbe965914	-0.29364836
56	0xbe6f3993	-0.23361807
57	0x3e11b8b1	0.1423061
58	0xbd37e1f0	-0.044893205
59	0x3e5ab461	0.21357872
60	0xbdb5fca5	-0.08886079
61	0xbe81c2ad	-0.25343838
62	0x3e0f62cd	0.14002533
63	0xbc4d71db	-0.012539352
64	0xbe9baf33	-0.30407104
65	0xbed63e88	-0.41844583
66	0x3e0e5169	0.13898243
67	0xbedb2ad3	-0.4280611
68	0x3f014e3b	0.50509995
69	0x3ee8b01e	0.45446867
70	0x3e46b203	0.19403844
71	0xbe77440e	-0.24147055
72	0x3e5e03fb	0.21681206
73	0xbe7b0d82	-0.24516872
74	0x3d91fa7d	0.07127855
75	0x3d00716d	0.03135817
76	0xbdcb7525	-0.09934453
77	0xbeb49c2d	-0.35275403
78	0xbde2f099	-0.110810466
79	0xbc81a1eb	-0.015824279
80	0x3eab6b52	0.33480316
81	0x3e0c33f7	0.13691698
82	0x3e92798e	0.28608364
83	0xbe0e3db3	-0.13890724
84	0xbe25cad6	-0.16190657
85	0xbf2d9258	-0.6780143
86	0x3c87a358	0.01655738
87	0xbe7acc22	-0.24491933
88	0x3e2443b0	0.16041446
89	0x3ebe132e	0.37124008
90	0x3e3bf502	0.18355182
91	0x3e88dd83	0.267315
92	0xbee28891	-0.44244817
93	0xbd4a173a	-0.049338557
94	0x3ecce77b	0.40020356
95	0x3ed1fdac	0.4101385
96	0x3e13700d	0.14398213
97	0xbec3bd52	-0.38230377
98	0x3e7b1642	0.2452021
99	0xbde2b8d3	-0.11070409
100	0xbc77b7e3	-0.015119526
101	0xbed6310d	-0.41834298
102	0x3d59835d	0.053103793
103	0x3ebd5512	0.36978966
104	0x3e38992a	0.18027177
105	0x3ea906eb	0.3301309
106	0x3e4130ed	0.1886632
107	0x3eea4f83	0.45763788
108	0xbee51c1c	-0.44748008
109	0xbd7e0c00	-0.062023163
110	0x3f028c84	0.5099566
111	0x3e4ec928	0.20193923
112	0x3e96fd0d	0.29489937
113	0x3d249bd3	0.040187668
114	0x3ebae4a5	0.36502567
115	0xbdb8f7dc	-0.090316504
116	0xbe6afcf9	-0.22948064
117	0xbf40a1a2	-0.7524663
118	0x3e98b620	0.2982645
119	0x3de60863	0.112320684
120	0xbe9d80b8	-0.30762267
121	0x3d3a03e2	0.04541386
122	0xbe6d77c6	-0.23190221
123	0x3db3fb2e	0.08788143
124	0x3df3116b	0.118685566
125	0x3f208055	0.6269582
126	0xbeee087e	-0.46490854
127	0x3de28013	0.110595845
128	0x3ed4fba7	0.41598246
129	0x3e232066	0.15930328
130	0x3ec74149	0.38916996
131	0x3de3e2af	0.11127221
132	0xbeff74dc	-0.49893844
133	0xbeddec2f	-0.43344256
134	0xbb3fc40f	-0.0029261147
135	0xbe81d1cb	-0.25355372
136	0x3e94aa08	0.29035974
137	0x3e25516f	0.16144346
138	0x3e93a489	0.28836468
139	0x3eb55b86	0.3542139
140	0xbe0cd2cc	-0.13752288
141	0xbf305279	-0.68875843
142	0x3e7ff934	0.24997407
143	0x3e19b32d	0.15009756
144	0x3d758e27	0.05995002
145	0xbef6701f	-0.48132417
146	0x3e8bb1ef	0.2728419
147	0xbedac111	-0.42725423
148	0x3e71e890	0.23623872
149	0xbcb340b0	-0.021881431
150	0x3e639a00	0.22226715
151	0xbe82caf7	-0.25545475
152	0x3eaefc7d	0.34177008
153	0x3e6a3b96	0.22874293
154	0x3e358681	0.1772709
155	0x3e90c862	0.2827788
156	0x3ea4a1b3	0.32154617
157	0x3e42a7f5	0.19009383
158	0x3da8702c	0.0822452
159	0x3ed45486	0.41470736
160	0x3eab4a9e	0.33455366
161	0xbe851789	-0.25994518
162	0x3d8f73df	0.070045225
163	0xbe8ccbcf	-0.27499244
164	0xbef7bebb	-0.48387703
165	0xbe5c980b	-0.21542375
166	0xbe85a694	-0.26103652
167	0xbe07d0b7	-0.13263212
168	0xbdea25a5	-0.114329614
169	0x3deb52d9	0.11490411
170	0xbc293214	-0.010326881
171	0xbce7b104	-0.02828265
172	0x3ecc0577	0.3984792
173	0x3f0cc6a9	0.5499063
174	0x3e58ca1a	0.21170846
175	0x3e604525	0.21901377
176	0x3de75287	0.11295038
177	0xbddcbe3f	-0.10778474
178	0xbee79d4a	-0.4523719
179	0xbd8c15d0	-0.06840098
180	0x3ec2c195	0.38038316
181	0x3f14b155	0.5808309
182	0x3e91cdef	0.28477427
183	0x3dfda9a3	0.12385871
184	0x3ef8bf1c	0.48583305
185	0xbe28da87	-0.16489612
186	0xbde235b9	-0.11045403
187	0x3e0d73a1	0.1381364
188	0xbedab9e3	-0.42719945
189	0xbe32176f	-0.17391752
190	0x3cd4426e	0.025910582
191	0xbe9e75c1	-0.30949214
192	0x3ea0a6a3	0.31377134
193	0xbce4bc92	-0.027921949
194	0xbd12ac19	-0.035808656
195	0xbd99ae39	-0.075039335
196	0x3dc1273d	0.09431312
197	0x3e4502f7	0.19239412
198	0x3ebb94a9	0.36636856
199	0xbdc151e1	-0.09439445
200	0x3e55f283	0.20893292
201	0x3e725b15	0.23667558
202	0xbe2e11ad	-0.1699893
203	0xbd544da8	-0.05183187
204	0x3eed3765	0.46331325
205	0x3ed40ab2	0.4141441
206	0x3e40e764	0.18838269
207	0x3d84b618	0.06480044
208	0x3e1d0c85	0.15336807
209	0x3d7e60c7	0.062104013
210	0xbe9a490a	-0.3013385
211	0x3e8b7870	0.27240324
212	0x3ea2136f	0.31655452
213	0x3edb8174	0.42872202
214	0x3e110556	0.14162192
215	0xbe3b2c6e	-0.18278667
216	0x3e1a9400	0.1509552
217	0x3ea87f5c	0.32909667
218	0x3e0a91f5	0.1353224
219	0x3e18f020	0.1493535
220	0x3e9c95da	0.30583078
221	0x3ef694f7	0.48160526
222	0xbcf2c8ad	-0.029636705
223	0xbe653a4f	-0.22385524
224	0x3ecdca28	0.40193295
225	0x3dcae846	0.09907584
226	0x3cb27a90	0.021786958
227	0x3e36af96	0.17840418
228	0xbede6224	-0.4343425
229	0xbf08acbd	-0.5338858
230	0x3eb11c9f	0.3459215
231	0x3e5e5fb3	0.21716194
232	0xbe9ce122	-0.30640513
233	0xbdaa535b	-0.0831668
234	0x3ec8a455	0.39187875
235	0xbdf9ee49	-0.122036524
236	0xbeccf1d5	-0.40028253
237	0xbdfd35b9	-0.123637624
238	0xbea3a5eb	-0.31962523
239	0xbdc45988	-0.09587389
240	0x3e66fe2f	0.22557901
241	0xbe41663b	-0.18886654
242	0xbbe3fc98	-0.0069576018
243	0xbe30bec2	-0.17260268
244	0xbea14713	-0.31499538
245	0xbe603e63	-0.21898799
246	0x3e1c2c9a	0.15251389
247	0x3d92c247	0.07165962
248	0xbe8a1bb0	-0.2697425
249	0x3eb5c5b3	0.35502395
250	0xbe0b2dda	-0.1359171
251	0x3c2f1e06	0.0106883105
252	0xbe736681	-0.23769571
253	0xbe906e11	-0.28208974
254	0xbe62184b	-0.2207958
255	0xbd48f036	-0.049057208

layers.0.bias f4 [128]
0	0xbd94c0c1	-0.072633274
1	0x3c49c2cd	0.0123145105
2	0xbe2cdf9a	-0.16882172
3	0xbe7afb57	-0.24509941
4	0x3e2214bc	0.15828222
5	0xbdb817d8	-0.08988923
6	0xbd8965a1	-0.06708837
7	0x3d69dfb3	0.0570981
8	0xbbb45dbd	-0.0055043385
9	0x3e41f697	0.18941723
10	0xbe652556	-0.22377524
11	0xbe026c1c	-0.12736553
12	0x3e4a0824	0.19729668
13	0x3e42604c	0.18982047
14	0xbd14498f	-0.036202963
15	0x3c9922c3	0.018693333
16	0x3b4348e5	0.0029798087
17	0x3dbc2ae2	0.09187867
18	0x3d78346b	0.060596865
19	0x3d29a345	0.04141547
20	0xbd938d0d	-0.07204638
21	0xbd1a5925	-0.03768267
22	0x3e0b5adf	0.13608883
23	0x3e6cb593	0.2311614
24	0xba2a049e	-0.00064856734
25	0xbe2aa62c	-0.16664952
26	0x3e121bc6	0.14268407
27	0xbe01c865	-0.126741
28	0x3dae46e4	0.08509615
29	0xbdbf374e	-0.093367204
30	0x3cfcab58	0.030843422
31	0xbe87dd82	-0.26536185
32	0xbe2c1669	-0.16805424
33	0x3dda2a60	0.10652614
34	0xbd8aafe6	-0.06771831
35	0x3e15e6c7	0.14638816
36	0x3df10309	0.11768157
37	0xbe2cc446	-0.16871747
38	0x3e4e9d11	0.20177104
39	0x3bebaaf7	0.0071920115
40	0x3cb6933a	0.022287
41	0x3d0813df	0.033222076
42	0x3d03bc68	0.0321621
43	0x3e4a4ee1	0.19756652
44	0x3c059c55	0.008154948
45	0x3dcb1853	0.09916749
46	0xbc528b08	-0.01285053
47	0x3e0597be	0.13046166
48	0xbe14bcca	-0.14525142
49	0xbe353cf0	-0.17699027
50	0x3d904957	0.070452385
51	0x3d19ad8c	0.037519023
52	0x3e84d86e	0.25946373
53	0xbdaa1392	-0.08304514
54	0x3e1ffc11	0.156235
55	0x3e21a916	0.15787157
56	0x3e40936a	0.18806234
57	0x3d7ca8c5	0.06168439
58	0x3dba17b1	0.0908655
59	0x3d7c3835	0.06157704
60	0xbd3ef571	-0.04662079
61	0xba85ae46	-0.0010199032
62	0x3e186da7	0.14885579
63	0xbd266823	-0.040626656
64	0xbd383ced	-0.04497998
65	0x3df69733	0.12040558
66	0xbda22108	-0.079164565
67	0x3dbe5567	0.09293633
68	0x3ce6cf23	0.028174942
69	0x3e0ba3b6	0.1363667
70	0x3cc8b31a	0.024499465
71	0xbd2a45ed	-0.041570593
72	0xbdd2a79b	-0.102858745
73	0x3c284644	0.010270659
74	0x3e1c886a	0.15286413
75	0x3dd99954	0.10624948
76	0xbe329193	-0.17438345
77	0xbca49639	-0.020091163
78	0x3d905260	0.07046962
79	0xbdce828d	-0.10083494
80	0x3d94dad0	0.07268298
81	0xbd97ced5	-0.07412497
82	0x3da1a513	0.078928135
83	0x3d25d283	0.040483963
84	0x3e2681ca	0.16260448
85	0xbe797f79	-0.24365033
86	0xbd600e0b	-0.054700892
87	0x3c9a1650	0.018809468
88	0xbe67f0ba	-0.22650424
89	0xbd674ae6	-0.056467913
90	0xbe3ae6c5	-0.18252094
91	0x3d58fae2	0.052973635
92	0xbe4046aa	-0.18776956
93	0x3d7e622f	0.062105354
94	0x3dd115e4	0.102092534
95	0x3caf83a4	0.021425076
96	0xbe4a6fde	-0.19769236
97	0x3e52c531	0.20583035
98	0xbe0bdd90	-0.13658738
99	0x3e15375c	0.14571899
100	0x3e928a3c	0.2862109
101	0x3d4374ef	0.04771894
102	0x3dd86bdf	0.1056745
103	0x3d58994f	0.05288058
104	0xbcf8f46d	-0.030389989
105	0x3e17110e	0.147526
106	0x3bff858a	0.0077979015
107	0xbe6bf772	-0.23043612
108	0x3dbebce3	0.09313371
109	0x3c9adc3c	0.018903844
110	0x3e353de0	0.17699385
111	0x3e6f2264	0.23352963
112	0x3e4c8123	0.19971137
113	0x3dab5f5f	0.083678
114	0x3e5e6b65	0.21720655
115	0xbd46b019	-0.048507784
116	0xbe10e42c	-0.1414954
117	0xbdd08b80	-0.101828575
118	0xbd221f23	-0.039580476
119	0x3db3a458	0.087715805
120	0x3c46335d	0.012097207
121	0x3e4a82d3	0.19776468
122	0x3dc637d0	0.09678614
123	0x3e1e1049	0.154359
124	0xbe3c97a5	-0.18417223
125	0xbe369e80	-0.178339
126	0xbe870a74	-0.26375163
127	0x3df08d52	0.11745705

layers.1.weight f4 [128, 128]
0	0xbd8a9d88	-0.06768328
1	0x3e322b64	0.17399365
2	0xbbf5dc86	-0.007503095
3	0xbd6baaa1	-0.05753577
4	0x3b8c2a45	0.0042775
5	0xbe5e5f97	-0.21716152
6	0x3e6e5755	0.23275502
7	0x3da63d3f	0.081171505
8	0x3e9ce1ec	0.30641115
9	0xbd2b789a	-0.04186306
10	0x3c2f694e	0.010706259
11	0x3dfd159b	0.123576365
12	0xbdc17bc4	-0.094474345
13	0xbdf9f889	-0.122056074
14	0xbdb66c83	-0.08907416
15	0x3de6e86a	0.11274798
16	0xbe0e3fea	-0.13891569
17	0xbe9ccd62	-0.30625445
18	0x3e242999	0.16031493
19	0xbcf53c81	-0.029936077
20	0x3d49d8f2	0.04927916
21	0x3dc90f5a	0.09817381
22	0xbd9c5cd0	-0.0763489
23	0xbe7f7dad	-0.24950285
24	0xbd95147e	-0.07279299
25	0xbc894964	-0.016758628
26	0xbea142c9	-0.31496266
27	0xbcd9adb8	-0.026572093
28	0xbe6ed61b	-0.23323862
29	0x3e644a25	0.22293909
30	0xbd415fca	-0.047210492
31	0x3d715cbe	0.058926336
32	0xbc48bf6a	-0.012252668
33	0xbea02803	-0.31280527
34	0x3e509c1a	0.20372048
35	0xbe24d981	-0.16098596
36	0xbe9085a2	-0.28226954
37	0x3cfc6600	0.030810356
38	0xbd03a5e4	-0.032140628
39	0x3e180a49	0.14847673
40	0x3e5fa06d	0.21838541
41	0x3e05e695	0.13076241
42	0xbd95e0af	-0.073182456
43	0x3c7e35d7	0.015515766
44	0x3d455b52	0.048182793
45	0xbe8ddb70	-0.2770648
46	0xbe627c4c	-0.22117728
47	0x3c96e1aa	0.018418152
48	0xbc7665df	-0.015038936
49	0x3e4f98b0	0.2027309
50	0xbe246c3b	-0.16056912
51	0xbe36683a	-0.17813197
52	0xbbcf2850	-0.0063219443
53	0xbd051b20	-0.03249657
54	0x3cfabb9a	0.030607034
55	0x3bed61e1	0.007244334
56	0x3c0e7a21	0.00869611
57	0xbda436a7	-0.080182366
58	0xbdb13249	-0.08652169
59	0xbe29fc93	-0.16600256
60	0x3e3bacda	0.18327656
61	0x3de52ca7	0.111901574
62	0xbe7aadbd	-0.24480338
63	0xbde3a485	-0.11115364
64	0x3e5c07f0	0.21487403
65	0xbb936060	-0.004497573
66	0x3e94ea2a	0.29084903
67	0x39e436cb	0.00043528373
68	0x3e6919f0	0.227638
69	0x3ba68c59	0.0050826487
70	0xbda71f07	-0.08160215
71	0x3dc95f9a	0.09832688
72	0xbd2ef4fb	-0.0427141
73	0xbd974e25	-0.07387952
74	0xbe08adb7	-0.13347517
75	0xbd8adec9	-0.06780774
76	0xbcce7ced	-0.025206054
77	0xbc82666e	-0.015917983
78	0x3e435b97	0.19077908
79	0x3c543901	0.012953044
80	0xbd00cf72	-0.031447835
81	0x3da5764e	0.080792055
82	0x3e2e3a0c	0.1701433
83	0xbe01aeab	-0.12664287
84	0x3dd2df39	0.102964826
85	0x3e184f96	0.1487411
86	0x3d3c04c1	0.04590297
87	0x3e0a08e8	0.1347996
88	0x3e8bf441	0.27334788
89	0x3e85328a	0.2601512
90	0x3df43ede	0.119260535
91	0xbe47107d	-0.19439884
92	0x3dafb150	0.085787416
93	0x3e0ecf97	0.13946377
94	0x3c97b871	0.018520566
95	0x3ddf50e1	0.10904098
96	0xbdb71ad5	-0.08940665
97	0xbd97c583	-0.07410719
98	0x3d467ce5	0.048458952
99	0x3caffafd	0.021481985
100	0xbd0a5671	-0.033773843
101	0xbda552aa	-0.080724075
102	0xbb293ec4	-0.0025824765
103	0x3dd629d4	0.10457197
104	0x3e063c57	0.13108955
105	0x3d43b952	0.047784157
106	0x3aa1556e	0.0012308785
107	0x3e6536d1	0.22384192
108	0xbe933db7	-0.28758022
109	0xbe3ce564	-0.1844688
110	0xbda2d849	-0.07951409
111	0x3d75ddfc	0.060026154
112	0xbd0d8bd7	-0.03455719
113	0x3e151833	0.14560013
114	0xbdbaacd4	-0.091149956
115	0xbd907664	-0.07053831
116	0x3d8a0a37	0.067402296
117	0x3e212107	0.15735255
118	0x3e94b658	0.29045367
119	0xbec10843	-0.37701616
120	0x3e021e9f	0.12706994
121	0xbd962b28	-0.0733245
122	0x3d98346b	0.07431873
123	0xbdacb95f	-0.08433794
124	0xba975dfd	-0.0011548396
125	0x3da1a4cd	0.078927614
126	0x3cdfdc44	0.02732671
127	0x3d8a57b2	0.06755008
128	0x3cc9d5b1	0.024638029
129	0xbc8e3c0a	-0.017362613
130	0x3e392904	0.18082052
131	0xbdadff88	-0.08496004
132	0xbc227a45	-0.009916847
133	0xbe4812a6	-0.19538364
134	0x3eab3e63	0.33446035
135	0xbdd54d7d	-0.1041517
136	0x3e6d505d	0.23175187
137	0x3d6f206c	0.05838053
138	0x3e24eff3	0.16107158
139	0xbdba1bcd	-0.09087334
140	0x3d6c8799	0.057746504
141	0xbe330fa9	-0.17486443
142	0x3ce36b71	0.027761193
143	0xbd85e7b8	-0.065383375
144	0x3db94d30	0.090479255
145	0xbe24659d	-0.16054387
146	0x3e890a42	0.2676564
147	0xbd2f54a2	-0.04280532
148	0x3e82746b	0.25479445
149	0x3d76bdc9	0.060239587
150	0xbd97b9de	-0.07408498
151	0xbd1ad8b9	-0.03780434
152	0x3dc77130	0.09738386
153	0xbd9b1fdb	-0.07574435
154	0xbdc7bf17	-0.09753244
155	0xb9eb93b7	-0.0004493275
156	0xbde29601	-0.11063767
157	0x3d613bf5	0.05498882
158	0x3cb93b52	0.022611294
159	0x3c070e51	0.008243159
160	0xbd784b5a	-0.060618736
161	0x3dac0fd8	0.084014595
162	0xbdfc2e62	-0.12313534
163	0x3ca448a5	0.02005417
164	0x3db149da	0.08656664
165	0xbe29ccf5	-0.16582091
166	0x3d65f4ed	0.056141783
167	0x3d9f1c41	0.07769061
168	0x3e58346c	0.21113747
169	0x3d034fbd	0.032058466
170	0xbe187e8b	-0.14892022
171	0xbc808154	-0.015686668
172	0xbbe4d2b1	-0.006983124
173	0x3d8737fa	0.066024736
174	0xbeae5c5d	-0.34054843
175	0xbe2c6a74	-0.16837484
176	0xbd2d692e	-0.042336635
177	0x3e0f07ba	0.13967791
178	0xbea89409	-0.32925442
179	0xbe0d2143	-0.1378222
180	0xbdc526ce	-0.09626542
181	0xbd2f3afc	-0.04278086
182	0xbd85585e	-0.06510995
183	0x3d6f7d1a	0.058468916
184	0x3e327182	0.17426112
185	0xbe9e1810	-0.30877733
186	0x3e199433	0.1499794
187	0xbe0b38cf	-0.1359589
188	0xbe356484	-0.17714125
189	0x3ea9fca4	0.33200562
190	0xbe73906a	-0.23785558
191	0x3e845865	0.2584869
192	0x3e82e4f9	0.25565317
193	0xbe777f4c	-0.24169654
194	0x3ea68253	0.32521304
195	0xbddadc39	-0.106865354
196	0x3d786959	0.060647342
197	0xbdc04659	-0.09388418
198	0xbd631265	-0.055437464
199	0xbe6d0855	-0.2314771
200	0x3c9e7abd	0.019345636
201	0x3c00a4ca	0.007851789
202	0x3bc323b1	0.0059551825
203	0xbddcdb2b	-0.107839905
204	0xbd9a8546	-0.07544951
205	0xbd96dc6f	-0.07366263
206	0xbcd6b7de	-0.026210722
207	0x3dfabb34	0.122427374
208	0xbd955bb6	-0.07292883
209	0xbc8e48dc	-0.017368726
210	0x3d87c4a0	0.066293
211	0xbeee086f	-0.4649081
212	0x3d332500	0.043736458
213	0xbe3dea0f	-0.18546318
214	0x3c968282	0.018372778
215	0xbd0107ae	-0.031501465
216	0xbd0200cc	-0.03173904
217	0x3d2fd312	0.0429259
218	0xbda692d1	-0.08133472
219	0xbe02c382	-0.12769893
220	0xbe012765	-0.12612684
221	0x3d7c6705	0.061621685
222	0x3e37d10e	0.17950842
223	0xbe1d9cca	-0.15391842
224	0xbd3443b3	-0.044009876
225	0xbdc0fbb5	-0.09423009
226	0x3e05977c	0.13046068
227	0x3d442ef6	0.047896348
228	0xbda2bbd2	-0.0794598
229	0xbdb1b247	-0.08676582
230	0xbd2de66f	-0.042456087
231	0xbde604e7	-0.11231404
232	0x3d058efb	0.03260706
233	0xbcdc312b	-0.026878914
234	0xbe286678	-0.16445339
235	0x3cfbdf45	0.030746112
236	0xbe9845fc	-0.29740894
237	0x3e00348e	0.12520048
238	0x3e0e736e	0.1391122
239	0x3e182e80	0.14861488
240	0x3d683110	0.056687415
241	0x3e2eb8b4	0.17062646
242	0x3de94f89	0.11392123
243	0x3da22964	0.07918051
244	0x3d0eeff2	0.0348968
245	0x3c71e92e	0.014765067
246	0xbc550d2b	-0.013003628
247	0xbddddfe8	-0.10833722
248	0xbe25806a	-0.16162267
249	0xbe682474	-0.22670156
250	0x3d814c14	0.06313339
251	0xbcb7727d	-0.02239346
252	0xbc5b5b71	-0.013388501
253	0x3cfd512b	0.030922493
254	0x3e0ae6d8	0.13564622
255	0xbca6d33d	-0.020364398

layers.1.bias f4 [128]
0	0xbd187eda	-0.03723035
1	0xbd6d40f1	-0.05792326
2	0x3c8a1685	0.016856441
3	0x3d10b48a	0.035328425
4	0x39cb1673	0.00038735903
5	0x3c3eb067	0.011638737
6	0xbd8c4a9f	-0.0685017
7	0x3db8f3a1	0.090308435
8	0xbd063482	-0.03276492
9	0x3decce95	0.1156284
10	0xbd0a5f98	-0.03378257
11	0x3c7f87d1	0.015596346
12	0xbe09dfe8	-0.1346432
13	0xbca105a9	-0.01965602
14	0xbddbbc65	-0.10729293
15	0x3c462ea1	0.012096078
16	0x3d2c89fd	0.042123783
17	0x3ddebd37	0.108759336
18	0x3dbdff02	0.092771545
19	0xbc7550d4	-0.014972884
20	0xbacc9f71	-0.0015611482
21	0x3c28c081	0.010299803
22	0x3d5ca9e9	0.053872976
23	0xbc3c6d54	-0.011500675
24	0x3c9d10f6	0.019173127
25	0xbc05cce6	-0.008166527
26	0x3dec5338	0.1153931
27	0x3cbfa27a	0.023392905
28	0x3dcd4211	0.10022367
29	0x3d817206	0.06320576
30	0xbd8dc461	-0.06922222
31	0xbb3eb97b	-0.0029102254
32	0x3cd42779	0.025897728
33	0x3e0c2cb8	0.13688934
34	0x3cfe99f2	0.031079266
35	0x3d7eb969	0.06218854
36	0x3d61dc43	0.0551417
37	0x3d826be6	0.06368236
38	0xbd96be02	-0.0736046
39	0x3c6ee645	0.014581268
40	0x3dabb1e0	0.08383536
41	0xbd93849e	-0.07203029
42	0x3dc31849	0.095261164
43	0x3e31f381	0.17378046
44	0xbddf7247	-0.109104685
45	0xbda5bd6b	-0.08092769
46	0xbd15eeee	-0.036604814
47	0x3d685aec	0.056727335
48	0xbd7b91ec	-0.06141846
49	0x3c4b798e	0.012419118
50	0xbd73b89a	-0.05950222
51	0xbcc836cd	-0.024440194
52	0xbd7b6f5c	-0.061385497
53	0x3d743d04	0.0596285
54	0xbd8d54ed	-0.06900964
55	0xbce9143d	-0.028452033
56	0xbcf60afe	-0.030034538
57	0xbcc48948	-0.023991242
58	0xbb575c21	-0.003286131
59	0xbd2d6fc9	-0.042342935
60	0x3cbc68a1	0.02299911
61	0x3cb18b8e	0.02167299
62	0x3dcb104d	0.099152185
63	0xbd83e8b3	-0.06440868
64	0x3def70a0	0.116914034
65	0xbd230a79	-0.03980491
66	0xbdad625d	-0.08466027
67	0x3beb3867	0.0071783545
68	0xbd10d17e	-0.035356037
69	0x3d9cb1b2	0.0765108
70	0x3dd45f86	0.10369782
71	0xbe1cf8ef	-0.15329336
72	0xbcf013e4	-0.02930636
73	0xbd3eedd4	-0.04661353
74	0xbd8f51c1	-0.06998015
75	0x3cdd77f9	0.027034746
76	0xbcde24cc	-0.027117155
77	0xbd064e37	-0.032789435
78	0xbc57c494	-0.0131694265
79	0xbde6d537	-0.11271136
80	0x3d633c5b	0.05547748
81	0x3d9b3c14	0.07579818
82	0x3d2c007c	0.04199265
83	0xbd872297	-0.06598394
84	0x3c89f1b5	0.016838888
85	0xbc686b99	-0.0141858095
86	0x3cc87220	0.024468482
87	0xbe02131e	-0.12702605
88	0x3d4a9a39	0.049463484
89	0x3cde17bb	0.027110925
90	0xbdc2afc6	-0.095061824
91	0xbca3db8a	-0.020002145
92	0x3dca4e84	0.09878257
93	0xbd85b1c9	-0.065280505
94	0xbd0145e4	-0.031560794
95	0x3d4cb960	0.049981475
96	0xbd926249	-0.07147653
97	0xbc5f831f	-0.013642102
98	0xba06c7e7	-0.0005141482
99	0xbc900e1d	-0.017584855
100	0xbcb5fa8e	-0.0222142
101	0x3c8c4df0	0.017127007
102	0xbd0ac934	-0.03388329
103	0x3df819ee	0.12114321
104	0x3daf3d74	0.08556643
105	0x3d857593	0.06516566
106	0xbc415aab	-0.011801402
107	0xbd66d210	-0.056352675
108	0x3dfbfdb7	0.12304252
109	0x3d837f07	0.06420713
110	0x3d89942a	0.06717713
111	0x3b82a670	0.003987126
112	0xbdb3014c	-0.08740482
113	0xbdb9b710	-0.090681195
114	0x3ca808aa	0.020511944
115	0xbd7d734b	-0.06187753
116	0x3e459def	0.19298528
117	0x3da73314	0.08164039
118	0xbdc07c67	-0.09398728
119	0xbc800aae	-0.015630092
120	0xbd822b04	-0.06355861
121	0x3d962bb3	0.07332554
122	0x3d70d782	0.058799274
123	0xbe0200c3	-0.12695603
124	0xbd14807d	-0.03625535
125	0x3df69ae1	0.120412596
126	0xbca48643	-0.020083552
127	0xbdbf0238	-0.09326595

layers.3.weight f4 [128, 128]
0	0x3c3a48a6	0.01136986
1	0x3cf90f0e	0.030402686
2	0xbdce54ed	-0.10074792
3	0xbc842bc2	-0.016134147
4	0x3ddb5ab7	0.10710662
5	0x3e0e5f8c	0.13903636
6	0x3d715639	0.05892012
7	0xb916adfb	-0.00014369928
8	0x3daf3070	0.085541606
9	0xbd823962	-0.06358601
10	0xbb92d528	-0.0044809766
11	0x3dafedc7	0.08590274
12	0xbc831dc4	-0.016005404
13	0x3d2e661b	0.042577844
14	0xbd529de0	-0.051420093
15	0xbd988e10	-0.07448971
16	0xbdab80b9	-0.08374161
17	0xbcff2b6c	-0.031148635
18	0xbd8036b3	-0.06260433
19	0x3d52080d	0.05127721
20	0xbc3fb5e9	-0.011701086
21	0xbd760c51	-0.06007034
22	0x3d484af2	0.0488996
23	0xbd35658d	-0.0442863
24	0xbe029585	-0.1275235
25	0xbcc66b02	-0.024220947
26	0x3dc31ce1	0.095269926
27	0x3dc7a2d4	0.09747854
28	0xbd9033a5	-0.070411004
29	0xbd0ce44a	-0.0343974
30	0x3c922d1d	0.017843777
31	0xbbdfc748	-0.006829176
32	0x3c40e980	0.011774421
33	0x3d5d7ed3	0.054076027
34	0x3d897b1d	0.06712935
35	0xb96cd3a8	-0.00022585562
36	0xbd7d02f5	-0.0617704
37	0xbced41d4	-0.028962053
38	0xbe4c48e8	-0.19949687
39	0x3cab3571	0.020899506
40	0x3daeb557	0.085306816
41	0x3d3ef3da	0.046619274
42	0x3da1deaf	0.07903802
43	0x3cadf135	0.02123318
44	0xbc467418	-0.01211264
45	0x3de09d5c	0.10967514
46	0x3de373df	0.11106085
47	0xbd9e6117	-0.07733362
48	0xbd2bcba6	-0.04194226
49	0x3d10c085	0.03533985
50	0x3d9d27f5	0.07673637
51	0x3da963b6	0.082709715
52	0x3d590f9f	0.052993413
53	0xbd015ea3	-0.031584393
54	0xbda9ac42	-0.08284809
55	0xbce094f1	-0.02741477
56	0x3d8e3bc2	0.06944992
57	0x3afc575c	0.0019252109
58	0x3cb495f9	0.022044169
59	0x3d5652c7	0.052325036
60	0x3c88ed03	0.016714578
61	0xbda1eaa3	-0.079060815
62	0x3caf379d	0.021388823
63	0x3d5c7003	0.05381776
64	0xbb6bff10	-0.0036010183
65	0xbc1b244c	-0.009469103
66	0x3be8f7ee	0.0071096336
67	0x3d9a8eef	0.07546794
68	0x3d78ce3d	0.06074356
69	0x3db9a670	0.090649486
70	0x3da58ed6	0.080838844
71	0x3cee9b26	0.029126715
72	0xbd52fdc3	-0.051511537
73	0x3d873d89	0.06603534
74	0xbb09f82b	-0.002105246
75	0x3d53a4a8	0.0516707
76	0x3d0a9e43	0.033842336
77	0x3ddad453	0.10685029
78	0xbd75146b	-0.059833925
79	0xbd2013a7	-0.039081242
80	0x3daa2ab6	0.08308928
81	0x3d52f7df	0.05150592
82	0xbd212c5e	-0.039348952
83	0xba88935e	-0.0010419895
84	0xbd9d5e88	-0.07684046
85	0xbd6097a5	-0.05483212
86	0xbdbb3228	-0.09140426
87	0x3d3761a5	0.044770855
88	0x3cdf9e05	0.02729703
89	0xbd04fd5e	-0.032468192
90	0x37f2dec9	2.895239e-05
91	0xbe6a26ef	-0.22866414
92	0x3a15017d	0.00056841207
93	0x3d2cb3bd	0.0421636
94	0x3da50cfe	0.08059119
95	0xbd17853b	-0.036992293
96	0xbd4bef74	-0.049788907
97	0x3d6ffc0e	0.058589987
98	0xbdb76ab5	-0.089558996
99	0xbb8dc3b1	-0.0043263067
100	0xbcbecc13	-0.02329067
101	0x3c4dc41e	0.012558965
102	0x3dcf7e6d	0.10131536
103	0xbe0d3ba3	-0.13792281
104	0x3c32f949	0.010923692
105	0x3d27c9cb	0.04096393
106	0xbc310104	-0.010803465
107	0xbd9ffd26	-0.07811956
108	0x3df30ad6	0.11867301
109	0x3e19b953	0.15012102
110	0xbd861933	-0.06547775
111	0x3d46b596	0.048513018
112	0x3dc2803f	0.09497117
113	0x3bb1db3b	0.0054277456
114	0x3db5109a	0.08841057
115	0xbd0bf2a1	-0.034166936
116	0x3d568e59	0.052381847
117	0x3d692e8c	0.056929156
118	0x3cd29688	0.025706545
119	0xbc569cb7	-0.013098887
120	0xbd02a650	-0.03189689
121	0x3d1008b7	0.03516456
122	0x3ce6b8de	0.028164323
123	0xbd2adf59	-0.041716907
124	0x3d0d2d11	0.034466807
125	0xbc846aae	-0.01616415
126	0xbe0ebfe9	-0.13940395
127	0x3da1c0f1	0.07898129
128	0xbd8ea271	-0.06964577
129	0x380f6fd9	3.4198023e-05
130	0x3c94c0c0	0.018158317
131	0x3e00d06d	0.12579508
132	0xbbd1390f	-0.0063849757
133	0x3cd097ee	0.02546307
134	0xbca80a4c	-0.020512722
135	0x3d7de21c	0.061983213
136	0xbd652791	-0.055945937
137	0xbdee1f16	-0.11627023
138	0x3d053b7c	0.03252743
139	0x3c30008d	0.010742319
140	0xbbd51a42	-0.0065033743
141	0x3cd13813	0.025539434
142	0xbcd7b6c9	-0.026332276
143	0xbd38128e	-0.04493957
144	0xbd0ff41b	-0.035144906
145	0x3c4df320	0.012570173
146	0xbcf0aa49	-0.029378073
147	0x3d9823a3	0.07428672
148	0xbd2dce82	-0.04243327
149	0x3bf846b4	0.007576788
150	0x3d469ff5	0.04849239
151	0x3d8372e5	0.06418399
152	0xbd93ee7a	-0.0722322
153	0xbcabc59c	-0.02096825
154	0xbc973dc7	-0.018462075
155	0xbce25f05	-0.0276332
156	0x3d554662	0.052069075
157	0xbd88584e	-0.06657468
158	0x3d78a2b4	0.06070204
159	0xbdcf65b4	-0.1012682
160	0x3d23fb94	0.040034845
161	0xbb6e39b6	-0.0036350316
162	0x3d08d62c	0.033407375
163	0xbcdd5fcd	-0.02702322
164	0xbd721ee3	-0.059111487
165	0x3ccfc61d	0.025363022
166	0x3c941b93	0.018079555
167	0x3d0d834c	0.034549043
168	0xbd44392f	-0.047906097
169	0x3d57e580	0.052709103
170	0x3d11e48b	0.035618346
171	0xbd2a13d6	-0.041522823
172	0xbd55d4a9	-0.05220476
173	0x3dcf89b7	0.10133689
174	0xbc4a3517	-0.012341759
175	0x3c294c52	0.010333138
176	0xbd8f5539	-0.06998677
177	0xbd4809c3	-0.048837435
178	0xbcf39fbc	-0.029739253
179	0xbd2906c2	-0.04126621
180	0xbcbd7c93	-0.02313069
181	0xbdf1cc5f	-0.11806559
182	0x3cb62c04	0.022237785
183	0x3c8721a7	0.016495539
184	0x3d7c5b1e	0.061610334
185	0x3d7bf183	0.06150962
186	0x3d8fceb2	0.07021846
187	0x3d896556	0.067087814
188	0x3cbc7998	0.0230072
189	0xbc91420e	-0.017731693
190	0xbd289883	-0.04116107
191	0x3d4282b1	0.04748792
192	0x3cf12385	0.029435882
193	0x3d014922	0.031563886
194	0xbc689a3a	-0.014196927
195	0x3cd9897e	0.02655482
196	0x3d611595	0.054952223
197	0x3dc524b2	0.0962614
198	0x3d015f58	0.031585068
199	0xbd5310cc	-0.05152969
200	0x3dad1df0	0.08452976
201	0x3cac9507	0.021067156
202	0xbd3bcde8	-0.045850664
203	0xbb9e4dd9	-0.0048310575
204	0x3ca2f6b1	0.019893022
205	0x3d46e4ae	0.04855793
206	0x3d30f2b5	0.043200213
207	0xbdba1054	-0.090851456
208	0x3b6aafe8	0.0035810415
209	0xbd9638ce	-0.073350534
210	0xbc5f5a3d	-0.013632354
211	0xbd3749cb	-0.04474811
212	0xbd9b4f09	-0.07583434
213	0xbd93b677	-0.07212537
214	0x3ca4aa7a	0.02010082
215	0x3cf33c9b	0.029691985
216	0xbd6f7421	-0.05846036
217	0xbd89c302	-0.06726648
218	0xbda4fe6f	-0.08056342
219	0xbe014972	-0.12625673
220	0x3d456464	0.048191443
221	0x3daaeca2	0.083459154
222	0x3d0b07b4	0.033942893
223	0xbdb76945	-0.089556254
224	0x3d85da0d	0.065357305
225	0xbc14cece	-0.009082509
226	0x3d89d20b	0.06729516
227	0x3c2c1300	0.010502577
228	0xbcdf220d	-0.027237916
229	0xbd46f543	-0.048573744
230	0xbd0b5669	-0.034017954
231	0x3ca27c69	0.019834714
232	0xbc19bf71	-0.009384022
233	0x3d5815dc	0.05275522
234	0x3df2a7ee	0.11848436
235	0x3ca4c902	0.02011538
236	0x3d123a7a	0.0357003
237	0x3d564b30	0.0523178
238	0x3e0251e3	0.1272655
239	0xbd2ab2b3	-0.041674327
240	0x3d1b4baf	0.037913974
241	0x3d02e43a	0.031955935
242	0xbd02cda8	-0.03193441
243	0x3d5aec53	0.053448033
244	0x3cb1909f	0.021675406
245	0xbd2471c4	-0.040147558
246	0xbdaaae4b	-0.08334025
247	0x3d5210e6	0.051285647
248	0xbdf77bc7	-0.120841555
249	0x3da70ed7	0.08157127
250	0xbd4c419d	-0.04986726
251	0xbcde36c2	-0.02712572
252	0xbdb34437	-0.08753245
253	0xbd10e6ed	-0.035376478
254	0x3c37c457	0.011216245
255	0xbcdec375	-0.02719281

layers.3.bias f4 [128]
0	0xbd883f6f	-0.06652724
1	0xbccb3352	-0.024804745
2	0x3cf84ea0	0.030310929
3	0x3cf5af1b	0.029990723
4	0x3d592726	0.05301585
5	0x3cb7f7ef	0.022457091
6	0x3d5f303c	0.05448936
7	0x3c68251d	0.014169005
8	0xbdac7cf4	-0.084222704
9	0xbd9caa39	-0.07649655
10	0xbd0f34db	-0.034962516
11	0x3ccb62ea	0.02482744
12	0x3c84d06c	0.016212665
13	0xbc19e823	-0.009393725
14	0x3a9519c2	0.0011375474
15	0x3daa9d82	0.083308235
16	0xbcad62cb	-0.021165272
17	0x3c8f8d43	0.017523414
18	0x3c1d514b	0.009601901
19	0xbd7698ba	-0.060204245
20	0x3d8da031	0.0691532
21	0x3d38ba19	0.04509935
22	0xbe42d1c0	-0.19025326
23	0xbd0de330	-0.03464049
24	0xbc991509	-0.018686788
25	0xbc0adfe0	-0.0084762275
26	0x3cf6ad79	0.030112015
27	0x3d7cd1a4	0.061723366
28	0xbcf2333b	-0.029565444
29	0x3d5d889b	0.054085355
30	0xbe86b357	-0.263087
31	0x3d27a796	0.040931307
32	0xbd250bd7	-0.040294494
33	0xbd4cf708	-0.050040275
34	0x3bb84e15	0.0056245425
35	0xbd19aa92	-0.037516184
36	0xbd924b29	-0.07143242
37	0xbc70125a	-0.014652813
38	0xba387ad9	-0.00070373487
39	0x3e5e9323	0.21735816
40	0x3b825a69	0.003978063
41	0x3c3cc597	0.011521718
42	0x3da629d5	0.081134476
43	0x3d805f20	0.06268144
44	0xbcbe38d6	-0.02322046
45	0x3be19811	0.006884583
46	0xbdb12c6b	-0.0865105
47	0xbe643d60	-0.22289038
48	0x3e1105f0	0.14162421
49	0x3c481476	0.0122119095
50	0x3b5ea6cb	0.0033973928
51	0x3dbede9f	0.09319805
52	0xbd95be22	-0.073116556
53	0xbbc5e28c	-0.0060389694
54	0x3d97b5c7	0.07407718
55	0x3d8db0a8	0.0691846
56	0x3d387c3b	0.04504035
57	0x3c2cb29e	0.0105406325
58	0xbcee0921	-0.029057087
59	0x3d9d66f0	0.076856494
60	0x3cab5fae	0.020919647
61	0xbd2a4cd0	-0.04157716
62	0x3dc5c503	0.09656718
63	0xbe25f463	-0.16206507
64	0xbcad0cc8	-0.021124259
65	0x3c1c66c2	0.009545984
66	0xbcb76d40	-0.022390962
67	0xbe3a0a6f	-0.18168043
68	0x3d59550f	0.053059634
69	0xbdba491b	-0.09095975
70	0x3caaf43e	0.020868417
71	0xbd2577e6	-0.040397547
72	0x3d8ec74d	0.06971607
73	0xbda0baed	-0.07848153
74	0xbcb89d38	-0.022535905
75	0xbd7747d0	-0.06037122
76	0xbdabd098	-0.083893955
77	0x3d8b2482	0.06794073
78	0xbc881eac	-0.016616188
79	0xbdae771f	-0.08518814
80	0x3c9df052	0.019279633
81	0x3e270dc1	0.1631384
82	0xbdd6248a	-0.10456188
83	0xbcaa4d36	-0.02078877
84	0xbd0c2ff8	-0.034225434
85	0xbe1e7673	-0.15474872
86	0x3b4f788b	0.0031657543
87	0x3b9ae937	0.0047275084
88	0x3cdfb439	0.027307617
89	0x3dc64716	0.09681527
90	0x3c88e104	0.016708858
91	0xbd20d792	-0.039268084
92	0x3e35d7b6	0.17758068
93	0xbc9c8393	-0.019105708
94	0xbd5eca03	-0.054391872
95	0x3dd11276	0.10208599
96	0x3affb1ef	0.0019507984
97	0xbe0beec1	-0.13665296
98	0x3d635920	0.055504918
99	0xbaa8008b	-0.0012817545
100	0x3b742f35	0.0037259583
101	0x3bae3ba1	0.005317167
102	0xbd34ef09	-0.044173274
103	0xbe0b338c	-0.13593882
104	0xbc37d36e	-0.011219842
105	0xbc0eede9	-0.008723714
106	0x3bddd010	0.0067691877
107	0xbd4fcaf5	-0.050730664
108	0x3daacde3	0.08340051
109	0xbd62a323	-0.05533136
110	0xbd962f27	-0.07333212
111	0x3c2550a9	0.010090032
112	0x3ca79df9	0.02046107
113	0xbc821edb	-0.015883854
114	0x3c9919c0	0.018689036
115	0x3c9b7f73	0.018981671
116	0xbe32ca7a	-0.17460051
117	0x3d5779dc	0.05260645
118	0x37e25be9	2.6984098e-05
119	0xbc8cb29d	-0.017175013
120	0xbdbb20e9	-0.091371365
121	0xbe06d1d3	-0.13165979
122	0x3e4325f6	0.1905745
123	0xbd9e37b5	-0.07725469
124	0xbe15029e	-0.1455178
125	0x3c8150d5	0.015785614
126	0xbd628baa	-0.055308975
127	0x3c84ab88	0.016195074

layers.5.weight f4 [2, 128]
0	0xb9b3ef31	-0.00034319752
1	0x3b88a4d5	0.00417004
2	0xb9ab41d5	-0.0003266471
3	0x3ad2963d	0.0016066503
4	0x3c2ccd55	0.010547002
5	0x3d9c5bf0	0.07634723
6	0xbc3526b7	-0.011056594
7	0xb8cc1a80	-9.732414e-05
8	0xbdd18a93	-0.10231509
9	0x3c741ec8	0.014899917
10	0x3ad3c99c	0.0016158107
11	0xbd19a431	-0.0375101
12	0x3d772566	0.0603384
13	0xba5ceb47	-0.0008427393
14	0x39bb65b8	0.00035743206
15	0xbb82c5ba	-0.003990856
16	0xbbdc2e6e	-0.006719402
17	0xba478df7	-0.0007612402
18	0xb8b9cf5a	-8.86011e-05
19	0x3b01b00c	0.001978877
20	0x3b69b2c4	0.003565953
21	0x3b0903ff	0.0020906923
22	0xbd9628b2	-0.07331981
23	0xbaf53e8c	-0.0018710657
24	0xba60fcd9	-0.0008582599
25	0x3b39598f	0.002828214
26	0xbd33c576	-0.043889485
27	0xbb009c23	-0.0019624315
28	0x3ba0d2cf	0.004907943
29	0x3c0e12ab	0.008671443
30	0xbc8797e9	-0.016551929
31	0xbaae9a31	-0.0013321099
32	0xbb3eadcc	-0.002909529
33	0xbab4d103	-0.00137952
34	0x3abd3c9a	0.0014437616
35	0x3aa5cb38	0.0012649065
36	0x3b9f9945	0.004870566
37	0x3b5fc696	0.0034145466
38	0xbabb9004	-0.0014309888
39	0x3bffd1d2	0.007806995
40	0xbd7183ea	-0.058963694
41	0xbb593e6a	-0.0033148774
42	0xb9cec0bb	-0.00039434977
43	0xba4f04a3	-0.0007897114
44	0x3bbedda6	0.0058247624
45	0x3b80b744	0.003928097
46	0x3b8360e1	0.0040093516
47	0xbd017e69	-0.031614695
48	0xbd432993	-0.04764707
49	0xbafde9e4	-0.0019372073
50	0x3acef7c9	0.0015790398
51	0x3b5c32a8	0.003359953
52	0xbb21a91a	-0.0024667443
53	0xbcc8dfae	-0.024520721
54	0x3b1f2538	0.0024283659
55	0xbc21d199	-0.009876632
56	0x3afa81cb	0.0019112168
57	0xb9f7a860	-0.0004723696
58	0x3d808c57	0.06276768
59	0xbba03b0a	-0.0048898505
60	0x3d8ad277	0.06778424
61	0xba554da0	-0.0008136872
62	0xbd28a003	-0.041168224
63	0xbc864a0b	-0.016392728
64	0x3d77e36d	0.060519625
65	0xba6d3758	-0.00090490794
66	0x3c2f34ac	0.01069371
67	0x3c8cec55	0.017202536
68	0xbd3b701e	-0.04576122
69	0xbdc3c03c	-0.0955815
70	0x3cc10360	0.02356118
71	0x3ceed0ab	0.029152235
72	0xbb642815	-0.003481393
73	0x3d7d21bf	0.06179976
74	0x3c84e0f3	0.016220545
75	0x3b03dd28	0.0020120833
76	0x3a33f073	0.0006864138
77	0x3a585a91	0.00082532415
78	0x3aff2858	0.001946698
79	0xbb4b3a91	-0.003101025
80	0x3a33c7ef	0.00068581005
81	0xbcb087b2	-0.02154908
82	0xbd48dfe7	-0.049041655
83	0xbb4345e8	-0.0029796306
84	0x3a77a051	0.0009446191
85	0x3d1810d1	0.037125412
86	0x3a8c9f6d	0.0010728665
87	0xb95c357c	-0.0002100076
88	0x3919f743	0.00014683329
89	0x3d4004a3	0.046879422
90	0x3a4efb09	0.00078956835
91	0x3dc31b86	0.09526734
92	0x3d9f95f2	0.07792272
93	0x3aab12c6	0.001305186
94	0x3d197db4	0.037473395
95	0xbb026947	-0.0019899176
96	0xbb8c0ab5	-0.0042737373
97	0x3d645b0e	0.0557509
98	0xbd233851	-0.03984863
99	0x397b45a2	0.00023963166
100	0x3d03fde6	0.03222456
101	0xbb836f60	-0.0040110797
102	0x3db7f2ad	0.089818336
103	0x39ff7164	0.00048721873
104	0xbaea7e7a	-0.0017890476
105	0xbd81dd57	-0.06341045
106	0x3b117871	0.0022197033
107	0xbb2a09a4	-0.0025945688
108	0xbca96167	-0.020676328
109	0x3adf9c0e	0.0017060058
110	0xbddba03a	-0.1072392
111	0x3aaaca00	0.0013030171
112	0xbb83e603	-0.0040252223
113	0xbd16cd60	-0.036816955
114	0x3da6bb61	0.081412084
115	0xba3e9583	-0.0007270204
116	0xbdb57420	-0.0886004
117	0xbd632c18	-0.055461973
118	0xba5ba4e5	-0.0008378758
119	0xbab56f8a	-0.0013842445
120	0x3a2ae34f	0.0006518857
121	0x3c2257b6	0.009908607
122	0xbbd35170	-0.006448917
123	0xbb38602a	-0.002813349
124	0xbd925ef1	-0.07147015
125	0x3dc8605d	0.09784005
126	0xbb89a75a	-0.004200858
127	0xba799035	-0.0009520085
128	0xbad884ce	-0.0016519071
129	0xb9a3269d	-0.00031118552
130	0x39b682a0	0.00034811068
131	0x3bb6fe24	0.005584495
132	0xbc1817ce	-0.009283019
133	0xbdaa34f6	-0.08310883
134	0x3aa33190	0.0012450684
135	0xbbc8596f	-0.006114177
136	0x3cce86c1	0.02521074
137	0x3cdfb8fb	0.027309885
138	0x3b3c3fe8	0.0028724615
139	0x3bac8840	0.0052652657
140	0x3a3e50b4	0.00072599505
141	0x3bb0f25f	0.0053999866
142	0x3b4cb7fc	0.0031237593
143	0xbbc67174	-0.006056005
144	0xbbf2fc00	-0.0074152946
145	0x38956978	7.124519e-05
146	0xbd4c16cc	-0.04982643
147	0x3b13a26e	0.0022527236
148	0xbb38435c	-0.0028116321
149	0xbab2366a	-0.0013596539
150	0x3c86bc4d	0.01644721
151	0xbb93e326	-0.004513162
152	0xbaf510fc	-0.0018697078
153	0xbd9e8680	-0.077404976
154	0x3cffd134	0.031227686
155	0xbab79829	-0.0014007139
156	0xbba93790	-0.0051640943
157	0xbdc1e72c	-0.09467921
158	0x3e91fde6	0.28514022
159	0xbbb915e5	-0.005648362
160	0x3babea2d	0.005246422
161	0x39fc53c0	0.00048127584
162	0xbabb451f	-0.0014287567
163	0x3b2d991b	0.0026488963
164	0x3c482437	0.012215666
165	0x3cef8037	0.029235942
166	0xbb029526	-0.0019925325
167	0x3e3ea706	0.18618402
168	0x3c82f083	0.015983826
169	0xba447390	-0.0007494027
170	0x3adb0343	0.0016709346
171	0xbb65604e	-0.003500003
172	0xbb130d43	-0.0022438325
173	0xbb3edc3e	-0.0029122974
174	0xbb7d6545	-0.0038665098
175	0xbd16ac3a	-0.03678534
176	0xbaee350d	-0.0018173769
177	0x3be8ab00	0.007100463
178	0x3bfa5abe	0.007640212
179	0xbb56ea2f	-0.0032793393
180	0x3ac5e6eb	0.0015098726
181	0xbbab6be8	-0.0052313693
182	0xbc5f3cae	-0.013625307
183	0xbbcb4536	-0.006203319
184	0xbb7f2450	-0.0038931556
185	0x3b82b978	0.0039893948
186	0x3d1f5e92	0.03890855
187	0x3bb6a16e	0.005573443
188	0xbc762afe	-0.015024899
189	0x3c074129	0.0082552815
190	0xbdc9bea3	-0.09850814
191	0x3bc273e2	0.0059342245
192	0x3cce35b0	0.025172085
193	0xbb38093d	-0.0028081678
194	0x3c8922c9	0.01674022
195	0xbb332638	-0.0027336013
196	0x3bd40c12	0.0064711655
197	0x3c158faf	0.009128495
198	0x3d3fa3b4	0.04678698
199	0xbd98e52f	-0.07465588
200	0x3c0341ec	0.0080113225
201	0xba03f1e0	-0.00050332956
202	0x3e009f14	0.12560683
203	0xbc1451fb	-0.009052749
204	0x3a7ea323	0.00097136403
205	0x3b4a5fde	0.0030879895
206	0x3ba6e092	0.005092689
207	0x3b881aa1	0.004153565
208	0xbb7b834b	-0.0038377817
209	0xbdae571f	-0.08512711
210	0xbdb19075	-0.08670131
211	0x3aa38c01	0.0012477638
212	0x3b7dfb4a	0.0038754516
213	0x3dc238ad	0.09483466
214	0xbb54cc2b	-0.0032470326
215	0x3bb17c83	0.0054164543
216	0x3ab52f24	0.0013823253
217	0x3d94f44b	0.07273158
218	0x3bfb4e6c	0.0076692607
219	0x3cf959ff	0.030438421
220	0x3d34e6cc	0.044165418
221	0xbb5fbe29	-0.0034140444
222	0xbc13d798	-0.0090235695
223	0x3b85899e	0.004075243
224	0x3b39aca0	0.0028331652
225	0xbb7609cd	-0.0037542463
226	0x3ca19949	0.019726412
227	0xbaec3055	-0.0018019775
228	0xbd48ee62	-0.049055465
229	0x3bcf080f	0.0063180993
230	0xbdd2593d	-0.10270927
231	0xba9d5492	-0.0012003353
232	0xbb503520	-0.0031769946
233	0x3ccacec2	0.024756793
234	0x3b8bd734	0.0042675976
235	0xbb486855	-0.0030579765
236	0x3b78de52	0.003797431
237	0x3b7dd67e	0.0038732584
238	0xbd2efb87	-0.042720344
239	0xbafa9aab	-0.0019119581
240	0x3b2aaff1	0.002604481
241	0x3ce3bb5b	0.027799299
242	0xbcaa7832	-0.020809267
243	0x3ba96b60	0.005170271
244	0x3caf8c0f	0.02142909
245	0x3b9199fb	0.0044434047
246	0xbbc03a74	-0.005866343
247	0xbc82ac2e	-0.015951242
248	0x3bbd8744	0.005783947
249	0x3a1fa188	0.00060894387
250	0x3e40ebd0	0.18839955
251	0x39e9e449	0.0004461131
252	0xbd12bcd6	-0.03582462
253	0xbcbf4bc3	-0.023351556
254	0x3bbe7af5	0.0058129975
255	0x3d8873f9	0.06662745

layers.5.bias f4 [2]
0	0x3dc0fc76	0.09423153
1	0xba780a1e	-0.0009461957
