model_zoo/GAIL/LunarLanderContinuous-v2/disc_2471552.pth (torch, 141632 bytes, 7 tensors)

layers.0.weight f4 [128, 10]
000000 67 de 90 3e 9a c1 3f 3e 99 70 1c bf 04 ad 13 3f
       0.2829468 0.18726197 -0.6110931 0.57685876
000010 5c 42 07 bf 4f d1 81 be 3b 7c 28 3f a6 0f 12 be
       -0.5283563 -0.25355002 0.6581456 -0.14263782
000020 2d 19 c2 bd 59 ec 1d 3f b7 9b 66 3e c1 43 e7 bc
       -0.09477458 0.6168876 0.22520338 -0.02823055
000030 e8 ca 55 bf 49 1c 3e bf 12 e2 63 3f c9 a5 49 3f
       -0.83512735 -0.7426191 0.8901683 0.78768593
000040 13 26 32 3e 70 f1 65 3e 80 5d d9 bd a2 bc 55 bf
       0.17397337 0.22455382 -0.10613537 -0.83490956
000050 c2 38 99 be 13 1d a7 be 78 50 20 3f d5 85 77 bf
       -0.29926115 -0.3263937 0.62622786 -0.96688586
000060 dd 7d 91 3e 5f 28 73 be ff 07 5f be 98 75 14 3e
       0.2841634 -0.23745869 -0.21780394 0.14497983
000070 79 f6 e9 be 46 02 47 bd 13 1e 3f 3f b3 60 b7 bd
       -0.45695856 -0.048586152 0.74655265 -0.08953991
000080 f7 db 03 3f f2 b1 85 3e 30 35 30 bf 25 ee e1 bf
       0.51507515 0.26112324 -0.6883116 -1.7650801
000090 70 c1 41 3c df ca ba be 15 31 c1 be d2 d6 da 3e
       0.011825904 -0.36482903 -0.3773276 0.4274202
0000a0 42 0b bf 3e 1b 20 9c 3d 6c 69 62 bf 6f 2c 20 bd
       0.37313277 0.07623311 -0.8844211 -0.039104875
0000b0 a2 a3 06 3e 45 5f 25 40 1e 7b 48 3d 38 92 f1 bd
       0.13148358 2.5839398 0.04894554 -0.11795467
0000c0 1f a9 00 bf 75 1f 6d 3f f8 4c 06 bf af e5 58 bd
       -0.5025806 0.92626125 -0.52461195 -0.05295342
0000d0 86 e0 20 bd 55 9b 87 be d9 c5 5a 3f 59 04 89 3f
       -0.039276622 -0.26485696 0.8545814 1.0704452
0000e0 69 73 5b bb fe 09 f8 3d fc 38 8a be 5b 72 36 3f
       -0.0033485538 0.12111281 -0.269966 0.7126824
0000f0 aa 30 97 3f 99 72 07 3f bf 99 51 3f 58 04 ca be
       1.1811726 0.5290924 0.8187522 -0.3945644
000100 5c 0f 5e 3e 3a 14 b8 be 0d 0c 4b be 33 05 80 3d
       0.21685547 -0.35952932 -0.19828816 0.06250992
000110 fd 68 1f be 57 20 26 3f 8f 3d 12 bf 31 ac 45 3f
       -0.15567394 0.64893097 -0.5712518 0.7721587
000120 76 1c f7 be 78 5b ac 3e 97 d3 35 be 3d fc 76 bf
       -0.482639 0.33663535 -0.17756496 -0.96478635
000130 1b 0e d9 3e a2 2f 67 3e 9b 55 1f 3f 81 f5 a1 3e
       0.42393574 0.22576764 0.6224 0.31632617
000140 3a 5a 3a 3f bc 35 6b 3e e4 b3 9a 3f ca 7e 3d be
       0.72793925 0.22969717 1.2086148 -0.18505397
000150 76 33 50 bf b2 41 84 bf 47 46 39 3d e8 ac 4d be
       -0.81328523 -1.0332549 0.045233037 -0.2008549
000160 dc 9d e8 be 7a 67 0c 3f 09 f0 e3 be f5 00 45 3f
       -0.45432937 0.5484539 -0.4451907 0.76954585
000170 95 c5 6e be 59 9e 23 3f 35 75 9d 3d 44 b2 4d 3f
       -0.23317559 0.63913494 0.07688371 0.80350137
000180 4c 20 c9 3e 26 c5 fb bd ed 1c a5 be be cd 76 bf
       0.39282453 -0.122934625 -0.3224863 -0.9640769
000190 f9 61 42 bf 1e 06 e7 be fe 0d 80 bf 8e 34 52 bb
       -0.75930744 -0.45121855 -1.000427 -0.0032074782
0001a0 88 33 32 3d 6c b5 3b 3f 4c 3b a9 3d b9 c5 7f bd
       0.043506175 0.733237 0.08263263 -0.062444422
0001b0 8f e7 96 3e b8 8a 6d bf 0b 20 cb 3e 35 70 06 be
       0.2947354 -0.92789793 0.39672884 -0.13128741
0001c0 d0 4b 59 3f e4 d8 d7 3b 39 99 40 bf 45 5d 90 bf
       0.84881306 0.0065871347 -0.752338 -1.1278464
0001d0 51 e4 22 3e 08 c6 48 be bf 10 31 bf 0b d2 5c 3f
       0.15907408 -0.19606793 -0.6916618 0.86258
0001e0 20 4e 82 be 3a 0f 52 3e ec 95 fe be ac 4f 58 3c
       -0.2545023 0.20513621 -0.49723756 0.013202589
0001f0 bb cc 06 3f 07 67 ae 3f 01 02 41 3e 9d c9 93 3d
       0.52656144 1.3625191 0.1884842 0.07216189
000200 98 30 69 3f 65 f8 85 3e 8b e6 49 3e 07 18 3b be
       0.91089773 0.26166072 0.19716851 -0.18270884
000210 dd 51 1d bf 8d 79 46 be 73 da 7d 3f 4b 48 e9 3f
       -0.6145304 -0.19382305 0.9916145 1.8225187
000220 79 d2 b1 3e c2 20 56 bd cc 17 9d 3e 9a 41 0c bf
       0.3473089 -0.052277334 0.30682218 -0.547876
000230 e0 11 1e bf cb 24 0f bf 7f 88 2b bf 0e 40 b0 3e
       -0.61746025 -0.55915517 -0.6700515 0.3442387
000240 0d 13 22 bf 33 af df bc 17 49 9d be ae 52 6c be
       -0.6331032 -0.027305221 -0.30719826 -0.23078415
000250 50 31 8b be 15 00 53 bf 33 ad 60 3f 8b f1 da 3e
       -0.2718606 -0.82422 0.8776428 0.42762408
000260 b5 39 06 3f b5 5e b5 3e ea 47 60 bf 68 9f 02 c0
       0.52431804 0.35423818 -0.8760973 -2.0409794
000270 d2 f6 ce 3e 60 58 fc 3e 9d 6a fc 3e c3 53 5c bf
       0.40422684 0.49286175 0.4930009 -0.8606531
000280 1e dd 68 3e ee 5c 79 3e 7e 83 60 bf a3 fc 98 3d
       0.227406 0.24351856 -0.8770064 0.07470062
000290 d5 d8 19 bf e1 bd cb 3e e6 15 2d be fe 8d 21 3e
       -0.60096484 0.39793304 -0.16902885 0.15776822
0002a0 09 98 63 bc 36 95 54 3f 7c f3 18 be 8f cb 14 3f
       -0.0138912285 0.8304018 -0.14936632 0.58123106
0002b0 ec cc 33 3f 05 23 70 3f 73 db fc bd e9 e4 43 bf
       0.7023456 0.93803436 -0.12346544 -0.76521164
0002c0 8d f1 26 bd 43 82 83 3e a2 85 7c be b6 bc f4 be
       -0.040757705 0.2568532 -0.24660352 -0.47800225
0002d0 83 bf 58 be eb 61 df be 19 2b 76 bf 31 ab e8 bc
       -0.21166806 -0.43629393 -0.9615951 -0.028401943
0002e0 d5 f6 43 be 96 25 0c 40 91 39 2e 3c 62 70 3f be
       -0.19137128 2.189794 0.010633842 -0.18695214
0002f0 df b9 b7 bd 8d 50 bd 3f 84 f5 f3 be 07 97 61 be
       -0.08970999 1.4790207 -0.4764825 -0.22030269
000300 a9 45 a3 be 55 55 50 bf 8e 3b 04 bf 0d f7 38 bf
       -0.31889084 -0.81380206 -0.51653373 -0.7225197
000310 da b3 8a be ae 53 95 be d0 56 05 be eb 74 97 bd
       -0.2709034 -0.29165405 -0.13021398 -0.07395347
000320 36 d8 7e 3f c6 97 5d 3e 66 cb 71 3f 33 80 8d 3e
       0.9954866 0.21639928 0.94450986 0.2763687
000330 7e 09 83 bf 56 a1 b9 be 27 0f 90 be e6 82 a0 bd
       -1.0237272 -0.36255902 -0.2813656 -0.07837467
000340 15 eb fb 3e c2 79 be 3e a0 5f 76 be fa 6b d4 be
       0.4920279 0.3720227 -0.24059916 -0.4148863
000350 72 54 9a 3e e0 17 05 3f ab 28 1c bf e8 24 6d bf
       0.30142552 0.51989555 -0.60999554 -0.9263444
000360 28 f6 9a 3d 7f 1b 94 3d e1 1f c2 bd 2b 77 b9 be
       0.07566482 0.07231807 -0.09478737 -0.3622373
000370 77 d4 76 bf 2b 8a 14 be 3a b5 b2 bd 6f 33 c2 bd
       -0.96417946 -0.14505832 -0.087259725 -0.094824664
000380 f7 00 3f 3f f0 18 32 be 2b 3b 9b 3c ad 6d 80 bd
       0.7461085 -0.17392325 0.018949112 -0.06270919
000390 ce 32 9a be 25 6b 22 3f d3 9a 0a bf 48 27 42 3e
       -0.30116886 0.6344474 -0.54142493 0.18960297
0003a0 19 94 8c be d0 9e 29 be d8 87 82 3f af c0 c8 3f
       -0.2745674 -0.16564488 1.0197706 1.5683802
0003b0 2a 5c 64 3e 75 1a 7c 3e 48 73 31 3e 51 d6 b8 be
       0.22300783 0.24619468 0.17329133 -0.3610101
0003c0 70 99 46 be 96 8f b9 bd fb 84 95 be 07 a3 ce bd
       -0.1939447 -0.0906059 -0.2920302 -0.10089689
0003d0 1b 74 4b 3f 04 df 2d 3f aa c9 90 3e 4f d3 dd 3e
       0.7947404 0.6791842 0.28278857 0.43325278
0003e0 a4 ca f3 3e 35 50 2b bd d7 f2 2a bf 6e a2 fc be
       0.4761554 -0.04182454 -0.66776794 -0.49342674
0003f0 77 8a 35 bf 00 f6 d5 3d 3a d6 d2 3e 0f 59 ae 3e
       -0.70914406 0.104473114 0.41179067 0.3405232

layers.0.bias f4 [128]
000000 67 26 ba be cc c6 8a be a9 18 4f bd 2e 5a 27 3e
       -0.36357424 -0.27104795 -0.050560627 0.16342995
000010 6f bc 20 3e 81 34 d4 3e 63 1d 10 bd f6 cf c3 3e
       0.15696882 0.41446307 -0.035184275 0.382446
000020 0a b5 28 3e 2e 67 1c be b2 01 68 3e 3f bb 1c bf
       0.16475311 -0.15273735 0.22656897 -0.61223215
000030 57 e7 37 3f 5c ce ad 3e b4 6c 18 3e 26 e3 5b be
       0.7183737 0.33946502 0.14885217 -0.21473369
000040 18 b9 50 be 98 ee 11 bf 39 b7 be bc 00 a9 8e 3e
       -0.20383108 -0.5700469 -0.023280727 0.27863312
000050 c2 91 81 3e d3 4f 22 3e b2 3b ba 3d 92 3f b5 3d
       0.25306517 0.15850763 0.09093417 0.08850016
000060 4c 1a b0 be 7d ec 83 bd f0 e8 58 bd f7 bb 36 3e
       -0.34395063 -0.06441591 -0.05295652 0.1784514
000070 ef 09 a6 be 81 9a 36 bf 67 a6 ab be fc 26 32 3e
       -0.32429454 -0.71329504 -0.33525392 0.17397684
000080 fe c3 2d bf d4 1b d9 3e 93 d1 10 3e 29 40 c8 3e
       -0.67877185 0.42404044 0.14142446 0.3911145
000090 0b db 39 be 77 5d 97 bd 2b ec 78 3d ce c3 b8 3e
       -0.18149965 -0.07390874 0.060772102 0.36086887
0000a0 63 e1 56 3d 0e 7c 2f 3e b9 20 5b 3f 46 59 a6 be
       0.05246104 0.17137167 0.85596806 -0.32489985
0000b0 2c 3f ca 3e ed 6a c5 3c cf a0 f4 3d e4 95 b7 3e
       0.3950132 0.024098838 0.11944734 0.35856545
0000c0 60 f7 9a 3e fd eb 18 be 92 6f d0 3d e8 81 0d 3d
       0.30266857 -0.14933772 0.1017753 0.034547716
0000d0 17 8a 4f be 95 45 51 3c dd ec 79 3e 90 f3 f5 3e
       -0.20267521 0.012772937 0.24406762 0.48037386
0000e0 c5 a9 4d be 1e 29 1f be d5 23 ba 3e 17 08 d3 3e
       -0.20084293 -0.15543029 0.36355463 0.4121711
0000f0 27 49 2d 3f 45 14 21 3e 12 be ec 3e 2c 5e 97 3e
       0.67689747 0.15730388 0.46238762 0.29564035
000100 bb a4 70 be 35 27 69 be a1 c2 e4 bd 52 6b a1 be
       -0.2350034 -0.22768863 -0.11169935 -0.3152719
000110 22 7f df 3e 8b b5 78 3d 74 d5 08 be ab 12 24 bf
       0.43651682 0.060720008 -0.13362676 -0.64090985
000120 7e dc 02 be c0 b3 69 3e 49 84 a3 be ff 70 d6 bb
       -0.12779424 0.22822475 -0.31936863 -0.006544232
000130 8c df a2 3d 91 27 1b 3f da df d7 3e d8 db eb be
       0.079527944 0.6060725 0.42162973 -0.46066165
000140 d1 e5 88 3c d4 24 f5 bd 36 4a 3b 3e 0b df e1 be
       0.016711148 -0.11969915 0.18290028 -0.4411548
000150 70 94 58 3c 0b f1 df 3c 36 4e 2d 3e 51 5b b4 be
       0.013218984 0.027336618 0.16924366 -0.3522592
000160 cd 6b 5d be 9e a3 f5 bd c1 2e 66 3d bf e4 2b bf
       -0.21623154 -0.11994098 0.05619693 -0.67145914
000170 6a ca 8c bd 28 cd 0e bd 58 77 83 be 6d cb 0c 3e
       -0.06874545 -0.03486362 -0.2567699 0.13749476
000180 57 8e 7f 3e f0 7e ae 3d ac f0 61 bd 95 c8 47 be
       0.24956642 0.08520305 -0.055161163 -0.1951011
000190 10 86 f5 bd a7 d0 00 3f ae 33 99 3e 0d 9c 0e bc
       -0.11988461 0.5031838 0.2992224 -0.008704198
0001a0 0a 78 c9 be bd 68 95 be e9 7b 3c 3e 73 7c 6a 3c
       -0.39349395 -0.2918147 0.18406643 0.014311898
0001b0 ed 2a a9 bd 25 4d 8a bd 1a e1 88 be a1 57 a6 3c
       -0.082601406 -0.067529954 -0.2673424 0.020305457
0001c0 28 7c 98 3e 42 25 4a 3e 2d 9b 85 3e 21 d4 92 3e
       0.29782224 0.19740775 0.26094952 0.28677467
0001d0 53 ef b3 3e da 82 08 bf a6 55 5f be 0b de 20 3f
       0.35143527 -0.53324664 -0.21810016 0.6283881
0001e0 35 9a 0d be e2 1b b4 3d 88 58 c3 be 61 69 42 bb
       -0.13828357 0.08794381 -0.3815348 -0.0029664862
0001f0 8e 34 0b 3f c0 a4 f6 be e4 7d f2 bd 87 f2 13 be
       0.5437707 -0.4817257 -0.11840418 -0.14447986

layers.1.weight f4 [128, 128]
000000 b1 fe b9 bd f7 ef 86 bd 3d 04 37 3f 41 72 a2 be
       -0.09081782 -0.065887384 0.7149084 -0.31727794
000010 8c be a9 be 21 52 e0 3d 41 0b b1 be 87 06 fe bd
       -0.33153188 0.10953165 -0.345789 -0.12403589
000020 95 fe 4b be fa 18 0d be c8 da 76 3e ad 7a 92 3d
       -0.19921334 -0.13779059 0.24106896 0.07152305
000030 8a 93 8e bd e9 65 29 bd 4f 93 1e 3e ff c4 bd be
       -0.069617346 -0.041356955 0.15485881 -0.3706436
000040 fd 3c 19 be f8 ce 60 bd 54 14 ca bc a1 ba 73 3e
       -0.14964671 -0.05488488 -0.024667896 0.23801662
000050 74 37 3c be d9 5d b9 3d ba ac c6 3e be 9f 32 3d
       -0.18380529 0.09051103 0.38803655 0.043609373
000060 ed 22 06 3e 89 2c c6 3d cc 48 d8 be 13 94 d7 bd
       0.1309926 0.09676463 -0.4224304 -0.1052629
000070 0c 94 69 be 28 15 b1 bd 31 6c 37 3e 87 a6 60 be
       -0.22810382 -0.08646613 0.17912365 -0.21938525
000080 81 80 9f 3d b3 1a 22 be b5 79 d8 bd c8 ef bf bd
       0.07788182 -0.15830497 -0.10570089 -0.093719065
000090 9c 12 96 3e 58 d0 fd 3e 05 1f b4 bd c1 db 17 be
       0.29311073 0.49573016 -0.08794979 -0.14829923
0000a0 5b 79 2f 3e f5 bc f4 3e b1 b3 07 be ef 4b 50 3b
       0.17136137 0.47800413 -0.1325214 0.0031783541
0000b0 c5 62 26 bd 1c 7b 34 bf 7c 91 4c 3f 64 34 07 3e
       -0.040621538 -0.7050035 0.7990949 0.13203579
0000c0 b9 05 7a be 1d 64 01 bf b7 f6 6e 3e 48 ae a1 3f
       -0.24416246 -0.50543386 0.23336302 1.2631311
0000d0 2b 3b fd 3a b4 d9 28 3d 53 24 3b bc da 11 21 3e
       0.0019320002 0.041223243 -0.011422235 0.15729466
0000e0 89 49 5b 3c fe 9c 0b 3f 7e 72 1f bf 84 5f 9c bd
       0.013384231 0.54536426 -0.62284076 -0.07635406
0000f0 83 87 97 be 18 56 ad bd 9f 5c 25 bd 4a 9f 56 be
       -0.29595575 -0.08463687 -0.040371533 -0.20959201
000100 c0 22 3d 3e 23 85 4a 3d 3c 62 aa 3e fa 57 df be
       0.18470287 0.049443375 0.33278072 -0.43621808
000110 14 c7 02 bd 78 09 ce 3e f4 ef 3b 3e 74 f6 ee bc
       -0.031928137 0.402416 0.18353254 -0.029170252
000120 2a 3e a2 3e 5d b0 d0 3e e2 0e 39 3e 09 c2 1d 3f
       0.31688052 0.40759555 0.18072084 0.616242
000130 3b dd a4 bd bd 7e 18 be 13 e3 d8 be 4e 90 c7 3d
       -0.08050009 -0.14892097 -0.42360744 0.09744321
000140 24 25 9c be e5 ad 57 bd b5 bd aa be 35 9e 81 be
       -0.30497086 -0.052656073 -0.3334786 -0.25316015
000150 50 fe f3 bd 49 c9 c1 bc f8 bb a7 3e 71 a9 05 3f
       -0.11913741 -0.02365555 0.32760596 0.5221167
000160 00 b0 17 3d a3 f4 9c be 4b aa 70 3e c9 6d 1e bc
       0.03703308 -0.30655393 0.23502462 -0.0096697295
000170 12 88 a5 bd df 96 b3 3a 80 16 81 3d 87 b6 02 bf
       -0.08082594 0.0013701579 0.0630312 -0.51059765
000180 8e 0e 25 3e 72 b5 94 be 03 90 cb 3e e1 05 52 bd
       0.16118833 -0.29044682 0.3975831 -0.051275138
000190 d2 3a 42 be 87 3e 83 ba 4a 9b 50 be 58 ef c1 be
       -0.1896775 -0.0010013141 -0.20371738 -0.37877917
0001a0 d0 11 9f 3e 2b 54 50 3f ff 07 08 bf ca 82 d1 bd
       0.31068277 0.8137843 -0.531372 -0.10230024
0001b0 1d ee 05 bf 6d ba bc bd 61 9b dc 3e 4e 52 5d 3e
       -0.5231646 -0.092152454 0.43087295 0.21613428
0001c0 eb 4c 48 be 59 0f 35 be 5f ad 26 3c a5 11 a7 3d
       -0.19560592 -0.17681636 0.010173171 0.08157662
0001d0 e5 e0 f7 3d f4 5c b0 3d c7 af 18 be 43 02 49 3d
       0.12103442 0.086114794 -0.14910804 0.049074423
0001e0 ca c6 48 bd 14 a3 87 3e a3 6b 4b 3e ff 8e 45 3e
       -0.049017705 0.26491606 0.19865279 0.1929283
0001f0 11 9f 12 3d 22 af 29 3d 24 ca 0f be 71 ae 77 bd
       0.03579623 0.041426785 -0.14041954 -0.060469095
000200 36 39 c3 bc 85 f6 c8 3e be 76 38 3e ff ae c1 bd
       -0.023830991 0.3925058 0.18014047 -0.09457206
000210 13 26 85 3e 55 73 4b 3d 68 52 7f bc ff b6 12 be
       0.2600561 0.049670536 -0.015583612 -0.1432762
000220 59 1b 17 bd b7 11 e3 bd 61 7f 38 bd 80 8d 95 3d
       -0.036891315 -0.11087363 -0.045043353 0.073023796
000230 b3 1c ce 3d 7d dc 89 3e 70 83 40 bd 22 fd 5a be
       0.10064068 0.26926032 -0.04700035 -0.21385625
000240 10 4a 4b bd 20 79 cb bd 70 fe b0 3d 34 9d 0d be
       -0.04963118 -0.09935212 0.0864228 -0.138295
000250 02 c3 82 3d 5a 04 8b bd 5a 97 12 be e9 4a ed 3c
       0.06384851 -0.06787939 -0.14315549 0.028966384
000260 80 35 81 3e b6 cb df 3d d2 70 b1 be f6 cb 7f bd
       0.2523613 0.10927527 -0.34656388 -0.06245037
000270 a8 a0 f0 bd 01 b9 08 3e 23 c6 e0 bd c1 6e ae 3d
       -0.11749393 0.13351823 -0.109752916 0.085172184
000280 b9 27 c3 b9 86 8d 21 3d bf 5d 55 3e 65 86 00 be
       -0.00037222894 0.039441608 0.20836543 -0.12551267
000290 12 bb 18 3f 3b 9e 55 bd 63 cc cc be 3e c7 af 3e
       0.59660447 -0.052152853 -0.39999685 0.34331697
0002a0 6e ef ee 3e fc f9 dc 3e f8 50 a7 3d be 9b 77 3e
       0.46667045 0.43159473 0.081697404 0.24180505
0002b0 de 49 d9 3c 7d 87 4c 3e 3d d0 45 3f 23 ce fe 3d
       0.02652448 0.1997356 0.7727087 0.12441661
0002c0 e0 bd 6c 3e 4a b7 6f 3c fa 43 05 3c d4 b3 b7 bc
       0.23119307 0.014631102 0.008133883 -0.022424616
0002d0 f8 e8 fc 3c ad ba 6b 3c 70 08 05 be c6 bd b2 bd
       0.030872807 0.014387769 -0.129915 -0.08727603
0002e0 56 0f b6 be e4 4f c3 bb 2b 4b 73 be 95 9b c7 bd
       -0.35558575 -0.0059604514 -0.23759143 -0.09746472
0002f0 f5 0b 08 bd ef 20 be be 47 df f2 3b 01 ba 9a 3e
       -0.033214528 -0.371345 0.0074118706 0.30220035
000300 e1 3d 37 3d 43 32 f4 bc 77 b2 5c be 35 fa 18 be
       0.044736747 -0.029809123 -0.21552454 -0.14939196
000310 67 7a 1c be d6 2a 94 bd 48 45 69 3c aa 91 f2 bb
       -0.15281068 -0.07234733 0.014237709 -0.0074026184
000320 19 b2 1f bf 54 f8 4b 3e 4f 69 8d 3d d4 26 85 3e
       -0.6238113 0.19918948 0.06904852 0.26006186
000330 11 8b 58 be 3d 1c 19 be 7a ce eb 3a dc dd 01 bd
       -0.211468 -0.14952178 0.0017990612 -0.031705722
000340 e0 99 22 3b 6f 2a f4 3d e5 5b 05 bd f6 24 0f bd
       0.0024810955 0.11922156 -0.03255834 -0.034947358
000350 e5 00 0b 3e d5 cb ba bd 29 52 21 3d 65 25 95 3e
       0.1357456 -0.09120909 0.039384995 0.29130092
000360 ea 1a b4 3d d5 02 40 3e 35 28 55 3e c0 04 97 3b
       0.08794196 0.1875108 0.20816119 0.0046087205
000370 55 da 02 b9 96 bd 05 3f 8e 30 a8 3d 18 29 3b be
       -0.00012479101 0.5224241 0.08212386 -0.18277395
000380 c1 8b 95 3d 65 37 c4 3d 26 de fb be 88 97 ea 3d
       0.073020466 0.09580878 -0.49192923 0.114546835
000390 ea 81 9b bd ab eb 97 3b af 83 82 be f3 02 01 bf
       -0.075931385 0.004636248 -0.25491092 -0.50395125
0003a0 17 1e cb 3d c6 5e aa 3e a3 01 96 be 6d b3 87 3e
       0.099178486 0.3327543 -0.29298124 0.26504079
0003b0 cd dc 1b be 7e 81 17 3d 63 9e 23 3e 87 bc 80 3d
       -0.15220948 0.036988728 0.15978388 0.06285959
0003c0 52 c6 5e be 27 b8 d5 bd 6b b4 99 be d8 14 b7 bd
       -0.2175534 -0.10435515 -0.3002046 -0.089395225
0003d0 99 81 f3 bd 12 9d af bb 5d 8d 93 be 37 79 ff 3d
       -0.11889953 -0.0053593004 -0.2881879 0.12474292
0003e0 6c 16 ca 3d e3 01 0f 3f 5f 33 a7 3e fa b1 4d 3e
       0.09867558 0.55862254 0.3265638 0.20087424
0003f0 c7 47 73 3d d7 b3 b9 3d c7 1d f3 be fc bc 05 3c
       0.059394624 0.09067505 -0.47483656 0.008162733

layers.1.bias f4 [128]
000000 a4 58 0d be 2d c5 5f bd ad ed b9 bd 38 4e 81 bc
       -0.13803345 -0.0546314 -0.09078536 -0.015784368
000010 c1 3e 93 3d f1 33 18 3e 48 f2 e2 3c 81 29 a1 3c
       0.07189704 0.14863564 0.02770342 0.01967311
000020 ab f7 37 be 8e 39 01 3c cd 6c b4 bc c2 33 18 3d
       -0.17965572 0.007887257 -0.022024537 0.037158735
000030 32 12 85 3d 2b 29 36 3e b2 4f dc 3d 44 99 ca bd
       0.06497611 0.17789142 0.10757388 -0.09892514
000040 e9 f7 9e ba e3 e6 a5 3c e8 fd ef 3b f5 c8 c3 3b
       -0.0012128326 0.020251697 0.007323969 0.0059748837
000050 55 f8 12 bc 3f 50 96 bd b6 87 67 bc 84 c2 c3 3d
       -0.00897034 -0.073395245 -0.014131477 0.09558585
000060 de a3 c6 bd 06 66 14 3e 1c f6 d3 3d b7 2a 84 bd
       -0.09699224 0.14492044 0.10349676 -0.0645346
000070 8e a1 5b be b0 5a 97 be 20 45 87 3e a7 01 87 bd
       -0.21448347 -0.29561377 0.26419926 -0.06592112
000080 f2 5b 1c 3d 64 37 10 3e a9 31 16 be 32 f3 de bd
       0.038173623 0.1408363 -0.14667381 -0.108862296
000090 01 4a 1d bd 5a ac 36 bc ab 49 e8 3d 17 5a dd 3c
       -0.038400654 -0.01114949 0.11342176 0.027020497
0000a0 f2 67 02 bc b6 34 73 3e 22 52 73 3d bc 43 d1 bb
       -0.007959353 0.23750576 0.0594045 -0.0063862484
0000b0 a8 56 bf 3d 92 15 0f bc a3 d9 6b 3c dc ff 4d 3c
       0.093427 -0.00873317 0.01439515 0.012573209
0000c0 68 22 cc 3c bb f7 63 be 87 59 09 bd 84 f6 ad 3c
       0.02491875 -0.2226247 -0.033532646 0.021235712
0000d0 72 bc ac bd 24 eb 91 3d d1 40 07 be c7 38 db bd
       -0.084343806 0.07124928 -0.13208319 -0.10704189
0000e0 6d c7 73 be 21 98 f6 3c 52 05 85 be ad de 6e 3d
       -0.23806544 0.030101838 -0.25980622 0.05831783
0000f0 26 88 45 3e 8d 29 ed bd da ee fc 3c 77 39 81 bd
       0.19290218 -0.11580191 0.030875612 -0.06309789
000100 3e e8 7d be 41 00 c3 bd f7 c1 95 bc 56 aa 24 3d
       -0.24795625 -0.09521533 -0.018280966 0.040201508
000110 02 a8 39 be 86 fe fc 3d 99 ea 63 be ae d4 98 3d
       -0.18130496 0.12353234 -0.2225746 0.074624404
000120 04 9c 7a be eb 90 5a be 2f 0f 51 be c4 65 d0 3c
       -0.24473578 -0.21344344 -0.20415948 0.02543915
000130 40 3c c3 bc e3 0a 0a 3d 95 08 f1 bd 37 ea 86 be
       -0.02383244 0.03370179 -0.11769215 -0.26350567
000140 4c 0f 15 3e 05 e7 2b 3d b9 fb 56 be fe 10 78 bd
       0.14556617 0.041968364 -0.20994462 -0.06056308
000150 3f 14 14 bd 29 dd 58 be 06 55 4f bc 15 55 92 3d
       -0.03615212 -0.21178116 -0.0126545485 0.07145134
000160 f5 b6 38 3e 45 97 69 bd 8a 02 97 be b2 ed a8 bc
       0.18038543 -0.057029027 -0.29494125 -0.020621154
000170 e9 c3 0c be 60 5d 11 3e 9f c6 a0 be fc 5c 0d 3d
       -0.13746609 0.14195776 -0.31401536 0.034512505
000180 50 52 e5 3d 9b 51 89 3b f0 c5 1e be 0a 49 eb bd
       0.111973405 0.0041906363 -0.15505195 -0.114885405
000190 5b 21 b4 bd ba 7f 77 bc 34 0c 7d 3b 16 9f 2a bd
       -0.087954246 -0.015106136 0.003861201 -0.041655622
0001a0 dd 21 ae 3d 1a 37 1d 3e 31 f1 96 bd d9 df 7d bd
       0.08502553 0.15353051 -0.07370222 -0.061981056
0001b0 b2 75 93 bd be 8e a0 bd f6 9d 47 be a0 2f 04 3d
       -0.07200183 -0.07839726 -0.19493851 0.03227198
0001c0 49 be ac bb 01 08 2b be c3 95 03 3d db 84 b5 bd
       -0.005271707 -0.16702272 0.032125246 -0.08863231
0001d0 c9 38 a3 bd 08 84 6f bd fe f5 6d 3d 85 6f 25 bc
       -0.07969815 -0.058475524 0.058095925 -0.010097389
0001e0 7b 9d df 3d 3b f6 69 3e 19 49 88 3d 04 38 c8 bd
       0.10918709 0.22847836 0.06654567 -0.09776309
0001f0 9b 11 af bc 95 bd 97 3e a1 39 bd 3d 44 cd 2a bd
       -0.0213707 0.29636827 0.092395075 -0.041699663

layers.3.weight f4 [128, 128]
000000 d8 62 7b 3e 97 8a 16 bd 12 90 55 be 6c 68 c4 bd
       0.24549425 -0.036753263 -0.2085574 -0.095902294
000010 30 7a b8 be dd 81 dc 3d 33 a8 36 3e f9 bb 0e be
       -0.36030722 0.10766957 0.178376 -0.13938893
000020 c2 2c 15 be b4 5f 8e bd 87 5e e9 bd d9 81 9f 3e
       -0.14567855 -0.06951848 -0.11394983 0.31153753
000030 e8 a0 2a 3c 51 ba db 3c e0 09 04 3e d4 f3 18 be
       0.01041434 0.026822241 0.12894392 -0.14936763
000040 08 15 9a 3e f3 44 ac 3d 40 53 51 3e a1 38 c9 3d
       0.3009417 0.084115885 0.20441914 0.09825254
000050 bb 1d 9d be 91 ad 41 3d e9 76 91 be 50 92 7e 3d
       -0.30686745 0.047284666 -0.28411034 0.062151253
000060 6e aa ac bd ed 37 0a 3e 3a 1e 49 bc 72 0a 5a bd
       -0.084309444 0.13497896 -0.012275273 -0.053232618
000070 30 8a cc 3d 6c e0 1a be 18 73 fa 3d b2 3d 16 3d
       0.09987295 -0.15124673 0.12228984 0.03667993
000080 b9 fa bf be 13 d4 6f be 21 42 42 be 52 f4 01 3e
       -0.37495974 -0.23420744 -0.18970539 0.12690857
000090 bd bf 09 3e 75 c9 83 be f7 ce 72 3c 13 a2 94 bc
       0.13452049 -0.25739637 0.014819852 -0.01814369
0000a0 ba a9 73 bd ed 52 cd 3e 8a ea a8 be 95 ed c9 3d
       -0.059488036 0.4010233 -0.3299144 0.09859768
0000b0 3e 96 a2 bd 16 51 a2 3e ed 20 c1 bc 39 b0 d3 3d
       -0.07938813 0.3170249 -0.02357527 0.10336346
0000c0 ff 16 da 3d 67 2c 88 bd c1 55 79 3d 1c 83 86 3d
       0.106489174 -0.06649094 0.060872797 0.06567976
0000d0 f3 e1 63 3e c9 b3 85 3c 66 f2 b7 3d 05 ed 8a 3d
       0.22254162 0.01632108 0.08981781 0.06783489
0000e0 36 f7 01 be e7 0f 87 bd 2c 00 53 3d 23 32 dc bd
       -0.1269196 -0.0659483 0.051513836 -0.1075175
0000f0 08 21 08 3d 3b 63 12 3e 68 4f bf 3d 75 16 56 3e
       0.033234626 0.14295666 0.093413174 0.20907004
000100 e5 a4 d7 bd e1 e5 c4 3e a7 6e 92 be 2f 08 08 3e
       -0.10529498 0.38456634 -0.28600046 0.13284372
000110 bf 04 a0 bd ad 51 0c 3e dd 48 db 3d e4 b1 90 be
       -0.07813405 0.13703032 0.10707257 -0.2826072
000120 00 65 99 3d f5 f0 1e bc 34 ab 08 3d cc 88 ec bd
       0.07489967 -0.009701003 0.033366397 -0.115495294
000130 52 be 7a bd f4 8e 9d 3e 0d 93 60 3e 07 5d 2f 3e
       -0.06121666 0.30773127 0.21931095 0.17125331
000140 67 5b c8 bd fc da a3 3d dc 2a 50 bd 9b 52 1b 3e
       -0.097830586 0.08000752 -0.050822124 0.1516823
000150 42 9b ba 3d 9f e4 97 3e 7e 3a 90 3e 24 4c 18 3e
       0.09111644 0.29666612 0.28169626 0.14872795
000160 35 1b 56 bd d2 ad 2d bc 14 52 45 bc 4d 6d 72 3d
       -0.05227204 -0.010600524 -0.012043495 0.05918627
000170 98 95 93 3d 42 68 96 be c6 e1 0e be 13 d0 00 be
       0.07206267 -0.29376417 -0.13953313 -0.12579374
000180 63 aa a3 3e e9 58 82 be c5 ae d3 3d b9 1d 06 be
       0.31965932 -0.25458458 0.10336069 -0.13097276
000190 22 2e 6e bc d4 e3 2f 3e 19 bc 43 3e 7e 6f 04 3f
       -0.014537366 0.17176753 0.19114722 0.51732624
0001a0 07 06 3f bf f8 d9 ef 3c 67 cf a9 3d 69 96 6f be
       -0.7461857 0.02927874 0.08291512 -0.2339722
0001b0 26 64 ad bd f9 3e f0 3e e4 05 e0 3d 6c a4 6a 3d
       -0.084663674 0.46923044 0.109386235 0.05728571
0001c0 6b 09 44 be 57 ea 18 be b3 78 7f bd 0d 96 b6 bd
       -0.19144218 -0.14933144 -0.062370967 -0.08915339
0001d0 ea 21 34 3e d1 25 26 3e 7d cb a5 3d 3b 85 94 bd
       0.17591062 0.16225363 0.08095453 -0.07251974
0001e0 82 9b db 3d 32 a2 cf 3d 2a 70 24 bd 54 cd 50 3e
       0.1072302 0.10138358 -0.04014603 0.20390826
0001f0 76 f5 e0 bc d9 94 b1 3d b8 1a 28 bd ba 43 bc 3e
       -0.027460795 0.086709686 -0.041041106 0.3677042
000200 34 ff c6 3e 07 a7 0a bd 81 e8 1e be 28 63 38 3d
       0.3886658 -0.033850696 -0.1551838 0.045016438
000210 1c 14 f9 be 71 6c dc bc 17 e1 90 3e a5 4f 27 bd
       -0.48648155 -0.026907178 0.2829673 -0.04084744
000220 65 83 0c be 57 f2 0c bc 77 bc 9f bd 45 78 a8 3e
       -0.13721998 -0.0086027 -0.07799619 0.32904258
000230 14 46 b0 3c 8f 00 39 3e 67 ee 9d bc f5 69 48 be
       0.02151779 0.1806662 -0.019278718 -0.1957167
000240 de 0d 27 3e 45 3e 3c 3d fa 92 82 3e 43 7b 19 3e
       0.16313884 0.045957822 0.2550276 0.14988427
000250 d5 cc d1 be 25 b6 d9 bd bd 0b 93 be 03 01 4b 3e
       -0.40976587 -0.106304444 -0.28719893 0.19824605
000260 92 99 11 3b eb 02 43 bd bf df 25 bd f0 6b 4f 3d
       0.002221678 -0.047610205 -0.040496584 0.050640047
000270 97 80 cd 3d ae de a7 3c a1 70 79 3d a3 11 f9 3a
       0.10034292 0.020491924 0.060898427 0.0019002449
000280 2f 17 bb be 45 18 95 be bf 7c d0 bd 6b b5 1b 3e
       -0.36541125 -0.2912008 -0.101800434 0.15205924
000290 b0 5b 5b 3d 4f a3 9a be fe 92 95 bd 0b 58 3c be
       0.053554237 -0.3020272 -0.07303427 -0.1839296
0002a0 46 3e 18 be 8a 74 bb 3e 2c 43 4d be ba 73 20 3e
       -0.14867505 0.3661235 -0.20045155 0.15669146
0002b0 5c e4 84 bd 87 dd 8e 3e 33 3e 80 3d 25 17 9d 3d
       -0.064888686 0.27903387 0.062618636 0.0767043
0002c0 87 ae 57 3e 88 54 05 bc 08 18 65 3a 06 80 c0 bd
       0.2106267 -0.00813783 0.00087392377 -0.093994185
0002d0 aa 10 7b 3e f8 8a d1 bb e9 34 2d 3d ed 57 6d bd
       0.24518076 -0.00639474 0.042286787 -0.05794518
0002e0 97 96 2b bd 0a d1 6e 3d d2 52 53 3d aa ec 42 be
       -0.04189166 0.058304824 0.051592655 -0.19035593
0002f0 c4 b1 52 bd 50 ef 01 bc 9a 4f 5a bd ab 51 4b 3e
       -0.05143906 -0.007930592 -0.05329857 0.19855373
000300 fc 22 ff 3c 06 9a cb 3e cf ac 8b be 32 a2 96 bd
       0.031144612 0.39765948 -0.2728028 -0.07355155
000310 47 ce 7b bd f3 fa ac 3d bf 77 d4 3d 68 77 85 bd
       -0.06147602 0.08446302 0.10374402 -0.065169156
000320 77 29 2c 3d 4d 31 c4 bd 98 53 5d 3d 46 43 19 be
       0.04203173 -0.09579716 0.0540348 -0.14967069
000330 03 1b 1b 3d b5 c7 d6 3e 9b 1d a1 3e 49 90 17 3e
       0.037867557 0.4194924 0.314679 0.14801134
000340 97 bc ba bd 0f 16 6b 3d ee 10 be bc 46 02 40 3e
       -0.09118002 0.057394084 -0.023201432 0.18750867
000350 60 43 46 3e 44 f7 85 3e 30 f1 c2 3e d0 d0 51 3d
       0.19361639 0.2616521 0.38074636 0.05122453
000360 76 bf bd bd 86 62 e3 3d 3a 01 dc bd 33 d5 f0 3c
       -0.09265034 0.11102776 -0.107424214 0.029398536
000370 a9 e9 62 3c e4 b1 74 be 8c e8 04 bd a6 6e 3a be
       0.013849654 -0.23895985 -0.032448336 -0.18206272
000380 85 83 67 3e d4 74 8a be 26 95 98 3d a8 bc 9f bc
       0.22608764 -0.27042258 0.07450323 -0.019499138
000390 94 ba 35 bd 82 62 19 3e e5 d0 cf 3c 21 20 f1 3e
       -0.044367388 0.14978984 0.025368163 0.47094825
0003a0 38 ac 04 bf 41 0f df bc 63 ee b8 3d 43 39 91 bc
       -0.51825285 -0.027228953 0.09029844 -0.0177275
0003b0 4b b1 bf bd 0c 44 d3 3e 95 db 19 3d c8 c0 ba 3d
       -0.09359988 0.41262853 0.037562925 0.09118801
0003c0 8a f3 42 be 89 af b9 bd 8d 20 7a bd a2 09 3c bd
       -0.19038215 -0.09066684 -0.0610662 -0.045907624
0003d0 a8 b6 0e 3e 6f be 87 3d 62 13 e5 3b 6d 03 8d bc
       0.13936865 0.06628119 0.006990836 -0.017213548
0003e0 06 33 89 3d dc 1f eb 3d 85 fa 0a be 71 d5 c5 3d
       0.06699185 0.11480686 -0.13572128 0.09659851
0003f0 e7 0f 16 bd c3 19 26 3d 39 0c 9c bd 82 58 58 3e
       -0.03663626 0.040551912 -0.07619519 0.21127513

layers.3.bias f4 [128]
000000 d3 70 06 3d 6d 95 00 3e b0 85 f8 3d 4f 21 3d 3c
       0.03282244 0.12557001 0.12134874 0.011543586
000010 c1 cb f2 3c 54 c3 0f 3e f3 8c fe bd c7 76 a2 3d
       0.029638173 0.14039356 -0.12429228 0.07932811
000020 98 85 38 bd 09 ca ed 3d ef 1c 60 3c 45 55 f0 3d
       -0.04504928 0.11610801 0.013678773 0.11735014
000030 86 e3 2c 3c da 6f f1 bd 0f 83 47 3c e7 a4 38 be
       0.010552293 -0.11788912 0.012177243 -0.18031655
000040 32 fb ef 3d a0 8f dc bd 2d 28 b7 3c 47 a9 5c be
       0.117178336 -0.10769582 0.022358024 -0.21548949
000050 5b 2d dc 3c 70 7a 45 bd 2f 5e af 3c c0 3c a4 bb
       0.026877096 -0.04821247 0.021407215 -0.005012125
000060 72 87 82 3d 88 f8 e7 bd 65 74 b1 3d cf 2e 7a bb
       0.063734904 -0.113267004 0.086647786 -0.0038174873
000070 09 83 b8 3d fa a5 1c bd 5d 32 6d bd 3b 47 db bd
       0.09009368 -0.038244225 -0.05790936 -0.107069455
000080 f6 75 14 be c2 80 f3 3d 2f 4e e8 bd 0c 9d 58 bc
       -0.14498124 0.11889793 -0.11343037 -0.013221037
000090 6a b5 87 3d cc f1 95 3c 67 04 62 3d 51 08 a4 bd
       0.06626399 0.018303774 0.05517998 -0.08009399
0000a0 55 f9 ce 3d d2 53 a2 bc 3d 27 a4 bd 6c 07 75 3b
       0.1010615 -0.01981536 -0.080152966 0.0037388457
0000b0 de 8c 1d 3d 16 fa 0f 3e ec c5 4a 3d e8 81 7a bc
       0.03846442 0.14060244 0.04950516 -0.015289761
0000c0 8c 30 aa bd 80 20 e0 3c 27 da 05 3d 3c ab e3 bd
       -0.08310041 0.027359247 0.03267875 -0.11116645
0000d0 47 9e 89 bb b2 0f 14 bd b2 da 75 bb 71 a3 86 3d
       -0.0041997763 -0.03614778 -0.0037514386 0.06574143
0000e0 ea 8f ed ba 35 81 9c bd 52 0a 29 bd 1d a3 af 3c
       -0.0018124555 -0.07641832 -0.041269608 0.021440083
0000f0 f8 a4 0b be 5a cf 04 3d 12 bd 76 3c a3 55 0f 3d
       -0.1363715 0.03242431 0.015059726 0.03499378
000100 24 e1 8d 3d 46 5c be 3d 28 2c a7 3d fc cb e1 bb
       0.06927708 0.092949435 0.08162719 -0.006890772
000110 69 96 0e be b5 04 43 bd f8 70 34 3e c0 72 ad bd
       -0.13924564 -0.04761191 0.17621219 -0.084691525
000120 6c 03 0b bd 58 a3 84 bd 7a 7c 84 bd 68 e6 b4 bd
       -0.03393881 -0.06476468 -0.064690545 -0.08833009
000130 f0 27 0b 3e 98 0d 20 3d bc 00 74 bd 18 26 80 3d
       0.13589454 0.039075464 -0.059571013 0.06257266
000140 24 d6 45 3d 74 24 cd 3b 20 fa e7 3b 83 d9 12 3e
       0.048299924 0.006260449 0.007079378 0.14340787
000150 3f fb 9f bd 74 7a b8 3d 16 f7 af bd 4e c9 43 3e
       -0.07811593 0.09007731 -0.0859205 0.1911976
000160 60 66 6f bd b4 44 02 be b3 ba 2a 3e 9a db 0e be
       -0.05844724 -0.1272152 0.16672783 -0.13950959
000170 02 3d 98 3d dd 00 b7 bd 7f 06 e3 bc 30 4e 2b be
       0.07433511 -0.089357115 -0.027713059 -0.16729045
000180 2d cb 2e be 9d e3 3a bc be 77 fe 3c b9 31 85 bd
       -0.17069693 -0.011406806 0.031062957 -0.065036245
000190 31 22 43 be e8 75 36 3c 8c 9d 0d bd 09 02 0e be
       -0.19056012 0.0111365095 -0.034574077 -0.13867964
0001a0 e6 d5 78 bd 8b e3 b8 3d 8a 5e 41 3d 91 fe c4 bd
       -0.060750864 0.090277754 0.0472093 -0.09618867
0001b0 d6 82 16 be cc 1b 97 bb 68 15 15 3d 83 ef 42 3d
       -0.14698347 -0.004611468 0.036397368 0.047591697
0001c0 2b 57 0a bd e6 e9 0f be 7a 22 57 bc 51 21 be bd
       -0.033774536 -0.14054069 -0.013130778 -0.09283698
0001d0 2c ff cf bd 8c 77 ff 3d b6 a3 19 be d6 07 10 bd
       -0.10156092 0.12473974 -0.15003857 -0.035163723
0001e0 e1 da 08 3e 16 d8 a3 3c 06 62 ad bc 4e ab 0d bd
       0.13364746 0.020000499 -0.021164905 -0.034587197
0001f0 98 0e ec bd 92 45 19 be 4d 68 17 3e f5 4e 07 3e
       -0.11526221 -0.14967945 0.14785881 0.13213713

layers.5.weight f4 [1, 128]
000000 f3 a3 25 3f fa 56 05 3f 0f e6 07 3f c9 83 02 3f
       0.6470329 0.5208584 0.53085417 0.5098234
000010 43 76 db be 5b b1 cc 3e ce 53 f3 be c4 eb 1a 3f
       -0.42863664 0.3997906 -0.47524875 0.60516
000020 43 f1 42 bf 8b 6d 26 3f 09 8c 94 3f 7b ee 05 3f
       -0.76149386 0.650109 1.1605235 0.5231702
000030 38 23 f9 be ad c1 81 bf 13 49 9d 3e cf e4 1e bf
       -0.48659682 -1.013723 0.30719814 -0.62067884
000040 e7 19 1f 3f 2e a9 00 bf ed ad f6 3e 2f f3 28 bf
       0.621489 -0.5025815 0.4817957 -0.6599607
000050 fb 9d ba be 71 9c f5 be 5b ab 83 bf 1b e1 86 bf
       -0.36448655 -0.47970918 -1.0286669 -1.0537447
000060 3e b2 31 3f 39 a3 38 bf d1 81 23 3f e9 fb 3e 3f
       0.694126 -0.7212406 0.6386996 0.74603134
000070 60 66 38 3f d0 0b 07 3f 5e 7b ce be 71 44 1a bf
       0.7203121 0.527524 -0.40328497 -0.60260683
000080 48 05 02 bf a2 ab 18 3f 6c 36 b3 be ce 17 00 bf
       -0.5078931 0.5963689 -0.35002458 -0.50036323
000090 68 7c 2c 3f ef 88 23 3f 1a 46 59 3f 1a bc 17 bf
       0.6737733 0.6388082 0.8487259 -0.59271395
0000a0 a2 08 08 3f c8 d3 0b bf 97 13 0e bf bc 34 85 3e
       0.5313817 -0.5462003 -0.5549864 0.26016796
0000b0 a9 cc ff 3e 67 23 de 3e 82 0a e1 3e 9d d3 d2 be
       0.4996083 0.43386385 0.4395333 -0.41177073
0000c0 63 4a 47 3f f3 f7 09 3f a9 8d a7 3e df 0a 21 bf
       0.7784788 0.53893965 0.32725266 -0.6290721
0000d0 11 7e 28 bf d8 5d 53 bf 53 26 0e 3f 7c 87 3d bf
       -0.6581736 -0.8256507 0.5552723 -0.7403486
0000e0 b0 74 2c 3f 47 de 87 be b9 cb 0e bf e8 2c 37 3f
       0.6736555 -0.26536772 -0.55779606 0.71552896
0000f0 b3 26 03 bf 0d a9 00 3f da 1d 12 3f 75 97 9a 3e
       -0.51230925 0.5025795 0.570768 0.30193678
000100 a6 21 29 3f 37 e2 35 3f 5e 50 de 3e dc c4 bb be
       0.6606697 0.710483 0.4342069 -0.3667363
000110 3a 3f 19 bf 01 4d bb 3f b7 28 a8 3f 1e 51 32 bf
       -0.598621 1.4632875 1.3137425 -0.69655025
000120 43 93 22 bf 33 61 95 bf 29 a8 b8 bf d3 4c af bf
       -0.63505954 -1.1670288 -1.4426318 -1.369532
000130 27 fa 05 3f b8 62 0f bf 4a 0b e3 3f 13 2d 0d 3f
       0.5233483 -0.5601001 1.773782 0.551469
000140 cd 4d 08 3f 4c 5f 3c 3f ba ab 18 3f 41 77 20 3f
       0.53243715 0.7358291 0.59637034 0.6268197
000150 c6 8d be be 71 4a 3a 3f d7 f0 26 bf be fb 0a 3f
       -0.3721754 0.7276984 -0.6521124 0.5429038
000160 bb a8 6c bf ed 6b 2c bf 1c c3 0c 3f 0f db 9f bf
       -0.9244496 -0.6735218 0.54985213 -1.2488726
000170 9e f8 3b 3f 1e f1 57 bf 32 54 07 3f fd e4 15 bf
       0.73426235 -0.8435229 0.52862847 -0.58552533
000180 86 61 8e bf 1d 3c 3b 3f 8e 16 47 3f d9 1f ec be
       -1.1123512 0.731386 0.7776879 -0.46118048
000190 e1 f1 b5 bf 34 90 e9 3e 6f 6a 30 bf 5f 48 07 bf
       -1.421444 0.4561783 -0.68912405 -0.52844805
0001a0 9c 8d 6c bf ab c4 ce 3f da c5 2e 3f c4 70 23 bf
       -0.9240358 1.6153768 0.6827065 -0.6384394
0001b0 72 94 64 bf 0a 38 21 bf 9f 2b 26 bf fd de cc 3e
       -0.8928901 -0.62976134 -0.6491031 0.40013877
0001c0 47 97 1f bf 69 ef 29 bf eb e4 3c bf ab e5 df be
       -0.62340206 -0.66380936 -0.737868 -0.4372991
0001d0 f7 19 0d bf 1d 36 f5 3e b9 cc 56 bf e4 34 f0 be
       -0.55117744 0.47892848 -0.8390613 -0.46915352
0001e0 1d e3 f3 3e ec 6e 0a 3f b5 d2 89 bf b5 51 3a bf
       0.4763421 0.54075503 -1.0767428 -0.72780925
0001f0 c6 46 34 bf 0d da 1b bf 4d 9b 76 3f 2a e3 db 3e
       -0.7042049 -0.60879594 0.9633072 0.4294675
