model_zoo/BC/LunarLander-v2/net_95508.pth (torch, 141769 bytes, 8 tensors)

layers.0.weight f4 [128, 8]
000000 f9 8e 8e 3e 9e 99 ff bd cf 4b b3 be 44 9e e8 bd
       0.27843454 -0.12480472 -0.35018775 -0.11358312
000010 f5 9a d5 3e c8 0a 01 3d fb 49 ec bb 8b 88 e9 3e
       0.41719785 0.031504422 -0.0072109676 0.45611987
000020 0e 60 76 be 59 76 e3 bd ef 10 9d bc a4 3e 99 3d
       -0.2406008 -0.111065574 -0.019173114 0.07482651
000030 fe 5b e2 be 82 7e ba be f4 6e 04 3f 68 bf b1 bd
       -0.4421081 -0.36424643 0.517318 -0.08679086
000040 3b cf ce 3e 3c c9 4d be ce 5e 08 be 66 8e 49 be
       0.4039248 -0.20096296 -0.13317415 -0.19683227
000050 b8 ea d0 be ff 01 b6 be 09 cc 5e 3e aa eb 82 be
       -0.40804076 -0.35548398 0.2175752 -0.25570422
000060 e0 af 44 3e 52 1b d1 3e 17 73 3b bd 77 a9 67 3e
       0.19207716 0.40841156 -0.045764055 0.2262324
000070 ed 5d 38 3e 6e 9f 6e be 87 1c 65 be 7a c6 5e be
       0.1800458 -0.23303005 -0.22374164 -0.217554
000080 e9 fd eb 3e e3 df 8b be 1a 6f 60 3e d7 a5 00 3f
       0.46092156 -0.2731925 0.21917382 0.5025305
000090 d0 d0 93 3e e0 f9 80 3e ae e1 3a 3e c3 31 73 3c
       0.2887025 0.2519064 0.18250152 0.014843407
0000a0 65 4c 72 3e 29 f5 ce 3e ea 44 f7 bd a4 15 de 3e
       0.23661955 0.40421417 -0.12073691 0.43375885
0000b0 8f 4b 3f 3d 8f e4 9e be 5b 1d b5 be 79 48 c9 3b
       0.046702918 -0.3103375 -0.3537396 0.0061426726
0000c0 54 99 ec bd 12 ad 62 be 84 38 5c 3e 38 a3 8a be
       -0.115526825 -0.22136334 0.21505934 -0.2707765
0000d0 a9 4b 3d be 0d d8 6e bd 3f 5e c5 bd a4 eb b6 be
       -0.18485893 -0.05831151 -0.09637117 -0.35726655
0000e0 0c 73 4c be 47 08 e3 bc a9 51 2e be f6 ed cb 3e
       -0.19965762 -0.027713908 -0.17023338 0.39829987
0000f0 7a 41 92 bd 11 a0 97 be cb 74 3a 3e 31 56 d4 3d
       -0.07141395 -0.29614308 0.18208615 0.10368002
000100 13 07 b0 be 3d 8a df be 4f 80 98 3e e3 1c c8 be
       -0.34380397 -0.43660155 0.29785392 -0.3908454
000110 37 40 c2 3e e0 8e 5b 3e ec b6 97 3e 70 2d a5 be
       0.37939617 0.21441221 0.29631746 -0.3226123
000120 96 cf 2a 3e 89 96 c6 be 30 c3 49 3e fb 82 80 3e
       0.1668075 -0.38786724 0.19703364 0.2509993
000130 32 e6 09 3c 3a d0 91 be e4 7e 2e be af ce 05 be
       0.008416699 -0.28479177 -0.17040592 -0.13067125
000140 f8 53 08 3f 1e 94 84 3e 2d 5a ae 3e 53 2d 68 be
       0.53253126 0.25894254 0.34053174 -0.2267354
000150 74 95 99 3d 7f 07 83 be 69 da 1f be 4c fa 4f be
       0.07499209 -0.25591657 -0.1561066 -0.20310324
000160 75 b3 0e 3e f5 32 8a 3e f2 08 5f 3d fb 88 d3 3e
       0.13935645 0.26992002 0.05445189 0.41315445
000170 c9 53 c3 be 74 03 3d 3e 5d 7c 56 3e 8d 8c aa 3e
       -0.3814986 0.18458349 0.20945878 0.33310357
000180 12 4e ff 3d 71 1f d6 be 63 63 98 3e 34 8e 12 bd
       0.124660626 -0.41820863 0.29763326 -0.035780147
000190 28 14 46 3d a8 db db be e2 5c 41 3e 43 84 12 3f
       0.048359066 -0.42941022 0.18883088 0.57233065
0001a0 b7 b2 48 3e a3 ca b9 3e 58 0b 8b 3d 03 b7 cb 3e
       0.19599424 0.36287412 0.06789273 0.39788064
0001b0 5b 2f ac be 18 32 0a 3e 4b 27 aa 3e 97 ed 35 3e
       -0.3362988 0.13495672 0.33233103 0.17766415
0001c0 b6 04 f6 3e 6f 22 83 3e fc ba ad 3e c2 9f 61 be
       0.4805047 0.25612208 0.3393172 -0.22033599
0001d0 aa 7a ed bc 76 39 e1 be 43 2d a7 3e 4d fd b5 3e
       -0.028989155 -0.43989152 0.3265172 0.35544816
0001e0 bb af 00 bf b9 7e 46 3d 26 c6 ad be f9 23 3e 3e
       -0.50268143 0.048460696 -0.33940238 0.1856841
0001f0 97 eb 4d be 4b 9d ce 3d 5a 00 bd be 96 87 8a 3c
       -0.20109402 0.10088595 -0.3691433 0.016910356
000200 c3 96 04 3f ea 9e 67 3e 57 a3 da 3e 8e be b5 bd
       0.51792544 0.22619215 0.42702743 -0.08874236
000210 cd 5b b2 be 84 cd 8e be 86 5d ae be 89 c6 b3 be
       -0.34835663 -0.2789117 -0.34055728 -0.35112408
000220 42 08 58 3e 7c f0 ef 3d 4a e0 55 3e f4 10 e5 3e
       0.210969 0.11715791 0.2088634 0.44739497
000230 a0 75 95 bc 02 33 e0 be f0 72 d8 3d 16 a2 25 3e
       -0.018244565 -0.43788916 0.105687976 0.16175112
000240 3b 18 cf 3c e1 55 cb be a5 e3 b7 3e 62 ef e4 be
       0.025280109 -0.39713958 0.35915866 -0.44713885
000250 b2 76 85 3e 6f a5 7c bd 11 3c 8c 3e af 02 92 be
       0.2606712 -0.061681207 0.27389577 -0.28517672
000260 12 c9 eb 3e 06 79 4a 3e 0e 5e a7 3e 70 79 93 3e
       0.46051842 0.1977273 0.32688946 0.28803587
000270 43 ff 94 3e f4 c9 40 3e b3 c3 a3 bd 01 f0 c6 3e
       0.29101 0.18827039 -0.07996311 0.38854983
000280 06 03 a6 3e f9 4b 95 be dd 81 b6 3c 77 81 6c be
       0.32424182 -0.29159525 0.02227872 -0.23096262
000290 2c d5 b3 be a8 ec 23 bc 27 f7 7f be 86 fe da bd
       -0.35123575 -0.010005154 -0.24996625 -0.10693078
0002a0 aa 81 53 be 58 12 9f 3e 1f ab ce 3d 8f a5 97 be
       -0.20654932 0.31068683 0.100912325 -0.296185
0002b0 a0 13 7e 3e f6 7e f3 3e a0 a1 96 3e 79 ee c9 3e
       0.24812174 0.475578 0.29420185 0.39439753
0002c0 c8 82 12 3e 02 b6 28 bd b1 ca d1 be 07 39 80 be
       0.14307702 -0.0411892 -0.40974954 -0.25043508
0002d0 86 cf 98 3e 68 53 b8 3e 9b de b3 3e a9 5a 5e 3e
       0.29845828 0.36001134 0.35130772 0.21714272
0002e0 11 e6 29 3f 01 2a 62 be 13 3a 3a be 16 8a 74 3d
       0.6636668 -0.22086336 -0.18186216 0.059702
0002f0 c9 b1 ad be 9a d9 f7 3d 3a 22 38 bd 2d c8 12 be
       -0.33924702 0.12102051 -0.044954516 -0.14334174
000300 ef 20 d8 3c b4 01 91 3e 1a 58 bb 3e eb e1 a8 be
       0.026382891 0.28321612 0.36590654 -0.32984862
000310 97 35 e3 bc 0e 0c 13 3e 00 2b 8d 3e 2a 6e a5 bd
       -0.027735515 0.14360067 0.2757187 -0.08077653
000320 54 79 ea 3e ef f2 a9 3e 4f 97 1c bd c2 10 8b bd
       0.4579569 0.33193156 -0.038230237 -0.06790306
000330 33 ef 73 3e db ac 9c 3e 6e 81 49 3e 77 f9 a0 3e
       0.23821716 0.30600628 0.1967828 0.31440327
000340 81 ac 5d 3e cc 9d 1a bd a7 f3 80 be 01 98 d1 3e
       0.21647836 -0.037748143 -0.25185892 0.40936282
000350 f5 b1 3d 3e 56 59 70 3e c5 33 07 3e 04 ff 24 be
       0.18524916 0.23471579 0.13203342 -0.16112906
000360 ad 72 67 3e 12 99 c3 3e d9 29 8a 3e 7f 63 8a 3d
       0.22602339 0.3820272 0.26985052 0.067572586
000370 b6 46 74 3e c8 76 11 3f 4b f7 57 be 14 9e b7 be
       0.23855099 0.5682187 -0.21090429 -0.35862792
000380 b9 2a e4 3e 17 bc 23 3e b6 48 03 be f4 b4 34 3e
       0.44563845 0.1598972 -0.12820706 0.17647153
000390 f0 e0 a0 be 82 e9 85 be 1c 79 98 3e 75 2a b1 3e
       -0.31421614 -0.26154715 0.297799 0.34602705
0003a0 27 c9 19 bf 9c 67 b7 bd 36 54 b3 3e 44 ad 61 bd
       -0.6007256 -0.08955309 0.35025185 -0.05509688
0003b0 09 71 ad be 02 e5 9e bd a4 4c a8 be 49 21 17 be
       -0.338753 -0.077585235 -0.32870972 -0.14758791
0003c0 83 65 90 3e 56 23 b2 be ab 6d 8c bd e1 f3 f8 3c
       0.28202447 -0.34792584 -0.06856855 0.030389728
0003d0 35 48 bf be c8 57 c3 be 40 fd 56 3e da 54 b0 3e
       -0.37359777 -0.3815291 0.20995045 0.34439737
0003e0 1b bb cf be 7a 09 d4 3e db ea 98 be 99 55 99 b8
       -0.40572438 0.4141348 -0.2986668 -7.311552e-05
0003f0 ae 1a 8a be ad 6a f4 bd be b2 67 bd 1d 64 49 3d
       -0.2697348 -0.11934409 -0.056566946 0.04916774

layers.0.bias f4 [128]
000000 69 c4 58 be 41 f9 ac bc 69 d3 98 be 24 39 9d be
       -0.21168675 -0.021114947 -0.29848793 -0.30707657
000010 6e b0 c1 bb 3e f3 0b be 2f 27 00 be 62 ad 02 bb
       -0.0059109246 -0.13667008 -0.12514947 -0.001993977
000020 3e 22 37 bd 28 b0 17 3e 5b c6 5a be 8f 18 70 be
       -0.04471039 0.14813292 -0.21364729 -0.23446868
000030 1f 7c 37 3e 4e 89 8f 3e d4 07 11 3e 54 c9 41 3c
       0.17918442 0.28034443 0.14163142 0.0118277855
000040 5c 68 dd 3d 91 13 60 3d 3b 3f a2 3d 12 48 80 3d
       0.108109206 0.05470616 0.079222165 0.06263746
000050 ab 1d 45 be c9 57 59 3e 34 fa 83 3e f6 54 a7 3e
       -0.19249599 0.21224894 0.25776827 0.32682008
000060 18 ea 50 3e c1 64 fe bd a0 98 02 3e 8e 81 cc bd
       0.204018 -0.12421561 0.12753534 -0.09985648
000070 ee f1 28 3e c6 b6 2f be c1 a4 0a be 46 bf 8b be
       0.16498539 -0.17159566 -0.13539411 -0.27294368
000080 54 b7 8d be 00 d8 00 3e 48 48 70 be 6b ef 4c 3e
       -0.2767893 0.12582397 -0.23465073 0.20013206
000090 65 c6 c3 3c 83 8e 62 be e8 5b 6f 3e 1a 5f f6 bd
       0.023898313 -0.22124676 0.23374903 -0.12029858
0000a0 12 dd c0 3a 63 50 21 be ae da 18 3e 89 12 69 3e
       0.0014714322 -0.15753321 0.1492717 0.22760977
0000b0 b1 af 76 3c 45 16 92 3e 4e 7c 90 3c f3 e8 99 3e
       0.0150565365 0.28532615 0.017637398 0.3006054
0000c0 ca 8d 12 be 3a 6e 98 be d1 18 29 3e 2b 19 f4 3d
       -0.143119 -0.29771596 0.16513373 0.11918863
0000d0 72 52 67 3e 22 f0 fc bd 49 7f 74 3e 72 ab 8f 3e
       0.22590044 -0.12350489 0.2387668 0.2806049
0000e0 f1 ef 6f 3e 4b ad 31 3e 46 9e 24 3e e2 e8 30 3e
       0.23431374 0.17351262 0.16076002 0.17276338
0000f0 97 02 bd bd 4f ec 0a bd 6a 29 94 3e 89 53 8b bb
       -0.092290096 -0.033916768 0.28937846 -0.0042519015
000100 35 24 f4 bd 8a 2f 33 3e db 90 ac bd e9 89 86 3c
       -0.119209684 0.17498603 -0.084260665 0.016423183
000110 c0 a6 22 bd 18 b0 f8 3d da 4e 2d 3d 03 da 70 bd
       -0.039709806 0.12142962 0.042311527 -0.058801662
000120 53 51 e0 bc db 4f 2d 3e 69 7e 85 3e 22 d1 d9 bc
       -0.027382528 0.16924994 0.26073006 -0.02658898
000130 4f 48 9a be fc dc 21 bd f5 1b 81 bd 44 fb e5 bd
       -0.30133292 -0.039517388 -0.063041605 -0.11229566
000140 26 49 4b 3e b6 07 be bc 56 61 8e 3e 1a 50 ad 3d
       0.19852123 -0.023197036 0.27808636 0.08462544
000150 14 75 9e 3d 90 ca 99 be f5 15 56 bd 12 5e 94 3e
       0.07737175 -0.30037355 -0.052267034 0.2897802
000160 83 82 71 be c9 b5 fb 3d 4b aa 71 be 07 66 0f 3e
       -0.23584943 0.12290532 -0.23600118 0.14003764
000170 ba cc 54 be d7 b7 7f 3e c6 c9 3e 3e 7d 2e 3d 3e
       -0.20781222 0.24972473 0.18631658 0.18474765
000180 aa 66 68 be 08 9d 86 3e 21 a0 a2 be 52 87 0c 3e
       -0.22695413 0.2629168 -0.31762794 0.13723496
000190 e1 48 89 3e fa 15 71 bd cb 70 54 3e 8a e8 f9 bd
       0.26813415 -0.05885885 0.20746152 -0.122025564
0001a0 5b d2 24 be 78 50 03 3e 7c bb ea 3c b8 22 4c be
       -0.16095869 0.12823665 0.028653853 -0.19935119
0001b0 f1 91 39 3e 4b a9 03 3d 64 1c 8b 3e 6b 71 92 3e
       0.18122078 0.032143872 0.27170098 0.28602156
0001c0 f1 ac 16 3e 81 cf fa 3d 67 fa 55 3e 32 47 89 3d
       0.1471441 0.122466095 0.20896302 0.067030326
0001d0 73 70 83 be 49 5d 62 be 42 f0 02 bd ca e1 90 3e
       -0.2567173 -0.22105898 -0.03196741 0.28297263
0001e0 7a 26 d3 bd 66 5c a9 3e 9d 64 33 3e 60 10 f8 3d
       -0.10310073 0.33078307 0.1751885 0.12112498
0001f0 c7 97 6c be 62 41 8e be 39 3f 90 be fc f1 2c 3e
       -0.23104773 -0.27784258 -0.28173235 0.16889185

layers.1.weight f4 [128, 128]
000000 9b 1c 15 bd 51 33 99 3d b2 b5 c0 bd 6f 72 59 bd
       -0.036404233 0.07480491 -0.09409656 -0.053087648
000010 5e 8a 0b 3e c9 b4 56 bd 5b 1d a6 bc f1 3d c7 3d
       0.13627002 -0.052418504 -0.02027767 0.09728611
000020 dc 6c 33 3d c1 21 ae 3d 74 18 0f bd d5 81 d7 3d
       0.04380499 0.08502532 -0.03493543 0.1052281
000030 5d 23 78 bd 40 34 56 3d 0f 8b 2e bd 8b 52 47 3d
       -0.0605806 0.052295923 -0.042613085 0.048662703
000040 fd 0a 7d bd 85 05 f1 bc 0f 77 9d b9 67 b8 21 3e
       -0.061778057 -0.029421577 -0.0003003408 0.15793
000050 84 3b 28 bd 40 ce 94 3d 1a ee 9c 3d e2 58 11 bd
       -0.041072384 0.072659016 0.07662602 -0.035485156
000060 ba 84 81 3d 6a 51 13 3d 66 8a 89 3c 9d da 57 3b
       0.06324144 0.035966314 0.016789626 0.00329367
000070 ed 58 b2 3c 05 30 eb bc 97 66 d8 bb 51 ee 36 bd
       0.021770919 -0.028709421 -0.0066040265 -0.04466087
000080 54 94 23 3c ab 47 e3 bd ff d0 21 3d 86 98 05 bb
       0.009984095 -0.11097654 0.039505955 -0.00203851
000090 a4 cd dc bd e9 98 b2 3d 07 7b 94 3d 77 aa 2f bd
       -0.1078141 0.087205715 0.07250028 -0.042887177
0000a0 ac 01 96 bc 93 a6 12 3c fa 73 5b bc 06 32 b4 3d
       -0.018311344 0.008950847 -0.01339435 0.08798604
0000b0 bd c3 62 bc 24 5e 2d 3c 72 de a3 3d 2a 9f cc 3d
       -0.013840613 0.010581527 0.080014125 0.09991296
0000c0 bd ae a7 bc fc 61 9d bc c0 cf dc 3d de 74 d4 ba
       -0.020469064 -0.019211762 0.10781813 -0.0016209146
0000d0 5a 31 a1 3d 75 76 a5 bd 10 ad ee 3d f1 a8 f3 3c
       0.07870741 -0.080792345 0.11654103 0.029743643
0000e0 66 f4 1f bd c8 7d a3 3d ed fe df bd df 00 19 bd
       -0.039051436 0.07982975 -0.10937295 -0.037354346
0000f0 32 2f a2 3c f2 ad ff bd 1b 5b 5b 3d bf 87 2a be
       0.019797895 -0.12484349 0.05355368 -0.16653346
000100 70 01 78 bd ab eb 0a 3e 29 8c d0 bd 3b 81 ac bc
       -0.060548246 0.13566463 -0.101829834 -0.021057716
000110 a9 b6 35 3e f0 7c 0b 3e 33 62 9c 3c 39 5a cc 3d
       0.1774546 0.13621879 0.019089794 0.09978146
000120 0b b3 be bd d4 99 bb 3d c0 82 5b 3c 1f e1 65 3d
       -0.093114935 0.091602 0.013397872 0.056122895
000130 62 2e 24 bd 32 dc 17 3d 2e 78 5e 3d e9 d4 05 be
       -0.040083297 0.03707523 0.05431383 -0.130695
000140 8f 69 45 3d 75 2e 6b 3d 6d 94 fe 3d 13 e2 e2 3d
       0.04819637 0.05741735 0.12430654 0.110782765
000150 18 04 17 3e 61 b7 95 3d f4 23 8a bd 8f a4 df 3d
       0.14747655 0.073103674 -0.06745139 0.10920059
000160 b7 45 5c 3d 37 e3 69 3d 05 93 80 3d 1d 9f a6 3d
       0.053777423 0.057101455 0.06278042 0.08135817
000170 c2 16 9a bc 99 8e 94 3d d2 17 61 bd da 6a f6 3d
       -0.01880968 0.07253761 -0.054954357 0.12032099
000180 3d 6c 3b bd 10 e7 bd 3d 88 81 52 bd 09 b8 f4 bc
       -0.04575752 0.09272587 -0.051393062 -0.029872911
000190 19 dd f6 3d 53 ad a2 3a e9 e6 72 3d 40 00 49 3d
       0.1205389 0.0012411274 0.059302244 0.049072504
0001a0 1f 1f 86 3d 1f 4b d0 3d 10 d9 48 bc 61 32 5b 3d
       0.06548905 0.10170578 -0.012258783 0.053514842
0001b0 12 f5 80 bb ac 35 fc bd 9f 55 38 3d f1 9c 1d 3c
       -0.0039354647 -0.123149246 0.04500353 0.009619937
0001c0 dc ba a1 3d 8e b6 d6 3c a5 07 0c 3c eb c4 95 bd
       0.07896969 0.026210096 0.0085467445 -0.0731295
0001d0 8f dc 63 3b 60 2c b8 bb 19 9e 26 3e cd 3d 34 bd
       0.0034768914 -0.0056205243 0.16271247 -0.04400425
0001e0 12 13 4e 3d ed c3 bf 3d ca a1 95 3d 49 d6 d4 bc
       0.050311156 0.09363542 0.073062494 -0.025981085
0001f0 08 32 2c 3d f2 f2 a6 bc b9 ad 11 be d3 59 11 3e
       0.0420399 -0.020379517 -0.14226426 0.14194421
000200 d3 f5 73 bd 49 e3 a8 bd e4 d2 18 3d 96 06 9c bb
       -0.059560608 -0.08246476 0.037310496 -0.0047615273
000210 4d b5 50 3e e7 17 82 bd f2 2f 9c 3e 30 ed 20 be
       0.20381661 -0.06352215 0.3050533 -0.1571548
000220 74 4b 5b 3e 3f 85 ca 3c 37 f3 99 3e 4a 9a 68 3e
       0.21415502 0.02472174 0.3006837 0.22715107
000230 20 ac 1d 3d 09 50 4d 3d 87 5d 92 3d b7 e6 2e be
       0.03849423 0.050125156 0.07146745 -0.17080198
000240 9c 51 69 3e c1 d3 ba 3d e8 c7 1c 3e ae 4d 82 3e
       0.22785038 0.0912242 0.15310633 0.2544989
000250 e2 b2 e1 3d 98 5b 06 3e 27 b9 92 be f1 59 30 be
       0.11020447 0.13120878 -0.28656885 -0.1722181
000260 1b cf 21 3e 8c f5 d0 3d d9 d8 3e be ea cb 83 3e
       0.1580166 0.10203084 -0.18637408 0.25741512
000270 a7 35 1d be 5a 79 5a 3e 4b 46 1e bd e2 a3 23 bd
       -0.15352498 0.21335354 -0.038641255 -0.039951213
000280 fb 2c c0 bb f9 e4 22 be 73 b2 98 3d 61 b3 d8 bd
       -0.005864737 -0.15907659 0.074559115 -0.10581089
000290 11 72 65 3d 4a 9f 0f 3e a7 5a 4e be a3 58 a1 3d
       0.056016985 0.14025608 -0.20151769 0.07878234
0002a0 3b a4 f6 3d 24 a6 3b 3e 42 e8 cd be 39 d8 13 be
       0.12043043 0.18325096 -0.4021626 -0.14437951
0002b0 a0 e6 78 be 87 1f 83 bc a5 81 14 be 83 d4 f0 bd
       -0.24306726 -0.016006244 -0.1450258 -0.117592834
0002c0 87 13 68 3e 9f 7e 8c 3e 8d 1d 8f be 91 ce b5 be
       0.22663699 0.27440354 -0.27952233 -0.3550916
0002d0 77 2f 50 be 41 bd 2a be b4 a8 33 be c5 69 10 be
       -0.20330606 -0.16673757 -0.17544824 -0.14102848
0002e0 b2 6f cd be 45 33 06 be d4 3c ed be 75 a2 d8 bd
       -0.4012428 -0.13105495 -0.4633547 -0.10577861
0002f0 85 5a 67 3c 38 13 c5 3d 87 1e 3d be dd 4f 8d bd
       0.014120703 0.09622806 -0.18468677 -0.06899998
000300 fa e8 12 bc a9 a0 01 3c 29 87 31 3e 9c a9 1d be
       -0.008966679 0.0079118395 0.17336716 -0.15396732
000310 ee 06 91 3e 15 f1 57 be 2a 10 49 3e b5 9b 1d 3e
       0.283256 -0.21088059 0.19635072 0.15391429
000320 40 5f 1a be 79 71 d2 be af 11 46 bc 12 dd 8c 3d
       -0.15075397 -0.41102198 -0.012089177 0.06878103
000330 6f c0 e9 bd 71 93 b6 3e bd 76 be bc 81 10 f5 3d
       -0.11413657 0.35659364 -0.023249978 0.119660385
000340 75 31 35 bf e1 bf 21 3e f0 4a ff bd f0 5e a8 be
       -0.7077859 0.15795852 -0.12465465 -0.32884932
000350 e0 6a c6 bc a5 a3 d8 bd b9 d3 9b be 8f d9 8d 3d
       -0.024220884 -0.10578088 -0.3043497 0.06926262
000360 d5 5f 9e 3d 72 95 cc 3d d9 31 20 3e 8e 67 fc 3b
       0.07733122 0.09989442 0.15644015 0.0077027744
000370 26 15 2d be 08 83 0e 3c a6 ea e3 bd 80 ac 35 be
       -0.16902599 0.0086982325 -0.1112874 -0.17741585
000380 bf 01 d7 3e 00 72 61 bd 78 59 db 3c 96 1a 5b be
       0.4199352 -0.05504036 0.02677606 -0.2139686
000390 0c 84 2c be ea f8 c8 3d 36 d2 bd 3d 69 34 f9 3d
       -0.16847247 0.098131016 0.0926861 0.121681996
0003a0 f5 f4 1a 3c 41 a4 24 3e 1a d0 e7 3d 2c 02 ca 3d
       0.009457816 0.16078283 0.11318989 0.098636955
0003b0 f0 10 a5 bd 82 67 1b 3e 15 cf 6e 3d c0 2a 5b bd
       -0.08059871 0.15176204 0.058302958 -0.053507566
0003c0 c4 85 77 3e e6 a8 e8 bc 27 69 5b 3d 6e 12 72 be
       0.24172121 -0.02840085 0.053567078 -0.23639843
0003d0 aa e6 a1 3c 04 2d 41 be c5 1b 07 3e 24 32 52 be
       0.01976331 -0.18864828 0.13194187 -0.2052694
0003e0 04 fc 0a be 13 86 ac bd b1 d5 8f 3d 82 31 bb bd
       -0.13572699 -0.0842401 0.0702318 -0.09140302
0003f0 5d 62 e9 3d 3d 14 3d 3e cb a0 e1 3e 69 c2 ec 3d
       0.113957144 0.18464752 0.44067988 0.11560518

layers.1.bias f4 [128]
000000 2f ed 8e 3d d9 c1 ab bd 2f b5 1e 3c 97 53 15 bd
       0.06978833 -0.08386583 0.009686752 -0.03645667
000010 ae 11 de 3b d3 70 19 3d c9 79 1a bd a7 50 61 3d
       0.00677701 0.037461113 -0.0377138 0.055008557
000020 a8 df d1 3b ad 2f 2d 3d 1e a2 f1 bd ea 96 3d 3d
       0.0064048357 0.042281795 -0.117984995 0.0462865
000030 4c 84 0a bd 7d 49 0c 3c 8b fa 8a bd f9 de 7a 3d
       -0.033817574 0.008562443 -0.067860685 0.0612478
000040 f1 67 db 3d 9b b3 ee 3c 9e df 71 3d 68 c4 17 3c
       0.107131846 0.029138377 0.05905115 0.0092631355
000050 f7 19 81 3c be 1d 84 3c 26 1c 35 3d 4a 1e 1a bd
       0.015759451 0.016127463 0.044216298 -0.037626542
000060 13 cd a2 3d 49 86 b9 bd 4d 66 2e 3d f8 9c 1f 3c
       0.07949271 -0.09058816 0.04257803 0.009742014
000070 c6 15 aa 3d 0d 62 87 3d 29 ca 9e bd 05 ed 95 bd
       0.08304934 0.066104986 -0.07753403 -0.073205985
000080 7a 99 60 bb c0 77 11 3d e8 4f ac 3d 75 05 c7 bc
       -0.0034271167 0.035514593 0.084136784 -0.024294594
000090 f7 d0 20 bd b0 f7 a4 3d 9d 1b bf 3b 02 9e b8 3d
       -0.039261784 0.08055055 0.005832149 0.090145126
0000a0 1d 3d 88 bc 0a cd 46 3b 31 2f 51 3d 04 95 98 3d
       -0.016630704 0.0030334615 0.051070396 0.074502975
0000b0 42 52 0d bd 14 58 87 bd db fd ab bd 6f b6 b2 bd
       -0.034502275 -0.066085964 -0.083980285 -0.08726203
0000c0 53 16 65 bc 01 04 df bc 6b 40 c1 3b 80 db a3 3a
       -0.013982373 -0.027223589 0.005897572 0.0012501329
0000d0 be 04 8d 3d 4d 72 72 3d aa 27 e3 3c 4d 3d a3 3d
       0.0688567 0.059191037 0.027728874 0.079706766
0000e0 27 17 8a bb e3 9d e9 3c c6 9a 3c 3d 1e 19 c7 3c
       -0.0042141858 0.028517669 0.04604604 0.024303969
0000f0 ca 1f a1 bd bf 26 5f 3d ce ac bf 3b 3c 64 fb 3c
       -0.078673914 0.05448031 0.0058494573 0.030687444
000100 bb ca c9 39 b8 16 9e bc 9f f2 cb bd 78 d1 67 3d
       0.00038488753 -0.019297943 -0.09958386 0.05659625
000110 e6 4d 96 bc 3a 05 99 3d 38 ff c8 3c 22 2c c7 bd
       -0.018347692 0.074717 0.02453576 -0.097252145
000120 de 0b 3d bd 1a f4 e7 bc b3 0f 9d 3d 2f fc 2f 3d
       -0.046153896 -0.028314639 0.0766901 0.04296511
000130 94 1b 02 bd 5f 6f b7 bc 8c 5d b9 3d e5 a4 02 bd
       -0.03176458 -0.022391973 0.09051046 -0.031895537
000140 5b d2 89 3d df aa 36 3d 8d 00 a4 3c ed 81 81 bd
       0.06729575 0.04459655 0.020019794 -0.063236095
000150 df 19 b1 3b 79 3b d0 3c c6 9f a7 3c 53 01 c0 bd
       0.0054046954 0.025418984 0.020461928 -0.093752526
000160 9b 59 89 3d 90 87 a0 3c d4 c0 b5 3c 09 99 8f 3c
       0.06706544 0.019595891 0.022186674 0.017529028
000170 29 0e 80 b9 f4 90 8b bd 1b 50 9c b8 b5 ca 87 bc
       -0.00024424613 -0.06814757 -7.4535805e-05 -0.01657615
000180 bd 75 3a bd 54 75 97 3c 2a 6d 4d 3d 2c 07 1d 3d
       -0.04552244 0.018488564 0.050152935 0.038336918
000190 76 8f 1b bc 34 c5 25 3e b1 1f 83 3d 36 1d d6 3d
       -0.009494653 0.16188508 0.06402529 0.1045479
0001a0 b0 fc 8e bd 8d e2 31 3d af b6 4d bd fe 08 75 bd
       -0.0698179 0.043428946 -0.05022305 -0.05982303
0001b0 c9 9e b0 3d 61 4a 3c 3d 57 75 94 3b 1c 22 c5 3d
       0.08624036 0.04596937 0.0045305896 0.096256465
0001c0 25 f3 5f 3c 50 5c e2 bc 59 26 66 bd 31 de 9f 3a
       0.01366881 -0.027631909 -0.056188915 0.0012196956
0001d0 ea 70 0a 3d c5 3a a1 3d 18 ce 81 bd 23 9b 69 bd
       0.03379909 0.078725375 -0.063381374 -0.057032716
0001e0 5b b5 27 3c 6e e1 fc 3b 52 04 30 3d f2 b8 aa bd
       0.01023611 0.007717303 0.04297287 -0.08336057
0001f0 89 25 a8 3c 7b f3 4e 3d 3a 66 97 3c 50 f2 9d bd
       0.02052571 0.05052517 0.018481363 -0.07712233

layers.3.weight f4 [128, 128]
000000 5b 03 09 3e ab 64 55 3e cc ae cb 3d 67 5a 20 3e
       0.13380186 0.20839183 0.09945449 0.15659486
000010 a8 3d e6 3d 24 6a 0c 3e a3 0c 72 bd 2f 87 10 3e
       0.11242229 0.13712364 -0.059094083 0.14114068
000020 3f 6d 96 3d dd be a1 3b 0e d8 9e ba 64 27 ce 3d
       0.07345056 0.0049360828 -0.0012118833 0.10066107
000030 37 68 eb 3c 47 b8 2f bd 39 e7 2e bd ea 72 e5 b9
       0.028736217 -0.04290035 -0.04270098 -0.000437639
000040 34 d4 ed bd f2 11 6e bd 4c 74 9e bd 71 a6 55 3d
       -0.1161274 -0.058122583 -0.077370256 0.052160684
000050 7c e9 48 3c 1b 2f 51 bd 6b cf ac 3d dd 39 3d 3d
       0.012262698 -0.051070314 0.08437999 0.04619776
000060 e6 3e 88 bd 1c 9b 2c bb dc 49 3f 3d c7 4f 13 3e
       -0.06652622 -0.002633757 0.046701297 0.14385901
000070 1c 94 6b bc a7 d2 93 3e e7 38 95 3d f1 b1 9d 3d
       -0.014378574 0.28871652 0.07286244 0.07699955
000080 e6 b2 85 3d 53 4b b7 3d 2f 45 96 3d b9 f0 10 bb
       0.06528263 0.08949914 0.073374145 -0.0022116138
000090 43 42 5e bd 38 11 1f bd 9f c0 b4 bb 8b 82 90 3d
       -0.05426241 -0.03883478 -0.0055161263 0.07056149
0000a0 ef 55 95 3d ac 52 7c bc 55 2c 14 3e 34 0e a6 bc
       0.07291781 -0.01540057 0.14470036 -0.020270444
0000b0 65 76 00 3d f3 cd e3 bd fc c4 f2 3c c2 1c 0d be
       0.03136291 -0.11123266 0.029634945 -0.13780501
0000c0 a5 12 99 bd b6 67 ea bc f4 b3 0f bc 66 0d d8 3d
       -0.07474259 -0.028613906 -0.0087709315 0.105494305
0000d0 da 06 aa 3d e3 1b 2c 3d a6 42 13 be 62 ab 59 3d
       0.08302088 0.042018782 -0.14380893 0.05314196
0000e0 ad 0c b4 bd 83 25 31 3d f8 54 0b 3e 96 31 48 3e
       -0.0879148 0.043248665 0.13606632 0.19550166
0000f0 df d4 18 be ef 5a 8d bc 5b c6 0f 3e 63 1b 86 3c
       -0.14924954 -0.017255275 0.1404051 0.01637048
000100 f4 6e 2d bd 2b 26 25 bc b3 cf 95 3e df c7 57 3d
       -0.04234214 -0.010079901 0.29260024 0.052680846
000110 4d 9a 72 bd 63 f6 e7 3d d8 a5 3b 3e 72 bd 03 bd
       -0.059229184 0.113262914 0.18324983 -0.03216309
000120 7a 9f 00 3d aa c3 c4 bb d1 36 91 bd 64 f5 79 3b
       0.03140209 -0.0060047703 -0.070905335 0.003814065
000130 04 30 61 3c d5 a3 e2 3c 11 78 19 3d d7 3b f7 ba
       0.013744358 0.027666012 0.03746802 -0.0018862438
000140 c7 53 3e 3d b0 5a 80 3d 2e bd 90 3d 88 6c 06 3d
       0.046466615 0.06267297 0.07067333 0.032818347
000150 78 ea de bd 13 32 0d 3d 9b aa 94 bc e7 0b ab 3d
       -0.10884565 0.034471583 -0.018147757 0.083518796
000160 5a 5e 34 3d d2 e3 e6 3d 73 4d b6 3d 56 0e 39 bd
       0.044035293 0.11273922 0.08901491 -0.045179687
000170 ae b4 64 3c 0a 73 a4 3d 06 13 d9 bd 8d e6 9a 3d
       0.013959093 0.080297545 -0.105993316 0.07563505
000180 16 68 26 bd 12 90 38 3c 88 27 02 bc c9 b5 90 bd
       -0.040626608 0.011264818 -0.007943995 -0.07065923
000190 4c 65 01 3d 10 d7 e0 bd 25 27 14 3e ad bd ad 3d
       0.031590745 -0.1097852 0.14468057 0.084834434
0001a0 77 5a 21 bd c3 a9 40 3e 49 d2 88 bd 57 e6 86 bd
       -0.039392915 0.18814759 -0.06680734 -0.065869026
0001b0 72 c0 08 3e 16 25 31 3d dd b8 16 bd 7a 70 98 3d
       0.13354662 0.04324826 -0.036797393 0.07443328
0001c0 01 be e2 bb aa bb 37 3e 47 5f 15 3d 2c 83 10 3e
       -0.006919623 0.17942682 0.036467817 0.14112538
0001d0 76 3a 1e 3e a5 41 d2 3d d3 31 f0 bb 99 5f 04 3d
       0.15451989 0.10266427 -0.0073301583 0.03231773
0001e0 d1 23 d3 bc 66 68 6c 3d 33 ce 00 be bd 57 17 bd
       -0.025773915 0.05771675 -0.12578659 -0.036948908
0001f0 2b d8 0f be 2c c2 0d be 6b 5c b1 bc b4 30 3f 3c
       -0.14047305 -0.13843602 -0.021650514 0.011669327
000200 c8 97 52 bd a9 0f c4 be 35 3a bd 3b 6d 66 83 3e
       -0.05141428 -0.38293198 0.005774761 0.25664082
000210 26 79 37 3e 6d 39 86 3d 3d b8 48 bd cb 5c 19 3e
       0.17917308 0.06553922 -0.04900383 0.14976804
000220 a6 d1 46 bd 0f 82 b7 bd 35 53 43 bc 8b af b9 3d
       -0.04853978 -0.089603536 -0.011921694 0.09066685
000230 0d 30 ac bb 86 ff f4 bd f7 56 3f bd 1a 92 f7 bc
       -0.0052547515 -0.119628 -0.046713796 -0.030221034
000240 ff c3 58 3e 28 ca ca 3c 97 d6 22 3c 4f f1 3e 3d
       0.21168517 0.024754599 0.0099388575 0.04661685
000250 58 1e 70 3c 64 39 88 3d c0 7f 4a 3d d3 5d 36 3e
       0.014655672 0.066515714 0.04943824 0.17809229
000260 40 fc 27 bd d7 27 ca 3e 48 9a 78 bc 40 2c e6 bc
       -0.04101205 0.3948352 -0.015173502 -0.028097272
000270 63 63 dd 3d a6 de 58 3e 30 19 b7 3d 4e 88 c2 bc
       0.10809972 0.21178684 0.08940351 -0.023746636
000280 ae ce de b9 71 52 2e 3d c5 39 3a 3e 11 74 f4 bc
       -0.00042497128 0.04255909 0.181861 -0.029840501
000290 cd 0d 48 bd 8a a2 bc bd ed 5c f5 3b f4 12 1b 3d
       -0.048841286 -0.09210689 0.0074878843 0.037859872
0002a0 fd 95 e7 3d 23 44 0b 3d 8b fb 03 3e 4b 18 bb bd
       0.11307905 0.034000527 0.12888925 -0.09135493
0002b0 7b df 8d bd a8 df 4a 3d 32 21 8b bd e9 2a f3 bd
       -0.06927391 0.0495297 -0.06793441 -0.11873419
0002c0 7d a4 78 bd b1 a9 56 be 26 c5 f3 bd 01 2e 59 bd
       -0.060703743 -0.2096317 -0.119028375 -0.05302239
0002d0 9b 44 93 bd 73 b3 82 3d 66 55 9a 3e b5 f7 84 3e
       -0.0719082 0.063818835 0.3014328 0.25970235
0002e0 d6 74 76 3d 9f cd 81 3d 92 bb 1b 3e ce 2d 3f 3e
       0.060170017 0.06338047 0.15208271 0.18669817
0002f0 a1 c5 67 bc f1 7a cf bc fc ae 96 3d 58 e0 2b 3e
       -0.0141462395 -0.025327178 0.07357594 0.16784799
000300 e5 01 a4 3d b7 f3 de 3c 98 e0 a4 3d 7a 92 94 3c
       0.08008174 0.027215822 0.0805065 0.018136252
000310 5c 16 8b bd c7 92 12 3e 6c f4 f3 3d b7 40 0c be
       -0.06791374 0.14313804 0.11911854 -0.13696562
000320 b3 ae a6 3d 41 50 3a 3d f4 16 58 be 94 18 ce 3d
       0.0813879 0.045486692 -0.21102506 0.10063282
000330 6d 47 49 be 43 58 3f 3e a3 c2 10 3e bd db 80 bd
       -0.19656153 0.18686013 0.14136748 -0.06291912
000340 38 eb db 3b 91 8e 93 bd 61 d0 31 bc 05 a3 d6 bc
       0.00671139 -0.07204927 -0.010852904 -0.02620078
000350 6a 8b 9b bd e3 46 b1 bb 11 a3 99 3d 61 2b 6f 3a
       -0.075949505 -0.0054100617 0.075018056 0.00091235904
000360 08 cd b0 3b 09 78 c3 bc 7d ba 73 3d 75 61 a8 bd
       0.0053955354 -0.023860948 0.05950402 -0.082217135
000370 e5 96 2d 3e f6 9c 82 3d e9 5c a3 3d 95 a5 f5 3d
       0.16952093 0.06377594 0.079767056 0.11994473
000380 1a a2 0d 3d 4c 98 14 3e 41 cb b8 bd 56 b0 da 3b
       0.03457842 0.14511222 -0.090231426 0.006673853
000390 4d 99 0f 3c d2 49 04 3e 3d a3 c4 3d c7 bb b2 bc
       0.008764577 0.12918785 0.09601448 -0.021818055
0003a0 8f cc 6c 3d f1 54 3d 3e b4 59 8b 3d d8 14 96 3b
       0.05781227 0.18489434 0.06804219 0.0045801215
0003b0 44 45 09 3e 74 c0 f1 3d 5c 7d dd 3d c3 b6 68 3e
       0.13405329 0.11804286 0.10814926 0.22725968
0003c0 db e3 8e 3e b8 ac 04 3e c7 42 5c bd 92 c2 0e 3e
       0.27908215 0.12956512 -0.05377462 0.1394141
0003d0 51 17 0e 3e da 57 a3 3d 7f dc d7 bd e7 a6 b9 3c
       0.13876082 0.07975741 -0.10540103 0.022662593
0003e0 f8 97 49 bd ea f8 9d 3d 5d d0 6c be 32 71 15 bc
       -0.049217194 0.07713492 -0.2312636 -0.009121226
0003f0 a1 3f 83 be 2c f8 16 3e e8 14 42 bc 9b 70 10 3c
       -0.25634483 0.14743108 -0.011845805 0.00881591

layers.3.bias f4 [128]
000000 1d 68 b0 bd 89 67 15 3d 3c 32 13 bd e8 1c f3 3c
       -0.08613608 0.036475692 -0.03593658 0.02967687
000010 fc 38 c7 3c 35 c6 3b 3d 5d 8e 78 bc cd e0 0c 3e
       0.024319164 0.04584332 -0.015170661 0.1375763
000020 d1 70 96 bd 17 89 8a bc 62 7f d5 bc 89 95 cd bc
       -0.07345737 -0.016911073 -0.026061717 -0.025095718
000030 0a 85 fa 3d bc ee 84 bd 83 53 5f bc a6 b2 8d bd
       0.122324064 -0.064908475 -0.013630751 -0.0691884
000040 e5 d1 bd bd 7f d6 76 bb 2d f0 41 bd eb e5 89 bb
       -0.0926855 -0.003766447 -0.04734819 -0.0042083166
000050 60 ba 6c bc 81 ae 65 3c be b5 76 3b 15 d7 99 bd
       -0.014448732 0.014018656 0.0037644948 -0.07511727
000060 e3 05 ab 3c 61 ec fb bc 34 46 6b 3d 49 12 94 3d
       0.02087683 -0.030752363 0.057439998 0.0723005
000070 46 75 03 bc e9 7d 67 3c 1d 3e 21 3d ad a6 89 bd
       -0.008023566 0.01412914 0.039365876 -0.06721244
000080 56 38 d0 bc 10 45 92 bc 90 53 d4 3d 21 6b ed bc
       -0.025417488 -0.017855197 0.10367501 -0.028981747
000090 27 0f d3 3d 9c 75 14 3d 19 5b 75 bd 91 c7 9a 3d
       0.103056245 0.036244974 -0.05990133 0.075575955
0000a0 2e 04 16 bb d9 fa 7e 3d ed 34 42 3d 7f 0c 51 bc
       -0.0022890675 0.062250946 0.047413755 -0.012759327
0000b0 0e f8 b2 3d 02 d0 ab bc de 75 66 3a 68 ac 17 bb
       0.08738719 -0.02097321 0.0008791367 -0.0023143534
0000c0 35 ab 8b 3d 9c 62 28 bd 93 0a 96 3d 33 fe 60 3d
       0.068197645 -0.041109666 0.073262356 0.054929923
0000d0 2d fe 49 3d 74 76 5b 3c 49 0f ad 3d 7c 48 26 bc
       0.049314667 0.013394941 0.08450181 -0.010149118
0000e0 7e 43 07 3e bf 1e 99 bd d3 72 06 bc 2e 2e a3 3d
       0.1320934 -0.074765675 -0.008206087 0.079677925
0000f0 09 e1 13 bd 35 0c 1d 3c ab 63 12 3d 0c 5e 11 be
       -0.036103282 0.00958543 0.035739582 -0.14196032
000100 a1 d8 1c 3d b9 b8 54 3b 41 b9 72 bc 2b 05 7c bd
       0.03829253 0.0032458736 -0.014814676 -0.061528366
000110 cc f0 9e bc ba 07 d0 3c a4 2f e7 3d 14 c7 3a bd
       -0.01940193 0.02539431 0.112883836 -0.045600012
000120 85 d4 98 3c fe 90 2d 3e 5c f6 e4 3c b5 73 58 bd
       0.018656025 0.16949841 0.027949505 -0.05284472
000130 d5 98 36 3d ab 54 ac 3c 6d 48 08 3e 3a f9 59 3b
       0.044579346 0.021036467 0.13308878 0.0033260123
000140 8a b4 17 bd 3a 58 e6 3d 72 99 3f 3d 6d c3 07 3e
       -0.03703741 0.11247297 0.046777196 0.13258143
000150 e6 4b 83 3d 96 2e a6 3d 35 0a 44 3d ac 3f 2a 3d
       0.06410961 0.08114354 0.047861297 0.04156463
000160 22 36 4a bc 23 b0 76 3d b8 0d 9f 3d a8 8f 7f bc
       -0.012342008 0.06022657 0.077662885 -0.015598215
000170 11 0e 17 3d 65 4d 5f 3d a7 ba 83 bd 03 62 24 3e
       0.03687865 0.05451717 -0.064320855 0.16053014
000180 61 40 13 3c b0 c1 c4 bd 6b c9 9b 3d 4d 1c ec ba
       0.008987517 -0.096072555 0.07606777 -0.0018013805
000190 7b dc 97 3d 72 6a 44 3d 66 2a b2 bd dc bd 64 bd
       0.074151 0.047953077 -0.08699493 -0.055845127
0001a0 5d 37 b6 bb fd e1 95 3d a9 12 38 3d 3f 57 99 3d
       -0.005560799 0.073184945 0.04493967 0.07487344
0001b0 3c 1a 03 bc b1 4b 23 3e 46 07 9f 3d 8f 57 46 3d
       -0.00800186 0.15946843 0.07765059 0.048423346
0001c0 17 2f ae 3d 7c 38 9e bd 10 0c 37 3c d0 70 c5 3c
       0.085050754 -0.07725617 0.0111723095 0.024101645
0001d0 81 df 07 be bd 10 fa bb f1 8b 0a bd e1 8e 17 bd
       -0.13268854 -0.00763139 -0.033824865 -0.037001494
0001e0 2b 00 a5 bc cb 62 a7 bc 42 c5 df 3d 6c a3 e0 bd
       -0.020141682 -0.02043285 0.10926296 -0.1096867
0001f0 99 fb 67 3d 9b f4 88 bd a4 4c a1 bd 78 dc 62 3d
       0.056636427 -0.0668728 -0.07875946 0.055386037

layers.5.weight f4 [4, 128]
000000 d3 54 8c 3d 06 e5 a2 3d c4 6c e4 3c 68 8a 75 3c
       0.068521164 0.07953839 0.027883895 0.014986612
000010 a4 3a 83 3e 81 9b e4 3d a0 4d 14 3d 84 d5 98 be
       0.25630677 0.111624725 0.03620684 -0.298504
000020 c7 2b f6 3d ce d6 08 be fd b3 e3 be 9b 57 d5 3d
       0.120200686 -0.13363191 -0.44473258 0.104171
000030 04 fb 2b be 2c f1 3e be ae 78 b6 3d 4f 16 a4 be
       -0.16794974 -0.18646687 0.089097366 -0.3204827
000040 67 01 0c 3d 28 bc ad 3d 2c d9 13 3e 05 42 77 be
       0.034181025 0.084831536 0.14438313 -0.24146278
000050 33 84 db 3d f6 ad c9 bd 7d 33 f1 bb b8 21 d7 be
       0.107185744 -0.098476335 -0.007360874 -0.42017913
000060 0f 7b 40 3d 8a 55 3c 3e 0c ad 0d be e6 26 fa 3c
       0.046992358 0.18392006 -0.13835543 0.030536126
000070 ba 83 55 3e fa 99 8b 3d 3c 5a ef be 28 bd 27 3d
       0.20851031 0.06816478 -0.4674853 0.040951878
000080 8d 62 99 bd 78 7d 00 3e 53 cc bc bc af 47 13 3e
       -0.074895 0.12547863 -0.023046648 0.14382814
000090 34 22 db bc fe 48 59 bb 6e d6 d7 3c 48 61 3f bf
       -0.026749708 -0.003315508 0.026347365 -0.74757814
0000a0 e1 74 7c 3d ba 8a a0 3d 73 b4 9d bd b7 08 ca bd
       0.061634902 0.0783896 -0.077004336 -0.098649435
0000b0 f7 1f 0e 3d a4 17 d5 3d ca 60 4e be c2 d4 6d 3d
       0.034698453 0.104049 -0.2015411 0.05806423
0000c0 28 db e5 bc 7f 75 a1 3d e5 38 65 be 28 28 cc be
       -0.028058603 0.07883739 -0.22384985 -0.39874387
0000d0 78 ba 5d bd de 6c 7a 3d 94 ba 3c 3e ab c2 f6 3d
       -0.05413291 0.06113898 0.18430549 0.12048849
0000e0 ce 46 a9 bd af 23 3e 3d 4d f3 89 3d a3 a0 8e 3d
       -0.08265458 0.04642075 0.06735859 0.06964233
0000f0 06 b0 82 3c d0 89 44 3c 86 57 e1 3d 5b 09 b2 bd
       0.015953075 0.011995748 0.11003022 -0.08693191
000100 c9 a1 0e 3e 9c 8b 8c be e7 db fe be 4d e8 bb bc
       0.13928904 -0.27450264 -0.49777147 -0.022937918
000110 d4 82 1e 3e 90 62 e4 be cf 80 38 3e 41 14 94 3d
       0.15479594 -0.44606447 0.18017887 0.072304256
000120 2b 81 05 3e a8 4d bf 3b 8d ff e4 3d 06 f9 51 bd
       0.13037555 0.005838115 0.11181555 -0.051262878
000130 53 c7 2a 3d 54 1f fc 3d 78 e0 35 bb ac 93 40 3d
       0.041693997 0.12310663 -0.0027752202 0.04701583
000140 3e 1f 04 bd 8c 2a 67 3e 20 a9 93 3c 27 7a 16 be
       -0.032256357 0.22574824 0.018024981 -0.14695035
000150 3a d4 da bd 15 7a 00 3c 19 97 0c be ff 80 c8 be
       -0.1068501 0.007841607 -0.13729514 -0.39160916
000160 52 1d f2 bd da 71 f0 3d fa 04 87 bd ed 38 6d be
       -0.11821999 0.117404655 -0.06592746 -0.23166247
000170 2a 68 04 3e 61 39 2b 3d 57 32 f5 bd 8f f2 55 be
       0.1293036 0.041802768 -0.11972492 -0.2089331
000180 04 3c f2 bd 73 10 97 bd b4 b5 40 bd 8e d3 01 3d
       -0.11827853 -0.07376184 -0.047048286 0.031695895
000190 e4 69 25 3e 25 c7 14 be 29 90 f2 3c e7 e3 bf be
       0.16153675 -0.14529093 0.029609757 -0.37478563
0001a0 4d 44 57 bf f6 7c 7e bd 29 93 05 3e 31 95 df bd
       -0.84088594 -0.06213089 0.13044418 -0.10917128
0001b0 01 ea 86 3c 8c 43 b7 be 85 12 fa be e9 70 54 bf
       0.016469004 -0.35793722 -0.48842254 -0.8298479
0001c0 36 d0 0d be 15 7f 99 3d cb 0b cf bd 77 95 06 bf
       -0.13848957 0.07494942 -0.10109671 -0.52571815
0001d0 03 ce 33 be 43 40 00 3e 73 73 89 3d 9f 3c 1a bd
       -0.17559056 0.12524514 0.06711473 -0.03765547
0001e0 83 49 87 3d 09 2c 43 bc fe 2e 9a be 2b dc 3a bf
       0.06605818 -0.011912354 -0.30113977 -0.729922
0001f0 d2 1d f1 bd b9 a2 ca be c0 df 81 3d cc b4 0f bf
       -0.11773266 -0.39577273 0.06341505 -0.5613525
000200 c5 78 b6 be 35 b6 55 3d 2d ee a3 bd 0e 2f 1a 3d
       -0.35639015 0.05217572 -0.08004413 0.03764253
000210 9b 7c 5b 3e 15 54 80 bc 01 10 21 bd 19 c3 8c 3e
       0.21434252 -0.015665093 -0.039321903 0.27492598
000220 0f f7 16 3d 14 07 a8 3e 9c ba de 3d 9f 95 d8 bd
       0.036856707 0.328179 0.10875437 -0.10575413
000230 2d e1 9a 3e 98 98 2b be 2d 4c 82 be c8 77 0a 3e
       0.3024992 -0.16757429 -0.25448743 0.13522255
000240 fe 94 26 bd a7 07 de be 53 4c 3b 3a ac 2c 85 3e
       -0.040669434 -0.43365213 0.0007144857 0.26010644
000250 b8 38 8e bc b7 b7 9b be a0 29 d5 bd 25 8c f5 3d
       -0.01736103 -0.304136 -0.1040833 0.11989621
000260 5f 16 2b 3e e4 17 50 3c 0b 12 03 3e 86 36 bd be
       0.16707753 0.0127010085 0.12799852 -0.3695566
000270 98 02 5b bc 75 0c 5f bd 3a e4 cb 3e fa 17 13 3d
       -0.013367318 -0.05445524 0.3982256 0.035911538
000280 7d 4c 49 bc ad d6 3d 3e 93 6f 12 3e 2c d8 ff 3d
       -0.012286303 0.18538924 0.14300375 0.124924034
000290 3c fd 29 3c d3 e3 f6 be e8 96 19 3d 9b 0a 12 3e
       0.010375317 -0.4822069 0.03749743 0.14261858
0002a0 46 50 8f 3e c9 49 ce bd 06 bc c7 be 05 cf 40 bd
       0.2799093 -0.10072667 -0.39010638 -0.04707243
0002b0 ea ad 78 3e f9 0c 3f 3d ee 44 1f be 3e 10 92 3c
       0.24285093 0.04664323 -0.15553638 0.01783001
0002c0 81 d1 f5 be 86 59 04 bf 41 7b 9d 3e b2 fb dd bd
       -0.480114 -0.516991 0.30758098 -0.10839023
0002d0 ac 58 16 3e 4b 04 f3 be aa 1f 84 3d 97 36 9b bd
       0.14682263 -0.47464213 0.06451352 -0.075787716
0002e0 52 1b f5 3d 1f dd 3e 3d 20 6a 83 3e 86 62 8c 3d
       0.119681016 0.046597596 0.25666904 0.06854729
0002f0 bb 12 d9 bc f7 9a 88 3e 78 81 c6 bd c0 2d b7 be
       -0.02649819 0.2668073 -0.09692663 -0.35777092
000300 55 6c da bc a9 32 3c 3d 95 81 b7 3d d4 38 3b 3d
       -0.026662985 0.04594675 0.08960263 0.045708492
000310 26 04 94 3d 8a 69 01 be d9 09 55 3e b8 66 98 bd
       0.07227354 -0.12637916 0.20804538 -0.07441467
000320 30 d5 a5 3d 21 c2 a7 3e 5d 64 2c 3e 62 bf 1b be
       0.08097303 0.32765296 0.1683516 -0.15209725
000330 a2 3b 68 bd 9d 89 77 be 09 0f 83 3e 2f 45 73 be
       -0.056697495 -0.24173589 0.25597408 -0.2375686
000340 03 0c 04 bc 22 bd 3a 3d 97 29 82 be 0a 84 16 3e
       -0.008059504 0.045590527 -0.25422356 0.14698806
000350 c4 bf 60 be f4 da 02 bf f0 5a 22 3e 38 cc 85 bd
       -0.21948153 -0.51115346 0.15855002 -0.06533092
000360 73 a8 f8 be d4 e8 68 3d 82 24 0d 3e ae 38 39 bf
       -0.48566017 0.056862667 0.13783458 -0.7235211
000370 f6 85 39 3d be 56 9c bd 4c e6 fd bd 33 fc 78 3e
       0.04529377 -0.07633732 -0.12397441 0.24314956
000380 30 0c 08 bf a4 7d a9 bc 72 e7 a6 bd b1 30 00 bf
       -0.53143597 -0.020689793 -0.081496134 -0.500743
000390 ce 6b 7d 3d 5d 0c 33 3b 1e 8e a7 3c b1 fe 85 3d
       0.06187039 0.0027320602 0.020453509 0.06542719
0003a0 2e 01 a3 3d e5 cb 54 bd 17 35 c5 3d d1 97 ef be
       0.079592094 -0.05195226 0.09629267 -0.46795514
0003b0 e7 c4 1e 3e 0c e5 26 3f c3 6c 1b 3f 8b 65 37 3d
       0.155048 0.6519325 0.6071283 0.044774573
0003c0 9c fd 8b 3d 21 b8 95 be 25 b8 aa be f1 b3 29 3e
       0.068354815 -0.29242042 -0.33343616 0.16572548
0003d0 54 76 11 bf 0b 00 96 bd 23 7b b3 be ca 30 8e bd
       -0.5682118 -0.07324227 -0.35054883 -0.069428995
0003e0 e2 d6 e1 be ce c4 35 3e 12 64 85 3e 65 1c 6e 3d
       -0.44109255 0.17750856 0.2605291 0.058132548
0003f0 a7 d3 d1 be 7a 59 c1 3d 69 f7 7d bd 1d 13 1a 3e
       -0.4098179 0.094408944 -0.062003527 0.15046354

layers.5.bias f4 [4]
000000 e5 a1 da bc 40 e6 fe bc fe 05 1c 3d 03 8f 08 bb
       -0.026688525 -0.031115651 0.038091652 -0.0020837195
