model_zoo/GCL/CartPole-v0/actor_1129.pth (torch, 138807 bytes, 8 tensors)

layers.0.weight f4 [128, 4]
000000 96 be 92 3e 81 a3 27 be c3 05 40 bf 2d b3 29 bd
       0.2866103 -0.16370966 -0.7500879 -0.04143064
000010 c5 9f e4 3e 23 48 61 be b2 b9 60 3d 4d b8 e6 3e
       0.44653144 -0.22000174 0.054864593 0.45062485
000020 c7 52 7b bd f9 2c 42 be c3 85 82 be 78 2d 14 3d
       -0.06135824 -0.18962468 -0.25492677 0.036176175
000030 fb c6 da be c8 1b 01 be 17 e3 51 3f 55 f5 48 bc
       -0.42729935 -0.12608254 0.81987137 -0.012265523
000040 30 fd f3 3e de 09 4d be dd 28 ec be e5 bd 5a be
       0.47654104 -0.20023295 -0.46124926 -0.21361502
000050 03 1e dc be 27 d6 a3 be 5c 6f bf 3d a5 e2 d3 be
       -0.42991647 -0.31999323 0.09347412 -0.41383854
000060 f8 6c 15 3e 86 21 f8 3e 54 64 81 3e 09 51 9a 3e
       0.1459235 0.48463076 0.25271857 0.3013995
000070 53 d4 7f 3e b2 6d c9 be 70 09 03 bf 47 a2 6b be
       0.24983339 -0.39341503 -0.51186275 -0.23011123
000080 65 84 eb 3e 88 46 e4 be 4a 16 0c 3f d4 65 09 3f
       0.45999447 -0.4458506 0.5472151 0.53671
000090 3e c0 d3 3e 6d 28 55 3e 71 d9 ad 3c 4f e1 90 bd
       0.41357607 0.20816202 0.021221848 -0.07074224
0000a0 f9 9b 72 3e b8 3e f1 3e 70 e2 d5 3d 50 78 0e 3f
       0.23692311 0.47118163 0.1044358 0.5565233
0000b0 b4 cd ab 3d 3e c9 b9 be 74 71 1e bf a5 0a 18 3e
       0.08388844 -0.36286348 -0.61891866 0.1484781
0000c0 01 1c 8e bd c5 fc 82 be 01 ca 92 3d 1e 2c 85 be
       -0.06938935 -0.25583473 0.071674354 -0.2601022
0000d0 af 25 64 be 98 d8 ae 3d 41 0f af be 51 22 fc be
       -0.2228 0.08537406 -0.34191325 -0.4924493
0000e0 36 2e 2f be b8 35 30 be 02 d6 c2 3b e5 04 e6 3e
       -0.17107472 -0.17207992 0.005945922 0.4492561
0000f0 c5 30 b4 bd e6 0c 99 be 85 03 c9 3e 84 44 1e 3e
       -0.087983645 -0.29892653 0.39260498 0.15455824
000100 29 e5 b9 be 23 29 fb be 25 ea 0d 3e a1 78 07 bf
       -0.36307648 -0.49054822 0.1385885 -0.5291844
000110 5b 1c 03 3f d7 7f 8c 3e f2 ce 61 3e db 4c ff be
       0.5121514 0.27441284 0.220516 -0.49863324
000120 ba 02 2c 3e 32 93 f7 be 5a 17 a9 3e 69 2a 90 3e
       0.16797915 -0.4835449 0.33025628 0.28157356
000130 2b b9 83 3d 1d bf 3a be a1 36 10 be 45 50 1d bc
       0.06431802 -0.18236966 -0.1408334 -0.009601657
000140 cd af f6 3e 67 d6 90 3e 56 12 34 3e d7 31 72 be
       0.48181 0.28288576 0.1758512 -0.23651825
000150 c4 2b 04 3e e2 7e a9 be 5a 7d b4 be 5b 28 a6 be
       0.1290732 -0.33104616 -0.35251886 -0.32452664
000160 eb 43 3f 3e c7 2f 8c 3e 73 c0 b5 3e b6 52 fb 3e
       0.18678252 0.273802 0.3549839 0.4908654
000170 8d b7 02 bf d8 96 6f 3e 22 d1 0d 3f 52 68 09 3f
       -0.51061326 0.23397386 0.55397236 0.53674805
000180 f6 f4 ba 3d 35 b7 e7 be 59 72 12 3f 93 de 1a 3d
       0.09128754 -0.45256963 0.5720573 0.03780992
000190 fc c4 14 3e 98 f4 ab be 82 cf 78 3e f2 b8 09 3f
       0.14528269 -0.33585048 0.24297908 0.5379783
0001a0 90 0f 0c 3e 1a b7 d3 3e e7 8f cb 3e 57 48 02 3f
       0.13677812 0.41350633 0.39758226 0.5089163
0001b0 c5 ff e2 be e1 af 67 3e a3 21 40 3f 80 74 a0 3e
       -0.44335762 0.22625686 0.75051326 0.31338882
0001c0 04 4c 9e 3e 14 d1 ad 3e 4f 92 84 3e c4 ef ce be
       0.3091737 0.33948576 0.25892875 -0.40417302
0001d0 a5 72 92 3d 92 31 b9 be 0a a2 10 3f a0 02 7a 3e
       0.07150773 -0.36170632 0.5649725 0.24415064
0001e0 b5 76 c0 be 4b d7 13 bd 03 5b 2d be b2 a8 01 3e
       -0.37590566 -0.03609399 -0.1692925 0.12662008
0001f0 91 c3 9d be 91 4f 52 3e d4 48 53 be f4 d7 55 3e
       -0.30813268 0.20538165 -0.2063325 0.20883161
000200 c2 21 d6 3e ad 2a aa 3e b9 4c 20 3f 28 66 c6 bc
       0.4182263 0.33235684 0.6261707 -0.024218634
000210 9f 33 b2 be f9 c3 3d 3d b9 0f e1 be ed 6a c2 be
       -0.3480501 0.046329472 -0.43957308 -0.37972203
000220 01 6a 91 3e 29 58 8a 3d 0d 2f 03 3f eb 09 0d 3f
       0.28401187 0.067550965 0.5124367 0.5509326
000230 30 b8 74 3d 9c 1f ef be 3c 60 ba 3e 46 27 9c 3e
       0.059745967 -0.46703804 0.36401546 0.30498713
000240 93 67 05 3d 1f b8 df be 95 5e 60 3e d6 eb 0a bf
       0.03256948 -0.4369516 0.2191108 -0.5426611
000250 71 6e b9 3e 91 f3 0c bd 15 40 f3 3d 9a 47 fe be
       0.36217073 -0.03441197 0.11877457 -0.49664003
000260 21 61 f3 3e fb 66 31 3e a5 05 3c 3f 83 5f c5 3e
       0.4753504 0.1732444 0.7344611 0.38549432
000270 7f 13 b5 3e df 3c 26 3e ef 1c c9 3d 1c 68 07 3f
       0.35366437 0.16234158 0.09819972 0.52893233
000280 4a 9d ce 3e 32 62 a7 be 8f d5 96 be be 55 63 be
       0.40354377 -0.32692105 -0.29459807 -0.22200677
000290 43 7e e9 be e5 01 47 3c 4d a8 0b bf e1 e1 34 be
       -0.45604143 0.012146448 -0.5455368 -0.17664291
0002a0 85 0b e7 bd 8c a5 d5 3e d0 1a 1f 3d d6 79 fe be
       -0.11281494 0.41727865 0.03884393 -0.49702328
0002b0 02 33 8b 3e cc 7a b3 3e 2b 93 f6 3e 5d f7 8e 3e
       0.27187353 0.35054624 0.48159155 0.27923098
0002c0 f6 a2 5d 3e 8f 45 9b 3b bd 1f 43 bf 5f ff a9 be
       0.21644196 0.0047385166 -0.76220304 -0.33202645
0002d0 0f 5b a4 3e 03 81 26 3e 29 c5 07 3f 6d 1a d7 3d
       0.32100722 0.16260152 0.5303522 0.10503087
0002e0 f3 ba f7 3e cd 05 65 be cf 38 be be 89 2f 3f 3e
       0.48384818 -0.22365494 -0.37152717 0.18670477
0002f0 de 82 6d be 16 ba 49 3e a9 70 4b bd 7f 95 85 be
       -0.23194453 0.19699892 -0.049667988 -0.2609062
000300 09 2c 0c 3e bc 42 ef 3e a0 65 a1 3d 7a 82 06 bf
       0.13688673 0.46730602 0.078807116 -0.5254284
000310 79 41 58 3e f4 aa 94 3e c4 34 cd 3e b9 a1 27 be
       0.21118726 0.29036677 0.4007932 -0.16370286
000320 39 cf d6 3e 3f b2 c7 3e 29 23 71 be 33 57 18 be
       0.41954973 0.39003178 -0.23548569 -0.14877014
000330 6d 2f bd 3e ba 10 81 3d 07 44 f8 3e b3 f5 eb 3d
       0.36950245 0.063020185 0.484894 0.11521473
000340 60 9b 66 3e 55 d7 07 be 98 87 ee bd 08 f8 f4 3e
       0.22520208 -0.13265736 -0.11646956 0.47845483
000350 f8 7f 77 3e c8 a1 f1 3d ed be 8b bc ae 2c 89 be
       0.2416991 0.117984354 -0.017058814 -0.267919
000360 13 50 6e 3e 2b 4f ee 3e fc be fa 3e 17 0d 21 3d
       0.23272733 0.46544775 0.48973835 0.039319124
000370 aa 3a 52 3e 71 8e e2 3e 79 1f 9f be 8c 6e d5 be
       0.20530191 0.442493 -0.310787 -0.41685903
000380 19 c4 e2 3e da c3 10 3e c7 43 c5 be 65 8b de 3d
       0.44290236 0.14137211 -0.38528273 0.10866431
000390 cf a7 7e be db 30 59 be 0b ae 16 3f 3c f4 e1 3e
       -0.24868701 -0.21210043 0.5885932 0.4413165
0003a0 ac 5b ef be ad 04 0c be 6e ab 29 3f ff 55 d0 3c
       -0.46749628 -0.13673659 0.66277206 0.025431631
0003b0 1d a7 db be 48 72 a8 3e e1 03 2b bf 17 d2 5b be
       -0.42900935 0.3289969 -0.66802794 -0.21466862
0003c0 cb f1 25 3e f3 26 e5 be 99 b4 25 bd 62 a5 28 3e
       0.16205518 -0.44756278 -0.040455434 0.16469339
0003d0 13 4f 8c be c7 b7 b8 bd be 00 cc 3e bd f4 76 3e
       -0.2740408 -0.09019428 0.39844316 0.24116798
0003e0 7b 78 87 be 1a e8 da 3e 6f c8 1e bf 20 a1 28 be
       -0.26459107 0.42755204 -0.6202459 -0.16467714
0003f0 de ec b7 be 18 7e 53 be 8e b6 0b 3e ff c0 69 3e
       -0.35922903 -0.2065357 0.13643858 0.22827528

layers.0.bias f4 [128]
000000 fe c3 8f bd c2 43 b9 be 21 b2 75 3c be db 88 be
       -0.070198044 -0.36184508 0.0149960825 -0.2673015
000010 26 d8 cf be 65 08 31 be 7d 03 db bb aa 71 da 3b
       -0.40594596 -0.17288359 -0.0066837654 0.006666382
000020 d0 b4 b8 bd b6 af e4 3e 10 91 3b 3e cc 65 af 3e
       -0.09018862 0.44665307 0.18317056 0.34257352
000030 7a d7 c2 be 0f 6c 51 3e 3f 12 66 3e de 13 3c 3d
       -0.3805502 0.20451377 0.22467898 0.045917384
000040 d3 fd 3b be 84 b1 e1 bd 4c 06 8c 3e 6e 9f b3 be
       -0.18358545 -0.110201865 0.27348554 -0.35082573
000050 e6 55 5c be fe 44 e2 be da 38 fd 3d 0b d7 75 be
       -0.21517143 -0.44193262 0.12364359 -0.24007814
000060 83 ee e0 be f6 c6 a7 be b7 eb c5 3c 15 4d 8d 3e
       -0.4393197 -0.32768983 0.02416025 0.2759787
000070 94 3a 0d 3e 4e fd ae bc 0e a0 27 bd bd f4 85 be
       0.13791877 -0.02136102 -0.040924124 -0.26163283
000080 a0 1f 59 bd b8 ef 82 be 6e 00 69 3e f5 c1 b2 bc
       -0.053008676 -0.25573516 0.2275407 -0.021821002
000090 a5 20 a8 3e 9b de 92 3e 76 9c a6 3d 71 be a1 3e
       0.32837406 0.2868546 0.08135311 0.31590608
0000a0 e5 a1 06 be 18 15 3f be e2 e0 e2 be 9f 53 7a 3e
       -0.13147695 -0.1866039 -0.44312197 0.24445961
0000b0 bf 87 89 3d 1c 01 be 3e ab 13 e8 3e 78 9f d6 bd
       0.06715345 0.3711022 0.45327505 -0.10479635
0000c0 8a b3 38 be 5f f3 84 3e bf 2e d5 3e 49 64 b3 3e
       -0.18037239 0.25966927 0.41637227 0.3503745
0000d0 ec fd c5 3e 7a 14 8f be e6 92 a6 be ce a6 ae bd
       0.3867029 -0.2794531 -0.3253395 -0.08527909
0000e0 e3 f7 32 be ee 43 6e 3e 6a 10 9a 3e 49 d9 ee 3e
       -0.17477374 0.232681 0.30090648 0.4665015
0000f0 29 f5 4a be b6 99 11 be e8 3d 5d bd 2e 17 bc bc
       -0.19820084 -0.14218792 -0.054014117 -0.022960272
000100 0f 32 88 bc 0e 0a af 3e c6 af e0 be 8e 81 bc be
       -0.016625432 0.3418736 -0.43884104 -0.36817592
000110 99 cc 5d be 32 f5 6e 3e b2 68 20 be 7c d3 1e 3d
       -0.21660079 0.23335722 -0.15664938 0.038775906
000120 0b 67 85 3d 18 86 9c 3e ac 0e d3 be 33 10 04 be
       0.065137945 0.30571055 -0.4122213 -0.12896805
000130 d5 32 2b 3e 70 93 14 be f1 74 b2 be e9 c1 31 3e
       0.1671861 -0.14509368 -0.34854844 0.17359127
000140 74 62 d7 3e 90 18 21 be 78 0f 33 3e 38 d8 c9 bd
       0.420673 -0.15732026 0.1748637 -0.098556936
000150 ce c6 8d 3d 85 f6 5d 3c f1 0e 95 be 99 8a c7 3e
       0.069226846 0.013547544 -0.29112962 0.3897293
000160 00 2b ba 3d 97 56 45 be 06 f6 12 3e ad c9 f1 3e
       0.09090233 -0.19271313 0.14351663 0.4722418
000170 e0 22 dc 3e dc 09 05 bd 44 ad cf bd da 67 bf 3e
       0.42995358 -0.032480106 -0.1014047 0.3738392
000180 7f 58 96 3e 67 c2 3f 3d 32 4f b4 be cf 05 a1 3d
       0.29364392 0.046816256 -0.3521667 0.07862436
000190 59 74 8f 3e 64 2a 13 bd f9 0c 32 be 0b 49 93 3e
       0.28018454 -0.0359291 -0.17387761 0.28766665
0001a0 8e 70 87 3e f2 cf 6b 3e 1d 4d e1 3e ac 61 c5 3e
       0.2645306 0.23028544 0.44004145 0.3855108
0001b0 4d 73 c9 be 90 e6 2a 3e c8 a9 6b 3e 32 e5 83 be
       -0.3934578 0.16689515 0.23013985 -0.257608
0001c0 d4 82 f9 be 40 3c df be ab 53 35 bd 79 7e 28 3e
       -0.48732626 -0.43600655 -0.044269245 0.16454495
0001d0 97 9b f5 bd e8 9e 97 be a1 c1 f4 3e 1f 7a e4 3e
       -0.11992567 -0.29613423 0.47803977 0.4462442
0001e0 f0 ab 28 bd 55 2c b0 3c cb 9d 3b 3c 0f 47 89 be
       -0.041179597 0.021505514 0.011451195 -0.26812026
0001f0 00 d5 c4 be 27 4c b6 3e 16 58 8f be bd 51 a3 be
       -0.38443756 0.35604975 -0.27996892 -0.318983

layers.1.weight f4 [128, 128]
000000 37 70 df bd 19 aa 3a 3d ff 2f b5 bd 9e 05 84 3c
       -0.10910075 0.045572374 -0.08847045 0.01611596
000010 c8 0d 82 bc e5 bf a8 3c c5 8d 08 bd 5f 74 3a bd
       -0.015875712 0.020599315 -0.033338327 -0.045521136
000020 05 4f a3 3d 3a 25 5a 3d e5 70 af 3d 70 e5 65 bd
       0.07974056 0.05325816 0.08566455 -0.05612701
000030 41 f6 bf 3c 1b b7 78 3c 4f 60 94 3d 0a 4e 1c 3d
       0.023432853 0.0151803745 0.07244932 0.03816036
000040 49 01 91 bd be 10 fe bb 3f 46 58 bd 4d 89 85 bd
       -0.07080323 -0.0077534607 -0.052801367 -0.06520329
000050 5f 1c 11 bd 20 e7 84 3d 1f 2d 93 3d 58 3d d5 3d
       -0.035427447 0.06489396 0.071863405 0.10412091
000060 04 d2 06 bd 87 80 b8 3d 66 01 24 bc fb 9d d7 3d
       -0.03291513 0.0900889 -0.010010099 0.10528179
000070 dd 41 0b 3d c8 1f 9b 3d 8b b7 93 3d 95 5e d1 3c
       0.03399836 0.07574421 0.072127424 0.025557796
000080 da 4c 87 bc 70 e8 c1 bd 4c 04 34 3c 28 b6 94 3d
       -0.016516138 -0.09468162 0.010987353 0.07261306
000090 a9 66 a5 bc 4e 9a 54 3d 37 8b ec bc a9 29 be 3c
       -0.020190554 0.05190497 -0.028874977 0.023213224
0000a0 c2 18 81 bd 29 8a 14 3d b6 d2 23 bd af 7e 1d 3d
       -0.0630355 0.036264572 -0.03999587 0.038450893
0000b0 f1 ab be bd ff e1 a2 3c 5f d7 0b 3d fa b5 30 bc
       -0.09310139 0.019883154 0.03414094 -0.010785574
0000c0 79 99 a1 bd 67 3c 59 3b f6 92 8f bd 2a 37 28 bd
       -0.07890601 0.0033147575 -0.070104524 -0.041068234
0000d0 eb 96 8e bc 00 e6 b1 bc 69 ee 79 bd b5 c1 19 bd
       -0.017405948 -0.021716118 -0.06101838 -0.03753825
0000e0 54 91 00 3c 3a e0 fb 3d 37 86 a1 3d 53 f7 4d bd
       0.007847149 0.12298627 0.078869276 -0.050284695
0000f0 c6 ee b5 3c 21 2b c3 3d e1 a6 ca bd 9a 84 44 3d
       0.022208583 0.095297106 -0.09895111 0.04797802
000100 cc 5f 5c bd c5 ef 0b 3d b8 0e 1d 3d bd 60 aa bd
       -0.053802297 0.03416421 0.038344115 -0.083192326
000110 94 e7 5a 3d 67 3f b0 3c 47 b2 3c bd 2c a3 82 3d
       0.053443506 0.021514608 -0.046068456 0.06378779
000120 46 c9 72 bc 70 93 bd 3c 8c 02 cf 3d ac a8 89 bd
       -0.014818495 0.023141593 0.10107908 -0.06721625
000130 88 42 8f bd 62 ea 3d bd c6 da cd 3d 5d f2 1a 3d
       -0.06995112 -0.046366103 0.10051493 0.037828792
000140 c8 bd 81 bd 48 05 55 3d 24 fb 43 3d 8c 47 7e 3d
       -0.06335026 0.05200699 0.04784693 0.06207995
000150 19 59 18 bd 79 62 d0 bc f4 6d da bb 24 36 c1 bc
       -0.037194345 -0.02543758 -0.0066659395 -0.023585387
000160 9e fe ea 3a 27 f6 5b 3d 38 de 0d 3b 95 9c 59 bc
       0.0017928665 0.053701546 0.0021647345 -0.013281961
000170 27 fc fe 3b e7 76 1e 3d 2e e9 42 bd 20 b1 2a bd
       0.0077815237 0.038687613 -0.04758566 -0.041672826
000180 bd 1d 1c bd 61 af f2 3c aa 46 0f bd 3a 8e 80 bd
       -0.038114298 0.029624643 -0.0349795 -0.062771276
000190 cb 09 92 bd 98 b7 87 bd 6e 4b 7d bc 85 dc 83 3b
       -0.07130774 -0.066268146 -0.015459878 0.0040240907
0001a0 c2 2c 65 bd ce 85 f3 bb 97 87 42 3d f2 34 d7 bd
       -0.055950888 -0.0074317222 0.04749259 -0.105081454
0001b0 27 21 b6 3c 20 29 cd bb bd 81 8e bd 5e cc 4d bd
       0.022232605 -0.006261006 -0.06958339 -0.050243728
0001c0 35 70 d0 bd be 23 52 bd d0 ac 81 3d 32 83 98 ba
       -0.10177652 -0.051303618 0.063317895 -0.0011635779
0001d0 5b 9d 7e bd 6b 5e 8f bd 53 8f 70 bd 32 7d 78 bd
       -0.062161785 -0.07000431 -0.058730435 -0.06066627
0001e0 c5 03 9c 3c 28 aa ea 3d 0b d2 b2 bd 96 6f 7f bd
       0.019044766 0.11458236 -0.08731469 -0.062362276
0001f0 df 31 7b 3b ce 0a d1 3d fd 8b f9 bd b4 08 a8 3d
       0.0038329286 0.10207139 -0.12184904 0.08204785
000200 e4 17 26 3e f8 90 80 3d a3 e5 cb 3d d9 aa 56 3c
       0.16220051 0.062776506 0.09955909 0.013102257
000210 5a 84 fa 3c f1 33 fe bc e8 58 1b 3c 36 84 aa 3d
       0.030580688 -0.031030627 0.009481646 0.083259985
000220 78 a6 cc bc fe 81 8e 3b 16 70 06 bd cc d4 69 3d
       -0.024981722 0.0043489924 -0.032821737 0.057087705
000230 78 fa 1f 3d 24 6d 76 3d ce f4 c9 3c 8a 09 2c 3d
       0.039057225 0.06016268 0.024652865 0.042001285
000240 58 9b d5 3b 86 da a3 bd ed 09 68 bd b9 a5 96 bc
       0.0065187626 -0.080006644 -0.05665009 -0.01838957
000250 93 9a 31 3c a7 14 02 3d 61 58 36 bc 46 8a 5b bd
       0.010840076 0.031757977 -0.01112947 -0.053598665
000260 5e 59 91 bd c2 5a c4 bd 3f 9b ab bd d5 a4 90 bd
       -0.070971236 -0.09587623 -0.0837922 -0.07062689
000270 8c 3c 53 3d a3 6c a3 bc 00 4a 2f bd db 90 57 3d
       0.051571414 -0.019949263 -0.04279518 0.05262838
000280 ec 0c 0b bd 62 8f 81 bd 31 42 d2 bd dc 45 18 3d
       -0.03394787 -0.06326176 -0.10266531 0.037175998
000290 be 74 bc bc c8 d0 94 3d d2 1a 0c bd b6 fc a5 3d
       -0.023004886 0.07266384 -0.034205265 0.081048414
0002a0 5b de 2f 3d 46 8d 9d bc 1e 4d 75 3d 53 74 85 3d
       0.042936664 -0.019232403 0.059887998 0.06516328
0002b0 59 33 1f 3e 9b e8 24 bd 19 3d 42 bd 55 69 7d bd
       0.15546931 -0.040260892 -0.04742155 -0.06186803
0002c0 49 1d 84 3d 7c 38 d8 3b c8 63 5f 3d 0f e1 82 bc
       0.06450898 0.0065985303 0.05453852 -0.015976457
0002d0 3e b4 85 bd b6 4a a9 3d 75 7d 87 3c 2c 8d 85 3d
       -0.06528519 0.08266203 0.016539315 0.06521067
0002e0 e4 38 c8 bc c6 57 ab bd 48 16 56 3d b0 c7 b9 3d
       -0.02444119 -0.08366351 0.052267343 0.090712905
0002f0 95 42 3f bd 8d ec 26 3d 84 7b 35 bc b9 75 72 bd
       -0.046694357 0.040752936 -0.011076812 -0.0591943
000300 c4 80 0a 3d 4c b1 56 bd 8b ae 0b bd cf 10 4b bb
       0.033814207 -0.052415177 -0.034102004 -0.003098536
000310 7b 58 ac bd 7c b6 c7 3c 19 09 e6 3d a7 75 4f bd
       -0.08415314 0.024379008 0.11232204 -0.05064931
000320 7a 9a c3 bc ce 63 97 bc 62 53 6d 3c 1a a8 22 3d
       -0.023877371 -0.018480208 0.014485212 0.039711095
000330 b4 0c d0 b8 46 97 72 3d c8 dc 77 3d 7a 0c de 3c
       -9.920579e-05 0.059226297 0.060513288 0.027105559
000340 ea 3e 63 bd 4e c3 be 3c a8 86 80 3d aa ae 6f 3d
       -0.05547992 0.023286488 0.06275684 0.058516182
000350 c4 83 eb 3c 59 96 17 3e e3 4d 30 bd 7b dd 93 bd
       0.028749354 0.14803447 -0.04304303 -0.072199784
000360 8e 75 f6 3c 8b b2 82 3d 56 5c 66 3c 55 20 ac bc
       0.030085351 0.063817106 0.014060101 -0.02101151
000370 2b 6d 73 bd c0 fb c4 3d db 7b 80 bd 7a 9c 11 3d
       -0.059430283 0.0961833 -0.062736236 0.03554962
000380 72 98 08 3d 7c 3b c5 3d c5 26 18 bc 35 4b ee 3d
       0.03334851 0.09630486 -0.009286587 0.11635438
000390 30 9b db bb 72 ab 85 bd 42 de 80 3d b2 78 c4 3d
       -0.0067018494 -0.06526841 0.06292392 0.09593333
0003a0 45 b4 c3 3d 3b d1 0b bc 48 cd 92 3d 4c 79 90 bc
       0.09555868 -0.008533771 0.071680605 -0.017635964
0003b0 3b b7 fe 3c df 63 9c 3c bc 6f bf 3b 18 73 a7 bb
       0.03109323 0.019090591 0.005842177 -0.005110156
0003c0 b6 9a de 3c 94 7d 74 bc 79 12 3e bc cc c8 b9 bb
       0.027173381 -0.014922518 -0.011601084 -0.005669689
0003d0 f9 ea 29 3d c9 42 bc bc f7 1c 91 bc 44 76 87 bd
       0.041483853 -0.022981064 -0.017714007 -0.06614354
0003e0 55 e7 0c be 67 07 dd bd 72 49 c4 3c 7d 1a 7b bd
       -0.13760121 -0.107924275 0.023960803 -0.061304558
0003f0 be 65 a6 bd 15 33 1a bd 60 78 25 3d 34 fa 85 3d
       -0.081248745 -0.037646372 0.040398 0.06541863

layers.1.bias f4 [128]
000000 e4 40 58 3d 19 45 fb 3c 67 b7 25 3d 21 98 49 3c
       0.05279626 0.030672597 0.04045811 0.012304337
000010 de 5e 9a bd 28 9d a6 3c ec cc 08 3d 58 be a5 bc
       -0.07537626 0.02033861 0.033398554 -0.020232365
000020 1d e1 16 3d a2 95 37 3d 13 68 82 bd c3 55 b7 bc
       0.03683578 0.044820435 -0.06367507 -0.022379762
000030 4b 51 ad bd e7 29 40 bd 4b ee 73 bd f5 33 b0 3c
       -0.08462771 -0.04691496 -0.059553426 0.02150915
000040 6a 47 f0 bb 36 05 a8 3d 8a 8c 71 3d 1b 2d 80 3c
       -0.007332732 0.08204119 0.05897192 0.015646508
000050 37 2c 98 3d 90 3a 3d bd 09 01 ec bc 22 cc 9e bd
       0.07430308 -0.046198428 -0.028809087 -0.07753779
000060 d0 88 8e 3d 84 d6 86 3c 20 5a 81 bc e4 3f 2c bd
       0.06959689 0.01645971 -0.015790045 -0.04205312
000070 ec ae 90 3d a6 6c 9b bd b7 04 27 bd 48 0b 27 3d
       0.07064614 -0.075890824 -0.04077598 0.040782243
000080 e7 4b 3c 3d ff 0c 4d bd 17 8b 77 bd f1 a6 92 3d
       0.045970824 -0.050061222 -0.06043538 0.07160748
000090 1c 37 80 bd 92 95 e4 bc e3 e1 5f bd 6f 8c 30 bc
       -0.06260511 -0.027903352 -0.05465878 -0.0107756695
0000a0 22 e9 88 3d db 83 4b 3d 85 37 78 bb 66 d9 58 bd
       0.066850916 0.049686294 -0.003787489 -0.052941702
0000b0 b2 f1 97 bb fa 52 86 bd 9c ea 5a bd 05 4f b7 3d
       -0.0046369666 -0.06558795 -0.053446397 0.08950619
0000c0 68 d8 84 3d 42 8f a7 3d 55 7b f4 3c 3e d7 97 3d
       0.06486589 0.08181621 0.029843966 0.07414101
0000d0 ec 31 8d 3d 2c b1 ae 3c 8e 60 75 bd cc 1a f4 3b
       0.068942875 0.021324717 -0.059906535 0.0074494835
0000e0 a3 22 58 3d 57 28 a7 3c ab ac 96 3d 38 a7 72 3d
       0.052767407 0.020404978 0.073571526 0.059241503
0000f0 26 87 bf bb ce cb f8 b9 28 ba f0 3c c1 c8 bb bb
       -0.0058449684 -0.00047454092 0.029385641 -0.005730719
000100 4b d0 7b 3c 0e 7b ce 3a 9e 9a 7d 3d db 15 8c 3d
       0.015369485 0.0015753226 0.061915033 0.06840106
000110 f0 d9 42 3d 70 4e 65 bd 4a 90 8f bd 6f 07 7b 3b
       0.047571123 -0.055983007 -0.07009943 0.0038303991
000120 e3 84 2b ba 3e fc 2e 3d 93 70 ba 3d 17 8d d3 3c
       -0.0006542934 0.042721026 0.09103503 0.025824113
000130 a8 65 66 3d e4 a8 0d 3c 47 8a 6a bd c0 08 8d 3d
       0.05624929 0.008646224 -0.057260778 0.068864346
000140 4b c9 09 3d be 72 59 3d 2c 7d 84 3c 06 05 d5 3b
       0.033639234 0.053087942 0.016172968 0.006500843
000150 0f 0b 8e bc ef f7 0c bd 71 eb 2a 3d bd ca 70 bd
       -0.017339258 -0.034416135 0.04172844 -0.058787096
000160 ae 28 13 bd 5b a8 23 bd c0 63 48 3d 64 6e a2 bc
       -0.035927467 -0.03995548 0.048923254 -0.019828029
000170 32 8f 9a 3d 76 32 61 bd 04 b0 08 bc 70 1f 80 bd
       0.075468436 -0.054979764 -0.008342747 -0.06255996
000180 23 71 91 bd 10 53 89 3d d1 02 e3 3c af 2c 83 3b
       -0.07101657 0.06705296 0.027711304 0.0040031294
000190 0d 55 81 bc d9 5d fd bc 95 44 3b 3d 1b 51 0a 3d
       -0.015787626 -0.03092854 0.0457197 0.033768754
0001a0 07 8a b8 bc df 7e 64 bd ad 42 11 3d a5 5c ae bc
       -0.022526754 -0.055785056 0.035463978 -0.02128441
0001b0 6c 82 66 bd ce 98 7b bd a3 ba 0a 3d 17 08 15 3d
       -0.056276724 -0.061425023 0.033869397 0.03638467
0001c0 62 df 97 bd 84 a8 93 3d 8c 0d b0 bc c1 f6 75 bd
       -0.07415654 0.07209876 -0.021490835 -0.060049776
0001d0 05 c1 f8 3a a5 01 e2 3c 7e 4d 3e bd f1 aa 2b bd
       0.0018978423 0.027588675 -0.04646062 -0.04191107
0001e0 c0 37 b0 bd ba 69 bb 3d 2c 1a d5 bc 7c 56 85 3c
       -0.086043835 0.09151025 -0.026013456 0.01627659
0001f0 79 a4 92 bd 10 e2 36 3d 44 c3 2c bc c2 eb 3e 3d
       -0.07160277 0.044649184 -0.010544602 0.046611555

layers.3.weight f4 [128, 128]
000000 11 83 24 bd 5c a1 a5 3d 46 6e 0c 3d a3 c7 17 3d
       -0.040164057 0.080874175 0.034284852 0.037055623
000010 ae d8 c3 3d 97 ce 2d 3d 61 4b be bd 23 f3 87 3d
       0.09562813 0.042433348 -0.09291721 0.066381715
000020 4f 38 cb bc 8a 2d f9 3b bc bb ad bd b3 7e 05 3e
       -0.024807123 0.0076043056 -0.08483073 0.13036613
000030 56 f9 c6 bd cd 61 e8 bc f5 45 ba bd b5 80 93 bd
       -0.09715526 -0.028366948 -0.090953745 -0.07202283
000040 e2 25 2e 3c cc 1a ac bd 02 ec 5f bc 81 2c be 3d
       0.010629149 -0.084035486 -0.0136671085 0.09285832
000050 65 c6 4d bb 3d 14 9d bd 8a 1c 6c 3b ab c5 02 3d
       -0.003139877 -0.07669876 0.0036027753 0.031926792
000060 d0 11 aa 3d 7b c4 f0 bd a4 ab c8 3d a0 92 28 bd
       0.08304179 -0.11756226 0.09798363 -0.041155457
000070 d6 9b aa bc 97 9f d5 bd d7 8b ba bc 04 cd f1 3c
       -0.020826261 -0.1043083 -0.022771759 0.029516704
000080 d4 6b c9 bd c0 fa 9d bc ec 05 56 3c cf ee af 3d
       -0.0983502 -0.019284606 0.013062935 0.08590471
000090 49 83 b7 3d 28 09 32 be 66 7c 88 bd 08 fa 40 bd
       0.089605875 -0.17386305 -0.06664352 -0.04711345
0000a0 c2 d9 e4 bd e1 df e6 3c eb bd f1 3d bb e6 0c be
       -0.111743465 0.028182926 0.11803802 -0.13759892
0000b0 bd 1f b6 ba 7e c6 d0 3d 80 17 2a 3d 9e d8 02 bc
       -0.0013894957 0.101941094 0.041526318 -0.007986216
0000c0 5c a1 5c bd 7a 38 d2 3d b9 8b dc bd 62 21 83 bd
       -0.05386482 0.10264678 -0.107688375 -0.06402852
0000d0 2d bb 07 be 82 cc a6 bc 25 48 75 bd ad 6b e7 3d
       -0.13254996 -0.020361189 -0.059883256 0.112998344
0000e0 86 5d 3a 3d f8 40 cc bd f5 e8 8e bc 57 1d e0 3c
       0.045499347 -0.09973329 -0.017445067 0.02735774
0000f0 b8 0d ca 3d 77 43 d6 bd 4d d2 69 3d 80 33 d1 3c
       0.09865898 -0.10462087 0.057085324 0.025537252
000100 c6 e6 e7 bc b7 f2 34 3d 32 f4 18 3d 76 56 dd 3d
       -0.028308284 0.044176783 0.037342258 0.10807507
000110 ad 67 df bc 68 e5 7c bc e6 ef d2 bb 61 c8 ae 3d
       -0.027271116 -0.015435554 -0.0064372895 0.08534313
000120 ba 06 59 3d 81 ad a0 bc 19 42 02 3d 94 f8 bc bc
       0.05298493 -0.019613983 0.031801317 -0.02306775
000130 88 b2 a9 3d 6b ff c7 bd 1f ed 46 bd 1e 00 b7 bd
       0.08286005 -0.09765514 -0.04856598 -0.08935569
000140 6a b2 7e bd 19 9c 44 bd 3c 97 df 3c 7c 8e 67 bc
       -0.062181868 -0.04800043 0.027293794 -0.014133092
000150 93 14 88 3b 61 f3 22 bd 13 38 19 3c 45 ce 2f 3d
       0.0041528433 -0.039782885 0.009351748 0.042921323
000160 49 67 a0 bc 2b fc 8b 3d ea de 22 3d 58 f4 94 3d
       -0.0195805 0.068352066 0.03976337 0.07273167
000170 7e 7c 64 bd ed 6d 6d bd d0 35 86 3d ce 60 45 3b
       -0.055782788 -0.05796616 0.06553233 0.0030117515
000180 e9 b6 24 3d d5 c9 6c bd 5a d0 0e be 9b 33 4d bd
       0.0402135 -0.05780967 -0.13946667 -0.050098043
000190 bf 3a 5b bc 1b 8e 04 3d 35 43 bc 3d bb 2a b1 bd
       -0.013380705 0.032362085 0.09192506 -0.08650728
0001a0 5c 34 e8 3d 8f 49 f8 bd 12 98 1f bc da 6b 4f bd
       0.11338112 -0.12123405 -0.009740846 -0.050639965
0001b0 39 c7 18 3c ce 17 97 3b 3a 39 bd bd d1 ab 7a 3d
       0.009324842 0.004610992 -0.09239431 0.061199013
0001c0 a1 32 b2 bd 19 c2 76 3d 5f d4 2c 3c 8f 14 b6 bc
       -0.08701063 0.0602437 0.01054868 -0.0222266
0001d0 8b 0c b7 3d 8c 7d ab bd 8c 67 6f bd 2e 04 00 3c
       0.08937939 -0.083735555 -0.05844836 0.0078134965
0001e0 b6 a1 9e 3b 92 10 dd 3b 51 55 bc 3c cf 42 d7 3d
       0.004841055 0.00674636 0.0229899 0.105107896
0001f0 c5 f8 81 bd 50 31 0f 3d ce b0 54 3d bc 6c f4 bd
       -0.06346277 0.034959137 0.051926427 -0.11934802
000200 97 1a 0c 3d e1 cf 6e 3d 64 44 af 3d ea 83 ca bd
       0.034205046 0.058303718 0.08557966 -0.09888442
000210 3f 6b 09 bd ad 91 93 3d 36 75 2f 3c 9d 91 7d bd
       -0.033549543 0.0720552 0.010709098 -0.061906446
000220 48 63 e7 3d 67 8c 19 bd 42 e3 7a 3d e4 3e aa bd
       0.11298233 -0.037487414 0.061251886 -0.08312777
000230 8b 70 c7 39 16 c1 82 bb f0 e9 d1 3d 51 20 70 3b
       0.0003804009 -0.003990303 0.10249698 0.0036640356
000240 8f c9 b7 3d 9c 8a bf 3b 58 c7 05 bb 25 4e a5 bc
       0.08973991 0.005845381 -0.0020413008 -0.020178864
000250 94 3a e3 bc dd 64 4b bb 4f b7 ae 3d b1 1d 9c 3d
       -0.027737893 -0.003103546 0.08531057 0.07622851
000260 df fa 7a bc a9 8f 5c 3d b2 2a 4e bd da 9c be 3d
       -0.015318601 0.053847943 -0.050333686 0.09307261
000270 97 7d 2a 3d b1 a6 27 3d 72 ce 58 3c 03 c9 3c 3d
       0.041623678 0.040930454 0.013232814 0.046090137
000280 35 79 00 3c 53 b5 ae 3c 23 7a c3 bd 35 51 83 bd
       0.007841398 0.021326697 -0.0954478 -0.064119734
000290 0d 0a 5a bd 19 b0 23 3e 4a 51 89 3c b6 84 07 bd
       -0.05323224 0.15985145 0.016762394 -0.033085547
0002a0 1b 88 c8 3d 34 8a 83 bd c9 2b f3 bc d1 49 a7 3b
       0.09791585 -0.064228445 -0.029683964 0.005105235
0002b0 d1 ef a4 bd 82 f2 15 3d 19 3a 24 bd 03 ca 2f bc
       -0.08053554 0.036608227 -0.04009447 -0.010729316
0002c0 3d 78 b1 3c 8f a6 02 be e2 b8 10 3d 60 16 d4 3d
       0.02166378 -0.1275885 0.035332568 0.1035583
0002d0 b0 35 54 3d 0f 0e a0 3d e6 4c 03 3e 83 8f 8e 3a
       0.051809013 0.078151815 0.12822303 0.001087651
0002e0 27 4c 2b bd 1d 04 04 3c 66 0a 5c 3d 9c 7b 0c bc
       -0.04182067 0.008057621 0.053720854 -0.008574393
0002f0 fd b7 02 be a5 db c9 3d 63 3d 86 bc 36 4a f7 3c
       -0.12765498 0.09856347 -0.016386693 0.030186754
000300 53 22 c2 bd 88 40 31 bd ee 83 8b bd 56 07 38 bd
       -0.09479203 -0.043274432 -0.06812273 -0.04492887
000310 20 37 1b 3d 5e 2e 36 3d ca b2 a9 3d 32 39 00 be
       0.03789437 0.044477813 0.082860544 -0.12521818
000320 c9 ef d0 bc eb 7b b3 bc 88 6a b2 bd 77 72 c8 bd
       -0.025504963 -0.021909675 -0.087117255 -0.097874574
000330 2a db 24 3d e4 44 7d bc a6 b1 ec 3d 9e d8 9d 3d
       0.040248074 -0.015458319 0.11557321 0.07707332
000340 57 d9 bf 3d 79 42 1a 3d 0b bc b6 bd d5 66 48 bc
       0.09367626 0.03766105 -0.08922585 -0.012231548
000350 01 b5 03 bd d7 64 6f 3d fe cd 09 be 3d 61 26 3c
       -0.03215504 0.058445778 -0.13457486 0.010155019
000360 05 0f a8 bc 06 dd 2b 3d b6 74 22 bc c7 ba af bc
       -0.020514974 0.04195883 -0.009915521 -0.021451367
000370 e8 29 f8 3c 7c 6b d2 3d d0 8f d6 bd 09 17 af 3d
       0.03029342 0.10274407 -0.10476649 0.085493155
000380 61 54 2b bd 7c b0 36 bd 3b 0f f8 3d 32 fe e1 bc
       -0.041828517 -0.044601902 0.1211228 -0.02758703
000390 d1 b9 d9 38 14 72 d1 bd 11 15 17 be c3 98 d1 3c
       0.00010381977 -0.10226837 -0.1475413 0.025585538
0003a0 54 3e cd 3c 67 c8 17 bc f0 aa 24 bd ce 9a ea 3c
       0.025054134 -0.009264088 -0.04020208 0.02863827
0003b0 03 81 fe 3b 9c 80 2a 3d f5 8c 3c 3b 67 23 ad bb
       0.0077668442 0.041626558 0.002877054 -0.0052837613
0003c0 b4 15 7a 3d 1b c7 15 bc 27 ef 7e 3d 87 86 8f bd
       0.061055854 -0.009141709 0.062239792 -0.07008081
0003d0 c7 cc 50 3d a0 0a 49 bc 6b a2 a0 bc 4d 7b c4 3d
       0.05097654 -0.0122706 -0.019608697 0.0959383
0003e0 eb 2a 9f bc 74 70 b3 3c e7 cd 16 3d ad a2 e5 3c
       -0.019429645 0.021904208 0.036817458 0.028031671
0003f0 36 2b b9 bc 49 08 6a 3c 23 3f 82 3d e8 e0 ca 3d
       -0.022603612 0.014284202 0.063596986 0.09906179

layers.3.bias f4 [128]
000000 16 00 7d 3d b7 df 6f bd 98 00 b9 3c 8e 1e 57 3d
       0.06176766 -0.05856296 0.022583291 0.052519374
000010 b3 4e 8e bd 99 0e 91 bd d7 08 28 bd f3 5c c0 3c
       -0.069486044 -0.070828624 -0.041024055 0.023481822
000020 5d c8 a9 3c 8d ba 60 bd 13 d3 64 bc 3e e9 14 3d
       0.020725423 -0.05486541 -0.01396634 0.03635525
000030 4c ca 11 bd df f5 de 3c 2f 89 8e 3d 3e 30 4d 3d
       -0.035593316 0.02721685 0.069597594 0.050094835
000040 bb 4d 2f 3d 7f 43 b1 3c 05 81 34 3c d9 4d ec 3c
       0.04279874 0.02163863 0.011017089 0.028845714
000050 bf 7a 60 3d f2 1d 47 bd 50 1e 98 bc 7d 96 9d bd
       0.05480456 -0.048612542 -0.018569142 -0.07694719
000060 0f 25 09 bd 4b b4 77 3d 85 8e 9e 3d 50 84 a6 bd
       -0.033482607 0.060474675 0.07742027 -0.08130705
000070 a7 1f 9c bd d6 0a 59 3d 5a 46 0b bd 39 50 b0 3b
       -0.07623225 0.05298885 -0.03400264 0.005380657
000080 73 25 32 3c 7d a9 68 3c 77 99 9c bd 39 3f 66 bc
       0.010873186 0.014200565 -0.076464586 -0.014053159
000090 0c a9 9d bc ad 1d a9 3d ce 28 55 bc 80 56 67 3d
       -0.019245647 0.08257613 -0.013010217 0.056478977
0000a0 c2 3a 52 3d 59 9c ab 3d f8 35 db 3c 28 c0 a6 bc
       0.051325567 0.0837943 0.026759133 -0.0203553
0000b0 18 b9 0a bd 76 65 0a 3d d7 c6 9f bd 45 ec 3e 3b
       -0.033867925 0.033788167 -0.078015976 0.0029132527
0000c0 b4 22 98 bd 39 04 6c bd d2 96 22 bd 7a c6 92 bc
       -0.07428494 -0.057621215 -0.039694615 -0.017916907
0000d0 1d e5 bb 3c c8 a7 85 bd d5 1d 60 bd 7e 4d 3e bd
       0.022936398 -0.06526142 -0.05471595 -0.04646062
0000e0 59 54 bd bd d2 9c 7c bd cd f3 a5 bd d5 3c 55 bd
       -0.09244604 -0.061672993 -0.08103142 -0.052059967
0000f0 88 b2 07 bc 2e 89 c6 3b 5b f5 3c 3d 40 d9 9a 3c
       -0.008282311 0.0060588336 0.046132427 0.018902421
000100 ed 13 57 3c d7 ef 9a 3c f7 82 a6 bd 21 da b0 bc
       0.013127309 0.018913193 -0.08130448 -0.021588387
000110 68 c3 76 3d f1 5d 96 3d 3b 9c 90 bd b9 5f 4e bd
       0.060244948 0.07342137 -0.070610486 -0.050384257
000120 24 7b c0 3c 68 1e 3c 3d 98 c5 b5 bc f7 e5 55 bd
       0.023496218 0.045927435 -0.022188947 -0.052221265
000130 05 a5 53 3d 8c ca b0 3c a5 e2 2a ba bf 5b 48 3c
       0.051671047 0.021580957 -0.0006518758 0.012228905
000140 64 2f 48 3d 45 7d 98 bb 26 14 48 bd 70 42 a7 3d
       0.04887332 -0.004653605 -0.04884734 0.08166969
000150 7e 48 6f 3d 33 07 af bd 4d 97 18 3d 81 03 93 3a
       0.058418743 -0.08546295 0.037253667 0.0011216254
000160 eb 60 b2 bc 0b ab a8 3d d9 f0 b5 3c 43 21 9f 3a
       -0.02177473 0.08235749 0.022209572 0.001214065
000170 5c 75 77 bd e6 45 fc 3c 60 41 a6 bc 35 6a 03 bd
       -0.060414657 0.030795049 -0.020294845 -0.03208371
000180 d3 80 40 3d 48 28 0d 3c ba 2e 0e bd b4 b2 69 bc
       0.046997856 0.008615561 -0.03471253 -0.014263798
000190 b6 7b 0f bc f1 17 dc 3c 01 11 16 bc 78 dd a8 bd
       -0.008757522 0.026866885 -0.0091593275 -0.08245367
0001a0 82 88 26 3c df c9 89 bd 87 74 25 3c 23 12 aa 3c
       0.010164382 -0.06727957 0.010098583 0.020760601
0001b0 c1 9c 0b bd 07 4d 03 bb 3f 2e c4 3a ec 06 7e bc
       -0.03408504 -0.0020034926 0.0014967396 -0.01550458
0001c0 1c 76 0b bd 5e b7 59 bc e6 68 1d 3d 19 1d dc 3b
       -0.034048185 -0.013288347 0.038430117 0.006717336
0001d0 16 6c 16 bd ac 77 67 3d af 3c 86 3d d4 13 79 bb
       -0.036724173 0.056510612 0.06554543 -0.0038006203
0001e0 8e d4 61 bc 27 fc 4e bd 04 4d 8e bc 85 60 aa 3d
       -0.013783587 -0.05053344 -0.017370708 0.08319191
0001f0 09 7c f0 3c 1b ef 02 3d fe 4d 5e bc 6f c2 57 bd
       0.02935602 0.03196631 -0.0135683995 -0.05267566

layers.5.weight f4 [2, 128]
000000 a6 4c 1a 3e e1 a8 2e be 1e 55 37 3e 45 ca c5 3d
       0.15068302 -0.1705661 0.17903563 0.096577205
000010 2c cc 33 be d7 8d 37 be 08 fd 26 3e 7d 5b 3d 3e
       -0.17558354 -0.17925201 0.16307461 0.18491931
000020 60 67 12 3e 6f 05 81 bd a6 a9 ea bd fb e4 3f bd
       0.14297247 -0.062998645 -0.11458139 -0.046849232
000030 ab a3 2f 3e f3 64 19 bd 28 20 25 be db e2 7c bd
       0.17152278 -0.03744979 -0.16125548 -0.061739784
000040 d9 83 04 3e ad 84 1c be 64 ce 9a bd 76 76 14 3e
       0.12940921 -0.15284987 -0.07558897 0.14498314
000050 eb 06 90 bd 09 12 04 3e 5f 2f 03 be df 64 02 3e
       -0.070325695 0.12897505 -0.1281104 0.12733792
000060 92 13 8e bd 6d f8 22 3e ec 89 03 be 09 95 25 be
       -0.069373265 0.1591508 -0.12845582 -0.16170134
000070 63 66 9a 3d ce 5d 76 bd e6 3c a8 3d c2 97 8e bd
       0.0753906 -0.060148053 0.082147405 -0.06962539
000080 f5 9d 3c be a4 f2 a6 3d 53 10 cb 3d be 10 17 3e
       -0.18419631 0.08151749 0.09915223 0.1475248
000090 8d c5 8a bd 1c 40 e0 3d 61 3c 1e 3e e0 bf 7d bd
       -0.06775961 0.10949728 0.1545272 -0.061950564
0000a0 ea 06 e9 3d 91 e0 d5 3d f5 69 34 3e 66 ef db bd
       0.11378272 0.10443223 0.17618544 -0.10739021
0000b0 d1 98 18 bd 3d 8b 2f be de 1b fd 3d 16 b0 4b 3e
       -0.037255112 -0.17142959 0.12358831 0.1989139
0000c0 98 20 13 3e 38 7d a4 3d 87 06 d9 bd 8d 1b 17 be
       0.14367902 0.08031696 -0.10596948 -0.14756604
0000d0 58 34 e8 3d 4f 16 e4 bd 3a f9 f1 bd f2 00 c2 3d
       0.11338109 -0.111370675 -0.11815114 0.094728366
0000e0 27 b0 c9 bd e2 a7 a9 3d e3 df 8e bd 20 d1 ee bd
       -0.098480515 0.08283974 -0.06976297 -0.11660981
0000f0 3b 21 30 be a9 23 2d be a9 d5 b9 bd 0d 5f fc bd
       -0.17200176 -0.16908135 -0.090739556 -0.12322817
000100 19 85 4f 3d fc af 02 3e eb 04 0b be 85 b1 86 3d
       0.05066404 0.12762445 -0.13576095 0.06576828
000110 d6 2e 08 be 3d 28 eb bd 8e 4f e7 bc 9e 39 1a 3e
       -0.13299116 -0.11482284 -0.028236177 0.15061042
000120 77 43 31 bd f6 9c 6b bd 80 e8 cc bd f0 a6 18 be
       -0.04327723 -0.057522736 -0.10005283 -0.14907432
000130 6b f0 39 3d 8e 25 e7 bd ad cd 74 bd a2 af 14 be
       0.045395296 -0.1128646 -0.05976646 -0.14520124
000140 b2 3b 15 3d 6e bc 30 be 66 97 ed bd 81 ba b8 3c
       0.036433883 -0.1725938 -0.116011426 0.02254987
000150 0b 7b 00 bd 4b e5 0f 3d 97 81 93 3d f1 08 c6 bd
       -0.031367343 0.03513078 0.07202452 -0.09669674
000160 c0 a6 dc 3d d8 f6 1e 3e d2 5c e2 bd 64 0b 17 3e
       0.107739925 0.15523851 -0.1105286 0.14750439
000170 50 c4 ce 3d 2c c7 ed bd a8 f6 2a 3e 58 d5 25 bd
       0.100960374 -0.11610255 0.16695654 -0.040486664
000180 6a 0d 12 be 75 fb 08 3e 7a 9c f2 3d 00 3c 4f be
       -0.1426293 0.13377173 0.11846252 -0.20237732
000190 44 40 c6 bd 51 ba a4 bd 21 d6 12 be 1b b0 8d bd
       -0.096802264 -0.080433495 -0.14339496 -0.06918355
0001a0 62 ce d1 3d 6f ae 33 be 5e b6 8f bd 66 7f 98 bd
       0.102444425 -0.1754701 -0.07017206 -0.07446174
0001b0 d0 cd b0 bd a9 89 18 be 70 54 0c be 80 35 11 3e
       -0.086330056 -0.14896263 -0.13704085 0.14180565
0001c0 88 da 2a 3e 74 4b fa 3d db af 25 3e 4b 90 04 3e
       0.16684926 0.12221423 0.16180365 0.12945668
0001d0 f5 9e 21 3e a0 48 f7 3d ed 55 d0 bd ec 46 df bd
       0.15783294 0.12074399 -0.10172639 -0.10902199
0001e0 ba e6 06 be fc 2b ad 3d d1 34 d2 bd 2d 9c 13 3e
       -0.13173953 0.08455655 -0.1026398 0.14415045
0001f0 1c 7f 2c 3e 10 78 1d 3e 7d 39 0e be 30 fc 27 be
       0.16845363 0.15377831 -0.13889118 -0.16404796
000200 dd 21 74 bd 01 d2 e9 3d 4d 3e 04 be 2b 36 1c be
       -0.059602607 0.11417008 -0.12914391 -0.15255038
000210 ab a5 e0 3d e3 38 b2 3d eb 05 ab bd db 9a 13 be
       0.10969099 0.087022565 -0.08350738 -0.14414541
000220 34 4a de bd d0 9b 01 3e 62 fb cb 3d cc 95 16 3e
       -0.10853997 0.12657094 0.09960057 0.1470558
000230 71 07 20 be f2 e7 0a 3e e6 3d fb 3d ab b9 c8 3d
       -0.15627839 0.13565043 0.122676656 0.09801038
000240 1b 11 21 be ca 7f 1f 3e ee 26 12 3e 10 b8 14 be
       -0.15729181 0.15576091 0.14272663 -0.1452334
000250 a9 47 11 3e 25 a8 f9 bd c5 e2 aa 3d 2f 62 35 be
       0.14187492 -0.12190274 0.08344034 -0.17713235
000260 bc 68 05 3e ef 7c f9 bc 99 01 d3 3d 3c be 1c 3d
       0.13028234 -0.03045508 0.10303039 0.03826736
000270 92 99 d6 bd 4b 99 40 3e 95 94 69 be 74 78 3d 3e
       -0.1047851 0.18808477 -0.22810586 0.1850298
000280 57 43 ea 3d 6e 24 01 be eb d1 0b be 83 d6 01 be
       0.11438625 -0.12611553 -0.13654296 -0.12679486
000290 1a 4b 3c 3e 61 14 52 be 33 fb ae bd 11 3a e0 3d
       0.18388024 -0.20515586 -0.08544006 0.10948575
0002a0 de e6 d3 bd 9e cb ea bd 72 ea 53 bd 58 cb 19 3e
       -0.10346769 -0.11464618 -0.051737256 0.15018976
0002b0 8d de 25 3e 5a 6a 8e 3d b0 ca 26 be 64 27 05 be
       0.16198178 0.06953879 -0.16288257 -0.13003308
0002c0 bf ea 07 be ad f2 09 be 82 df 23 3e 2d 52 78 3d
       -0.13273142 -0.1347148 0.1600323 0.060625244
0002d0 98 26 c6 bd 77 62 1e 3e 16 ea 14 3e 27 06 07 be
       -0.0967533 0.15467249 0.14542422 -0.1318594
0002e0 97 47 0a 3e 70 2c c1 bd 8f 24 23 3e 16 b4 87 3d
       0.13503872 -0.09432304 0.15931915 0.066261455
0002f0 4f 56 35 3d bc 67 ce 3d a7 bf 07 3e 3b 97 cc 3d
       0.044271763 0.100783795 0.13256703 0.099897824
000300 c0 71 2f be 6b 27 10 be 02 f9 eb 3d 88 6f f2 bd
       -0.17133236 -0.14077537 0.11522104 -0.11837679
000310 3a 35 11 3d e3 d6 de 3d 33 19 c9 3d f9 a0 05 be
       0.03545115 0.1088083 0.098192595 -0.13049687
000320 8c 22 03 3e 32 d7 f8 3d 56 e7 cc 3d 53 0a 2c 3d
       0.12806147 0.1215042 0.10005061 0.042002033
000330 c5 e0 07 be 28 75 03 3e d5 53 e0 3d 4a a7 04 3d
       -0.13269337 0.1283766 0.1095349 0.0323861
000340 a2 a5 cf bd 98 8a a1 3d f8 07 f3 3d f3 d7 18 be
       -0.10139014 0.07887763 0.11866754 -0.14926128
000350 fb c3 17 3e 9e ff 29 3d 83 67 21 be a3 27 f6 3d
       0.14820854 0.04150354 -0.15762143 0.12019279
000360 74 48 0f be cc 3a e6 bd 6a e9 1c 3e e9 8f 6c bd
       -0.13992482 -0.11241683 0.15323415 -0.05775443
000370 ea 43 c3 bd f8 91 24 3e 89 52 89 bd 4d 3b 2a 3e
       -0.09534438 0.16071308 -0.067051955 0.16624184
000380 f6 d0 06 3e 40 cd 03 be ee ba 8c bd 8f 3a 44 3e
       0.1316565 -0.12871265 -0.068715915 0.19162963
000390 b9 34 de 3d 66 fc c4 3d 0f 77 a6 3d 9c b1 2f 3e
       0.108499 0.09618454 0.081281774 0.17157596
0003a0 66 df 89 bd 5e e2 cd 3c e6 a5 1e 3e f8 b0 39 3e
       -0.06732063 0.025132354 0.15492973 0.18133914
0003b0 7d 06 25 3e 9b e0 37 3d 73 4c af 3d bf 35 9d bd
       0.16115756 0.044891935 0.085595034 -0.07676267
0003c0 31 5f cc bd d7 b7 1e be b1 92 d3 bd c0 d9 f0 bd
       -0.09979094 -0.15499817 -0.103307135 -0.117602825
0003d0 c7 89 f2 bd 4a d6 05 be 0c 99 0f 3e 7d 4d e1 3d
       -0.11842685 -0.13070026 0.14023226 0.11001108
0003e0 2c f9 9e 3d 2f ef 15 be a4 2d df 3d 3f eb 8f bc
       0.077623695 -0.14642023 0.10897377 -0.017568229
0003f0 f2 80 ba bd 11 17 19 be eb 02 01 3e b5 76 2d 3e
       -0.091066256 -0.14950205 0.1259877 0.16939814

layers.5.bias f4 [2]
000000 7e d3 ac bd fa a0 2b 3d
       -0.084387764 0.041901566
