model_zoo/GCL/CartPole-v0/cost_1129.pth (torch, 139319 bytes, 7 tensors)

layers.0.weight f4 [128, 6]
000000 da 83 30 be 51 79 30 be ee 21 e3 3e 16 10 8c 3e
       -0.17237797 -0.17233779 0.44361824 0.27356023
000010 1e f2 55 bd 93 46 e5 bd e0 f0 93 bd f7 cf 92 3e
       -0.052232854 -0.111951016 -0.07223678 0.2867429
000020 0d c4 d3 be 81 30 e4 be 78 42 3a 3e 58 56 7e 3d
       -0.41360512 -0.44568256 0.18189418 0.062094063
000030 6d 0a a5 be d4 7c 9f 3e e2 5e 88 be 48 19 97 be
       -0.32234517 0.31149924 -0.2663489 -0.29511476
000040 d9 5a 38 be b9 d6 a9 be 4e 9f a3 be 5a fe 35 3d
       -0.18003406 -0.33171633 -0.31957477 0.04443202
000050 ba 55 cc be e0 16 0b bf a1 04 62 be c1 5a 3c 3c
       -0.39909154 -0.5433178 -0.22072078 0.011496247
000060 9b 3a 0b be cf 31 a0 3c 5f 58 95 3e b4 61 f0 bd
       -0.13596575 0.019555 0.29168984 -0.117373854
000070 0c e0 87 be fd 04 96 be c3 2c a8 3e 95 d7 78 be
       -0.26538122 -0.2930068 0.3284665 -0.24300988
000080 9b f9 2d be c8 04 63 be 24 72 ea bd b4 03 84 3e
       -0.16989748 -0.22169793 -0.11447552 0.25784075
000090 43 06 a8 3d e5 ad 8d be 14 3b c6 3e 61 cf f9 3d
       0.08204319 -0.27671733 0.38716948 0.121977575
0000a0 ac 5c bc 3e 00 f5 b7 be 08 06 98 3d 38 0c 51 3c
       0.36789453 -0.35929108 0.07423025 0.012759261
0000b0 39 79 ac be d7 60 d4 be cc 2d 9e be 37 37 9c be
       -0.33686236 -0.41480133 -0.30894315 -0.30510876
0000c0 5e 6a bc be 25 c2 41 bd 6b 84 55 3f 41 71 e1 bd
       -0.36799902 -0.04730429 0.8340518 -0.110079296
0000d0 fb e0 7f bd d0 e5 8d 3d 5a 35 71 3e d7 f8 c4 be
       -0.062470417 0.06928599 0.23555508 -0.384711
0000e0 ac ad be bd 55 88 a2 be 22 ba b2 3e 21 b0 04 3e
       -0.09310469 -0.31744638 0.34907633 0.12957813
0000f0 18 d9 8f 3e e8 02 a6 be 29 b6 1d be b3 37 6a 3e
       0.28095317 -0.32424092 -0.1540152 0.2287281
000100 3c d2 da 3d f3 e7 b8 3e b7 df 91 be a7 9e 96 3e
       0.1068463 0.36114463 -0.28490993 0.29417917
000110 59 9c 4c 3e 83 c2 f2 3e 7c bd 24 be 03 22 38 be
       0.19981517 0.47414026 -0.16087908 -0.17981724
000120 34 45 89 be 7d 17 2a bd 9d 87 41 3f 85 97 bb 3d
       -0.2681061 -0.041526306 0.75597554 0.091597594
000130 ec 65 42 3d 46 c8 a6 3e 3a 60 c5 3d e4 56 24 be
       0.04746048 0.32574672 0.096374944 -0.16048771
000140 54 ac 69 bf 62 ae 3f be f6 47 a5 bd 68 99 c6 bd
       -0.91278577 -0.18718866 -0.08070366 -0.09697229
000150 ef 24 90 bd e6 c6 26 3e 69 3c 14 3e ef 99 49 3e
       -0.070382945 0.16286811 0.1447617 0.19687627
000160 fa d6 5f 3e c0 16 d6 bd 86 77 b9 be cb c1 26 bd
       0.21859351 -0.10453558 -0.36224002 -0.04071216
000170 67 f4 07 3e 87 ed 14 3e 75 57 79 be b0 93 3a 3e
       0.13276826 0.14543734 -0.24349768 0.18220401
000180 55 33 b6 3e c2 46 44 3e 89 5c 49 bf bf 91 b4 be
       0.35586038 0.19167617 -0.7865682 -0.35267445
000190 02 11 12 3e 32 92 55 3d f3 b0 a9 3d c9 65 b2 3e
       0.142643 0.052141376 0.082857035 0.3484328
0001a0 d9 38 3e 3f 1e 14 32 be 11 49 81 be 58 4b 3b be
       0.7430549 -0.17390487 -0.25251058 -0.1829046
0001b0 b3 be 2e be e0 64 01 bc 1a 98 78 be 0d 33 bf be
       -0.17064933 -0.007897586 -0.24276772 -0.37343636
0001c0 69 ad 3b 3d a3 c8 5b 3e dc 5f 85 be df bf 4c be
       0.045819674 0.21463256 -0.26049697 -0.19995068
0001d0 5c 52 9b 3e 21 44 a8 3e f9 09 67 be 52 01 fa 3d
       0.30336273 0.32864478 -0.22562398 0.12207283
0001e0 87 3f ab be c8 23 5c 3e e0 5e 28 3f e3 82 33 3e
       -0.33446905 0.21498024 0.6576977 0.17530398
0001f0 d6 18 f3 3d 99 df 8b be 7b 38 04 be 6c a6 86 bb
       0.118699715 -0.2731903 -0.1291217 -0.0041091945
000200 66 b8 d6 be dc 50 d6 be 8b c7 41 bd 34 21 1e be
       -0.4193756 -0.41858566 -0.04730944 -0.15442353
000210 36 e4 67 3e 90 39 c0 3a e8 b8 fa 3e 8d 60 88 3e
       0.2264565 0.0014665592 0.48969197 0.26636162
000220 06 f8 11 3e aa 7a 6a be 2b 90 19 be f7 6c b4 bd
       0.1425477 -0.22898355 -0.14996402 -0.08809846
000230 13 86 19 be 26 b3 d2 3d 32 eb af 3e 2f 17 4a be
       -0.14992552 0.10288076 0.34359127 -0.19735406
000240 05 56 2e be a8 6f af bd 3e 9e 7c 3e a3 62 50 bd
       -0.17025001 -0.085662186 0.2466974 -0.050875317
000250 d9 99 be 3e a8 6e af be c0 3c f5 3d 8d b2 ee 3b
       0.3722675 -0.34264112 0.11974478 0.0072844685
000260 41 aa 0b 3d c3 cc ae 3e bd c7 85 3e 29 84 8c be
       0.034097914 0.34140596 0.2612895 -0.2744458
000270 82 a8 af 3e 2a f6 c9 3d 9f 70 89 3e 52 b5 89 3e
       0.3430825 0.09861405 0.26843736 0.2689615
000280 ce a8 62 be 06 ae 05 be ad 2f 8e be bb 8b 0e 3e
       -0.22134706 -0.13054666 -0.2777075 0.1392049
000290 61 aa 99 bc b5 76 2b 3e 6e ce b6 be 6d af ac be
       -0.018758 0.16744502 -0.35704368 -0.3372759
0002a0 df b7 81 be 68 70 68 be 7a 7d 39 bf 23 8f dd be
       -0.25335595 -0.2269913 -0.7245709 -0.43273267
0002b0 68 4c bc bc 20 93 c9 3e a6 ae 3e be fd b5 b8 be
       -0.022985652 0.3937006 -0.1862131 -0.36076346
0002c0 9d 1f 3a be c1 b7 08 38 7d b3 46 3c e4 cd 11 3e
       -0.18176122 3.259606e-05 0.012127754 0.14238697
0002d0 c8 fa 7a 3d 17 34 8e be 45 b2 eb be 6c 25 a6 be
       0.06127432 -0.27774116 -0.46034446 -0.32450426
0002e0 68 69 c9 be 1a a7 14 be b9 e0 3f be 59 a1 4d 3e
       -0.3933823 -0.14516869 -0.18738069 0.2008108
0002f0 ab fa 47 bf 2d c3 98 be 85 cf 7c bd 17 b1 94 3e
       -0.78116864 -0.29836407 -0.061721344 0.2904136
000300 67 d8 62 bd 7e 60 7a be 99 86 dc 3e 0d 7c 7f 3e
       -0.05538216 -0.24450871 0.4307144 0.24949665
000310 b9 32 c3 bd 9a 93 c7 be 16 a0 88 bd e8 63 96 be
       -0.09531159 -0.389798 -0.06671159 -0.29373097
000320 e0 8b 8e be 52 d5 bc 3e 5a 9d 28 be 94 42 b1 3d
       -0.2784109 0.368815 -0.16466275 0.08655277
000330 e8 cb 1a be 7a 5c 0b 3e 02 27 f3 be fd 54 aa be
       -0.15116847 0.13609496 -0.47490698 -0.33267966
000340 5d 30 c2 3c dd a2 51 be c3 c2 35 3e 1f e9 b0 3b
       0.023704702 -0.20472284 0.17750077 0.005398884
000350 4c f9 3a 3f 30 cf 8a 3e b3 5a 0c 3e 36 99 47 3d
       0.73036647 0.27111197 0.13706474 0.048730098
000360 79 84 41 be 54 67 69 3e 34 97 c5 bd 36 45 a7 bd
       -0.1889819 0.22793323 -0.0964798 -0.08167498
000370 c4 f2 5e be f4 ce 6c be 48 9f 47 be f4 4c 65 3d
       -0.21772295 -0.23125821 -0.19494355 0.05598159
000380 63 4f ed be 49 75 81 be 4b ee 9d 3e df 8d 92 bd
       -0.4634963 -0.25284794 0.30845866 -0.07155966
000390 86 89 01 3e 16 9f 5f 3e 7e b2 31 bf 9d d2 cb bd
       0.12650117 0.2183803 -0.6941298 -0.09952281
0003a0 67 28 6e 3e 9b 06 8a bc c3 ae 58 3e bf ec ad 3e
       0.232576 -0.016848853 0.21160416 0.33969685
0003b0 33 41 a4 3e fa d7 a2 3e 6d 32 79 be 16 14 9a 3e
       0.32080993 0.31805402 -0.24335642 0.3009345
0003c0 60 be 3a 3e 37 32 ac 3e b4 76 21 bf 70 fd 8e be
       0.18236685 0.3363206 -0.6307175 -0.27927732
0003d0 69 af 73 bd 1c e0 0d 3e 31 25 9d 3e b1 1c 1b be
       -0.059493456 0.13855022 0.30692437 -0.15147664
0003e0 6d 2a e1 be 38 31 87 be 07 82 33 be 66 34 81 bd
       -0.4397768 -0.26404738 -0.1753007 -0.06308822
0003f0 50 7f 2c 3e e1 65 47 be 41 d4 5c 3e 5d 87 f6 3e
       0.16845441 -0.19472457 0.21565343 0.4815015

layers.0.bias f4 [128]
000000 1c db b1 3e bb e3 7f be 1e 14 c0 be ed a5 2f be
       0.3473748 -0.24989216 -0.37515348 -0.1715314
000010 8b e8 8f bd 35 ad a0 be 6f 87 b4 be 0b e7 b4 3d
       -0.07026776 -0.31382146 -0.35259578 0.088331304
000020 9d f6 69 3c 14 57 15 3e 95 71 bc 3d de 96 cf bd
       0.014279989 0.14583999 0.092013516 -0.101361975
000030 f3 84 48 be cf 20 59 3e 20 a3 43 3e 3a f4 4c 3e
       -0.19581966 0.21203922 0.19105196 0.2001504
000040 86 20 33 be 04 d0 3f 3e b2 29 82 3e ea fd d1 3c
       -0.17492875 0.18731695 0.25422436 0.025633771
000050 4a 0e d7 bd d0 71 89 be 61 4e 3c be da 31 22 bb
       -0.10500772 -0.26844645 -0.18389274 -0.0024748952
000060 9a ad 1e be 4a b2 64 3d ac 68 60 be fb b0 9c 3d
       -0.15495911 0.055834092 -0.21914929 0.07650944
000070 14 86 80 be ca 1d b5 be 80 f4 bf 3e 05 a3 ae 3c
       -0.25102293 -0.3537429 0.37491226 0.021317968
000080 7c a8 d7 3c 1e 8d 28 bd af 68 0b be 39 91 b9 be
       0.026325457 -0.041150205 -0.13614152 -0.3624361
000090 e8 2c b9 be 3e 64 cd 3c a2 60 6b bd a3 7d a5 be
       -0.36167073 0.025072213 -0.057465203 -0.32322416
0000a0 74 5e 41 3e ea e1 59 3e 9e 9e 84 be 49 0a 1e be
       0.18883687 0.21277586 -0.25902265 -0.15433611
0000b0 30 51 51 bd b4 88 82 be 73 dd 2f be 83 38 3c be
       -0.051102817 -0.2549492 -0.1717432 -0.18380933
0000c0 84 a8 05 be d2 92 95 be f8 36 f1 bd 28 0a 1c be
       -0.13052565 -0.29213578 -0.117780626 -0.1523825
0000d0 a0 34 33 3e 61 e4 9c be 84 72 0a be 16 ad 45 3e
       0.17500544 -0.3064299 -0.13520247 0.19304308
0000e0 cd e2 40 bd f4 2f 74 3e 38 73 37 3e b8 82 80 3d
       -0.047091294 0.23846418 0.17915046 0.062749326
0000f0 44 5a e2 3d cf ae d0 3d 52 98 25 be e1 a4 92 3c
       0.11052373 0.10189592 -0.16171387 0.017900886
000100 38 e4 a0 3e da ff 96 bd ad 31 e4 bd 46 f5 4e be
       0.31424117 -0.073730186 -0.111422874 -0.20210752
000110 cc 99 56 be 91 e8 1b 3e 3b ee 76 3c b9 17 35 be
       -0.20957106 0.15225436 0.015071447 -0.1768483
000120 43 87 81 be 51 9f 0b 3c c7 ed 0d be a5 49 65 3e
       -0.2529851 0.008521871 -0.13860236 0.22391374
000130 40 fc b5 3e b4 2d 97 3e d1 92 36 3e fe dd 89 3d
       0.35544014 0.29527056 0.17829444 0.06731795
000140 0c b7 9f be 07 ac 7e 3e c7 0e 9c 3d 84 ac e8 3d
       -0.3119434 0.2487031 0.07620006 0.1136103
000150 f2 84 8b 3d 90 77 39 3e 11 d0 b0 be 14 f5 77 3e
       0.06812467 0.18112016 -0.34533742 0.24214584
000160 bc 69 13 3d 7b 2b 2d 3e 1a 89 b6 3e a3 5c e1 bd
       0.035989508 0.16911118 0.35651475 -0.11003997
000170 b8 63 94 3e ee 5c 73 3e 93 3b fc 3c a1 ea a0 3d
       0.2898233 0.23765919 0.030790126 0.07857252
000180 4c 02 4b 3e 08 dc 83 3e 92 00 2c be 36 93 ad be
       0.19825095 0.25753808 -0.16797093 -0.33901376
000190 51 f6 27 be 7c a5 22 3e 26 19 aa be bf 09 2a be
       -0.16402556 0.1588344 -0.33222312 -0.1660528
0001a0 95 93 77 3e 6b de 2d 3e 61 27 47 3e b1 da d9 3d
       0.24177392 0.16979377 0.19448616 0.10637415
0001b0 be 56 6c 3d c7 f0 71 3e 23 35 a4 be a7 88 d3 bd
       0.05769991 0.23627006 -0.3207179 -0.10328799
0001c0 05 5e 7c 3e eb d7 3b 3d 12 74 64 bc dc 1d fd 3c
       0.2464524 0.045860212 -0.013943689 0.030898027
0001d0 75 cd 85 be 02 76 bb 3e 9c 70 ea bd ca 2e 90 bd
       -0.26133314 0.3661347 -0.1144726 -0.07040174
0001e0 09 71 72 be ef 31 dc bb f8 a8 55 3e 3b 8d bd bc
       -0.23675932 -0.0067198197 0.20865238 -0.023138633
0001f0 24 2b 76 3e 49 20 ba bc 5f 61 22 be ed be a4 3e
       0.24039894 -0.022720473 -0.15857457 0.32176915

layers.1.weight f4 [128, 128]
000000 b8 ae 0c 3c 3b 38 15 bb 30 62 42 3c 36 04 38 3d
       0.008586578 -0.0022769112 0.01186423 0.04492589
000010 ad 0d 6a bd 06 a9 19 bb df db 10 3c 2b a5 f9 3c
       -0.05714195 -0.0023446693 0.008841484 0.030474266
000020 d3 ad d6 3b b1 91 25 3d 72 a0 0a 3d e1 e5 63 bd
       0.006551483 0.040422145 0.03384442 -0.05563915
000030 cf 78 ad 3c 31 2e d3 3c c6 6c 7d bc 47 0c c0 bc
       0.02117577 0.025778862 -0.015467828 -0.023443354
000040 ba 04 12 3d aa 70 b3 3c f7 98 87 3d 36 f0 0a bd
       0.03564904 0.021904308 0.066209726 -0.03392049
000050 d7 2b 87 bd 4e 28 b3 3c d0 16 bc bc c8 b3 df bc
       -0.06600159 0.021869805 -0.022960097 -0.027307406
000060 dc 1e 87 bd 16 01 bb bc 52 a5 8f bd b3 3e 44 bd
       -0.06597683 -0.022827666 -0.07013954 -0.047911357
000070 1d 54 c2 3b fd 61 e8 bb c7 e5 a5 3c 46 2f 97 3d
       0.0059304372 -0.0070917592 0.020251168 0.073820636
000080 eb e8 2c bd 83 c3 c5 bc f1 ee 30 bc 66 5e 26 bd
       -0.042214315 -0.024141079 -0.010799156 -0.04061737
000090 6b 24 25 bd 93 5a 19 3d 87 70 d8 3c cb bc b9 3c
       -0.040317934 0.037439894 0.026420845 0.022673031
0000a0 7f e8 b8 3c 2b 5e 07 3d 67 d2 89 bd 20 5e 96 3b
       0.0225718 0.03304879 -0.06729584 0.0045888573
0000b0 54 fb e0 bc 7a 57 30 bd 2c 98 b3 bc 3b 31 e3 bc
       -0.027463593 -0.043052174 -0.021923147 -0.027733436
0000c0 d5 c0 84 bb 8b 22 0b 3d 3f f9 84 3b 63 40 84 3c
       -0.0040513077 0.03396849 0.0040580328 0.016143983
0000d0 5d 36 ff 3c d8 29 21 3d 25 e9 c7 bc 46 82 9c bc
       0.031153852 0.039346546 -0.024403164 -0.019105088
0000e0 c9 5d 96 bd e7 ee a5 3d ff be 04 3d b2 67 a3 3d
       -0.07342107 0.08102208 0.03240871 0.07978763
0000f0 5a 31 68 3c 5b ac 92 3d e7 db 95 bd cd f2 7b 3d
       0.014171923 0.071617804 -0.07317334 0.06151085
000100 5b 95 00 3c d4 a7 a2 3d a0 d9 08 3d b0 b5 93 bc
       0.007848109 0.07942167 0.03341067 -0.018030971
000110 60 26 0b bd 0f e9 19 3d 1a 92 fb 3c 8a 4e 26 3b
       -0.033972144 0.037575778 0.030709315 0.0025376403
000120 18 98 f7 3c b4 eb 79 3d ef 63 4c 3d d8 95 c8 3d
       0.030223891 0.0610158 0.04989999 0.097942054
000130 38 45 04 bd e7 50 29 3d 0d 42 0d bd e5 ef 8b bd
       -0.032292575 0.04133692 -0.03448682 -0.068328656
000140 30 d4 7d bc 2a ca 21 3d 9d 05 08 bd 54 46 26 3c
       -0.015492484 0.03949944 -0.03320848 0.0101486035
000150 fb 52 06 3d ca a1 86 bc 24 40 80 bd a1 73 00 3b
       0.03279398 -0.016434569 -0.06262234 0.001960017
000160 69 d2 bc 3b 82 a1 86 3b dc b8 ff 3c a2 a2 0e bd
       0.0057623875 0.0041086087 0.031216078 -0.034823067
000170 98 9b df 3c c9 82 43 3d 5a 87 2d 3c 39 25 6f 3d
       0.027295873 0.04773215 0.010591352 0.058385108
000180 1b 3b 91 3c 3c de bd 3d 2d 53 4d 3c 6a 43 9a bc
       0.017728379 0.092709035 0.012532038 -0.018830974
000190 34 4f ea bc 11 b9 92 3c 51 b5 52 bd 08 9b d7 3c
       -0.02860222 0.017910512 -0.051442448 0.026319042
0001a0 3c fb 75 39 82 28 4f 3d 05 af f7 3c 09 21 62 bc
       0.00023458613 0.05057574 0.030234823 -0.0138018215
0001b0 ec b3 92 3c e9 6b 6b bd a4 be 0c 3c d9 4a fa bc
       0.017908059 -0.057475958 0.008590374 -0.030553268
0001c0 ad eb 0b 3d 71 93 9a 3d fb 08 24 bd 44 90 ea bc
       0.034160305 0.075476535 -0.040047627 -0.028633244
0001d0 ea 9b 2c 3d 3f ed 91 3c 83 e6 d6 3c 37 80 0a 3d
       0.04214088 0.017813323 0.026232963 0.03381368
0001e0 61 2f b5 bd e4 54 8e 3c cd d3 bb 3d 02 ca d4 3c
       -0.088469274 0.017374463 0.09171257 0.025975231
0001f0 1e 88 a4 3c ed 31 8a bc 4b 70 38 bd 52 b0 3e 3d
       0.020084437 -0.01686951 -0.045028966 0.04655487
000200 62 33 ef 3c 16 48 16 3c 2a 97 e1 bc 58 5c 05 3d
       0.029199306 0.00917246 -0.027537901 0.03255877
000210 0c b0 c8 bc 5b 2e 03 bd 25 ee 31 3c 5a f9 7c bc
       -0.024498008 -0.03202663 0.010860001 -0.015440309
000220 7b bc 85 3c 94 02 58 3d 86 c4 e6 bb 50 22 52 3c
       0.016325226 0.052736834 -0.0070424704 0.012825564
000230 bd bd 84 bc 65 89 86 bc ac 00 0e 3d ba 89 13 bc
       -0.016203756 -0.016422937 0.03466861 -0.009005005
000240 dd ff cf 3a a0 4f e3 3c 4e d1 30 bc e3 bc 13 bd
       0.00158691 0.02774793 -0.01079209 -0.03606881
000250 14 6a b4 3b a0 4a 0e 3c d4 b3 33 3c 4e b8 35 bd
       0.0055058096 0.008684784 0.010968167 -0.04436522
000260 50 03 22 3d 63 57 e6 bb e7 0e 57 3c ab 4b 0b 3d
       0.03955394 -0.0070294603 0.013126112 0.03400771
000270 86 22 1f bd ca 0a 6b b9 2c 9c 64 ba 89 13 34 bc
       -0.038851283 -0.00022415366 -0.0008720781 -0.010990986
000280 51 d8 d1 3b fe 61 c7 bb d8 0b 85 38 16 43 8e bc
       0.0064039608 -0.0060846796 6.34414e-05 -0.017365973
000290 f3 d2 17 3d a2 0a f3 bc 50 b3 0a bd 77 74 6f 3d
       0.03706641 -0.029668156 -0.033862412 0.05846068
0002a0 c1 9f c5 3c 0c cf b1 3b 6b 0a 11 bd cf d0 f1 3c
       0.024124028 0.0054262932 -0.035410326 0.029518513
0002b0 44 1d e9 3a 87 4b 1a 3d 1a cc 46 3c 21 60 60 bc
       0.0017785211 0.037669685 0.012133623 -0.013694794
0002c0 6c 30 01 bd b5 04 32 3d 49 34 ea bc 8c 05 10 bb
       -0.03154032 0.04346152 -0.028589385 -0.0021975962
0002d0 b5 c6 51 3c ee 47 c4 bc 4b e1 0d 3d a8 4d b4 bb
       0.012803723 -0.02396008 0.034638684 -0.0055024214
0002e0 48 b2 b3 3c c5 29 bd 3c 78 cf c7 bc fb e4 2e 3d
       0.021935597 0.023091206 -0.024390921 0.04269884
0002f0 34 11 26 3d 85 0d d1 3c a4 a6 39 3d de b6 18 bc
       0.04054375 0.025519142 0.045324937 -0.009320943
000300 af 1e a4 3c 83 41 b3 3c 6f 40 ab bc 25 45 b3 3c
       0.020034162 0.021881824 -0.020904748 0.021883557
000310 3b 39 6c bc a9 76 62 3d 78 6c 09 3c dc b7 54 3d
       -0.014417942 0.055288944 0.008387677 0.051933154
000320 06 b0 76 bc 16 66 73 3b a1 8b 09 bd 94 e2 cc bc
       -0.015056616 0.0037139705 -0.033580426 -0.025010385
000330 db f2 18 3d df 1c 71 bb f6 10 3c 3d 8f 78 b3 3c
       0.03734098 -0.003679089 0.045914613 0.021908073
000340 9b 5a d9 3c 7a 69 00 3d 8f 61 7a 3d 42 d7 c1 bc
       0.026532462 0.03135059 0.061128195 -0.023662213
000350 96 74 c5 bb 3d 8d 30 bb 0a ce 88 bc 28 8a eb bc
       -0.006025861 -0.0026939653 -0.01669981 -0.028752401
000360 5f 76 1e bd 77 68 28 bc 7e d7 3c bc 8e ba a0 38
       -0.038687106 -0.010278813 -0.011525987 7.664143e-05
000370 0b 0c cb bb b8 25 19 3c f6 2f 30 3c 44 b6 a7 3c
       -0.006196504 0.009347372 0.010753622 0.020472653
000380 52 2f 05 3d 4e bb 09 bd 6c 63 c5 bc 7f 2f 4e bd
       0.03251583 -0.033625893 -0.02409526 -0.050338265
000390 ec e4 15 bb 27 31 81 bc bf 54 4c bd ed 54 92 3b
       -0.0022872044 -0.015770508 -0.049885508 0.0044656903
0003a0 49 dd 10 3b 98 0e 23 bc 42 ea a8 3b f1 a4 44 bb
       0.0022104552 -0.00995221 0.005154879 -0.003000554
0003b0 84 89 f1 3c 0c e3 b8 bc 06 75 e6 bb 78 f1 b7 bc
       0.029484518 -0.022569202 -0.0070329932 -0.022454008
0003c0 cb 12 3f 3c 0d c1 6e bb 7f 32 ed bb fe 48 db bb
       0.011662195 -0.0036430985 -0.0072386856 -0.006692051
0003d0 1f 74 af bb 04 74 6d ba dc 6c 8c bc e4 10 c2 3c
       -0.005354419 -0.000905812 -0.017141752 0.023689695
0003e0 e4 5d 5e bb 8b 23 dd 3b 3d 2e 6e 3c e8 fb fb 3a
       -0.0033930475 0.006748622 0.014537391 0.0019224854
0003f0 83 c8 1c ba f8 18 6b ba be 7f 90 bc 72 9c 1b bd
       -0.00059808063 -0.0008968259 -0.017639037 -0.037990995

layers.1.bias f4 [128]
000000 12 ad c9 3d 46 2c 7f 3d be 8b 6e 3b d1 e5 96 3d
       0.09847464 0.06229808 0.003639921 0.07368053
000010 46 93 1c bd 43 30 d4 3c 4e 70 37 3a 8f be a9 bc
       -0.03822639 0.02590192 0.00069976307 -0.020720748
000020 b4 ed 86 3d 45 06 71 b0 e6 18 86 3d 1d 84 30 bc
       0.06588307 -8.76842e-10 0.06547718 -0.010773686
000030 10 04 74 bd 97 e9 03 9c 82 bc 85 3d c4 89 1e a4
       -0.059574187 -4.364617e-22 0.06530096 -3.437748e-17
000040 70 73 4f 3d f3 6e 84 bb 47 ae 15 3d d9 48 5d 3d
       0.0506472 -0.0040415465 0.036543157 0.05402455
000050 11 3f 8f bd 9f e0 50 bd ec be 17 bd c1 8a c1 bc
       -0.06994451 -0.050995465 -0.03704731 -0.023625733
000060 d1 63 3e bd 23 3e 32 bd 42 1e 47 ad e7 bf 91 3d
       -0.04648191 -0.04351629 -1.1318559e-11 0.071166806
000070 0f 14 85 3d 66 16 70 bc 96 d6 03 3d ea a0 6e bd
       0.064979665 -0.014653778 0.032187067 -0.05825893
000080 50 c5 ce 3c 9b 63 95 bc 05 5e d5 3b 75 aa 79 a5
       0.02524057 -0.018235972 0.006511452 -2.165506e-16
000090 bc f0 80 3d 73 8a 85 bd 13 09 86 b9 ec a7 52 bd
       0.062959164 -0.06520548 -0.00025565232 -0.051429674
0000a0 8b 84 a6 3d 79 dd 34 bc 5b 16 b1 3d d7 c7 55 bd
       0.08130749 -0.011039131 0.08646842 -0.052192535
0000b0 34 95 82 3d 8b b8 8d 3d d3 c2 48 a7 04 c3 de bc
       0.063761145 0.069199644 -2.786119e-15 -0.0271926
0000c0 8d 7d a0 3d 46 b8 12 3d cd 44 47 3c ca 08 74 bd
       0.07836447 0.035820268 0.0121623995 -0.059578694
0000d0 1a 4d b9 3c 88 b2 1c bc f2 0c 36 bd 42 7f a9 b2
       0.022619773 -0.00956405 -0.04444594 -1.973206e-08
0000e0 a7 94 19 3d ac fe 86 3d ed a4 2c bd 68 39 df 3b
       0.03749528 0.065915436 -0.042149473 0.0068122633
0000f0 21 32 c3 bc 01 e0 11 bc 77 3b 52 3c d5 ee 1b ba
       -0.023827614 -0.008903504 0.01283156 -0.00059483695
000100 06 c5 98 bb 57 e2 30 bd c8 fa 23 3d ea f5 b0 b3
       -0.004662159 -0.043184604 0.040034086 -8.24037e-08
000110 be c6 28 3c 24 6a 0e b0 0d 4c 1d 3d 8e d9 3d bb
       0.01030129 -5.1810134e-10 0.038402606 -0.0028968784
000120 85 36 8c 3b 34 76 70 3d f3 3e 44 3c b4 46 69 3c
       0.00427896 0.058706477 0.011977899 0.014238048
000130 f4 99 30 bd 1e d9 b7 3c 82 7e ce bc 00 9c ec 3c
       -0.04311557 0.022442397 -0.025206808 0.02888298
000140 22 a5 c8 b5 99 73 1f bd 24 96 ab 3c 01 01 6d bd
       -1.4949221e-06 -0.038928602 0.020945616 -0.057862286
000150 c5 f7 4a 3d c4 e1 16 3d 47 34 39 3d bc ec b5 bc
       0.049552698 0.0368364 0.04521587 -0.02220761
000160 f3 f8 56 bc 23 d1 86 3d 52 1c 83 3d 23 da 96 3d
       -0.013120878 0.065828584 0.06401886 0.07365825
000170 a4 73 95 3c d3 42 8b 3c 24 5e 43 3d 60 ed ac 3d
       0.018243618 0.016999638 0.0476972 0.08443713
000180 72 47 83 bd a4 81 b7 3a 1f 93 5a bb 69 27 7f 3d
       -0.064101115 0.0014000428 -0.003335185 0.062293444
000190 e5 0e 8b 8a de 06 e9 3c b4 3a 84 3d 40 86 ad 3d
       -1.3390816e-32 0.028445657 0.06456509 0.08472872
0001a0 57 09 89 bd f1 d8 97 3d c0 44 33 3d 95 9b 3e 3d
       -0.066912346 0.07414425 0.043766737 0.046535093
0001b0 63 b9 12 3d 2f f7 27 bc 58 2a b6 3c 88 55 51 3d
       0.03582133 -0.010251804 0.022236988 0.05110696
0001c0 06 3a 9a 3c b8 5c 9a 3d cc fd 5e 3b 9d f2 e8 3b
       0.018826496 0.07537216 0.0034025786 0.007109
0001d0 1c 30 bd 3d 7e 11 8b bd 45 5e 80 3c f8 80 6f 3d
       0.09237692 -0.06790446 0.015669951 0.058472604
0001e0 f1 73 9a b7 ac 58 09 bc 2b e9 c1 3d 7a b3 01 ba
       -1.841222e-05 -0.008382957 0.094683014 -0.00049477036
0001f0 b2 81 3d 3c 9e 86 f2 3c d6 1a 5a bc b7 84 a0 3c
       0.011566566 0.029605206 -0.013312062 0.019594533

layers.3.weight f4 [128, 128]
000000 81 35 a9 3d f3 f9 a3 bc d9 2b 7d ab 3d 12 82 bb
       0.08262158 -0.020016646 -8.9944507e-13 -0.0039694593
000010 40 d6 93 3c f9 c7 e8 bb d4 eb 01 bd a0 dc 19 ba
       0.018046498 -0.0071039167 -0.031719044 -0.00058693625
000020 57 af 5b 3d 3f b8 c6 20 ae 1c 33 3d 26 16 38 3b
       0.053634014 3.3664429e-19 0.043728523 0.0028089373
000030 69 98 02 bc 24 d9 00 00 d0 8b 38 3b 71 10 00 00
       -0.007970908 7.7895e-41 0.0028159507 5.898e-42
000040 2a bd 0c 3c aa 08 85 bc 1b e9 6f 3c 41 56 e7 3c
       0.008590022 -0.016239483 0.014642979 0.028239371
000050 ca 25 0f 3d 00 0d 28 3d e9 0b 7b 3c 25 cc 14 bc
       0.034948148 0.041028023 0.015322664 -0.009081875
000060 79 af ac 39 8a 78 a2 3d 88 11 00 80 a5 6b 7d 3c
       0.00032937134 0.07933147 -6.289e-42 0.015467559
000070 52 5c 84 bd 1d de 86 3c d2 38 1b 3b be fd c4 3c
       -0.06462921 0.016463334 0.002368499 0.024046775
000080 de c0 6c bc e4 b9 f4 3b a3 fd 4e 3d 54 cf 7d a2
       -0.01445028 0.007468449 0.050534856 -3.4397652e-18
000090 5e 3f 87 bd 7b 46 64 bc 84 17 2e 3d 22 f8 30 3d
       -0.06603883 -0.0139328195 0.042502895 0.043205388
0000a0 c6 41 fb 3c f2 f9 42 3b b7 1f 58 bc a0 1b b2 3a
       0.030671012 0.002975103 -0.013191155 0.0013588555
0000b0 27 ed e7 bc d0 11 9e 3b d5 38 92 a6 28 b2 62 bb
       -0.028311325 0.0048239008 -1.0146189e-15 -0.0034591053
0000c0 c8 1a 09 3d d2 c2 9a 3c 2b ba 9e 3c a3 18 de 3a
       0.033472806 0.018891726 0.019375881 0.0016944598
0000d0 38 4a e8 b8 24 86 78 3d 75 7e c5 bc fa df d4 22
       -0.000110764464 0.0606748 -0.024108151 5.769986e-18
0000e0 04 6d f5 3a 87 ae 79 3d 22 2f bf 3b d7 fd 47 3a
       0.0018724506 0.060957458 0.005834476 0.00076290726
0000f0 21 60 75 3d 51 97 d5 38 4d bb 19 bd c8 5c e4 ac
       0.05990613 0.00010184816 -0.03753214 -6.4904505e-12
000100 16 eb 40 3a b1 36 1a 3b 19 c6 ce 3c a2 9c 00 00
       0.0007359249 0.0023531134 0.025240945 5.6189e-41
000110 a5 be f7 30 88 59 bc 2b d9 c0 37 3c 38 4b 3c 3d
       1.80258e-09 1.3383053e-12 0.011215412 0.04597017
000120 73 24 82 bc 9b da 90 bd 86 a0 47 bd 70 85 21 bd
       -0.015886521 -0.07072946 -0.04873707 -0.039433897
000130 e7 eb 4f 3d 9d e8 cd 3c 2a e7 7a bd cd 3d 56 3b
       0.050762083 0.025135333 -0.06125561 0.0032690645
000140 7a 5b 1a 0b 12 bb 5c bd e7 40 43 bc 3b 28 7c 3d
       2.972814e-32 -0.05388934 -0.011917329 0.061561804
000150 b7 b5 52 bd 8b 80 17 3b d8 ad 91 bd ac bc e8 bc
       -0.051442828 0.002311739 -0.07113236 -0.028410278
000160 68 83 7c ba 47 25 75 bd 41 4b 0a bd 01 dc 0a 3d
       -0.0009632618 -0.059850004 -0.033763174 0.03390122
000170 8e fa 8f 3c b6 a2 43 1b ca 05 2d 3d 89 03 a3 bd
       0.017575528 1.6182597e-22 0.04224185 -0.07959659
000180 50 30 c6 3c 8d cb 14 39 d6 21 01 00 31 2f fe bc
       0.02419296 0.00014190208 1.03974e-40 -0.031028362
000190 4b 16 00 00 90 2d 5a 3d 85 a9 75 3c 09 69 3e ba
       7.997e-42 0.053266108 0.01499403 -0.0007263576
0001a0 de 59 81 bc 95 de 43 bd a5 df 42 3d 02 68 89 3c
       -0.015789922 -0.047819693 0.047576565 0.016773228
0001b0 0f 1c 0a 3d 09 75 2b bd a1 a0 03 bd a8 9e 1a 3d
       0.033718165 -0.04185966 -0.03213561 0.037748963
0001c0 c1 6f 1e 3d 4d fd 09 bc 73 a0 ee 3c 71 5f 2b bd
       0.038680796 -0.008422208 0.029129243 -0.041839067
0001d0 90 f6 f1 bc f3 f8 94 3d 2d 9b 46 3d 0a 10 ea bb
       -0.029536515 0.07274046 0.04848783 -0.0071430253
0001e0 de e6 e0 34 79 99 66 3d 11 9f cb bc 85 c0 00 00
       4.189123e-07 0.056298707 -0.024856122 6.9063e-41
0001f0 00 cb 94 ba b9 6b 8f bd 4d 93 c9 bc 9e b0 54 3d
       -0.0011352003 -0.07002968 -0.024606371 0.051926248
000200 24 15 71 af de 6d cc ae 32 85 d8 1c da 37 3e af
       -2.1926333e-10 -9.296362e-11 1.4328111e-21 -1.7300242e-10
000210 8c ae 28 2f e5 99 c1 ae f5 24 03 af cc 1f 64 ac
       1.5341522e-10 -8.803961e-11 -1.192751e-10 -3.24184e-12
000220 73 38 1d ab 3a ef 00 00 64 9d 24 af 71 e9 9a ae
       -5.5855944e-13 8.5818e-41 -1.497163e-10 -7.044577e-11
000230 6a 73 e8 ae 02 9a 01 00 18 5d 57 ad 3c 0b 00 80
       -1.057064e-10 1.47083e-40 -1.2242006e-11 -4.03e-42
000240 e6 22 55 ad 35 32 04 2e da dc 82 af 1c a3 46 af
       -1.2115397e-11 3.0057918e-11 -2.3803787e-10 -1.8065943e-10
000250 1c 82 e0 2d 08 0b f9 ae 19 df 72 af c6 de d5 ae
       2.5523632e-11 -1.13251686e-10 -2.2089032e-10 -9.725691e-11
000260 57 7d 51 ad 1e d4 05 af 56 20 02 00 a9 e8 b5 ae
       -1.1908106e-11 -1.2171639e-10 1.95271e-40 -8.272256e-11
000270 c1 3e 02 af 4e af 17 ae 75 23 6d ad fa 5d 76 2e
       -1.1845726e-10 -3.4489127e-11 -1.3479763e-11 5.6017392e-11
000280 a6 13 f8 ae 9c 75 5c ad 27 62 65 ac 5f 3d 26 14
       -1.12812246e-10 -1.2531667e-11 -3.2597343e-12 8.3929616e-27
000290 56 f3 06 af b3 cf ab 2e 37 48 93 af 6b 42 f0 ae
       -1.2273679e-10 7.8130745e-11 -2.6790456e-10 -1.09257346e-10
0002a0 87 e4 81 af b3 f6 36 ad e9 cd e1 ae 3b 7d f2 ac
       -2.3627342e-10 -1.04002805e-11 -1.02683924e-10 -6.891957e-12
0002b0 77 d3 a3 2d f5 04 47 af 67 d8 d1 92 f5 35 76 2e
       1.8624864e-11 -1.8100706e-10 -1.3243102e-27 5.5981848e-11
0002c0 43 f5 29 2f 49 9a 96 2e c6 80 46 af d0 30 28 af
       1.5457595e-10 6.848617e-11 -1.8053745e-10 -1.5296853e-10
0002d0 eb 41 63 ad 26 ca 9e 2b e8 99 93 2e c9 c3 01 80
       -1.2918093e-11 1.1282683e-12 6.712125e-11 -1.6207e-40
0002e0 bc 64 12 af 2c d7 77 af bb 92 39 ad 50 89 4f ad
       -1.331441e-10 -2.2540964e-10 -1.0548613e-11 -1.1797077e-11
0002f0 b5 3b 66 ac ff 9e 48 ad be 9e 8c af 02 2c 00 00
       -3.271811e-12 -1.1403988e-11 -2.5578645e-10 1.5787e-41
000300 e1 a4 6b ab e9 58 5d ad 99 71 3b af 25 d4 00 80
       -8.3717587e-13 -1.2582138e-11 -1.7047909e-10 -7.6103e-41
000310 1d 38 04 9e 61 30 bb 98 08 62 98 af d9 10 6d af
       -6.999626e-21 -4.8387217e-24 -2.7718294e-10 -2.156101e-10
000320 e7 fd 28 2e 4b 3f b8 ae 17 97 b2 ad 7d d0 88 af
       3.8424288e-11 -8.378594e-11 -2.0303354e-11 -2.4886396e-10
000330 2b 31 1e ac 33 47 65 2e 64 72 08 af 40 c0 42 2f
       -2.2480444e-12 5.213181e-11 -1.2409768e-10 1.7712498e-10
000340 2c 6f 02 00 e7 42 04 2e 2b ec 26 af 50 0a 35 2e
       2.23552e-40 3.0072746e-11 -1.5181516e-10 4.1163795e-11
000350 ac d3 8c ad ac 32 d2 ae c3 19 a6 ae 32 d8 69 af
       -1.6010158e-11 -9.5586955e-11 -7.553382e-11 -2.1268035e-10
000360 2e 64 a0 ae 03 be 41 af cc 28 c9 ae ed be 6a af
       -7.293753e-11 -1.7620753e-10 -9.147669e-11 -2.1350006e-10
000370 ab 8c 2c ae 63 0e 7a 08 29 34 24 ac 1c b4 2e af
       -3.923321e-11 7.524855e-34 -2.3334756e-12 -1.5889196e-10
000380 1f f6 e2 ae 6d 43 09 00 39 39 00 80 58 0a 77 ae
       -1.032101e-10 8.50707e-40 -2.0528e-41 -5.6170485e-11
000390 fc 17 01 80 2c 04 91 af 8b 52 88 ae da 87 31 af
       -1.0044e-40 -2.637831e-10 -6.1992265e-11 -1.614632e-10
0003a0 9b ff 88 ae b3 bb 03 af 2b d5 4a af 98 50 a4 af
       -6.2299686e-11 -1.1981065e-10 -1.8447525e-10 -2.9888692e-10
0003b0 5f 52 e4 2d 01 dd cb ae 9d 03 04 2e c6 53 5e 2e
       2.5957179e-11 -9.2706294e-11 3.0016534e-11 5.055136e-11
0003c0 0b 4f 13 2f 1a 25 24 af 8c 3c f5 ae 05 34 f7 ae
       1.3397654e-10 -1.4928894e-10 -1.11520654e-10 -1.12415e-10
0003d0 40 73 92 af 6e 02 fc ae 95 bb 4a ac 75 85 29 af
       -2.6639135e-10 -1.1460065e-10 -2.8810055e-12 -1.5417874e-10
0003e0 fe 6c 46 a2 42 26 09 ad 3f 18 86 af ee 0b 01 80
       -2.6891704e-18 -7.796043e-12 -2.4391686e-10 -9.6115e-41
0003f0 29 aa c9 28 03 1a 17 af 3c fa df ae 78 9a 00 ac
       2.2389278e-14 -1.3742611e-10 -1.01853165e-10 -1.8275641e-12

layers.3.bias f4 [128]
000000 17 01 5e 3d 55 10 b5 af 89 a3 f6 b9 b3 03 94 3c
       0.054200258 -3.2935313e-10 -0.0004704262 0.01806817
000010 25 7c bb 3c 0b 94 c2 bc dc 75 c1 3c 6b 14 3f 3d
       0.022886345 -0.023752233 0.02361577 0.04665033
000020 7b b5 bf 3c cf 4b 04 37 74 a3 f5 3c b9 ff 1a 3c
       0.023401966 7.885464e-06 0.029985167 0.009460383
000030 23 5b 3e 3c a0 e6 1b 3d 50 a6 09 3d aa 24 a8 3c
       0.011618408 0.038061738 0.033605874 0.020525295
000040 e5 c8 1a bd f3 d7 ea 36 0d a6 ad 38 ac 8b 9a 3d
       -0.037789244 6.9988832e-06 8.280212e-05 0.075461715
000050 d5 91 22 3b 65 7b d9 b5 8a 91 9e b6 42 76 fd 36
       0.002480616 -1.6203672e-06 -4.72571e-06 7.5537546e-06
000060 7c a7 8f 3c 25 cc a7 b8 19 c8 40 36 53 ca 9f 38
       0.017535917 -8.0012054e-05 2.8726702e-06 7.619397e-05
000070 36 63 8e b7 b4 fe f8 3c ae 17 94 3b a5 a6 c8 3c
       -1.6973918e-05 0.03039489 0.0045194244 0.024493525
000080 e4 1a cc 3c 08 47 f3 35 d9 1a c7 3c ee 12 bc 3c
       0.024915166 1.8125584e-06 0.024304794 0.022958245
000090 6d be 10 3d 43 e5 50 3c c5 ac aa ac 5d cb ba 3c
       0.035337854 0.012749973 -4.850872e-12 0.02280205
0000a0 84 0d b8 3d a6 cc 62 3b 55 40 18 35 ef dc a2 ae
       0.08986953 0.0034606843 5.671803e-07 -7.406153e-11
0000b0 78 74 15 bc 68 ac 1b ba cb f1 08 3d 3b 90 c8 18
       -0.009122007 -0.00059384713 0.033433717 5.1844424e-24
0000c0 08 27 0a 3d 1e 44 f1 3c b2 20 e8 3c 3a 35 ec 3c
       0.03372863 0.029451426 0.028335903 0.028833974
0000d0 07 22 34 39 39 a1 20 3d d4 1b df 3c a7 41 5b b6
       0.00017178814 0.039216254 0.02723495 -3.2671758e-06
0000e0 71 8a ae 3c f3 a0 23 3d 7f 4b 15 3d 2d 82 8b bc
       0.021306248 0.039948415 0.03644895 -0.017029846
0000f0 bb 6b 0b 3d 26 f3 b5 b5 d7 f5 c9 3c 34 32 fb 3a
       0.034038287 -1.3556316e-06 0.024653358 0.0019164742
000100 af 62 11 3d 0c fa 89 3c 31 ba 4a bb 3a 71 e7 3c
       0.035494503 0.016842864 -0.0030933733 0.028252233
000110 3c ca a6 3b 5a f0 28 ac 80 64 c2 3c 4b 16 24 3d
       0.005090026 -2.4007658e-12 0.023729563 0.040060323
000120 2a a7 21 bc b7 fd bb 3b 9d 04 ab bb ed 2d f7 3c
       -0.009866515 0.0057370323 -0.005219056 0.030173266
000130 f1 1a ba 3c f1 b3 c7 3c ff 44 23 bd 36 26 86 ba
       0.022717925 0.024377795 -0.03986072 -0.0010234776
000140 41 de 5a bd 99 26 04 3d 12 4b d6 ba e1 48 04 3d
       -0.053434614 0.032263372 -0.0016349277 0.032296065
000150 7d b4 0d 3d 35 fa a2 3c c5 2c b2 3c 83 cc 1e 35
       0.034595955 0.019894699 0.021749863 5.915719e-07
000160 40 ca 95 3b 64 ce 2e a4 84 c7 51 38 75 86 ef 3c
       0.004571229 -3.7905055e-17 5.0015296e-05 0.029238919
000170 ab 9c 5d 3c b3 77 e7 3c 61 c7 00 3d 2a 28 a7 3c
       0.013526122 0.02825532 0.031440143 0.020404894
000180 39 f2 7e bb 5e fc 89 3d da d4 a6 3c 53 57 e6 bc
       -0.00389017 0.06737588 0.020365167 -0.028117811
000190 f1 d9 5e bc 6a 81 c6 bc 02 c2 fe 3c e7 2e 04 bc
       -0.013601766 -0.024231631 0.03109837 -0.008067823
0001a0 36 67 80 bc 24 8a 9e bd 9f 0a 5b 3c d5 86 d4 bb
       -0.015674215 -0.07741192 0.0133692315 -0.0064858
0001b0 9c da 8f bb c0 95 c1 b6 5a 9d 3d 3c dd eb ee 3c
       -0.004390074 -5.7692814e-06 0.01157316 0.029165203
0001c0 f5 0a dc 3a 7e ae 19 3d a9 95 c0 bb 52 1d 62 3c
       0.0016787933 0.037519924 -0.005877216 0.013800936
0001d0 5f d9 7a 3c a9 52 08 3d 5e bc 62 3b 96 8c ad 3c
       0.015310614 0.033281956 0.003459714 0.0211852
0001e0 1f 92 c7 3c 61 49 40 35 b2 0c 3c bc 0c e8 fa 3c
       0.024361668 7.1632354e-07 -0.011477636 0.030628227
0001f0 20 a3 40 3d 07 d1 0a 34 e3 8d 2d 38 bc ce dd 3c
       0.047030568 1.2928295e-07 4.1378556e-05 0.027076118

layers.5.weight f4 [1, 128]
000000 c3 9a 2f 3e 3b 06 19 2f 63 f9 ac 3e fb 45 1c 3e
       0.1714888 1.3917482e-10 0.33784017 0.1526107
000010 16 8b d0 be ce 8e b6 3e 7a ac ef be 32 ed e6 be
       -0.40731114 0.35655826 -0.46811277 -0.4510284
000020 65 8c b6 be f4 19 25 3f 3f 7e 1c 3e 2b 9d a7 be
       -0.35653988 0.64492726 0.15282534 -0.32737097
000030 55 b1 c6 be c0 d6 fe be 3b 5c 00 bf 76 83 cd 3e
       -0.3880717 -0.49773216 -0.5014073 0.4013936
000040 f3 0f 98 3e 0c a2 84 3e c5 04 99 3e 95 ca 4a 3e
       0.29699668 0.25904882 0.2988645 0.19803841
000050 c5 f5 95 3e 2f 97 cb b6 bc 8b 9f 3e 13 a0 f2 3e
       0.2928907 -6.0674715e-06 0.31161296 0.47387752
000060 f4 4c 85 be e3 89 4b b9 42 0a 9d 3e 6f b3 b5 39
       -0.26035273 -0.00019410955 0.3067189 0.000346567
000070 c5 b3 8d 3e 3f 50 ca be 85 dd 0e bf 68 6d b0 be
       0.27676216 -0.39514348 -0.5580676 -0.3445847
000080 11 0f fd be ab e7 22 3f f2 14 cf be 7e 55 e4 be
       -0.49425557 0.6363475 -0.40445668 -0.44596475
000090 06 40 d0 be 17 6e bc be 18 09 53 a6 bf 1d f8 3e
       -0.40673846 -0.36802742 -7.3217655e-16 0.48460194
0000a0 55 2b 92 be e7 d4 06 bf 92 46 b4 3e 3c ac c7 3a
       -0.28548685 -0.52668613 0.3521009 0.0015233825
0000b0 6c 3b 65 3e c4 a7 a9 3e 9e 7e dd be d1 aa e0 35
       0.22385949 0.33135808 -0.43260664 1.6739015e-06
0000c0 ab 2c 00 bf 90 91 c2 be 5c ee 01 bf e3 de dc be
       -0.5006816 -0.3800168 -0.5075433 -0.431388
0000d0 fe 4d a5 be e6 71 c6 be a4 ed e1 be fc 41 9c 3e
       -0.32286066 -0.38758773 -0.44126618 0.30519092
0000e0 07 b1 ef be 2f 54 02 bf 09 70 bd be c6 0c dc be
       -0.4681475 -0.50909704 -0.3699954 -0.42978495
0000f0 f0 8c 04 bf 42 b3 e4 3e 98 b1 fb be 60 cd 64 3e
       -0.51777554 0.44668013 -0.4915893 0.2234397
000100 a6 91 ea be 64 42 ac 3e 42 11 1b 3e ba 79 ba be
       -0.45814246 0.33644402 0.15143302 -0.36420995
000110 99 7b e5 3e a1 3a c7 3a 8c 9a d6 be 6c 3c d9 be
       0.4482086 0.0015199968 -0.41914785 -0.4242891
000120 c2 77 c9 3e b0 d3 b3 3e 3a d6 3a be f6 9d e6 be
       0.3934918 0.35122442 -0.18245783 -0.4504239
000130 d8 fa b5 be 0f 70 e8 be 52 cb c4 3e 10 28 a9 3e
       -0.3554294 -0.45397994 0.3843637 0.33038378
000140 6a 8c 72 3e 55 e0 ee be aa 84 00 3f 5b 43 fa be
       0.23686376 -0.46655527 0.5020243 -0.48879513
000150 16 46 fc be 06 02 8f 3e 40 e2 b6 be 75 9b c1 3e
       -0.4927222 0.2793123 -0.3571949 0.37813917
000160 d1 72 3a bd ce a2 5c a8 44 12 47 3f f4 a7 db be
       -0.045519654 -1.2247756e-14 0.77762246 -0.42901576
000170 d4 66 a4 be ff 39 c3 be fa 11 b1 be d9 fa 06 3f
       -0.32109702 -0.38130185 -0.34584028 0.52726513
000180 e5 c2 98 3e 76 53 5d 3e dd 19 9c be a0 4a 25 3e
       0.29836193 0.21613869 -0.30488482 0.16141748
000190 98 9f 7b 3e aa ab 09 3f 09 f5 0c bf 74 be 95 3e
       0.24572599 0.53777564 -0.55061394 0.29246867
0001a0 1b 0d 2e bf d7 d6 d8 3e a6 c1 a1 3e ec 22 b0 3e
       -0.6798875 0.4235141 0.31593055 0.34401643
0001b0 b7 1a 40 3f 85 cc c7 3e 13 1b 68 3e 7e c8 cc be
       0.75040764 0.39023224 0.22666578 -0.39996713
0001c0 6b 80 c9 3e b6 b6 01 bf 05 6e b2 3e 3d 36 f7 be
       0.39355788 -0.5066942 0.34849563 -0.48283568
0001d0 e2 5d 13 bf 1a b8 d8 be 05 f8 7b 3e aa 1e 79 3e
       -0.5756513 -0.42327958 0.2460633 0.24328104
0001e0 b9 1b e6 be 1a f5 af 3e c5 f8 34 bf f0 62 c4 be
       -0.44943026 0.34366685 -0.7069209 -0.38356733
0001f0 f0 82 71 3e 4f 1a 8c 3e 89 46 c5 be b2 6c d6 be
       0.23585105 0.27363822 -0.38530377 -0.41879803
