model_zoo/GCL/LunarLanderContinuous-v2/actor_9806.pth (torch, 141120 bytes, 9 tensors)

log_std f4 [2]
-1.2705013 -1.4090909
00000000: c99f a2bf 175d b4bf

layers.0.weight f4 [128, 8]
0.042866547 -0.075997606 -0.40727887 -0.11816936 0.51485413 0.24198142 -0.14008948 0.3585061
0.0407262 -0.09639717 0.123001345 -0.011178156 -0.46633425 -0.5021933 0.43184206 -0.10008142
0.37631658 -0.14067267 -0.0021621273 -0.2002466 -0.53619325 -0.5686854 0.28426147 -0.3162438
0.10482209 0.5472393 -0.008298683 0.3207654 0.121644475 -0.2624111 -0.16159983 -0.17814118
0.031155623 -0.03305605 -0.045595042 -0.018205222 0.1198075 0.13142017 0.028778724 -0.090663604
0.14195086 0.5517624 -0.1084884 0.5307961 0.0702846 -0.2194596 -0.29622123 0.045588564
0.06092983 -0.2530804 0.23488897 -0.3287872 -0.32531732 -0.18224877 0.041705757 -0.33642566
-0.110521205 0.19655427 -0.008104509 0.2813374 0.056330413 -0.21380547 0.06872918 0.058214143
-0.30317807 -0.47523862 0.14281136 -0.49812308 0.47253984 0.4345573 0.31079456 -0.20481557
0.064396694 -0.20873496 0.011982915 -0.16757226 0.016246326 -0.10178714 -0.21592125 -0.18364456
0.3996909 0.2024312 0.36600527 -0.10606419 -0.17617355 -0.6077202 0.053516712 -0.2370528
0.19064245 0.3573348 0.1800873 0.36964187 -0.51099885 -0.15513209 0.22114344 0.28771427
0.10975814 -0.38774014 0.30668938 -0.11835084 -0.057882044 -0.6121629 0.054366283 0.2987308
0.16675946 0.36757016 0.18341029 0.47928697 -0.4476382 -0.15770844 0.33038932 0.14377245
0.2395913 0.06532641 0.35250935 -0.105365135 -0.122885786 -0.6374627 0.2599845 0.08951168
-0.3038414 0.04420531 -0.32591414 0.056259543 0.07422622 0.5814088 -0.3747335 0.12604468
0.39294368 0.19942994 0.41402546 0.05677571 -0.49742264 -0.35535267 -0.07892652 -0.31470188
0.23042318 0.16507715 0.29192045 0.4438444 -0.10860606 -0.67558277 0.13184154 0.12890755
0.018617982 -0.5398543 0.3037051 -0.5341874 0.16964547 -0.1095503 0.3024204 -0.27073374
0.20187436 0.27679634 0.12356501 0.36287203 0.19620657 0.09332945 -0.21967876 0.23803292
0.3353554 -0.24827367 0.113869786 -0.268984 -0.55030817 -0.29714265 -0.1277048 -0.14394872
-0.1336396 0.047164705 -0.060386244 -0.027132783 0.30385685 0.37875676 0.17891467 0.31292272
0.050234262 -0.14451924 -0.43461576 -0.2000188 0.41911644 0.4133862 0.26380756 0.22087601
0.4016989 -0.23280533 -0.022959685 0.11507859 -0.3962763 -0.2605077 0.051578574 -0.21679634
0.11432211 -0.038781732 0.18700424 -0.10929533 -0.0847314 -0.08054511 0.35970932 -0.09402005
0.15532419 0.26269633 -0.16474289 0.02115596 0.44276977 0.40892273 0.11082394 0.12699273
0.043483805 0.0021741064 -0.3368311 0.30668527 0.37185377 0.45251718 0.07836512 -0.045268364
0.119641334 0.42648083 0.12885088 0.26283327 0.13726003 0.36403847 -0.15076458 -0.33455503
0.37065855 0.10399872 0.03501882 0.18524958 -0.35205057 -0.55996734 0.29963878 0.25134864
0.016771382 -0.025347682 0.18863381 -0.100573614 -0.33886388 0.033356395 -0.34881523 -0.22539927
0.11891734 -0.1692793 0.06621144 -0.07088493 -0.30829698 -0.3616679 0.14510958 0.07282932
-0.20027599 0.4804985 -0.24710923 0.16003893 -0.091023825 0.045306906 -0.009956554 0.1558835
00000000: d594 2f3d a2a4 9bbd db86 d0be c702 f2bd
00000010: 7bcd 033f fac9 773e 9e73 0fbe 1d8e b73e
00000020: 84d0 263d e16b c5bd 21e8 fb3d 9624 37bc
00000030: 5dc3 eebe bd8f 00bf 671a dd3e 7df7 ccbd
00000040: 91ac c03e 7f0c 10be 7ab2 0dbb 720d 4dbe
00000050: f643 09bf 5e95 11bf b88a 913e b5ea a1be
00000060: f7ac d63d e017 0c3f 33f7 07bc 5d3b a43e
00000070: bd20 f93d bf5a 86be 6d7a 25be a46a 36be
00000080: 143a ff3c c865 07bd dec1 3abd 1e23 95bc
00000090: a25d f53d 0293 063e 5cc1 eb3c d7ad b9bd
000000a0: 915b 113e 4d40 0d3f 2b2f debd 41e2 073f
000000b0: 5ff1 8f3d 04ba 60be 4faa 97be 13bb 3a3d
000000c0: 8f91 793d c193 81be bc86 703e cc56 a8be
000000d0: fe8f a6be 6c9f 3abe a8d3 2a3d fc3f acbe
000000e0: f158 e2bd 8645 493e c6c8 04bc 750b 903e
000000f0: b8ba 663d d2ef 5abe e2c1 8c3d f471 6e3d
00000100: 283a 9bbe 7a52 f3be 243d 123e fd09 ffbe
00000110: bef0 f13e 4b7e de3e 7720 9f3e 2cbb 51be
00000120: 6ae2 833d 9ebe 55be fd53 443c 1098 2bbe
00000130: 0417 853c c775 d0bd 761a 5dbe 520d 3cbe
00000140: 49a4 cc3e 204a 4f3e 0b65 bb3e 2f38 d9bd
00000150: d766 34be 8d93 1bbf 5734 5b3d f8bd 72be
00000160: c637 433e 96f4 b63e ce68 383e b341 bd3e
00000170: d2d0 02bf f2da 1ebe 6d73 623e 494f 933e
00000180: e0c8 e03d e085 c6be 6406 9d3e ed61 f2bd
00000190: b915 6dbd b5b6 1cbf 2eaf 5e3d 3ef3 983e
000001a0: fec2 2a3e 2832 bc3e e8cf 3b3e 1a65 f53e
000001b0: d630 e5be 527e 21be ca28 a93e 1639 133e
000001c0: 6c57 753e dac9 853d 1b7c b43e adc9 d7bd
000001d0: 8bab fbbd c130 23bf b01c 853e e651 b73d
000001e0: 1a91 9bbe a110 353d 38de a6be 6870 663d
000001f0: eb03 983d 35d7 143f 12dd bfbe db11 013e
00000200: ea2f c93e 5d37 4c3e 25fb d33e a68d 683d
00000210: 2eae febe c9f0 b5be 3aa4 a1bd 9b20 a1be
00000220: 0ef4 6b3e fc09 293e 9976 953e 933f e33e
00000230: db6c debd fef2 2cbf 7801 073e 5700 043e
00000240: bd84 983c e433 0abf 3c7f 9b3e 81c0 08bf
00000250: 8bb7 2d3e e85b e0bd d9d6 9a3e 9d9d 8abe
00000260: 27b8 4e3e 40b8 8d3e a70f fd3d 5dca b93e
00000270: 60ea 483e 8323 bf3d 78f3 60be e7be 733e
00000280: b4b3 ab3e 743b 7ebe 9034 e93d 45b8 89be
00000290: ffe0 0cbf 1523 98be 0cc5 02be 4b67 13be
000002a0: d2d8 08be c72f 413d 9157 77bd 9245 debc
000002b0: 2093 9b3e 68ec c13e 6835 373e 6837 a03e
000002c0: 71c2 4d3d dafc 13be f585 debe bad1 4cbe
000002d0: 6e96 d63e 5ba7 d33e c911 873e 522d 623e
000002e0: 7aab cd3e 8564 6ebe f315 bcbc 53ae eb3d
000002f0: bae4 cabe 4461 85be 0e44 533d dcff 5dbe
00000300: b621 ea3d 98d9 1ebd 0a7e 3f3e 3bd6 dfbd
00000310: a887 adbd d6f4 a4bd d22b b83e 958d c0bd
00000320: 4e0d 1f3e 2280 863e 5cb2 28be 444f ad3c
00000330: b8b2 e23e 525e d13e a9f7 e23d 620a 023e
00000340: 131c 323d 747b 0e3b 2075 acbe da05 9d3e
00000350: 9e63 be3e 55b0 e73e e47d a03d 526b 39bd
00000360: 8406 f53d b25b da3e 7cf1 033e 1592 863e
00000370: e58d 0c3e 4063 ba3e 0862 1abe cc4a abbe
00000380: f5c6 bd3e 48fd d43d e56f 0f3d 11b2 3d3e
00000390: f93f b4be 055a 0fbf 416a 993e c5b0 803e
000003a0: 2364 893c f1a5 cfbc 3929 413e 8af9 cdbd
000003b0: 917f adbe b7a0 083d e997 b2be 11cf 66be
000003c0: ef8a f33d 8e57 2dbe dd99 873d 1e2c 91bd
000003d0: 1ad9 9dbe 892c b9be 9b97 143e 8a27 953d
000003e0: 2615 4dbe e603 f63e 340a 7dbe 3fe1 233e
000003f0: b36a babd bc93 393d d020 23bc ed9f 1f3e

layers.0.bias f4 [128]
-0.08023167 0.003781172 -0.1555918 -0.16242023 -0.0074970755 -0.05816145 -0.0141141545 0.016029136
-0.008459303 -0.0056503774 -0.112080984 -0.10831974 0.08837033 0.19037426 -0.004153492 -0.00027592725
0.05826019 0.0371948 0.040675364 0.0063950215 -0.051675927 -0.0055111027 0.12445779 0.1441172
-0.014756342 -0.055861473 0.044792075 -0.018649274 0.06526238 -0.0052602403 0.007637837 -0.09733671
-0.17913145 0.08174686 -0.042380046 0.1050165 0.01723561 -0.10040061 0.068584494 -0.0087505365
0.011343932 -0.039524365 0.065866195 0.13342752 0.0020150756 0.05255753 0.006996287 0.1793529
-0.013502506 -0.1797302 0.08202172 0.030350443 0.14517665 -0.02012555 0.089143164 0.17692028
0.118528135 0.043417722 0.047976036 0.0046654423 -0.0068523954 -0.0068696616 0.12733491 -0.019548826
-0.039329786 0.13725679 -0.0368196 0.004581778 -0.016925994 0.045969527 0.025055235 -0.025066374
-0.023552788 -0.01245297 0.11023538 0.012836646 -0.14254017 -0.0062351082 0.02399976 -0.018422913
0.069130875 -0.0071061575 0.07460496 0.03295182 0.04709737 -0.18409033 -0.013445841 0.009683746
-0.15536422 0.027672518 -0.10422778 0.037014663 -0.08218702 0.062421445 0.04463483 0.035107087
-0.15005009 0.02760101 -0.14249143 0.08365441 0.043227527 0.0035823095 0.04819255 0.0004861949
-0.026421936 0.037355814 0.014991109 -0.0414299 0.101219505 -0.0036450396 0.17089285 0.19303168
0.04098531 0.059913453 0.12792318 0.005364248 -0.15785338 -0.08458966 -0.02322223 0.05415033
-0.020924818 0.18245952 0.064339966 0.014068061 -0.12684843 -0.12641889 -0.16627908 -0.0073975055
00000000: 8050 a4bd 8acd 773b 7553 1fbe 7d51 26be
00000010: 07aa f5bb b33a 6ebd 0e3f 67bc 894f 833c
00000020: e398 0abc cd26 b9bb b78a e5bd bdd6 ddbd
00000030: 81fb b43d 78f1 423e 041a 88bb 54aa 90b9
00000040: 3da2 6e3d 9359 183d 369b 263d 548d d13b
00000050: 23aa 53bd 7b96 b4bb bae3 fe3d 7693 133e
00000060: 96c4 71bc 00cf 64bd e577 373d 5dc6 98bc
00000070: 48a8 853d 185e acbb d246 fa3b 7858 c7bd
00000080: 3c6e 37be e66a a73d b396 2dbd e412 d73d
00000090: b231 8d3c d69e cdbd 0776 8c3d 695e 0fbc
000000a0: e6db 393c 4de4 21bd dbe4 863d 39a1 083e
000000b0: 5c0f 043b 9146 573d 1c41 e53b 49a8 373e
000000c0: 9d39 5dbc 320b 38be 01fb a73d 7ea1 f83c
000000d0: 30a9 143e 56de a4bc b190 b63d 972a 353e
000000e0: e1be f23d c8d6 313d 8582 443d 91e0 983b
000000f0: 0f8a e0bb e61a e1bb 1564 023e dc24 a0bc
00000100: 4518 21bd 0b8d 0c3e 26d0 16bd bd22 963b
00000110: 62a8 8abc 8b4a 3c3d a340 cd3c ff57 cdbc
00000120: c7f1 c0bc 8b07 4cbc 16c3 e13d cc50 523c
00000130: 0df6 11be e14f ccbb 259b c43c a6eb 96bc
00000140: 7d94 8d3d c5da e8bb 7cca 983d 7df8 063d
00000150: 2ce9 403d 2d82 3cbe f24b 5cbc 93a8 1e3c
00000160: cc17 1fbe 7ab1 e23c 6075 d5bd b09c 173d
00000170: ab51 a8bd a1ad 7f3d 03d3 363d 73cc 0f3d
00000180: bba6 19be 831b e23c 46e9 11be 0153 ab3d
00000190: 590f 313d 2ec5 6a3b 8d65 453d fae7 fe39
000001a0: d172 d8bc 6902 193d 459d 753c 66b2 29bd
000001b0: 2c4c cf3d 9ee1 6ebb 89fe 2e3e 19aa 453e
000001c0: 36e0 273d cf67 753d 4bfe 023e 93c6 af3b
000001d0: 51a4 21be 583d adbd 8c3c bebc bdcc 5d3d
000001e0: 866a abbc abd6 3a3e acc4 833d b97d 663c
000001f0: 8ee4 01be f473 01be 1045 2abe c666 f2bb

layers.1.weight f4 [128, 128]
0.013911471 0.058845572 0.0138066895 -0.018038092 0.10218357 -0.034728777 0.037793066 0.048402306
0.062824614 0.09715069 0.053442113 0.06599749 -0.09519468 -0.030338643 -0.087355115 0.01334167
-0.019026408 -0.071852274 0.05356394 0.12541987 0.06460792 0.0015508726 0.061115608 0.01387971
0.009129856 0.055855926 0.034209833 0.030265298 0.00069502875 -0.022323482 0.031173877 -0.032287136
0.059601128 0.0038979324 0.045259137 -0.034072172 -0.010441864 0.1325301 0.11931168 -0.036576476
0.034371927 0.06128879 -0.054285422 0.010573475 -0.013386595 0.07458482 0.10598629 0.03669838
-0.028878102 0.014177021 0.057930656 0.0017801167 0.013346223 -0.0045103 0.037112862 0.033312183
-0.009179375 -0.022357913 -0.045950226 -0.042664308 -0.010107418 -0.05689767 0.022497553 0.019687396
0.0067111338 0.0211477 -0.010065523 -0.06183389 0.100453675 0.081611 -0.033846203 0.017657835
-0.06775251 0.07785644 0.009676349 0.023251366 0.020868946 0.052035265 -0.031040603 -0.05158359
0.006686236 0.057422876 0.054762054 -0.0344534 0.11573432 0.066996045 -0.04464966 0.08410417
0.025505213 -0.02722301 0.036556713 0.14161786 -0.011342338 0.009677239 -0.0835944 0.060591694
-0.020355513 0.035079002 0.010019619 -0.079900965 0.064665556 0.064676 0.017483905 0.07709234
0.09198399 0.0048947237 -0.06380504 0.056101907 -0.07506191 -0.028568197 0.060654882 -0.017133702
0.05159462 0.083538316 -0.004090126 -0.1288871 0.041609086 0.017346663 0.052828524 0.015142572
-0.026780847 -0.013705354 -0.01168388 -0.031214084 0.10445613 0.06316404 -0.07027783 0.033912342
-0.007592638 0.04378698 0.10971715 -0.09310626 0.028475158 -0.14403959 0.10408586 -0.039022982
0.13070534 0.024518935 0.08194865 0.05194016 0.044037294 0.018202653 0.0069114906 -0.026122792
0.101745754 -0.048599858 0.1504083 0.051339574 0.106417365 0.10492556 -0.050948575 -0.008626063
0.07704499 -0.06526654 -0.019768342 -0.010943646 0.023553012 0.026715742 -0.002036345 0.017691579
-0.038768183 0.08802718 -0.043283112 0.014868745 0.081840135 -0.12663272 0.006802507 0.070572846
0.10167881 -0.008909812 -0.14105628 0.043499988 0.06871557 0.021111703 -0.2658093 -0.12545417
-0.058570508 0.037804294 -0.16231248 -0.037777837 -0.069337495 -0.1103212 -0.0058660693 -0.026131364
0.116511144 -0.10925921 0.0473524 -0.051196944 -0.07517027 0.11959602 -0.07047069 0.099941246
0.107486695 -0.070670925 0.12729092 -0.082230315 0.077231176 0.038693458 -0.055976793 -0.16260219
-0.020600948 0.010525267 -0.01769559 -0.048735816 -0.09372082 0.034980796 0.0457062 0.02793162
-0.03182451 0.06356657 0.07575181 -0.12444282 0.023109013 -0.14342284 -0.115524516 0.015802648
-0.041433826 0.05850124 -0.027702041 -0.07357812 -0.10864563 -0.020651905 0.05219106 -0.070859954
-0.013509582 -0.0011342866 0.078438185 -0.009097825 0.031345796 -0.13355903 0.035317153 -0.06642122
0.02629608 0.10782502 -0.15594819 0.020082988 -0.053051554 0.01540348 0.08738666 0.14699523
0.091633506 0.051797632 0.06912435 0.02261126 -0.0073911017 -0.07857029 0.03857879 -0.098707475
-0.054957274 -0.12412067 0.06264698 -0.06674393 -0.023793582 -0.03341146 0.058848277 0.13438599
00000000: f0ec 633c 0e08 713d 7435 623c 9fc4 93bc
00000010: 9f45 d13d c33f 0ebd e7cc 1a3d 7f41 463d
00000020: 31aa 803d f1f6 c63d 1ee6 5a3d b129 873d
00000030: 6ef5 c2bd bf88 f8bc 3de7 b2bd 0597 5a3c
00000040: 45dd 9bbc 4927 93bd dd65 5b3d 116e 003e
00000050: 2851 843d a646 cb3a 5c54 7a3d b967 633c
00000060: 6495 153c 2fc9 643d 9c1f 0c3d eeee f73c
00000070: 9732 363a bcdf b6bc 5c60 ff3c 843f 04bd
00000080: 5020 743d 7474 7f3b a561 393d 438f 0bbd
00000090: 5a14 2bbc f8b5 073e af59 f43d 37d1 15bd
000000a0: 94c9 0c3d f409 7b3d 645a 5ebd 5e3c 2d3c
000000b0: 7353 5bbc edbf 983d 570f d93d 0a51 163d
000000c0: c591 ecbc bc46 683c b248 6d3d ce52 e93a
000000d0: 1eaa 5a3c 23cb 93bb a803 183d 5b72 083d
000000e0: 1765 16bc f127 b7bc 4e36 3cbd c5c0 2ebd
000000f0: 9599 25bc 880d 69bd ca4c b83c 7647 a13c
00000100: 12e9 db3b f13d ad3c dde9 24bc 8845 7dbd
00000110: a8ba cd3d ab23 a73d 51a2 0abd 2aa7 903c
00000120: d4c1 8abd 3273 9f3d 8d89 1e3c a679 be3c
00000130: 5af5 aa3c ee22 553d dd48 febc 5149 53bd
00000140: 3618 db3b 4034 6b3d 2d4e 603d 021f 0dbd
00000150: 1d06 ed3d 3935 893d 90e2 36bd cf3e ac3d
00000160: 4ff0 d03c ca02 dfbc 7ebc 153d 4604 113e
00000170: 37d5 39bc 488d 1e3c 8a33 abbd ff2e 783d
00000180: 9bc0 a6bc 00af 0f3d 5429 243c 1ea3 a3bd
00000190: 606f 843d da74 843d 683a 8f3c 97e2 9d3d
000001a0: 1a62 bc3d eb63 a03b 38ac 82bd 1dcb 653d
000001b0: 0fba 99bd da07 eabc 4171 783d fa5b 8cbc
000001c0: e154 533d 2316 ab3d 7706 86bb fbfa 03be
000001d0: 4a6e 2a3d 971a 8e3c b962 583d 8d18 783c
000001e0: 8263 dbbc 6c8c 60bc bf6d 3fbc aeb4 ffbc
000001f0: 18ed d53d 265c 813d d3ed 8fbd abe7 0a3d
00000200: aacb f8bb fa59 333d 63b3 e03d 7fae bebd
00000210: bc44 e93c 1d7f 13be f82a d53d 90d6 1fbd
00000220: 9fd7 053e efdb c83c b2d4 a73d 35bf 543d
00000230: 7360 343d bb1d 953c c979 e23b 77ff d5bc
00000240: 1460 d03d a510 47bd a204 1a3e 7249 523d
00000250: 59f1 d93d 36e3 d63d 74af 50bd 5554 0dbc
00000260: c4c9 9d3d 77aa 85bd 38f1 a1bc fa4c 33bc
00000270: 3ff2 c03c f9da da3c 3374 05bb eeed 903c
00000280: 63cb 1ebd 9847 b43d a249 31bd 099c 733c
00000290: cd9b a73d 02ac 01be 91e7 de3b 7f88 903d
000002a0: fb3c d03d 76fa 11bc 0f71 10be 0b2d 323d
000002b0: c0ba 8c3d 73f2 ac3c 2818 88be 0f77 00be
000002c0: a1e7 6fbd add8 1a3d 3e35 26be efbc 1abd
000002d0: d100 8ebd 15f0 e1bd 2838 c0bb 7111 d6bc
000002e0: 659d ee3d 4bc3 dfbd 97f4 413d e3b3 51bd
000002f0: dff2 99bd c2ee f43d f052 90bd ffad cc3d
00000300: fc21 dc3d ebbb 90bd 8d58 023e 5e68 a8bd
00000310: 612b 9e3d 087d 1e3d ec47 65bd 3081 26be
00000320: 52c3 a8bc 2b72 2c3c 58f6 90bc 359f 47bd
00000330: b4f0 bfbd 0648 0f3d 6d36 3b3d dad0 e43c
00000340: 6b5a 02bd 312f 823d c423 9b3d e1db febd
00000350: 1d4f bd3c 70dd 12be 1e98 ecbd 8e74 813c
00000360: 84b6 29bd ff9e 6f3d 64ef e2bc 20b0 96bd
00000370: 9a81 debd 2f2e a9bc 4bc6 553d 061f 91bd
00000380: 4b57 5dbc 58ac 94ba 33a4 a03d 0b0f 15bc
00000390: 7364 003d b3c3 08be b8a8 103d d907 88bd
000003a0: e06a d73c 5dd3 dc3d e2b0 1fbe 1485 a43c
000003b0: 964c 59bd e15e 7c3c c7f7 b23d eb85 163e
000003c0: 59aa bb3d c129 543d 1191 8d3d 403b b93c
000003d0: 0e31 f2bb 76e9 a0bd cb04 1e3d 2527 cabd
000003e0: e11a 61bd fa32 febd 0f4d 803d 0bb1 88bd
000003f0: c2ea c2bc 75da 08bd e40a 713d 7b9c 093e

layers.1.bias f4 [128]
0.031728856 -0.024745928 -0.008327385 -0.04098452 -0.012185236 0.007462464 -0.03953511 0.007405945
-0.022448514 -0.01961599 -0.08864657 0.02513077 -0.040062346 0.024952015 -0.057586838 0.026299972
0.06515387 -0.0024987778 0.019163648 -0.018494327 0.014855671 0.019374348 0.001291161 -0.035536725
0.02157004 -0.05354591 0.037388757 0.031626135 0.051202547 0.069073774 -0.047558963 -0.04512278
-0.03455666 0.01460823 0.060960464 -0.023033943 0.026246835 0.028409421 -0.031696614 0.07227294
-0.029730478 0.04065461 0.08656312 0.022962244 -0.06491387 -0.05197874 -0.07958829 -0.06657214
-0.044309404 -0.027520493 -0.038431063 -0.01459394 -0.03268404 0.014194135 -0.03739697 0.020825116
0.030036857 0.00256999 0.04109002 0.027342742 -0.062496476 0.051530328 -0.011797602 -0.004728564
0.04161531 -0.016210357 -0.069898725 0.07959888 -0.037923686 0.06627306 0.02331631 -0.08902639
-0.0116644185 -0.050962348 0.03490696 -0.009207859 -0.06637039 0.02044268 0.037009586 -0.047770765
0.06883493 0.06940024 0.032785367 -0.026267644 -0.00051587657 0.006920563 0.014355315 -0.084066056
0.0725359 0.006818912 0.019209625 0.019716235 -0.032579318 -0.02315553 -0.040175468 -0.010421874
0.0015320109 0.018667214 0.034767557 0.007671851 0.0156202745 0.04416026 0.06693674 0.054302413
-0.08198004 0.043676767 -0.022054458 -0.026847094 0.078714006 0.02860999 -0.0044865287 0.05722223
-0.012535652 -0.055319708 -0.022153776 -0.02182626 0.003956503 0.07834999 -0.045996863 -0.036052845
0.007311407 -0.019649768 0.048414238 -0.055077795 0.0045906035 0.02578207 -0.021874772 -0.062464718
00000000: 1ef6 013d f9b7 cabc 966f 08bc 62df 27bd
00000010: 96a4 47bc af87 f43b 91ef 21bd 92ad f23b
00000020: f2e5 b7bc b6b1 a0bc 558c b5bd 0bdf cd3c
00000030: 6a18 24bd 2b68 cc3c 2de0 6bbd 0a73 d73c
00000040: 646f 853d 89c2 23bb 15fd 9c3c 6a81 97bc
00000050: 3365 733c f4b6 9e3c 2d3c a93a f58e 11bd
00000060: a7b3 b03c f552 5bbd f424 193d 688a 013d
00000070: c3b9 513d 8d76 8d3d 30cd 42bd aad2 38bd
00000080: 498b 0dbd 5c57 6f3c aeb1 793d aeb1 bcbc
00000090: 9a03 d73c e0ba e83c 4fd4 01bd d603 943d
000000a0: 558d f3bc 7385 263d 0148 b13d 511b bc3c
000000b0: 90f1 84bd a9e7 54bd 2fff a2bd f956 88bd
000000c0: c77d 35bd a872 e1bc e469 1dbd 6c1b 6fbc
000000d0: b3df 05bd 848e 683c 912d 19bd 6f99 aa3c
000000e0: db0f f63c 476d 283b 024e 283d e3fd df3c
000000f0: 4efc 7fbd 7711 533d bb4a 41bc 12f2 9abb
00000100: d174 2a3d 95cb 84bc 1027 8fbd bd04 a33d
00000110: de55 1bbd 2cba 873d d901 bf3c 7853 b6bd
00000120: 1e1c 3fbc e5bd 50bd 9afa 0e3d 8fdc 16bc
00000130: 33ed 87bd 6877 a73c 5d97 173d 47ab 43bd
00000140: 54f9 8c3d b721 8e3d f349 063d 3e2f d7bc
00000150: e43b 07ba e4c5 e23b 8e32 6b3c d32a acbd
00000160: b48d 943d 2e71 df3b 815d 9d3c f183 a13c
00000170: e471 05bd abb0 bdbc 088f 24bd 82c0 2abc
00000180: c1cd c83a fceb 983c 6d68 0e3d 2764 fb3b
00000190: 2eec 7f3c 64e1 343d 2116 893d 356c 5e3d
000001a0: 27e5 a7bd 69e6 323d 8dab b4bc 70ee dbbc
000001b0: cf34 a13d 7f5f ea3c bb03 93bb db61 6a3d
000001c0: 5662 4dbc eb96 62bd d67b b5bc fccc b2bc
000001d0: 8da5 813b f675 a03d 3567 3cbd 26ac 13bd
000001e0: 8794 ef3b 8df8 a0bc 024e 463d 4199 61bd
000001f0: c66c 963b eb34 d33c b932 b3bc 01db 7fbd

layers.3.weight f4 [128, 128]
-0.019438745 0.06593346 0.06035536 0.05115868 0.055095945 0.11478767 0.065048955 0.016231082
0.10274068 -0.060346745 -0.05038697 0.06366542 0.032966528 -0.034926914 -0.02746431 -0.019859064
0.008550755 -0.025157781 -0.115485996 0.032127768 -0.037879393 -0.012845836 0.06824819 -0.06533347
-0.07090053 0.024708673 0.02809107 0.057280958 -0.07021593 -0.060290255 0.02657904 0.04673585
0.0018988447 0.07365841 0.054665197 -0.03773057 -0.05948516 -0.09351484 -0.06533123 0.06758172
0.04607882 0.07012983 0.061254118 -0.003466671 0.020972349 0.05169069 0.08254265 -0.03418245
-0.05457805 0.08931677 0.12578918 0.060021903 0.046553526 -0.039652575 -0.043314714 0.061116323
0.04839126 -0.04803615 0.0028289657 0.049920697 -0.011700255 0.004250905 0.006953038 0.026452197
-0.010445895 -0.06385515 0.007080223 0.037010476 0.0010071719 0.08639255 0.088651456 0.07861976
0.009709784 0.03173224 -0.025672624 0.051456783 0.016511213 0.06579947 -0.021109326 -0.02136068
-0.007933282 -0.018626932 0.011715135 0.057387844 -0.06374637 -0.016816009 -0.056649867 0.103722185
0.042499654 -0.026548212 0.009370321 -0.004366144 -0.032095842 0.05907151 0.070394166 0.00709177
-0.038414318 0.02074041 -0.06643563 -0.04689148 0.03016391 -0.013124068 0.037837718 0.04721981
-0.033479292 0.048693262 -0.097485185 -0.08339792 0.062129404 0.073454835 -0.03775026 0.088798866
-0.05474186 0.1027567 0.039064 0.04236558 0.08840054 0.002729452 0.08103858 -0.032842133
-0.028374273 0.0825708 -0.011001811 -0.049623046 0.07569089 0.0031287046 -0.05628193 -0.010994412
-0.04772653 0.0043834792 -0.007534517 -0.0033519096 -0.045110546 0.035417657 0.03258599 0.02373846
-0.035335105 -0.036900297 -0.006052681 -0.0041509555 0.00835393 -0.00050185266 -0.016675476 -0.050239503
0.039512616 0.044378344 -0.0192835 0.01945951 -0.077606775 0.06576378 -0.0344897 0.014730335
-0.07655757 -0.04417808 0.008224968 -0.10960096 0.05460346 -0.081670664 0.092464365 -0.08155552
0.06604221 0.06349323 0.07568865 -0.022258855 -0.06881551 0.028314954 0.072524056 0.051116716
-0.013583353 0.0052416925 0.024441164 -0.00693532 -0.088631414 0.08180515 -0.035257854 -0.09449096
-0.047456294 -0.1199507 0.015188579 -0.038818125 -0.008967306 -0.049871717 0.010686875 0.07991102
0.041873157 0.023730969 0.027357452 0.10257494 -0.056038696 -0.0543713 0.00792518 0.08738747
0.06271791 0.008423384 -0.009686568 -0.022056606 0.023910929 0.055581894 -0.09241098 -0.018090205
0.020456292 0.036455575 0.02769151 -0.034786675 -0.13225517 0.012456439 0.062345322 -0.10949938
-0.064125426 -0.039466493 0.015751239 -0.07482715 -0.001232142 -0.019282075 0.016431088 0.012584103
-0.09407849 -0.07373144 -0.03952146 -0.036055148 0.083358765 0.02863066 -0.016557265 -0.10646453
0.020265026 0.041822534 0.039311737 0.015155171 0.009590634 -0.018939355 -0.0023298534 0.065919235
0.034000907 0.06659237 0.07309292 -0.0013388874 0.063830175 0.038693015 0.03476379 -0.018792938
0.02777376 0.055834614 0.025038682 0.04968081 0.06617617 -0.029092934 -0.037522607 0.017542852
-0.04484216 0.10793025 -0.022329252 -0.043906022 -0.096436396 -0.083546184 -0.012861049 0.04794588
00000000: 013e 9fbc 1f08 873d 2f37 773d c48b 513d
00000010: 49ac 613d cc15 eb3d 6338 853d 0cf7 843c
00000020: b569 d23d 262e 77bd 9162 4ebd 0463 823d
00000030: e907 073d 860f 0fbd d5fc e0bc 7aaf a2bc
00000040: 7718 0c3c b117 cebc ec83 ecbd 6898 033d
00000050: 6c27 1bbd 5777 52bc b5c5 8b3d 8ecd 85bd
00000060: 4c34 91bd d869 ca3c 3e1f e63c 709f 6a3d
00000070: 5fcd 8fbd eaf2 76bd 49bc d93c 176e 3f3d
00000080: a8e2 f83a 38da 963d 9de8 5f3d 5f8b 1abd
00000090: b6a6 73bd b584 bfbd 61cc 85bd 4968 8a3d
000000a0: 25bd 3c3d 3aa0 8f3d 99e5 7a3d 1731 63bb
000000b0: 34ce ab3c 9eb9 533d 1f0c a93d e602 0cbd
000000c0: 3c8d 5fbd b6eb b63d e1ce 003e 87d9 753d
000000d0: e9ae 3e3d bd6a 22bd c56a 31bd 1c55 7a3d
000000e0: ea35 463d 8ec1 44bd 2b66 393b a579 4c3d
000000f0: 6db2 3fbc 2d4b 8b3b 4fd6 e33b 47b2 d83c
00000100: 4225 2bbc 7dc6 82bd 3701 e83b 4c98 173d
00000110: 1503 843a 94ee b03d e58e b53d 6603 a13d
00000120: c915 1f3c aaf9 013d 654f d2bc 59c4 523d
00000130: 8642 873c dfc1 863d 77ed acbc 98fc aebc
00000140: 99fa 01bc 8297 98bc d6f0 3f3c 840f 6b3d
00000150: 758d 82bd bac1 89bc b109 68bd 4c6c d43d
00000160: 1e14 2e3d a37b d9bc fa85 193c df11 8fbb
00000170: ee76 03bd f8f4 713d d12a 903d 1462 e83b
00000180: 5558 1dbd cbe7 a93c 670f 88bd 4811 40bd
00000190: 4e1a f73c 5506 57bc b9fb 1a3d 8f69 413d
000001a0: 9521 09bd 9672 473d 50a6 c7bd 87cc aabd
000001b0: 677b 7e3d 7d6f 963d 04a0 1abd 2edc b53d
000001c0: 0039 60bd 1b72 d23d 9301 203d 8887 2d3d
000001d0: 580b b53d 9be0 323b 8ef7 a53d 7985 06bd
000001e0: 2a71 e8bc e11a a93d f140 34bc 8941 4bbd
000001f0: d303 9b3d f40a 4d3b e287 66bd e821 34bc
00000200: e57c 43bd 4aa3 8f3b 1ce4 f6bb b6ab 5bbb
00000210: d6c5 38bd 1b12 113d e378 053d 2977 c23c
00000220: 8bbb 10bd c424 17bd 9155 c6bb bd04 88bb
00000230: ecde 083c c38e 03ba 029b 88bc f0c7 4dbd
00000240: fbd7 213d 11c6 353d 6ef8 9dbc 8d69 9f3c
00000250: 4df0 9ebd 29af 863d 1245 0dbd 8157 713c
00000260: 37ca 9cbd 13f4 34bd 04c2 063c 7876 e0bd
00000270: e1a7 5f3d f342 a7bd f55d bd3d 9506 a7bd
00000280: 2341 873d bd08 823d a702 9b3d 3458 b6bc
00000290: 25ef 8cbd c3f4 e73c 7e87 943d c35f 513d
000002a0: b68c 5ebc 81c2 ab3b d638 c83c ae41 e3bb
000002b0: 6384 b5bd 7589 a73d 8a6a 10bd 7a84 c1bd
000002c0: 8861 42bd b6a8 f5bd 85d9 783c c1ff 1ebd
000002d0: 9ceb 12bc 4946 4cbd 0118 2f3c 64a8 a33d
000002e0: 3083 2b3d 7367 c23c bc1c e03c cf12 d23d
000002f0: d588 65bd 71b4 5ebd 9dd8 013c 34f8 b23d
00000300: 3f72 803d 3c02 0a3c 69b4 1ebc 0eb0 b4bc
00000310: dae0 c33c d7a9 633d f841 bdbd e931 94bc
00000320: f493 a73c 7152 153d 4ed9 e23c 797c 0ebd
00000330: e66d 07be 1816 4c3c cf5d 7f3d 3641 e0bd
00000340: 3154 83bd 9ea7 21bd be08 813c fa3e 99bd
00000350: d37f a1ba 71f5 9dbc 7d9a 863c 8e2d 4e3c
00000360: 39ac c0bd 8200 97bd 41e1 21bd 90ae 13bd
00000370: 00b8 aa3d d98a ea3c 1aa3 87bc 130a dabd
00000380: d702 a63c 1b4e 2b3d 5805 213d 654d 783c
00000390: 0922 1d3c b526 9bbc 74b0 18bb aa00 873d
000003a0: 8944 0b3d 9561 883d beb1 953d 9b7d afba
000003b0: 65b9 823d 917c 1e3d 7a64 0e3d a6f3 99bc
000003c0: cc85 e33c d6b2 643d ec1d cd3c 1b7e 4b3d
000003d0: 5f87 873d 4e54 eebc 4eb1 19bd 07b6 8f3c
000003e0: 6aac 37bd 890a dd3d d6eb b6bc cdd6 33bd
000003f0: 7280 c5bd 431a abbd 26b7 52bc e662 443d

layers.3.bias f4 [128]
0.0026318694 0.017753791 -0.015424221 -0.0024414957 -0.011656118 0.028128901 -0.016650377 0.007509323
-0.025257034 -0.022639707 0.012991166 -0.007330094 0.0030891534 0.00066473254 -0.008248398 -0.026925081
-0.011554667 -0.023055766 -0.012592016 -0.11948692 -0.039121587 0.041253835 -0.019338453 0.0091243135
0.03673588 0.00269699 0.03477775 0.004444095 -0.0050466126 0.06382394 0.0062098084 -0.0028948179
-0.022832349 -0.029937932 0.029936638 -0.0013735957 -0.023535185 0.016226862 -0.0043006656 0.025598967
0.0015130994 0.03203042 0.011326852 -0.008811642 -0.0130829215 0.01620549 -0.0075935265 -0.0042754714
0.13322091 -0.023643686 0.013062072 0.005397762 -0.06654022 0.008044193 0.07753203 -0.0034912676
0.01411029 -0.0025801251 -0.028731126 -0.022633668 0.012105768 0.009648778 -0.032617383 0.03178609
0.015190476 0.021050895 -0.007090976 -0.0005735852 -0.020495798 0.019113516 -0.018157871 -0.021616517
0.01662325 0.016838277 0.04186207 -0.00024611034 -0.025050772 0.025731321 0.025138142 -0.009187421
-0.0047237957 0.08671297 -0.014382147 -0.027794113 0.035698675 -0.020075927 0.030165749 0.0059940717
-0.008657765 0.069920756 0.022684416 0.009022643 0.12643439 0.041099686 0.0033921085 0.021564906
-0.009462171 -0.10100364 0.03945735 0.010666619 0.122131586 -0.026555074 -0.013262686 0.008000131
-0.0011719692 0.0074724657 0.032630853 -0.031403136 -0.004180834 0.0029373728 -0.06575645 0.012479879
-0.0014672179 -0.03238468 0.011109113 -0.004470148 -0.1550334 0.00030476134 -0.014574868 -0.023265934
-0.02405061 -0.14192125 0.011437466 -0.008438166 -0.05467734 -0.020641522 0.025428582 0.02694015
00000000: 717b 2c3b 6670 913c dfb5 7cbc 8001 20bb
00000010: 4df9 3ebc 956e e63c 5f66 88bc c410 f63b
00000020: d7e7 cebc e876 b9bc e6d8 543c 4931 f0bb
00000030: 6573 4a3b 7241 2e3a 4a24 07bc fd91 dcbc
00000040: c94f 3dbc 72df bcbc be4e 4ebc 8fb5 f4bd
00000050: f53d 20bd c8f9 283d ad6b 9ebc 257e 153c
00000060: 5d78 163d fcbf 303b 1d73 0e3d c59f 913b
00000070: 0e5e a5bb 20b6 823d a67b cb3b fcb6 3dbb
00000080: e80a bbbc 6540 f5bc ae3d f53c 390a b4ba
00000090: dccc c0bc 32ee 843c 99ec 8cbb edb4 d13c
000000a0: 3153 c63a 5432 033d 4394 393c b55e 10bc
000000b0: c059 56bc 60c1 843c 1ed3 f8bb 4119 8cbb
000000c0: 106b 083e 67b0 c1bc 4d02 563c b6df b03b
000000d0: 3d46 88bd cacb 033c 1dc9 9e3d c0cd 64bb
000000e0: d92e 673c 5117 29bb 8a5d ebbc 3e6a b9bc
000000f0: 4557 463c e815 1e3c ce99 05bd 2232 023d
00000100: 79e1 783c ed72 ac3c 6b5b e8bb a75c 16ba
00000110: cee6 a7bc f393 9c3c d1bf 94bc 1f15 b1bc
00000120: 7b2d 883c 6df0 893c 9077 2b3d 5f08 81b9
00000130: 4737 cdbc 7eca d23c 81ee cd3c d686 16bc
00000140: 12ca 9abb 9296 b13d 19a3 6bbc 7bb0 e3bc
00000150: c638 123d 4576 a4bc 291e f73c eb69 c43b
00000160: 4cd9 0dbc 9d32 8f3d abd4 b93c b5d3 133c
00000170: 0478 013e 2558 283d 234e 5e3b e3a8 b03c
00000180: 3907 1bbc ffda cebd 089e 213d 0bc3 2e3c
00000190: 2020 fa3d 078a d9bc bd4b 59bc fb12 033c
000001a0: c39c 99ba 96db f43b eea7 053d 93a0 00bd
000001b0: 61ff 88bb f080 403b 51ab 86bd 6878 4c3c
000001c0: aa4f c0ba cca5 04bd ff02 363c 527a 92bb
000001d0: 13c1 1ebe 60c8 9f39 6dcb 6ebc 3398 bebc
000001e0: c905 c5bc ce53 11be 3664 3b3c 3c40 0abc
000001f0: 59f5 5fbd 6918 a9bc 9a4f d03c 97b1 dc3c

layers.5.weight f4 [2, 128]
-0.012402975 0.002591585 -0.01883124 -0.0034355638 -0.0054163947 0.005516603 0.017937165 -0.00015784614
0.00031981064 -0.06315226 0.0022400923 -0.0013630948 0.0155224735 0.002835797 0.0076605384 -0.0012866929
-0.0026991472 -0.0017188834 -0.0028301815 -0.048502762 -0.0054552546 -0.019226138 -0.010490466 -0.002495433
-0.0024072437 -0.0037717335 0.036545746 0.0062820944 -0.01387086 -0.0018762482 -0.018032743 -0.002644049
-0.010120551 -0.008872139 0.01476037 0.00018304378 0.00017806819 -0.0058046062 0.01608887 -0.0049495245
0.002590835 -0.00068769226 4.4603297e-05 -0.0005759936 0.0010010004 0.015238952 -0.0047433022 0.017669836
-0.018441077 -0.0025205393 -0.09005657 0.014102983 -0.08964809 0.00020054323 -0.0004567179 0.0005976393
-0.00051873137 0.010378473 -0.0027687969 0.00024269924 -0.00010915671 -0.007670329 -0.012861302 -0.0026858351
0.0035423974 -0.004260205 0.0045774044 -0.0005350431 -0.016306689 -0.07625482 -0.008333894 -0.00028663003
-0.025891071 -0.0028481307 0.0063836197 0.0013358627 -0.0020098183 -0.009337252 -2.8496475e-05 0.004476011
-0.0017150656 0.046484016 0.032297913 -0.0027740113 0.012514594 0.003126865 0.0050319424 -0.0372142
-0.0039023955 0.030170856 -0.0011285251 0.009308887 0.069788024 0.0010683588 -0.00014584919 0.034265522
-0.0010854343 -0.10029603 0.00468408 0.00027533493 0.058396623 -0.001971024 0.0027313659 0.002238184
0.0010003818 0.0039757793 0.00037539285 -0.009688605 -0.00094840344 -5.3482945e-05 -0.0849008 -0.0026432672
-0.0038991543 0.006990597 0.008406634 0.0077273026 -0.06113997 0.030523904 -0.029073661 -0.0003154973
-0.0010421544 -0.03108511 0.017017938 -0.0022614612 0.017281068 -0.0035118256 0.004940411 -0.021324074
-0.001280077 0.0012684283 -0.00070817623 -0.005278704 -0.0029380259 0.0043695294 -0.0046005333 0.00047307563
-0.0013800764 0.030741971 0.001421043 -0.0024655845 -0.0015041631 0.0035460137 0.006570813 -0.0003338981
-0.0025350323 -0.0016196088 -0.0049111512 0.060877632 0.00038618693 -0.06809438 -9.172387e-05 -0.0025113565
-0.0011928107 -0.0011137287 0.008454923 -0.003373452 0.004296265 -0.024243083 0.10972089 0.0019701847
-0.005638253 0.0030732846 9.4726856e-05 0.0016264647 -0.00210882 -0.0030962636 -0.0009619803 -0.004626021
0.0009411596 -0.00072926225 -0.0019795 -0.003477713 0.0015595811 0.0017926698 -0.00223173 0.00083321217
-0.13642253 -0.0005280533 0.013813582 0.017728359 0.01058277 -0.00022963842 -0.0013493649 -0.0011525019
-0.0015846776 0.00081153476 0.00071606616 -0.0029321783 -0.0005644604 0.0011546632 0.0031534818 -0.0042682216
0.0017255459 -0.0035352504 0.0017881957 -0.0015930217 0.0047371266 -0.014864805 -0.0016635878 -0.0007315496
0.010983467 -0.0033596274 0.109327056 -0.0015981102 0.00088074384 0.0015612374 -0.0013195756 0.0019197005
-0.005027132 -0.016534185 -0.016736364 -0.0003104228 -0.0047224006 -0.0001270211 0.004250571 -0.013327514
0.00051794597 0.0029812166 -0.0019611144 0.0038746656 0.0050763567 0.005428436 -0.0055761887 0.040279377
0.001717015 0.01779166 0.0023324508 0.0028752699 0.0043618106 0.0032208276 0.0044062864 0.0003013153
0.0035225681 0.0041146437 -0.005087011 -0.0073736557 -0.0036898418 -0.00016437391 0.00076413946 0.0015178705
-0.0032738084 -0.0022067353 0.0011161423 0.0025553673 -0.007279878 0.00049509085 0.013539968 -0.0025856546
0.0017429059 0.13165392 -0.0034973836 -0.002025051 -0.1071061 -0.0007767554 0.0016744793 -0.0008661562
00000000: d935 4bbc 95d7 293b f943 9abc 3227 61bb
00000010: 037c b1bb 9fc4 b43b f6f0 923c 8083 25b9
00000020: 42ac a739 f955 81bd 83ce 123b dfa9 b2ba
00000030: f951 7e3c c7d8 393b 4105 fb3b 40a6 a8ba
00000040: 2de4 30bb 284c e1ba 917a 39bb d5aa 46bd
00000050: fec1 b2bb 2280 9dbc 34e0 2bbc 6b8a 23bb
00000060: d9c2 1dbb 302f 77bb feb0 153d 07da cd3b
00000070: 9b42 63bc 71ec f5ba 67b9 93bc c847 2dbb
00000080: abd0 25bc 735c 11bc 7bd5 713c 71ef 3f39
00000090: d1b7 3a39 9134 bebb cecc 833c 9f2f a2bb
000000a0: 00cb 293b 3f46 34ba 6d14 3b38 47fe 16ba
000000b0: 0034 833a ccac 793c b46d 9bbb 55c0 903c
000000c0: be11 97bc a22f 25bb 946f b8bd 3310 673c
000000d0: 6b99 b7bd ea48 5239 a473 efb9 e5aa 1c3a
000000e0: 79fb 07ba 790a 2a3c b474 35bb 157d 7e39
000000f0: 10eb e4b8 6257 fbbb 36b8 52bc d604 30bb
00000100: 9127 683b 3199 8bbb 0dfe 953b 2242 0cba
00000110: 9b95 85bc 7d2b 9cbd e38a 08bc d546 96b9
00000120: 8319 d4bc b4a7 3abb af2d d13b 1d18 af3a
00000130: 28b7 03bb 46fb 18bc b70b efb7 80ab 923b
00000140: 0dcc e0ba 0666 3e3d d14a 043d 30cc 35bb
00000150: 030a 4d3c 17ec 4c3b fee2 a43b eb6d 18bd
00000160: 55bf 7fbb df28 f73c 05eb 93ba 4d84 183c
00000170: 06ed 8e3d 2c08 8c3a 18ef 18b9 015a 0c3d
00000180: 2245 8eba 0168 cdbd e97c 993b d45a 9039
00000190: 4c31 6f3d 4c2c 01bb b700 333b 7fae 123b
000001a0: 3e1f 833a 4147 823b 60d0 c439 f4bc 1ebc
000001b0: 479e 78ba e052 60b8 78e0 adbd aa3a 2dbb
000001c0: f488 7fbb 6111 e53b fbbb 093c 5035 fd3b
000001d0: e86d 7abd 440d fa3c e32b eebc 5569 a5b9
000001e0: e698 88ba 33a6 febc 3469 8b3c 0635 14bb
000001f0: 0791 8d3c a826 66bb 2ce3 a13b d3af aebc
00000200: 42c8 a7ba 6441 a63a e7a4 39ba fbf8 acbb
00000210: e58b 40bb 452e 8f3b 12c0 96bb 2307 f839
00000220: aee3 b4ba 96d6 fb3c 4a42 ba3a a595 21bb
00000230: 5727 c5ba 3d64 683b f94f d73b 0b0f afb9
00000240: c922 26bb 0e49 d4ba b9ed a0bb d35a 793d
00000250: 2279 ca39 1175 8bbd e15b c0b8 9295 24bb
00000260: 1658 9cba 89fa 91ba 8486 0a3c 2215 5dbb
00000270: afc7 8c3b 6e99 c6bc 59b5 e03d 371e 013b
00000280: 18c1 b8bb 2969 493b 18a8 c638 192f d53a
00000290: 2134 0abb afea 4abb 682d 7cba e095 97bb
000002a0: 27b8 763a f62b 3fba 80ba 01bb 58ea 63bb
000002b0: dc6a cc3a 04f8 ea3a 3742 12bb ec6b 5a3a
000002c0: 59b2 0bbe 0f6d 0aba 5d52 623c 103b 913c
000002d0: 5b63 2d3c 18cb 70b9 2cdd b0ba 8c0f 97ba
000002e0: f5b4 cfba 2dbd 543a 63b6 3b3a ca29 40bb
000002f0: 4cf8 13ba 1158 973a a5aa 4e3b 70dc 8bbb
00000300: b62b e23a a9af 67bb e461 ea3a f0cc d0ba
00000310: e639 9b3b 838b 73bc be0c daba 76c5 3fba
00000320: 00f4 333c 322d 5cbb dde6 df3d ae77 d1ba
00000330: b8e1 663a 6fa2 cc3a 9cf5 acba 769e fb3a
00000340: a4ba a4bb b372 87bc b31a 89bc 3ec0 a2b9
00000350: 5ebe 9abb f830 05b9 6048 8b3b a55b 5abc
00000360: c4c6 073a 8460 433b 0a86 00bb 1aee 7d3b
00000370: 9157 a63b 06e1 b13b 76b8 b6bb fdfb 243d
00000380: 770d e13a d1bf 913c 08dc 183b 066f 3c3b
00000390: 85ed 8e3b 8514 533b 9c62 903b dbf9 9d39
000003a0: e3da 663b 22d4 863b f1b0 a6bb b59e f1bb
000003b0: 46d1 71bb c95b 2cb9 8850 483a 48f3 c63a
000003c0: 648d 56bb e09e 10bb 854b 923a f377 273b
000003d0: 0b8c eebb fcc8 013a bed6 5d3c 1674 29bb
000003e0: 3872 e43a 49d0 063e 5c34 65bb b8b6 04bb
000003f0: 715a dbbd 2c9f 4bba 347a db3a c20e 63ba

layers.5.bias f4 [2]
0.116152436 -0.008765939
00000000: 54e1 ed3d 039f 0fbc
