model_zoo/DAgger/CartPole-v0/net_97.pth (torch, 138807 bytes, 8 tensors)

layers.0.weight f4 [128, 4]
00000000: cae8 ae3e 2dfd 35be 361d 42c0 4871 25bf
00000010: 8ae9 e23e 1000 37be b2e6 2d40 f4e1 9b3f
00000020: 7e05 3dbd 950d 2abe 62af 3140 29bc 513f
00000030: f688 dabe 9e23 8dbd a900 5d40 05e5 2f3f
00000040: 5b00 ff3e d8a6 9abe 2b0c 49c0 42cc 5cbf
00000050: 5af2 96be eb53 8fbe 1b38 0ec0 86bb 95bf
00000060: 9f1b c03d 5f1b 0e3f 9944 3540 b163 853f
00000070: 16ea bb3e 45ec ecbe 31cd 42c0 7022 6bbf
00000080: aacf ed3e 3c11 d5be 24a1 4d40 c388 a53f
00000090: b32a c53e 10be 143e c6f1 2bc0 7607 50bf
000000a0: ff3d 543e 5fa4 f83e 790e 2e40 16fe a93f
000000b0: 52e1 be3d d0d5 9ebe 779b 1840 610f 803f
000000c0: f80f b0bd 6f22 2fbe fdbb 4c40 483f 063f
000000d0: 26a3 68be 9cff 473d bbf3 3fc0 d12b a0bf
000000e0: 7157 1bbe 6552 06be efab 2b40 4ed8 973f
000000f0: cc45 b0bd 52ed 82be 6327 4540 44d3 663f
00000100: 0130 9bbe bf3b 01bf fd5d 1ec0 c7fc a8bf
00000110: 6995 ea3e 8024 553e 3b78 1ec0 682a 9ebf
00000120: 1642 363e 1d08 e9be eb09 4240 7d48 823f
00000130: 24a1 af3d 7db4 12be cc54 2c40 d21e 453f
00000140: cd2d d83e 3695 363e 9c47 22c0 dd16 76bf
00000150: 9ed4 873e 6ce1 c0be 8a1f 35c0 7cf6 7dbf
00000160: c3d5 1c3e 3b96 9e3e 67ae 3d40 d0e3 9d3f
00000170: f747 03bf a9bf 8e3e b0b5 4c40 cb63 a43f
00000180: b9a9 bf3d c3e7 cbbe db8d 4f40 beba 4c3f
00000190: e4c7 203e dc1b 98be 1145 3a40 bc8d a43f
000001a0: b695 013e 5763 e53e a777 4140 6884 a23f
000001b0: e54a e7be 3944 893e 6bc0 5840 d905 873f
000001c0: 16b6 863e 9902 893e d17a 1cc0 bc09 94bf
000001d0: 5956 953d d684 a2be 93af 4f40 1d36 7b3f
000001e0: ae6e 75be ee3f c9bd ce55 41c0 d88d 21bf
000001f0: 258f 99be 4719 843e b63c 1b40 112c 773f
00000200: 75ed 883e daa7 d03e 0662 4e40 9831 303f
00000210: 016b abbe 9b68 323d c05c 45c0 0c04 92bf
00000220: a9f6 8c3e 6b23 b93d ee7e 4940 3a24 a73f
00000230: 5a79 9c3d 6836 dabe e11b 4540 20f3 863f
00000240: 70fd 093d 3f79 f3be 91d6 18c0 2be1 a8bf
00000250: 06a2 af3e 58ed c2bd 22bd 21c0 cfb5 9ebf
00000260: e55d f13e 0990 4c3e af4a 5740 12cd 923f
00000270: bf5b ac3e b78c 2c3e 4a7b 2c40 15be a63f
00000280: 4597 ce3e b633 c3be fb84 3cc0 e7fe 75bf
00000290: 4d19 e2be f23a fbbb 4884 4dc0 3c09 6abf
000002a0: dfd4 f7bd 2e1b c23e 3db5 2cc0 5ee0 9fbf
000002b0: 12ca 153e 1910 cd3e dbc8 4140 8700 713f
000002c0: 12c4 543e 0f26 1dbd e9ae 59c0 2069 89bf
000002d0: 279e 9c3e 1c8c b33d 66d6 20c0 e437 2dbf
000002e0: 3ef3 dd3e 5873 8fbe c3c0 1440 09ed 823f
000002f0: fe70 74be 5d93 3f3e 4727 33c0 2053 81bf
00000300: ad63 c73d 1743 de3e 4a77 26c0 2a2d a2bf
00000310: 2e03 7d3d 7555 a43e 2ada 4640 d4ab 253f
00000320: 94ef cc3e a6e3 ac3e 281d 3ac0 4629 62bf
00000330: 79f1 b33e bd2f 753d eb68 4540 ee23 613f
00000340: 893f 583e 241b e1bd 9f22 2540 22e2 9d3f
00000350: 7af9 6a3e 637b b33d c3d0 2cc0 dfad 7cbf
00000360: 7110 a13d 4c8a 073f 628a 4640 4c9c 463f
00000370: c230 483e d2cf cd3e 4712 40c0 3a9b 94bf
00000380: c02d da3e d16f 183e ae0f 2b40 1cfd 6e3f
00000390: f189 73be b5a3 2ebe c069 5040 fbde 963f
000003a0: edb9 f6be f0fa 16bd a717 5640 a1b6 3c3f
000003b0: f889 d4be 4b01 8c3e 0c44 55c0 798e 7abf
000003c0: 9132 453e 51d3 dabe 2144 1cc0 a662 29bf
000003d0: b92f 8dbe 628c b9bc aa31 4440 b3a6 743f
000003e0: 0d7a 85be 277b ca3e af7f 54c0 4345 69bf
000003f0: f6dc babe 6cda 19be 05f1 3540 7b0b 753f
0.3416198 -0.1777236 -3.033033 -0.6462598 0.443188 -0.17871118 2.7172055 1.217833
-0.046147816 -0.16606744 2.7763295 0.81927735 -0.42682618 -0.06891559 3.4531653 0.6870883
0.4980496 -0.30205417 -3.1413677 -0.8624917 -0.29481775 -0.27993712 -2.2221744 -1.1697853
0.09380268 0.55510515 2.8323119 1.0421048 0.3670203 -0.4627401 -3.043774 -0.9184942
0.46447498 -0.4161471 3.2129602 1.2932361 0.3850914 0.14525628 -2.6866317 -0.81261384
0.20726775 0.48562905 2.7196333 1.3280666 0.0932032 -0.310225 2.3844888 1.0004693
-0.08596796 -0.17102979 3.198974 0.5244031 -0.22718486 0.048827752 -2.9992511 -1.2513372
-0.15170075 -0.13117369 2.682369 1.1862886 -0.08607063 -0.25571686 3.080529 0.90166116
-0.30310062 -0.5048179 -2.4744866 -1.3202142 0.45817116 0.20814705 -2.4760883 -1.2356691
0.17798647 -0.45514002 3.0318553 1.0178372 0.08575657 -0.14326663 2.6926756 0.77000153
0.42222443 0.17830357 -2.5356207 -0.96128637 0.26529402 -0.37671983 -2.83005 -0.9920423
0.15315919 0.30973992 2.9637697 1.2335148 -0.51281685 0.278806 3.1985893 1.2842954
0.09358544 -0.39825258 3.2430332 0.79972446 0.15701252 -0.29708755 2.9104655 1.2855754
0.12654766 0.44802353 3.022928 1.2696657 -0.45174327 0.26809862 3.3867443 1.054866
0.26310796 0.26759794 -2.444996 -1.1565471 0.0729186 -0.3174197 3.2450912 0.98129445
-0.23968002 -0.09826647 -3.020862 -0.6310706 -0.29992023 0.25800535 2.4255805 0.96551615
0.26743665 0.4075306 3.2247329 0.68825674 -0.33480075 0.04355679 -3.083786 -1.1407485
0.27531937 0.090399586 3.1483722 1.305793 0.076403335 -0.42619634 3.0798266 1.0542946
0.033688962 -0.4755344 -2.388096 -1.3193716 0.34303302 -0.09517926 -2.5271688 -1.2399234
0.47141948 0.1997682 3.3639333 1.1468832 0.33663747 0.16850553 2.695025 1.3026758
0.40349784 -0.3812539 -2.9456165 -0.96092075 -0.44159928 -0.007666939 -3.2111988 -0.9142034
-0.12101149 0.3791136 -2.698562 -1.2490346 0.14627865 0.40051344 3.0278842 0.9414143
0.2077792 -0.038366374 -3.4013007 -1.0735207 0.3058941 0.08766958 -2.5130858 -0.6766341
0.43349642 -0.28017688 2.3242652 1.0228587 -0.23871228 0.18708558 -2.7992723 -1.0103493
0.097358085 0.4341056 -2.6010308 -1.2670033 0.06177061 0.3209645 3.1070657 0.64715314
0.40026534 0.33767432 -2.9080296 -0.8834423 0.35145167 0.05985998 3.0845287 0.8794545
0.21117987 -0.10991505 2.580238 1.2334635 0.2294673 0.087637685 -2.7002418 -0.98702806
0.07864464 0.529454 3.1021962 0.7758224 0.1954985 0.40197617 -3.0011156 -1.1609871
0.4261303 0.14886405 2.672832 0.93354964 -0.23783089 -0.17054637 3.2564545 1.1786798
-0.48188725 -0.036860406 3.3451936 0.7371617 -0.41511512 0.27344736 -3.3322783 -0.97873646
0.19257571 -0.42739347 -2.4416583 -0.6616615 -0.27575472 -0.022649948 3.0655313 0.9556686
-0.2606968 0.39547083 -3.3202932 -0.9112131 -0.36496705 -0.15024728 2.8428357 0.9572064

layers.0.bias f4 [128]
00000000: 5346 a4bd bb75 a6be ba80 513c d97c 98be
00000010: fa9a babe 6308 bcbd 506f c73b 3d4a c53b
00000020: 457f c1bd 88d8 ca3e 6084 243e a75e 283e
00000030: 3c54 bcbe 793c 4d3e 8e76 443e 599f 133d
00000040: 7187 1bbe 77be b5bd 6e86 633e 6028 8dbe
00000050: c775 0ebe a87b c0be 23d0 f63d 38ad 58be
00000060: f44c cebe f3a4 95be 90fa ad3c 302c 833e
00000070: 6ed8 b93d 61ab 52bc 37a3 e1bc 55a4 57be
00000080: 0bce 39bd 53df 67be 37ed 5b3e f747 48bc
00000090: ff97 993e 492d 833e 9efc 973d ac3d 813e
000000a0: d922 00be 692d 25be cf5d b0be becb 643e
000000b0: dc65 823d c879 943e f8d1 5f3e 8840 7fbd
000000c0: c12b 10be e202 663e 5ab7 c03e ba1b 963e
000000d0: 3239 a33e e177 59be 9a3c 99be 80f5 96bd
000000e0: 932a 27be b14f 513e a880 a03e 5d68 e43e
000000f0: 5ebe 79bd c2c6 15be 5984 4cbd b15e dcbb
00000100: c2cf 0ebb 7a81 823e ff73 b8be 5a12 afbe
00000110: f146 47be 18ed f93d 4efa 1fbe c1fe ab3c
00000120: 8ad7 563d e49d 963e cf3f 92be f0db 95bd
00000130: 6d90 033e 2d69 02be 99fb a4be 177d 183e
00000140: d049 c43e f99f ffbd 8fe4 163e ce16 8cbd
00000150: 89ab 903d 5d3c 8d3c fdc8 64be a920 a33e
00000160: c295 d43d 20d9 1bbe b7c3 0f3e aa25 e03e
00000170: ecf6 b93e bc07 d6bc 5316 90bd a9bc b63e
00000180: 1ab7 543e ba41 823d 0917 b8be a248 8f3d
00000190: d41a 973e 470c e3bc 7dd1 07be 2b9e 833e
000001a0: 15e5 623e d862 513e a2d0 d23e 22a7 b43e
000001b0: 9256 e1be 5c53 093e 5b0f 563e 6682 7bbe
000001c0: aa5c f4be bd63 c0be d98d 37bd 150c 1d3e
000001d0: 4936 ccbd b253 89be b38c df3e 9484 b43e
000001e0: 51d1 55bd f3a4 893c 3ae9 2b3c 9171 7abe
000001f0: f355 aabe 6da6 9e3e 3f47 80be 5582 93be
-0.08021226 -0.32511696 0.012787038 -0.2978275 -0.36446363 -0.09181287 0.0060862675 0.006020813
-0.09448103 0.39618325 0.16066122 0.16442357 -0.36783016 0.200426 0.1918585 0.036040638
-0.15188386 -0.08874219 0.2221925 -0.27569866 -0.13912116 -0.37594342 0.12051418 -0.21159828
-0.40293086 -0.2922741 0.021237642 0.2561965 0.09074484 -0.012858243 -0.027543647 -0.21058781
-0.045362514 -0.22643785 0.21477209 -0.012224189 0.29998776 0.25620487 0.0742123 0.25242364
-0.12513293 -0.16130604 -0.3444657 0.22343346 0.063670844 0.28999162 0.2185744 -0.0623174
-0.14079191 0.22462037 0.37639886 0.2931803 0.31879574 -0.21237136 -0.29929048 -0.07371044
-0.16324835 0.20440556 0.31348157 0.44610873 -0.060972564 -0.14626601 -0.049930904 -0.0067251553
-0.0021791314 0.25489408 -0.36025998 -0.3419369 -0.19460656 0.12203425 -0.15622827 0.0209955
0.052451648 0.29417336 -0.28564307 -0.073173404 0.12848063 -0.12735434 -0.32223204 0.14891468
0.38337564 -0.12481684 0.14735626 -0.06840287 0.07063968 0.017240698 -0.22342296 0.31860855
0.103801265 -0.15219545 0.14039503 0.43778735 0.363212 -0.026126735 -0.07035508 0.3569081
0.20772973 0.063601926 -0.35955074 0.069962755 0.29512656 -0.027715815 -0.13263507 0.2570661
0.221577 0.20447862 0.411748 0.35283762 -0.4401136 0.13410705 0.20904295 -0.24561462
-0.47726947 -0.37576094 -0.04481301 0.1533664 -0.099712916 -0.26821667 0.43662032 0.352574
-0.052201573 0.016802287 0.010492617 -0.24457385 -0.332687 0.30986348 -0.25054356 -0.28810373

layers.1.weight f4 [128, 128]
00000000: db9b 30be 46ee b93d ec90 723e 81d0 6d3d
00000010: c1ed 37bd f234 05bc 7a2f 253e b6f6 e0be
00000020: 54ad 803e 3df3 043d d4cf 133e e0ee c1bc
00000030: aa22 7b3d beb2 95bd 3364 f93d 44cf a23e
00000040: 29bc e7bd 29ba 90bd 40a0 d73a 9f48 0dbd
00000050: b6d4 91bd cd46 393d e557 2e3e 8263 3e3e
00000060: 38f9 ce3b 6262 1a3e 43bb 8a3e e456 263e
00000070: 6a8f 07bd 8f96 303f 6b0c bfbd 207b 553d
00000080: 27dc 323e 6e94 1abe a9dd a23d c323 f13e
00000090: da91 4dbd 97b9 423c 22a7 063e fc02 6d3d
000000a0: 45b8 11be b350 1ebd bab6 83bd aec9 a43d
000000b0: 93e4 b7be faec 74bb 5145 703d ed5e 10be
000000c0: 548a 12be daf3 3c3d 4f54 cebd 3668 22bb
000000d0: 7fdc eb3b e924 72bd 8861 c2bc 68f0 40be
000000e0: f7f9 893d f90d 503e e34d fa3d c6e4 babd
000000f0: 7bf9 1abc 49d6 383e 6a81 bbbe ac31 5f3e
00000100: 1338 2dbe 2dc4 b7bb db90 913d 25d3 f2bd
00000110: afe1 0a3e 1a03 393d bd41 b3bd 7c2a e6bb
00000120: 2642 183e a3fb bfbc 717c 8b3d be24 06be
00000130: 09c2 dabd e11d d9bd 207e 183e caa1 d43d
00000140: 84db b5bd 0f13 19bd 9b98 283e ba16 013e
00000150: ff8e 5cbe 129e a4be eb6d c93c 5e69 3fbd
00000160: eae1 20be 8bcb 84bc 5152 78bd 5f73 30bd
00000170: fad1 f23c aa61 66be 7f94 36be 04b1 c0bd
00000180: fc41 8ebd c3c8 6d3e 2065 98ba ebd1 8dbe
00000190: a7ba 01be 4f04 50be 32dd 1a3d 0636 65bd
000001a0: b786 a0bc fc61 61bd 6e3d 853c 6815 24be
000001b0: e5ad 3abc 82d3 7d3d 51bf 17be ebf4 c5bd
000001c0: f492 05be 0913 9ebd 2a37 383e f4a6 b53d
000001d0: fd93 6abe 65ff f5bd 3f2a b5bd aa7b aabd
000001e0: ed61 8a3e 88e1 003f 78be 97be 0faf febd
000001f0: d12f 003d c353 0a3e a6a5 34be 6854 e43c
00000200: 4e77 ad3d 02ef 913d 6c5b 923d 8acb 3f3d
00000210: 480e a73c 4bef efbc 15b7 423d 808f 97bc
00000220: ff99 173c 64e9 13bb 8c71 95bc 850c 063d
00000230: a620 3b3d 544f 073d 200e cd3c 0461 8d3d
00000240: 6cf6 4f3b e41d 9bbd 79a3 6abd 2594 8abc
00000250: ae6b b53c dd66 d23c f71c 943c f0e8 80bb
00000260: 4dca 67bd f754 a3bd 24f7 0cbd dc92 1dbd
00000270: a2df 633d d86c 453d 344b 4bbd c0b5 7a3d
00000280: 6779 3d3b c4cd 96bd d870 a3bd 22f0 8c3d
00000290: 0c8e 21bd 659c 6d3d d0b2 283c 36b6 ab3d
000002a0: 7fe7 163c 3608 04bd 8ba8 883d 0b21 a83d
000002b0: 81dc 623d 4861 0dbd 7f97 85bd 95de 6cbd
000002c0: 939b 913d 993d 153c 0175 313d 52a3 70bc
000002d0: ec0c 96bd dd20 b43d 3671 3a3d d658 473d
000002e0: 392e cbbc caa4 6ebd ea31 7f3d f976 923d
000002f0: b38d 4cbd 1a00 9b3d de00 4fbd e9d2 32bd
00000300: 6e7f 8c3c 7083 56bd 04c8 bfbc fa11 54bc
00000310: 5725 64bd e993 173d de7d b13d 4d30 6cbd
00000320: 15cc 99bc 5f3d 2fbd 1ebd 073d d88b 6f3d
00000330: d92d fdbc 7bfd 473d c607 a63d c54b c63c
00000340: cb04 97bd def2 f03c ebaf b23d 2e7c 5a3d
00000350: a468 c83c f984 a23d 7aa7 15bd d0f0 98bd
00000360: fcda 19bd 6b0f a53d 63d9 b63c 1748 6cbd
00000370: d9c0 64bd 8068 713d 2d2d f2bc 3dc6 493c
00000380: a84d 253d d342 9e3d 95dc 893b b2c1 803d
00000390: e393 26bc 83ce 99bd 627c 983d 0240 a93d
000003a0: 519f af3d 03d4 65bc 63da 563d f608 26bd
000003b0: 7bdd 153d 59a3 f73c 7d56 e7bc e5ad 91bc
000003c0: a0a8 4e3c efd0 92bc b5d7 233d 4f99 8f3c
000003d0: 22c9 30bc ce44 21bd a776 1bbd 5c17 83bd
000003e0: 9bad 72bd d45b aabd c073 0ebc 8e1d 9ebd
000003f0: b2ec 86bd 9db4 e5bc 3911 893c 8b58 613d
-0.17246954 0.0907865 0.23688096 0.058060173 -0.044904474 -0.008130299 0.16131392 -0.43938226
0.2513224 0.032458533 0.14434749 -0.023673475 0.061312355 -0.07309483 0.121773146 0.31798756
-0.113151856 -0.07066757 0.0016450956 -0.034493085 -0.071206495 0.045233537 0.17025717 0.18592647
0.0063163303 0.15076593 0.27095994 0.16244084 -0.033095755 0.68979734 -0.093285404 0.052119374
0.17466794 -0.15095684 0.079524346 0.47097597 -0.050187923 0.011885068 0.13149694 0.057864174
-0.1423045 -0.03865118 -0.06431337 0.0804628 -0.35916576 -0.0037372694 0.058659855 -0.14098711
-0.1431058 0.046130992 -0.10074674 -0.0024781353 0.007197916 -0.05911723 -0.023728147 -0.18841708
0.0673713 0.2031783 0.12221887 -0.09125666 -0.009458895 0.18050493 -0.36622173 0.21796292
-0.16915922 -0.005608103 0.07107707 -0.11856679 0.13562654 0.045168974 -0.08752773 -0.0070241075
0.14868984 -0.02343542 0.06810845 -0.13099954 -0.106815405 -0.10601402 0.14891863 0.10382421
-0.0887976 -0.03737169 0.16464464 0.12606326 -0.21538924 -0.32151848 0.024588546 -0.046731345
-0.1571118 -0.016210338 -0.060625378 -0.043078776 0.02964114 -0.22498193 -0.17830084 -0.09408763
-0.06946179 0.23221116 -0.0011626817 -0.27699217 -0.12668858 -0.20314144 0.037808605 -0.055959724
-0.019595487 -0.055025086 0.016264644 -0.16023791 -0.011393999 0.061969288 -0.14819075 -0.09665855
-0.1304434 -0.077184744 0.17989793 0.088697344 -0.22908016 -0.12011603 -0.088459484 -0.08324368
0.27027836 0.50344133 -0.29637504 -0.124357335 0.0312956 0.13508515 -0.17641315 0.02787228
0.08470021 0.07125665 0.071463436 0.04682497 0.020392552 -0.029288908 0.047537882 -0.018501043
0.009253024 -0.0022569532 -0.01824262 0.032726783 0.045685433 0.033034638 0.02503115 0.0690327
0.0031732572 -0.075740606 -0.057284806 -0.016916344 0.022146072 0.025683815 0.018080218 -0.0039340183
-0.056589413 -0.0797519 -0.03441538 -0.038470134 0.055633195 0.048199505 -0.049632266 0.061208487
0.0028911473 -0.073634654 -0.079805076 0.06881739 -0.039442107 0.058010478 0.0102965385 0.08384363
0.009210466 -0.032234393 0.06672772 0.082094274 0.05538607 -0.034516603 -0.06523036 -0.05782946
0.071097516 0.009108924 0.043324474 -0.014687376 -0.073266834 0.08795331 0.045518123 0.048668705
-0.024802314 -0.058262624 0.06230346 0.071515985 -0.049939822 0.07568379 -0.050537936 -0.04365817
0.017150607 -0.052371442 -0.023410805 -0.012943739 -0.055699673 0.037006292 0.086665854 -0.05766325
-0.018774072 -0.042783137 0.03313934 0.058482975 -0.03090565 0.048825722 0.081069514 0.024206052
-0.07373961 0.029412683 0.0872496 0.053341083 0.024463959 0.07935519 -0.03653667 -0.07467806
-0.037562355 0.08059581 0.022320455 -0.057685938 -0.055847976 0.05893755 -0.029562557 0.01231533
0.040357262 0.077275895 0.0042072036 0.062869444 -0.010167095 -0.07510092 0.07445599 0.08264162
0.08575309 -0.014027598 0.052454364 -0.04053589 0.036588173 0.030229257 -0.028239483 -0.017783115
0.0126134455 -0.017921893 0.040000636 0.017529158 -0.010790141 -0.039372258 -0.037954953 -0.0640094
-0.059247594 -0.08318296 -0.008694589 -0.07720481 -0.06588115 -0.028040225 0.016731845 0.05501608

layers.1.bias f4 [128]
00000000: dd3c 5c3d 569e a63c 8327 5d3d 6a95 6b3c
00000010: 544e 84bd f19c b53c 7021 0e3d 2932 84bc
00000020: b512 0e3d a313 533d 5c81 80bd b187 e0bc
00000030: 1710 adbd d8e0 f5bc 0a15 81bd cef5 c03c
00000040: e4bd 163c 86d7 9b3d f80b 673d 62aa ab3c
00000050: 8e81 a73d 9024 29bd 2abd efbc 2e21 b1bd
00000060: 8a52 803d b2d1 4f3c ad63 c9bc bf7d d6bc
00000070: 981b 823d 981f 97bd 437f 73bd cf43 213d
00000080: 703d 6b3d 0ac1 54bd fa9d 64bd 6c3e 9f3d
00000090: 9213 8bbd d0ac f2bc ff9e 64bd d252 8fbc
000000a0: e0da 8f3d 5597 293d de08 1f3b 1e26 64bd
000000b0: 5da1 5dbc 387a a6bd 02fa 59bd c647 bb3d
000000c0: 73ab a23d 4161 bc3d 7e59 273d a177 b13d
000000d0: e23c 8f3d 5a5f a63c 1793 3dbd be11 793c
000000e0: 2408 733d e55a a23c c3fc 8e3d dc31 843d
000000f0: 95b8 61bb dc30 99bb ff4c 033d 4373 45bc
00000100: 7e16 963c f4de 873b 0d3b 883d e1b2 953d
00000110: 8607 303d 23c5 2dbd 71fa 8fbd 113f 1a3c
00000120: 2816 a03a 19bf 4a3d 07b3 c23d 7d33 8e3c
00000130: 5b30 7d3d 02bd 623c e465 6abd 0de2 873d
00000140: 2ed2 0e3d bd8f 493d 70d7 c63c 5c28 eb3b
00000150: 40a2 e1bc ad5f 09bd 32fd ff3c f546 54bd
00000160: 5af1 42bd 7f34 3fbd da65 2b3d 32c7 eebc
00000170: 6fc6 8e3d 96f0 68bd 220e 80bc f92b 8cbd
00000180: d77e 83bd 6e7b a43d b2ef da3c 5179 da3a
00000190: 3226 adbc 1ccc d1bc b205 1d3d 9ec7 113d
000001a0: 2ab3 89bc 9388 64bd de33 dd3c 4e7f acbc
000001b0: 11d7 58bd e32e 82bd 9639 083d 77d2 083d
000001c0: 58c9 94bd a5fb b43d 6983 50bd 4bef 8abd
000001d0: 0f89 0cbc 04cc 233d d1b1 69bd 51b4 37bd
000001e0: 9116 a2bd a638 c33d df83 10bd 89be b83c
000001f0: 8628 a1bd 274d 6b3d f695 8dbc 6a27 2d3d
0.05376898 0.020339172 0.05399276 0.014378885 -0.064602524 0.022169562 0.034699857 -0.0161372
0.03468581 0.0515324 -0.06274673 -0.027408453 -0.084503345 -0.03001444 -0.06302841 0.023554709
0.009200547 0.07609467 0.0564079 0.020955268 0.081790075 -0.041294634 -0.029265005 -0.08648907
0.06265743 0.012684273 -0.024583662 -0.026183007 0.06352919 -0.07379073 -0.059447538 0.039371308
0.05743164 -0.05194191 -0.05581472 0.07775578 -0.06790842 -0.029623419 -0.055815693 -0.017495546
0.07024169 0.041404087 0.002426676 -0.055700414 -0.013527242 -0.0812878 -0.05321694 0.09144549
0.079428576 0.09198237 0.04085683 0.086653955 0.06994034 0.020309139 -0.046282854 0.015201984
0.059333935 0.019818733 0.06981804 0.064548224 -0.0034442295 -0.004675014 0.03205585 -0.012051406
0.018321272 0.004146451 0.06651888 0.07309509 0.042975925 -0.042424332 -0.0703019 0.00941445
0.0012213634 0.04949865 0.09506803 0.017358536 0.061813693 0.013839008 -0.057226077 0.06634913
0.03486841 0.049209345 0.02427265 0.007176442 -0.027543187 -0.03353851 0.031248663 -0.051825482
-0.047593452 -0.046680924 0.04184518 -0.029147718 0.06971442 -0.056870066 -0.015631739 -0.068443246
-0.06420677 0.08031355 0.026725624 0.0016668235 -0.021136377 -0.025610022 0.03833551 0.03559076
-0.016809065 -0.05579431 0.027002271 -0.021056797 -0.05293948 -0.06356599 0.033258043 0.03340384
-0.07264966 0.0883706 -0.050906572 -0.06783923 -0.008577599 0.039989486 -0.057054345 -0.044849698
-0.079144605 0.09532289 -0.035282012 0.022551792 -0.07869057 0.057446625 -0.017283421 0.042273916

layers.3.weight f4 [128, 128]
00000000: 64ab 34be 9158 4a3d 333e 05bd 286e 8f3d
00000010: e17c e23d 6166 48be e43e 6cbe 615f d13d
00000020: cf2a 8abe 147b e43d da74 90be fbb3 903d
00000030: 1d9b 70be b580 9c3e 9318 1abd 6a41 d7bc
00000040: 6932 603e cf2a 48bd b5d0 203d 8a78 973e
00000050: cbf6 7f3e cb26 00bf dae4 27be 4971 b23d
00000060: 1685 163d b928 afbd 9826 5f3d f5e8 253e
00000070: a46c 313c bff9 34bf a598 59bd ab21 42be
00000080: 60a9 9f3c 700b 43be 85d9 5a3e a61e 803e
00000090: e2d5 803c 1c47 c3be 14e0 6fbc ba99 a9bc
000000a0: 51a2 49be decc ccbd d09a 9e3e 7339 d2be
000000b0: 0922 4bbd 8cd9 613d ffc7 04be 74f0 523e
000000c0: 1597 2ebc 127e a93e 2856 7fbb 535b b23d
000000d0: bc75 aebd 8ee7 82bd 471e bcbe 1593 b23d
000000e0: 81fc 6f3e 5101 98bd f6bd 363c bd0f c23d
000000f0: 6cbf dd3e 7256 eabd bfa0 833e e7fa 673d
00000100: 4d10 5c3e 40cd e7bd 2138 633e e031 003e
00000110: 2b8f 4abd aee4 cc3d ee8c 2bbf f767 a03e
00000120: 4020 dd3e b8d8 333e e227 703e 6f26 b0be
00000130: 01e2 1d3e 5923 b8be 000d 3ebe f087 23be
00000140: 11a3 91be b6ca 88be e5e4 873e 8283 793d
00000150: 3c4d 123d f37a 5d3c 2b7c 41bd 1358 9e3e
00000160: 918a 4fbd 4a9b b53c 3cb5 323c 35e5 493d
00000170: d5fa fbbc 9999 4abc 20bd 203d 21e2 1a3d
00000180: 0125 1d3e 85a5 093e 4de7 a5bd 6da8 3fbd
00000190: 611d 68bc 886f a83e b1ee 373b 7455 9abc
000001a0: acfa 473e 31cf 45bd 7838 62bd 075d 20bc
000001b0: a9e2 c03c ee29 8fbe 20dc b5be d023 9bbc
000001c0: e3bb 40bd 2a42 6b3e 5b0b 0cbd 0513 9bbd
000001d0: 1881 243d 1fd1 b33e e3f0 7dbd 85b8 623d
000001e0: cfb6 1e3e bd9e 6c3e c4b3 a3bc fdf6 853e
000001f0: 9543 e6bc fbe0 96be 8857 d63c abd1 96be
00000200: 5738 363e 81ba b33d 58b8 4d3e 1eb3 eabd
00000210: f23b eabc f3e9 a83e ad6a 1b3e 52da bdbd
00000220: dd52 b33e d4b6 55be 4a6c 963e cf7d d5bc
00000230: aedc fa3d 2939 cebc 7c8a 513d fbbf 8cbb
00000240: 7975 27be e417 98bd 7f24 5abd dc60 87be
00000250: 9ec4 a6be 1059 ce3e 12a8 443e ce2a b73c
00000260: 82c2 ee3c c8c8 cf3c 4536 0bbc a626 b5bd
00000270: d71b 6f3d 1d15 2b3f 3c05 2b3d 991d 753e
00000280: bbea 25bf 30bb 2d3e ad01 9cbe 6786 b6be
00000290: 64c3 8f3c 9f19 c63e 2b24 04bd 7295 6fbd
000002a0: ed4e 353e 7cf4 d4bc 7323 92be 7c11 453e
000002b0: 17ba 0bbd 7ee0 a63d 8dc5 243e 94af 66be
000002c0: 9a29 54be 0e90 c1be 5292 793d 8cb3 68bd
000002d0: ffe0 c23b 04c7 e43d df58 ca3e 6063 e63d
000002e0: a720 dabe 1f66 8dbc 2185 cf3c a366 5ebd
000002f0: c90b c4be adcb 1dbe 375c c3be 027f a539
00000300: 3301 04bf 0bdc 043e e14d 89be c57c 6cbe
00000310: a4f8 cdbb e55d abbd 38eb 3e3f fb7c acbe
00000320: bdd1 c4be e70c 7fbe 8e74 dcbe 1ea4 593e
00000330: 2ef5 19be 4a86 993e b904 623e 83cf 3c3e
00000340: 420a 903e 8a9a 873e 52e5 b6be 557a abbd
00000350: 3fd1 80bd bfda 0a3c c2a8 a5bd 5e95 93be
00000360: feec 0f3c 8ed8 ae3d 3334 923c 5d66 ec3a
00000370: 0266 b83b 9c00 763d d8a8 9ebd d93b 553d
00000380: 1677 95be e4c3 7ebe 844e da3d 3757 03bd
00000390: 4583 513a 439f c7be 1dbe 7ebd a354 1cbd
000003a0: 7931 033d 40bf 9fbd 1441 373b feda 26bc
000003b0: aaee 233d 1fa6 9d3e 8cdf 813e e187 db3d
000003c0: 00df be3c b09e 1bbe 53ec 433e b10b 9bbc
000003d0: 3d46 313d e75b e8be e081 89bc 9f17 be3d
000003e0: 1566 46be c6f8 63be e42a 9f3d 6329 3fbe
000003f0: e989 6abd e60b c93e ad59 b33d 242b 823e
-0.17643505 0.04940087 -0.03253002 0.070034325 0.11058975 -0.19570304 -0.23070866 0.1022327
-0.26985785 0.11156288 -0.2821415 0.070655786 -0.23496671 0.30566946 -0.037621092 -0.026276309
0.2189423 -0.04886895 0.03926154 0.29584152 0.24996488 -0.50059193 -0.16395894 0.08713014
0.036748014 -0.08552689 0.054480165 0.16202147 0.010829125 -0.7069358 -0.05312409 -0.18958156
0.019489944 -0.19047332 0.2137204 0.25023383 0.015726987 -0.3814019 -0.014640827 -0.020703185
-0.19690825 -0.10000013 0.30977488 -0.41059455 -0.049593005 0.05513911 -0.12966917 0.20599538
-0.010656138 0.33103997 -0.0038961265 0.08708825 -0.0851855 -0.06391822 -0.3674185 0.0871946
0.23436166 -0.07422126 0.011153689 0.09475658 0.43310106 -0.114422694 0.25708577 0.056635763
0.21490593 -0.11318445 0.2218938 0.12519026 -0.049452942 0.10004555 -0.67011917 0.3132932
0.43188667 0.1756314 0.23452714 -0.34404323 0.15418245 -0.35964468 -0.18559647 -0.15969825
-0.28444722 -0.26717156 0.2654182 0.06091643 0.035718188 0.013518083 -0.047237556 0.3092657
-0.050669257 0.022168774 0.010907467 0.049290854 -0.030759254 -0.012365722 0.039242864 0.03781331
0.15346147 0.13442047 -0.08100758 -0.046791483 -0.014167161 0.32897592 0.0028065855 -0.018839575
0.19529217 -0.048293296 -0.055229634 -0.009787804 0.02354558 -0.27961677 -0.35519505 -0.018937975
-0.047054183 0.22974458 -0.034190517 -0.07571987 0.040162176 0.35120484 -0.061997306 0.055351753
0.15499423 0.23107429 -0.01998318 0.26165 -0.028108397 -0.2946852 0.026164785 -0.2945684
0.1779493 0.08775807 0.20089853 -0.11459945 -0.028593037 0.3299099 0.15177412 -0.09270157
0.35024157 -0.20870525 0.29379493 -0.026060967 0.122491226 -0.02517374 0.05115746 -0.004295347
-0.16353406 -0.07426432 -0.05325746 -0.26441085 -0.32571882 0.40302324 0.19204739 0.022359278
0.029145483 0.025364295 -0.008496826 -0.08845262 0.05837616 0.6682909 0.04175304 0.23937072
-0.64811295 0.16965938 -0.3047003 -0.35649416 0.017549224 0.38691422 -0.032261055 -0.05849213
0.17705889 -0.025995485 -0.2854267 0.19244951 -0.034113016 0.08148287 0.16090985 -0.22527915
-0.20718995 -0.37805218 0.060930558 -0.056811854 0.005947232 0.11170772 0.39520928 0.11249423
-0.42603037 -0.01726061 0.025332035 -0.0542971 -0.3829024 -0.15409727 -0.38156292 0.0003156588
-0.5156433 0.12974565 -0.2681723 -0.23094471 -0.006285744 -0.08367518 0.74577665 -0.33689103
-0.38441268 -0.24907266 -0.43057674 0.21254012 -0.15034935 0.29985267 0.22072114 0.18438534
0.28132826 0.2648509 -0.35721833 -0.08372942 -0.062899105 0.008475005 -0.080888286 -0.28824896
0.008784531 0.08537398 0.017847156 0.0018035878 0.0056273947 0.060059175 -0.07747048 0.05205903
-0.29192418 -0.24879414 0.10659507 -0.032065596 0.0007992278 -0.38988695 -0.062193025 -0.038166653
0.032029603 -0.0780015 0.0027962374 -0.010184048 0.04002253 0.30790803 0.25365865 0.10719276
0.023299694 -0.15197253 0.1913312 -0.018926473 0.043279875 -0.45382616 -0.016785562 0.09281849
-0.19374879 -0.22262868 0.077718526 -0.18668132 -0.057260428 0.3926689 0.08757339 0.2542354

layers.3.bias f4 [128]
00000000: eb15 3d3d 243c 44bd a885 c6bc 335a 273d
00000010: 515c 8abd 8c8c 9bbd 3853 79bd a11a ecbc
00000020: 2964 143d 437b 33bd 47c4 c7bc c557 5b3d
00000030: ad63 a3bd 2cc3 a33c 1bb9 863d 597f 9a3d
00000040: 1514 7d3d 35c1 3f3d 5991 6e3c cbd3 ba3c
00000050: f26a ae3d 9fc3 5ebd 56d1 953a d382 76bd
00000060: 7437 16bd 8e1b 9f3d 757f 883d d54e cebd
00000070: 1f23 9bbd 687a 303d 9f10 0bbd 3c3d 9b3c
00000080: eeb1 a23b 35fe 16bc 164d 92bd e274 9fbd
00000090: dca6 b9bc 85b2 e33d a67b 8cbc f51c 773d
000000a0: f992 813d 8c53 c83d 0567 863d 6355 d1bc
000000b0: 9ea5 be3b ecb4 3d3c 628e 8fbd 53ea fc3b
000000c0: 48b0 fcbd b235 63bd 25b0 49bd 6de8 9ebc
000000d0: 0d06 203d f847 9ebd a4e6 96bd dc26 32bd
000000e0: 1f4a d2bd ffa7 58bd 75bb cebd 2b3a 50bd
000000f0: 1855 5cbc 4a34 6fba ecf5 183e 89f8 6a3d
00000100: 9b1a 25b8 7e7d 043d 3f1b bdbd 55ad 36bd
00000110: 64ce 8a3d 1ceb 8a3d 3db8 85bd bb97 69bd
00000120: 2d0e 1f3d 6dbb 8f3d 8c29 c5bc 8e72 0ebd
00000130: 57f2 263d 8e5f ee3c 5a43 cf3c 7adb 1f3d
00000140: 24db af3d d0b2 943c db0d b1bc 10ee d63d
00000150: b160 743d ce1d b9bd 11ec 123d 7c53 393d
00000160: 3f3d aa3c bd9f 203d e12d d13c b345 663b
00000170: de18 22bd 74ba 183d 7235 09bd 9fd8 bdbc
00000180: 06b1 ee3c 6686 31bb 1f18 eebc 7c1d d9bc
00000190: d6ee c43c eb09 9a3c 3cec 0cbc 1fdb bfbd
000001a0: aeab bd3c eb75 02bd 2035 7f3b ade2 473d
000001b0: 9f45 713b 6ea2 36bb 30e8 41bd d781 4fbc
000001c0: e64f 443c 048c aabc 2c88 9d3c 3ef3 b53c
000001d0: d297 39bd fa44 863d 2fe2 983d 46c3 0f3c
000001e0: de2d a6bc 513a 34bd 00a0 95bc 95c0 e33d
000001f0: 2596 0c3d 5727 6b3d 695d 513d 1246 93bd
0.04616348 -0.047908917 -0.024233654 0.040857505 -0.06755889 -0.075951666 -0.06087038 -0.028821291
0.036228333 -0.043818723 -0.024385585 0.0535505 -0.07977996 0.019990526 0.06578275 0.07543821
0.06178673 0.046815116 0.014561021 0.022806069 0.08516492 -0.054385778 0.0011430185 -0.060183357
-0.036673978 0.077689275 0.066649355 -0.1007363 -0.07575058 0.043085486 -0.033951398 0.018950097
0.0049650585 -0.009215881 -0.07143609 -0.077859655 -0.022662573 0.11118034 -0.017148804 0.06033035
0.06326861 0.0978156 0.06562618 -0.02555341 0.005818083 0.01157878 -0.07009579 0.0077183633
-0.123383105 -0.05547113 -0.04924025 -0.019397939 0.03906827 -0.07728571 -0.0736821 -0.04349409
-0.10268044 -0.05289459 -0.10094348 -0.050836723 -0.013448022 -0.0009124918 0.14937562 0.057365928
-3.9363844e-05 0.03234624 -0.092337124 -0.044598896 0.06777647 0.06783125 -0.06529281 -0.057029467
0.03883188 0.070181705 -0.024067663 -0.034777217 0.040758457 0.029098298 0.02530067 0.03902767
0.0858672 0.01815167 -0.021613052 0.104946256 0.059662525 -0.09038888 0.03586966 0.045245633
0.020781158 0.03921484 0.025534572 0.0035136759 -0.039574496 0.03728719 -0.033498235 -0.023174582
0.029137146 -0.0027088164 -0.029064236 -0.026503317 0.024039667 0.018803557 -0.008601245 -0.09367966
0.023153152 -0.031850737 0.0038941577 0.04880016 0.003681518 -0.0027867812 -0.047340572 -0.012665234
0.01198194 -0.020818718 0.01922997 0.022210713 -0.045310803 0.06556125 0.07465016 0.008774584
-0.020285543 -0.044000927 -0.01826477 0.111207165 0.034322876 0.057410564 0.051114473 -0.07191099

layers.5.weight f4 [2, 128]
00000000: b1b0 5f3f 2206 8abf a96e c33c a2ee 273d
00000010: a85f 15c0 020c 9abd c016 b73e a8fd 7a3f
00000020: 3297 833f d71e fabf 4828 afbc 608e 95bf
00000030: 419e 8f3f bb13 f3bf 18d2 0fc0 2ed1 ccbf
00000040: 2e2f 453f f748 4dbe e50f 85c0 9bad 973e
00000050: a970 a8bf a2d8 6f3d c6de f3bf 81a6 a53f
00000060: cf11 89bb a0c9 683f 2c98 02c0 1cbb a7bd
00000070: 9e40 633f 0a06 f0bf 6110 243f 8e8a a4bf
00000080: 6ab3 3ebd bfcd 993e 03bf 953f 0599 26bf
00000090: 7593 573d bd80 463f 920b 983d 5782 18c0
000000a0: bf0e 853f 3498 873f 5a28 aabf c2d3 fbbf
000000b0: e4bd b6bf f196 03bf 14c9 bb3f 3c42 513f
000000c0: 95c1 1c3f c530 293f 353e c0bc 8f5e 4fbd
000000d0: 43b3 693f 2c66 d0bc 68d3 35bd 87dd 9a3f
000000e0: 534d 163c fc8e e53f 4e30 93be 70d1 693e
000000f0: d0e2 dabf d66f acbd 8813 a2bf 6eaa 5a3f
00000100: e5c4 55bd 29ce 5b3f 35a0 6abd f880 a7bc
00000110: 2598 a5bf fbfa 1dc0 fa25 aabe 8d3a a23d
00000120: 0343 92bf df8a b8bf d5ba acbc 0404 32c0
00000130: c247 1b3f 34ce fdbf 899d fbbf a24c f8bf
00000140: 542b 5a3f d84c ffbf 979c 88bf 8c19 5d3f
00000150: 9bf8 fabf e309 e23c 56fa 843f 0771 64bf
00000160: cd6e 4d3d fdca c43e d32d 3aba a306 773f
00000170: fd2b 923f 0837 613f 55cd 883d 4b09 debf
00000180: 4f7f e7bf a363 df3e 7307 783f e58b aebd
00000190: 186e 7fbf af98 afbf 90e9 38bd 3bd2 123d
000001a0: 10ff 82c0 de92 ebbf 677f 103c db36 4e3f
000001b0: 6612 cfbe 40db 63bd 9b08 0cbf 58c5 6c3f
000001c0: edc7 843f ad8a bf3c bfd3 433f d4dc 273f
000001d0: ad9a 3a3f 0f6d 2d3f d5f0 22c0 2dad bebf
000001e0: d89d 46bd 998d 573f 47c5 95bc dbe0 5c3f
000001f0: 029f 0dc0 035b 793f 63ec 64bf d329 82bd
00000200: a359 48bf 83ce 823f 3049 d53c df97 c6bd
00000210: 8e28 1140 c55c 8bbc b95b 8ebe 798d 70bf
00000220: e25d 7ebf 6020 0140 9ebc d13b 6c61 a23f
00000230: 39ab 8dbf caa5 ff3f 2c5a 0d40 df75 d13f
00000240: 3e52 4cbf 3944 503e d935 8740 6fce 97be
00000250: 7199 b13f c0e0 52bd e226 ee3f 2a06 acbf
00000260: ff4e 853d 5cd6 47bf 0ff7 0040 fb22 2abd
00000270: dec8 6abf 1a33 0040 ca6b 49bf 2c4f b33f
00000280: f57b bebc 629f b0be 2988 9abf 9de7 2b3f
00000290: 0207 823d 53fd 5ebf 85df a8bb 888d 1b40
000002a0: 8fbc 83bf efe6 88bf 7c16 ba3f eba5 0040
000002b0: e4b4 c63f 5902 d33e 7ad0 c0bf d7a0 3fbf
000002c0: a7f4 19bf 931d 37bf 4bc9 9e3d 53bd 14bd
000002d0: a272 65bf 1fc9 8c3d d9c4 923d 659e 9fbf
000002e0: a156 e03c 4f07 e7bf 6d0c c13e 1bb0 8ebe
000002f0: 2e8a ca3f 9640 823c 556e a73f 94a3 60bf
00000300: ec3e 8cbd 0b2b 5fbf 7b7e 163d 0aba 03bd
00000310: 1b1c 993f 6398 1d40 06f6 cd3e 6312 72bd
00000320: e91d 9d3f 39bb c03f 2cb6 ac3c b829 2b40
00000330: 10a1 31bf 70ca ff3f cafd 0040 1edc e93f
00000340: 7fcb 6abf c14d f33f 70f3 883f f88c 7dbf
00000350: 29f5 0440 f8df 483d 97ee 8fbf 0675 6a3f
00000360: 09a1 a8bd a4df aebe afd4 313d 0f0d 60bf
00000370: c173 91bf 01cc 55bf 049c 073d 6722 ee3f
00000380: 0e18 e63f f6cc dcbe f84c 6bbf 0489 983d
00000390: cc35 813f 0f9d b13f 9d01 8bbc f84a 883d
000003a0: 961e 8440 4555 d83f fa88 9b3d a9d9 32bf
000003b0: 6c62 f53e bd6a 46bd 60b7 fd3e 201f 5cbf
000003c0: 8866 78bf 960d 66bd 42da 34bf e7d3 24bf
000003d0: 7a84 30bf 6df9 2fbf 9967 2540 91cd be3f
000003e0: 3257 b8bb 7566 67bf 91a8 c93c 2279 3cbf
000003f0: 8b93 1240 f942 78bf ea9e 613f e21e 8d3d
0.87378985 -1.0783122 0.023856478 0.040999062 -2.3339634 -0.075218216 0.35759544 0.980433
1.0280516 -1.9540662 -0.021381512 -1.1684074 1.122017 -1.8990396 -2.247198 -1.6001337
0.77025115 -0.20047365 -4.1581903 0.29624638 -1.3159381 0.058556207 -1.905236 1.2941438
-0.004183031 0.90932655 -2.0405378 -0.08189985 0.88770473 -1.8751843 0.6408749 -1.2854784
-0.04655782 0.30039784 1.1698917 -0.6507724 0.05263086 0.7754019 0.07424082 -2.3829553
1.0395125 1.0593324 -1.3293564 -1.9673998 -1.42767 -0.51402193 1.4670739 0.8174169
0.6123288 0.6609004 -0.023467163 -0.050627287 0.91289157 -0.025439344 -0.044391066 1.2098855
0.009173709 1.793426 -0.2874779 0.228338 -1.7100468 -0.084197685 -1.266221 0.85416305
-0.052189726 0.8586145 -0.05728169 -0.02044724 -1.2937056 -2.4684436 -0.332321 0.07921324
-1.14267 -1.441738 -0.021085182 -2.781495 0.6065637 -1.9828553 -1.9657451 -1.9398386
0.85222363 -1.9945326 -1.0672787 0.86367106 -1.9607118 0.027592605 1.0388896 -0.89234966
0.050154496 0.38436118 -0.0007102165 0.964945 1.1419674 0.87974596 0.06679789 -1.7346586
-1.8085726 0.43630704 0.96886367 -0.085227765 -0.99777365 -1.371847 -0.045144618 0.035845023
-4.0936356 -1.8404195 0.008819438 0.8055245 -0.40443724 -0.055629015 -0.5470063 0.9248862
1.0373513 0.023381555 0.76494974 0.6557133 0.72892267 0.67744535 -2.5459492 -1.4896599
-0.048490375 0.84200436 -0.018282546 0.862806 -2.21283 0.974045 -0.894232 -0.063556336
-0.78261775 1.0219272 0.026035875 -0.09696936 2.2681003 -0.01701201 -0.27804354 -0.9396587
-0.99362004 2.017601 0.0064006587 1.2685981 -1.1067878 1.997247 2.2086287 1.6364096
-0.7981299 0.20338525 4.225323 -0.29649684 1.3874952 -0.05148387 1.8605616 -1.3439381
0.06509208 -0.7806146 2.0150793 -0.041537266 -0.9171275 2.003119 -0.786801 1.4008536
-0.023252467 -0.344966 -1.2072803 0.6715029 0.06348993 -0.8710529 -0.0051535987 2.4305134
-1.0291919 -1.0695475 1.4538112 2.0101268 1.5523953 0.4121273 -1.5063622 -0.748548
-0.60138935 -0.715295 0.07753237 -0.036313366 -0.8962804 0.06874298 0.07166452 -1.2470213
0.027385058 -1.8049105 0.37704793 -0.27868733 1.5823419 0.015899938 1.3080546 -0.877496
-0.06847939 -0.87175053 0.036741715 -0.032159843 1.1961702 2.462426 0.40226763 -0.059099566
1.2274753 1.5057136 0.02108296 2.6744213 -0.69386387 1.9983654 2.01549 1.82703
-0.9171676 1.9008104 1.0699291 -0.99043226 2.0774634 0.04904172 -1.1244687 0.91584814
-0.0823384 -0.34155 0.04341572 -0.87519926 -1.136345 -0.8351441 0.033107772 1.8604249
1.7976091 -0.43125123 -0.9191432 0.07448009 1.0094543 1.3876055 -0.016968543 0.06654924
4.1287336 1.6901022 0.075944856 -0.69863373 0.47926652 -0.048441637 0.49553967 -0.85984993
-0.9703145 -0.0561653 -0.70645535 -0.6438584 -0.68952143 -0.6873997 2.584448 1.4906484
-0.005625629 -0.9039071 0.024616512 -0.73622334 2.2902553 -0.9697719 0.8813311 0.06890656

layers.5.bias f4 [2]
00000000: f016 a1bd b12b 143d
-0.07865703 0.03617448
