model_zoo/BC/MountainCar-v0/net_1810871.pth (torch, 138183 bytes, 8 tensors)

layers.0.weight f4 [128, 2]
000000 25 89 de 3e 9e b0 0e 3f 93 2f 1c bf fe bc ff 3f
       0.43464008 0.55738246 -0.6101009 1.9979551
000010 93 83 0b 3f 46 35 d9 3f 1e e0 16 be b3 e4 3d 40
       0.5449764 1.6969383 -0.14733931 2.9670837
000020 71 3a f4 bd 06 d4 19 c0 59 0a c0 3d 83 60 1e c0
       -0.11925209 -2.403566 0.09376974 -2.4746406
000030 9c f3 f0 be 53 e2 b2 3e 41 5b 24 3f 3c 91 7e 3f
       -0.4706086 0.34938297 0.6420174 0.9944036
000040 a3 1a 3f 3f 91 c4 11 c0 a0 e8 83 be 89 a4 34 c0
       0.7465002 -2.2776225 -0.25763416 -2.8225424
000050 05 99 30 bf 4c 62 24 c0 e9 4f 09 3f ec 0e 3c c0
       -0.6898349 -2.5684996 0.5363756 -2.9384108
000060 e5 90 20 3e 97 0d 4a 40 44 e0 57 be 9d d4 32 40
       0.15680273 3.1570795 -0.21081644 2.794227
000070 81 e0 9e 3e 8e 4a 30 c0 2a dd 97 be 11 48 4e c0
       0.31030658 -2.7545505 -0.29660922 -3.2231486
000080 a0 58 1a 3f 71 77 45 3c 5e 9f 07 3f dd c1 ef 3f
       0.6029148 0.012052403 0.5297755 1.8731037
000090 81 a0 0e 3f 99 f5 1b 40 61 05 c2 3e 2a 99 21 40
       0.5571366 2.436865 0.3789473 2.5249734
0000a0 5f c1 c5 3e e2 18 2b 40 54 df 12 be c7 9b 48 40
       0.38624093 2.6733937 -0.14343005 3.134508
0000b0 cb e9 85 3e c6 80 41 c0 d1 6b 1c bf fe 02 1f 40
       0.26154932 -3.0234847 -0.61102015 2.4845576
0000c0 df 0f 1b be dd 11 13 c0 4b e4 cd 3e 25 3f f6 bf
       -0.15142773 -2.2979653 0.40213236 -1.923802
0000d0 b4 d8 f2 be a0 0b 02 40 70 43 a5 bd 27 5d 5e c0
       -0.47430956 2.0319595 -0.08069503 -3.4744356
0000e0 dd 84 83 3d 6a e9 d5 bf 21 7c 95 be e2 22 30 40
       0.06421826 -1.6711857 -0.29196265 2.752129
0000f0 c0 ad 3e be a7 4c 3f c0 fb 73 b9 3e 59 25 1c c0
       -0.18620968 -2.9890535 0.362213 -2.4397795
000100 c7 0d 0f bf ac 13 b7 bf fb ab e6 3e 9e 11 22 c0
       -0.558804 -1.4302878 0.45053086 -2.5323253
000110 75 52 2f 3f 0d 20 11 40 7e f1 2c 3f c9 83 44 c0
       0.68485194 2.2675812 0.6755599 -3.0705435
000120 c4 88 92 3e ab cb 3c c0 f1 b8 b2 3d c6 db 12 40
       0.2861997 -2.949931 0.08726681 2.294664
000130 38 38 9b bd 32 4f 11 40 ba 76 75 be ae 71 32 c0
       -0.07579082 2.2704587 -0.23971072 -2.7881885
000140 14 1a 32 3f 08 74 94 3f 6f 09 0f 3f 4d c3 29 c0
       0.6957104 1.159791 0.5587377 -2.6525452
000150 71 72 3d 3e 7e f5 37 c0 b4 15 37 3d 7b 96 25 c0
       0.18500687 -2.8743587 0.044698432 -2.5873096
000160 40 13 b6 3e d5 0c 2a 40 93 5e 00 3e 72 2e 54 40
       0.35561562 2.6570332 0.12536077 3.3153348
000170 d6 33 2e bf 90 82 09 40 5c 81 d6 3e f7 12 2b 40
       -0.68047845 2.148594 0.41895568 2.6730325
000180 d8 99 63 3e 1a 01 5e c0 49 82 9e 3e fc a7 91 3f
       0.22226655 -3.4688172 0.30958775 1.137939
000190 cc 97 62 3e 48 f7 1d c0 36 2a 99 bc f2 44 49 40
       0.22128218 -2.4682178 -0.018696886 3.144833
0001a0 b7 36 85 3e b5 13 49 40 d9 bb 52 3c c0 96 4a 40
       0.26018307 3.1418278 0.012862169 3.165451
0001b0 ca ef 1c bf e3 1b 05 40 e6 bd 16 3f 5e 66 f2 3f
       -0.6130339 2.079827 0.5888351 1.893749
0001c0 ac 5d f8 3e 2d 9e 01 40 f5 1b 16 3f 3b df 16 c0
       0.48508966 2.0252793 0.5863641 -2.357375
0001d0 d5 ea 4a 3e ac d9 4e c0 c2 39 ce 3e c7 c0 42 40
       0.19816144 -3.2320356 0.4027844 3.0430162
0001e0 56 5a 18 bf 04 68 8f bf 8e f3 10 bf 64 b1 26 40
       -0.5951284 -1.1203618 -0.56621635 2.604577
0001f0 5d 02 94 be 0b 4d 60 be 8f 93 fc be dc 01 93 bf
       -0.28908053 -0.2190439 -0.49331328 -1.1484942
000200 1d 81 10 3f 8b 8d 21 40 da fa f0 3e 06 24 0c c0
       0.5644701 2.524264 0.47066385 -2.1896987
000210 59 bc f5 be 53 c2 d4 3f c6 75 7e be f7 8f 46 c0
       -0.4799526 1.6621803 -0.24849615 -3.102537
000220 b9 ab b0 3e e7 5e 79 bf a8 ee b9 3e fe 2c 53 40
       0.34506014 -0.97410434 0.36314893 3.299621
000230 f4 16 ff 3d 0a 18 4b c0 ba 70 31 3d 7d c5 04 c0
       0.1245555 -3.1733422 0.043320395 -2.0745537
000240 c3 78 d8 3d 08 42 4f c0 f0 7d 1e 3f 91 95 bb bf
       0.105699085 -3.2384052 0.61910915 -1.4655019
000250 e0 48 f3 3e 80 0c b9 3f c1 d5 12 3f 7f 7d 59 c0
       0.47516537 1.445694 0.5735741 -3.3982847
000260 c7 04 35 3f 4e c2 be 3f b2 e0 23 3f 94 9b 03 40
       0.70710415 1.4903047 0.6401473 2.0563707
000270 77 b8 df 3e 02 6c 15 40 22 4f 35 be b7 fc 3a 40
       0.43695423 2.3347173 -0.17705968 2.9216745
000280 e4 c5 e2 3e 60 0a 38 c0 8d d0 3a 3e a0 19 1c c0
       0.44291604 -2.8756332 0.18243618 -2.439064
000290 02 84 43 bf 8f 45 0c 40 81 96 02 bf aa ef 6e bf
       -0.763733 2.1917455 -0.510109 -0.9333445
0002a0 21 62 97 be b8 6d 4f 40 ab d7 eb 3d 2b 08 28 c0
       -0.29567054 3.2410717 0.11515745 -2.6254985
0002b0 05 e2 71 3e 43 64 35 40 af 0a 81 3e fb 4d 1c 40
       0.23621376 2.8342445 0.25203463 2.4422596
0002c0 b0 fb 23 3d 17 1c af bf 77 12 33 bf f0 80 16 c0
       0.04003495 -1.3680447 -0.6995005 -2.3516197
0002d0 7a 0a 00 3f 6c 05 04 40 2f a4 0d 3f 7d 7d 0f 40
       0.50015986 2.062831 0.5532865 2.2420342
0002e0 33 08 42 3f dd 2b 1f c0 d0 97 95 be 3f a4 de bf
       0.7579376 -2.4870522 -0.29217386 -1.7393874
0002f0 d6 26 68 be 99 1f 27 40 c5 58 ac 3d 51 11 3d c0
       -0.22671065 2.6113036 0.08415369 -2.954182
000300 38 df 22 3e f3 d6 34 40 4f 39 e3 3e ba 06 47 c0
       0.15905464 2.8256195 0.4437966 -3.1097856
000310 57 83 28 3e 56 8f 32 40 7c 6a fb 3e 1e 61 82 3f
       0.16456352 2.7899985 0.4910468 1.0185888
000320 a7 71 10 3f 44 bf 24 40 c1 0e 59 3e 94 5e 1d c0
       0.5642342 2.574174 0.21197034 -2.4588976
000330 b2 c3 f5 3e 9a e6 00 c0 e6 a7 7d 3e 58 77 18 40
       0.48000866 -2.0140748 0.2477108 2.3822842
000340 08 ff 0a 3f 9f 8f 48 3d 67 27 8e be 87 e8 3c 40
       0.54295397 0.048965093 -0.27764437 2.9516923
000350 37 84 cc 3e 8f df db 3f 29 b6 be 3e d9 4c 2e c0
       0.39944622 1.71776 0.37248352 -2.7234404
000360 3d 47 a8 3e 9d fd 69 40 a2 cb bc 3e 3d 20 8e be
       0.3286685 3.6561043 0.3687411 -0.2775897
000370 67 52 0b 3e e6 8e 4b 40 e2 aa 8d be 82 9c 48 3f
       0.13605653 3.1805968 -0.27669436 0.7836381
000380 bc 52 3f 3f c5 cf 1b 3f 9b 50 82 3a b0 ac 00 c0
       0.7473562 0.60863906 0.0009942235 -2.01054
000390 87 48 9b be 4d de 50 c0 10 64 e0 3e 41 2e 36 40
       -0.3032877 -3.2635682 0.43826342 2.846573
0003a0 0f be 2a bf 4f 96 24 be f5 d2 17 3f 1b 75 0a 3f
       -0.66696256 -0.16072963 0.5930627 0.5408494
0003b0 64 84 24 bf 5c 45 16 40 cc 28 29 bf 58 b0 b1 bf
       -0.6426451 2.3479834 -0.66077876 -1.3881941
0003c0 d4 24 53 3e 5f ba 3f c0 2c d1 f8 3c 7c ec d7 3f
       0.20619518 -2.9957502 0.030373178 1.6869044
0003d0 ba ff b5 be 31 5a 3f c0 ab 5d 2b 3e 8a 03 4b 40
       -0.35546666 -2.9898798 0.1673495 3.172091
0003e0 01 eb ca be 2e 58 14 40 8b 3c 0a bf 8a 43 a1 bf
       -0.3963242 2.317882 -0.5399863 -1.2598736
0003f0 d7 93 07 bf f6 18 10 be 02 a7 77 be 32 26 32 40
       -0.5295996 -0.14072022 -0.24184802 2.7835813

layers.0.bias f4 [128]
000000 29 45 f5 3e a1 01 ec bc 42 9a bb be 68 85 c8 3e
       0.47904328 -0.02880937 -0.36641127 0.3916428
000010 3d 97 e4 3d 12 fe b0 3e f0 c7 82 3e 88 e4 b0 be
       0.11161659 0.3456884 0.25543165 -0.34549356
000020 a9 b8 e6 3e 8e 00 20 bd c3 eb 82 be f3 6c f1 3e
       0.4506276 -0.03906303 -0.25570497 0.47153434
000030 70 27 f0 be 6c d9 92 be a8 8d e3 bd 8f 21 85 be
       -0.46905088 -0.28681505 -0.11111003 -0.26002166
000040 b1 0b b6 bd 2e 05 67 be 9a 4f 13 3e b9 9d a9 3e
       -0.08888949 -0.2256057 0.14385834 0.33128145
000050 c1 ab 7e be 49 25 94 3e 22 5a 0f 3f d9 b8 a4 be
       -0.24870206 0.28934696 0.55996907 -0.32172278
000060 d5 f6 02 3e f4 3b cd 3b 9d 11 a4 be 3d e7 3b bd
       0.12789471 0.0062632505 -0.32044688 -0.045874823
000070 89 17 a8 3e db d3 6e 3d c0 b5 7c be 4a 13 dd 3e
       0.32830456 0.05830751 -0.24678707 0.4317878
000080 f1 af 9c 3e 7b 20 28 be e5 7c 4f bd 1f ed 19 3f
       0.30602983 -0.1641864 -0.050656218 0.60127443
000090 1f b1 69 bd 7f 22 81 be e9 a0 2f be 1f f8 96 bd
       -0.05705368 -0.2522163 -0.17151226 -0.07371544
0000a0 56 1a 42 3f 0d 3f e7 3e a1 12 88 3d 87 36 53 3e
       0.75821435 0.4516529 0.06644178 0.2062627
0000b0 15 1d 84 3e ff 8b 98 3e a5 7e a1 3e f2 eb 8f be
       0.25803438 0.2979431 0.31541935 -0.281097
0000c0 04 cb 7c 3e 89 7e 84 be c2 a9 ad bc e0 1b fe bd
       0.2468682 -0.2587779 -0.02119911 -0.124076605
0000d0 43 2b 6a 3e 65 9a 9d be be 78 89 3e 1b 54 d0 be
       0.22868066 -0.30781856 0.2684993 -0.40689167
0000e0 e1 c7 4c be 64 04 65 be d7 35 93 3e de 77 69 3e
       -0.19998123 -0.22364956 0.28752014 0.22799632
0000f0 62 b4 97 be 4b 9b cc be 86 44 d6 bd 06 00 52 3d
       -0.2962981 -0.3996223 -0.104622886 0.051269554
000100 1f a7 11 bd 48 b1 82 be 05 ea 3e 3e ce 0c b0 be
       -0.03555977 -0.2552588 0.18643959 -0.3438477
000110 a4 e0 8a be 12 1d df 3e a2 d6 27 3c af 18 6d 3c
       -0.27124512 0.43576866 0.010244044 0.014471217
000120 5e f1 75 3e 7f 9e b9 be bc f1 20 3f d5 75 aa 3e
       0.24017856 -0.36253735 0.6286886 0.33293024
000130 0c e8 d6 be 9f b6 28 be 0f e8 eb be 3a f2 cc 3d
       -0.41973913 -0.16475914 -0.46075484 0.100071386
000140 b2 8f b0 be 99 41 f7 3e 75 8d f5 be 27 4b 4c 3e
       -0.3448463 0.48292235 -0.47959486 0.19950543
000150 61 61 f2 be 78 8f ef bd ab f5 0e bf 94 05 61 be
       -0.4733992 -0.11697286 -0.5584361 -0.21974784
000160 ae 17 d0 bb 88 1f 9b be 0e d9 92 be 40 95 12 3e
       -0.006350479 -0.30297494 -0.28681225 0.14314747
000170 68 7b b0 3e 7e 49 3d 3e 8f 39 85 3e 87 a1 85 bd
       0.34469151 0.18485066 0.26020476 -0.065249495
000180 8d 6a 68 be c4 4f 43 3e 59 fd e5 be f2 00 eb bd
       -0.22696896 0.19073397 -0.4491985 -0.1147479
000190 46 4e f8 be 9a 16 b3 3e 54 2e 10 bc eb 61 fa 3b
       -0.48497218 0.3497818 -0.008800108 0.0076410673
0001a0 e5 29 02 3f c1 f7 40 3e 7b fc 3e be 1b a1 8a 3e
       0.50845176 0.1884451 -0.18651001 0.2707604
0001b0 e8 32 9f 3e e0 fa 56 be 19 27 04 bf 7c 9d 39 be
       0.31093526 -0.20994139 -0.5162216 -0.18126482
0001c0 99 4d be 3e b5 0d c0 3e 0d 15 6f be 7f f3 f8 3e
       0.37168577 0.37510458 -0.23347874 0.48623273
0001d0 76 dd 9b 3e 24 34 8b 3e 22 24 1d be 89 7f 2d bf
       0.304424 0.27188218 -0.15345815 -0.6777273
0001e0 21 ad d5 be f0 1a 86 3c 1c a0 39 be d0 04 15 3e
       -0.4173365 0.016370267 -0.18127483 0.14552617
0001f0 56 34 2c 3d ad bf e9 3e 98 eb 14 bf fd 2f 98 be
       0.0420421 0.4565405 -0.5817199 -0.29724112

layers.1.weight f4 [128, 128]
000000 79 0b d7 3c 9c fe 91 3d b9 9a a2 3d 10 03 8e bc
       0.026250588 0.07128641 0.07939667 -0.017335445
000010 97 84 3e 3d 14 56 7d bc 78 44 45 3d 4d b3 b5 bc
       0.046513166 -0.015462417 0.048161 -0.022180224
000020 54 c5 73 bd 84 7c 0f bd be 82 2e 3d e2 42 ff bc
       -0.05951436 -0.035030857 0.042605154 -0.031159822
000030 68 fd b3 3c 11 1f 9e 3d 00 af ab bd f7 39 08 bd
       0.02197142 0.07720769 -0.08382988 -0.033258405
000040 eb 57 0d bd 78 c6 86 3d 5c 36 8a bd fc 10 1d 3d
       -0.034507673 0.06580824 -0.067486495 0.038346276
000050 d6 a8 83 3d 85 1e 7a 3d 9c 8d d1 3c 3d f6 94 bd
       0.06428687 0.061064262 0.02558022 -0.07273529
000060 29 2d f8 bc a2 0a 29 3d 6d 9a a3 bd 95 6f 5b 3d
       -0.030294972 0.041269906 -0.07988439 0.05357321
000070 9b 1d 5d bd 6f 9a d0 3c 86 99 f4 3c bf b7 b5 bd
       -0.053983312 0.025464265 0.029858362 -0.088729374
000080 83 c1 4f bd bb 56 8d bd 94 0a 0d bd 4f 3d cd 3c
       -0.050721657 -0.06901308 -0.034433916 0.025053648
000090 9a 8b f6 3c ae f5 4c 3d c0 0b 79 3c 1f f6 0c 3b
       0.030095864 0.050038986 0.015200555 0.0021509004
0000a0 af 7d 54 bb 4a e1 8e 3c ff ca 22 bd c5 ab 97 bc
       -0.0032423546 0.01744141 -0.039744373 -0.018514523
0000b0 4a 61 da bc f2 dc 55 3d 43 60 4c bd ea 21 93 bd
       -0.02665772 0.052212663 -0.04989649 -0.07184203
0000c0 73 82 92 bd a3 dc 00 3b 22 5e 21 bd a0 a7 32 bb
       -0.071537875 0.001966276 -0.039396413 -0.0027260557
0000d0 8f 89 8d 3d 57 d6 01 3d e9 4b c5 bb e1 b8 71 3d
       0.06911003 0.03169855 -0.006021012 0.059014205
0000e0 47 99 2e bd 68 db 2f bd 8c c2 97 bc d8 86 9c bd
       -0.042626645 -0.04293385 -0.018525384 -0.07642907
0000f0 15 32 b3 3d a7 ca ce 3c 6b ac 2b 3c c5 6e 98 bd
       0.08749787 0.025243117 0.010478119 -0.074430026
000100 29 1f 83 bd 09 c7 89 bd 54 7f b5 bd 26 26 49 bd
       -0.06402428 -0.06727416 -0.088621765 -0.049108647
000110 9e 03 9a bd cf 3d 83 bd 64 7b 51 3b c8 06 63 bd
       -0.07520221 -0.064082734 0.0031964416 -0.05542639
000120 9a 33 f6 bc 8f 16 ad 3d a1 d1 cb bc 59 e6 14 3d
       -0.030053902 0.08451568 -0.024880232 0.03635249
000130 9a a6 aa 3d b5 74 73 bc 8f 7d 4f 3d b1 f2 8a 3d
       0.08332558 -0.014859368 0.05065685 0.06784571
000140 3d ba d4 bc 96 ae 08 bd 01 3e a1 bd e9 7c 6c bd
       -0.025967712 -0.033369623 -0.078731544 -0.05773631
000150 78 b5 99 bd 3e 33 ec bc 9e b9 3c bd ef 7c 94 bd
       -0.075053155 -0.028833028 -0.046075456 -0.07250392
000160 21 43 0b 3d 32 82 bb 3c c0 05 03 bd 99 cb da bc
       0.033999566 0.02288923 -0.031987906 -0.026708411
000170 32 9f 16 3c a5 fb 87 3d 88 1b 42 3d 15 1b 8d 3c
       0.009193229 0.06639794 0.047389537 0.017224828
000180 70 bd 3f bb 6d ca 7f 3c f3 17 32 3c 15 9a a7 3c
       -0.00292572 0.015612227 0.010869968 0.020459214
000190 f9 68 8c bc ac a4 88 bc f9 78 e9 bc b1 4a 69 3d
       -0.017139899 -0.016680084 -0.028500067 0.056955997
0001a0 b1 2b 1f bd 10 02 9d bd f8 ae 23 bb 63 70 13 bd
       -0.038860027 -0.07666409 -0.0024976116 -0.035995852
0001b0 53 c8 38 bd 96 b5 87 3d ea 70 91 bd 0f c4 4e bd
       -0.04511292 0.06626432 -0.07101615 -0.050479945
0001c0 02 bf 86 3d ab 81 97 3d 67 b3 70 bd 41 98 75 3d
       0.065794006 0.07397779 -0.05876484 0.059959654
0001d0 4c f4 a8 bd c6 df 99 3c 85 03 e0 3b 99 c8 69 3d
       -0.08249721 0.018783461 0.006836357 0.05707607
0001e0 5c 8f 9f 3d 55 16 ff bb f6 22 0d bd 9d 25 9a bd
       0.077910155 -0.0077846446 -0.03445717 -0.075267054
0001f0 45 c4 73 3c 1e b5 0b bd 1d d9 70 bd e0 c7 1c bc
       0.014878337 -0.034108274 -0.058800805 -0.009569138
000200 31 0c 99 bc c3 1c 84 bd 5a 8d 3e 3b 72 20 51 bd
       -0.018682571 -0.06450798 0.0029075951 -0.051056333
000210 8b a0 96 bd 9f 2d 04 bd 56 85 e7 ba 7e 1f 41 3a
       -0.0735484 -0.03227007 -0.0017663639 0.00073670584
000220 5c 9d 81 bc 23 c8 a2 3d f9 bf 08 3d c4 4b 80 3d
       -0.015822105 0.07948329 0.033386204 0.06264451
000230 72 83 9f bd 21 07 17 3d 85 87 29 3d ca be 06 3c
       -0.07788743 0.036872033 0.041389007 0.008224199
000240 73 f5 0a bd c6 05 a7 bc ef 07 4c 3d 6f 22 8c bd
       -0.033925485 -0.020388495 0.049812254 -0.06842505
000250 09 93 20 bd e7 1e a6 bd 3b 6c b5 3c 95 ad 2b bd
       -0.039202724 -0.08111363 0.022146335 -0.041913588
000260 e7 47 a1 bd 3d 46 6b bd 4a 64 a6 3b 0d 27 4b 3d
       -0.078750424 -0.05744003 0.0050778734 0.04959779
000270 d0 e6 c4 3c c2 bc 30 bb 70 bf d9 bb b8 7f 40 bd
       0.024035841 -0.0026967977 -0.0066451356 -0.046996802
000280 2d 9d 1c bc 1f a1 3d bd 31 7d 2a 3d 77 1b 53 bb
       -0.009558958 -0.046296235 0.041623298 -0.0032212415
000290 df ac 71 3d 42 21 54 3d e2 0b 79 3c ee 05 6a 3d
       0.059002753 0.05178953 0.015200587 0.05713456
0002a0 11 97 c8 bc fb e5 0a bd 69 bd a4 bd 6a fa 31 3d
       -0.024486097 -0.033910733 -0.080439396 0.043451704
0002b0 eb 0d 3a 3c ef 29 8a 3d 68 b4 aa 3d 54 45 9e bc
       0.011355857 0.067462794 0.08335191 -0.019320168
0002c0 cc d0 06 bd 0f 76 47 3d 41 2a 99 3d ea f6 81 3d
       -0.032913968 0.048696574 0.074787624 0.06345923
0002d0 5e 88 8e 3d cc d5 51 bd 24 f3 73 bd 9d e5 82 bc
       0.06959604 -0.051229283 -0.05955805 -0.015978629
0002e0 8e 2a 12 bd ea 65 2e 3d 78 d5 63 3d 6c 8c aa 3d
       -0.035685115 0.04257766 0.0556235 0.083275646
0002f0 44 9e 10 bd a8 f3 d0 bc a6 0a 35 bc 82 e1 51 bb
       -0.035307184 -0.02550681 -0.011049902 -0.0032025282
000300 d2 cd 40 bb 04 22 79 3d cf bf a0 bd 9d 93 89 bd
       -0.0029419553 0.060823455 -0.078490846 -0.06717608
000310 90 95 1a bd 61 cf 2b 3d 51 8e 00 bd b8 db e6 3b
       -0.03774029 0.04194582 -0.031385724 0.0070452355
000320 5f 38 56 3c 94 f6 64 3d be 2c 96 bd 84 45 c6 bc
       0.013074963 0.055899218 -0.07332753 -0.02420307
000330 2a 99 ff 3c 47 79 dd bc 05 b5 7a bd bc 76 05 3d
       0.031200964 -0.027035369 -0.06120779 0.032583937
000340 78 ba 99 3d 90 91 ee bc f7 2a ff 3c d3 d7 a4 bc
       0.07506269 -0.029122144 0.031148417 -0.020122444
000350 57 bd 50 3c d8 67 4c 3b 96 e2 54 bd 06 07 90 3d
       0.012740455 0.0031189825 -0.0519739 0.070325896
000360 e9 cc 86 3c 43 2a 11 bd 20 c2 e7 3c 24 76 ae 3d
       0.01645513 -0.035440695 0.028290808 0.08518627
000370 e7 44 9b 3d b3 f4 d7 bb ee cb 98 bc 94 01 89 3d
       0.075815015 -0.0065904497 -0.018651929 0.06689754
000380 22 e5 57 3d 23 45 0c 3c a8 ea 8e bd bb f3 5f 3c
       0.052708752 0.008561405 -0.06978351 0.01366895
000390 3b 16 67 3d 00 f7 f4 bb b8 aa fd bc 12 78 4f 3d
       0.056417685 -0.0074757338 -0.030965194 0.050651617
0003a0 78 52 47 3d d2 38 2f 3d 90 6a a3 3d 8b e0 8c 3d
       0.048662633 0.042778797 0.079793096 0.06878766
0003b0 8a a7 af bd 3c 07 01 3d 9c 64 2a 3d 1c 4a 40 bd
       -0.085768774 0.03150104 0.041599855 -0.046945676
0003c0 98 7f b4 bd 24 14 a4 bd 1f a0 f7 bb ef 50 fa 3c
       -0.08813399 -0.08011654 -0.0075569297 0.03055617
0003d0 68 87 b6 bc 9c a7 5c bd 8e f7 ad 3d 9a fe a3 3d
       -0.022281364 -0.053870782 0.08494483 0.08007546
0003e0 df 39 fd bb 0b 4e a5 3b 0f d5 20 3b 2a bc 4d bd
       -0.007727846 0.005044704 0.0024541055 -0.050228275
0003f0 a3 44 8b bd fc 0b 86 3d 62 97 53 bd 54 6c 77 bd
       -0.06800201 0.065452546 -0.05165804 -0.060406044

layers.1.bias f4 [128]
000000 14 8d 90 bd 20 38 c6 bc 83 4b a0 3c 77 12 81 3d
       -0.070581585 -0.024196684 0.019567257 0.0630235
000010 35 72 5b bd 9f 80 64 bd ac ce c5 bc 9f eb 88 3c
       -0.053575713 -0.055786725 -0.0241464 0.016713915
000020 cf 4e d9 bc ca 30 3e bd 0e 43 19 bd aa 99 68 bd
       -0.026526837 -0.046433248 -0.037417464 -0.05678717
000030 98 94 8a 3c 15 e4 85 bd 13 1e 3b bd 4c dd 37 3d
       0.016916558 -0.06537644 -0.045682978 0.04488878
000040 7f 51 94 bd 3a d7 74 3c 0d ab 2f 3d 17 9c 92 bc
       -0.07242107 0.014943892 0.042887736 -0.017896695
000050 3c 2b 8f 3d 43 12 1e bd 37 8f e7 bc 34 c2 1b bc
       0.06990668 -0.038591634 -0.028266532 -0.009506751
000060 ad 92 9e 3c b5 5a 97 3d 6e 4b 8f ba 24 66 d5 3a
       0.01935705 0.07390348 -0.0010932514 0.0016281051
000070 7e a3 75 bd 3a 89 f6 bc fe 89 c1 3d 81 eb d3 3d
       -0.05997037 -0.030094732 0.09450148 0.10347653
000080 92 e6 fe bc 14 f7 00 3d 49 51 4c bd 02 ce 48 bc
       -0.031115804 0.031485632 -0.049882207 -0.012256147
000090 d7 bb f0 ba 45 d1 1c 3d 1e 87 d9 3d b2 53 ae 3c
       -0.0018366528 0.038285512 0.10621475 0.021280143
0000a0 ff bd fb bc 4e c3 0a be 86 34 c9 bd 61 8e 86 bc
       -0.030730246 -0.13551065 -0.09824471 -0.016425313
0000b0 31 e2 5e 3c 50 e7 2c 3d e0 be 35 3d 98 94 0a bb
       0.013603733 0.042212784 0.044371486 -0.0021145698
0000c0 09 80 2c 3b cb 99 d6 3c d6 5d 1a bd 44 57 2c bd
       0.0026321432 0.026196381 -0.037687145 -0.04207541
0000d0 c2 57 72 3d 35 09 94 bc 2d c8 98 3c f5 2f 64 bd
       0.059165724 -0.018070797 0.018650139 -0.055709798
0000e0 66 f7 df 3c f8 57 ca bc 06 ee 62 3b d2 3b 67 bd
       0.027339648 -0.02470015 0.0034626736 -0.056453533
0000f0 5d da 76 bd 85 42 55 3d 4f d5 bc bd 5a bf 10 3e
       -0.06026684 0.05206539 -0.09220373 0.14135495
000100 97 d6 58 bd 0a db 85 3c c2 39 b0 bd 06 d8 a5 bd
       -0.052939024 0.016339798 -0.086047664 -0.08097844
000110 67 30 55 3c 28 5c b4 bc 7e 5d 12 3e 82 4c c9 bd
       0.013012028 -0.0220166 0.14293477 -0.09829046
000120 f3 8d c4 bc 85 4d 5b bc a7 0a 8d 3a 62 6c 2b bd
       -0.023993468 -0.013385181 0.0010760621 -0.04185141
000130 10 57 90 3c 43 ac 73 3d bb 2f 29 bc dc b3 a4 bd
       0.01761964 0.059490453 -0.010326321 -0.08042118
000140 ff 95 b7 bd 5b af 97 3d e2 72 45 bd 6a fe 94 3d
       -0.08964156 0.07406493 -0.048205264 0.07275088
000150 89 8c 42 bb 11 f0 7c 3c 87 38 d6 3c 10 dc dc bc
       -0.0029685816 0.015438096 0.026150001 -0.026960403
000160 d1 3d 01 bd be ab 76 bd dc 41 24 bd 42 34 73 3d
       -0.031553093 -0.06022238 -0.04010187 0.05937601
000170 65 74 26 3d e8 72 93 3b dc 36 c7 3a e9 1c 04 bc
       0.040638346 0.004499782 0.0015198844 -0.008063533
000180 23 93 d8 3c 4a b9 0e 3d 91 41 7b 3c 0a 40 b1 3d
       0.026437348 0.034844674 0.0153354565 0.086547926
000190 38 45 96 bc 58 80 ef 3a 25 47 ca bc a5 45 94 bd
       -0.018343553 0.0018272502 -0.024692127 -0.07239846
0001a0 07 e5 e0 3d 0c 27 21 bd 75 a0 a1 bd 53 31 05 3d
       0.109811835 -0.03934388 -0.07891933 0.032517742
0001b0 31 c6 1c 3d a5 42 95 3d c9 df dd bd 31 13 f7 3d
       0.038274948 0.07288102 -0.10833699 0.12064207
0001c0 cb 01 66 3c 47 35 99 3c 94 98 76 3c b2 6a 44 3d
       0.014038513 0.018702162 0.015051026 0.047953315
0001d0 2d 06 9c bc f7 68 fb 3c e6 22 46 3b d5 40 df 3c
       -0.019045914 0.0306897 0.0030233203 0.027252594
0001e0 78 70 be bd 6a 80 59 bc 55 0b 7b 3d 26 86 c6 3d
       -0.092987955 -0.013275245 0.061290104 0.096935555
0001f0 99 0a c3 bd 0a 7a 9a bd f0 79 52 3d a8 cb 40 3d
       -0.09523506 -0.07542808 0.05138582 0.04706922

layers.3.weight f4 [128, 128]
000000 52 d3 9f bc 0c 3a 6c 3d 05 13 5c bd d0 36 bf bc
       -0.019509945 0.057672545 -0.053729076 -0.023341566
000010 1a 8c 4b bd f4 7e 12 3d 33 93 6f 3d fa 0c 28 bd
       -0.049694158 0.035765603 0.05848999 -0.041028
000020 79 ed 0e bd e0 a1 bf bf 63 b3 f6 3c 21 25 1f bd
       -0.03489444 -1.4971275 0.030114835 -0.03885377
000030 fc b6 bd 3d 4c 36 04 3e cd 56 7e 3d 45 c2 c2 3c
       0.09263417 0.12911338 0.0620945 0.023774276
000040 f4 f2 27 3d 61 a4 2b bd c0 11 ab bd cf 96 2b 3e
       0.041003183 -0.04190481 -0.08352995 0.16756748
000050 4a 91 a4 bd e1 e4 46 3d bb 06 96 3d 60 27 85 3d
       -0.08035524 0.04855812 0.073255025 0.06501651
000060 29 c0 5a 3c 98 1b 3d 3e 2c 2b 0f 3c 30 d5 f1 3c
       0.013351479 0.18467557 0.00873832 0.029520601
000070 a1 1d d8 3c 29 04 aa bd c0 93 24 3e 80 c4 0d bd
       0.026381316 -0.08301575 0.16071987 -0.034611225
000080 18 5e 63 bd bc 49 ca bd 4f f7 3b bd da 01 08 bd
       -0.055509657 -0.09877345 -0.04589015 -0.03320489
000090 b2 38 cf bd 7d 1c b1 bc 56 c7 a7 3d 43 56 d1 3e
       -0.10118236 -0.02162003 0.08192317 0.40886125
0000a0 7c 4a 96 bd 68 33 07 be dc 08 8f bc bc dd ad 3d
       -0.073384255 -0.13203204 -0.01746028 0.08489558
0000b0 64 3d 83 3c 85 ef 2e 3e 0a f2 f4 ba de 0c 22 bd
       0.016020484 0.17083557 -0.0018687856 -0.039563052
0000c0 cd 1f 1c bf 75 f7 5d 3d a7 5e 53 3c d0 4f 82 3c
       -0.60986024 0.05419107 0.012900985 0.015907198
0000d0 cb d8 d4 bd 30 7c 73 3f 01 02 86 3d 15 4f bc bd
       -0.103929125 0.9511137 0.06543351 -0.09194771
0000e0 7b ec 53 bd be 2c 9d bb bc 83 a7 3c 09 5d ad bd
       -0.051739197 -0.0047965935 0.020448558 -0.08465011
0000f0 c1 2b 6f 3e 0e 9a b6 be 82 89 f0 bc 03 0a 5a 3d
       0.23356535 -0.3566441 -0.029362444 0.053232204
000100 de 22 a3 bc a6 88 ce 3d 46 2a c7 3c 6f 8f 56 3d
       -0.019914087 0.10084657 0.02431215 0.052382883
000110 c8 ec 8e 3d 3d 32 e3 3c 5d 63 ec be a6 1c 0a bb
       0.06978756 0.027733916 -0.46169558 -0.0021074205
000120 b9 08 8d 3d 24 57 b1 be 21 41 bd bc dd d4 82 bd
       0.06886429 -0.34636796 -0.023102345 -0.06388257
000130 c7 4b 87 3c dd 5f bd 3d 3b 26 77 bc 5b 25 d1 bb
       0.016515626 0.092468 -0.015084798 -0.006382627
000140 0f 70 09 3c 34 7a 62 3c 85 c7 6a be 39 a4 2c 3e
       0.008388533 0.013823081 -0.22927673 0.16859521
000150 e7 b9 a1 bd 55 fe 37 3d 12 a2 28 3d 6e c4 80 3d
       -0.07896786 0.044920284 0.041170187 0.06287466
000160 ad e0 61 3f c0 40 b4 3c 52 08 d4 bd 43 63 50 3d
       0.88233453 0.022003531 -0.103531495 0.050875913
000170 1a d9 e1 3d a5 99 c9 bd cf c7 37 3e ac 54 a1 3d
       0.11027737 -0.098437585 0.17947315 0.07877478
000180 4b 70 e0 bc 4e 6a 36 3e bd 7a 97 3f ef 46 29 c0
       -0.027397295 0.1781399 1.1834332 -2.6449544
000190 d7 dd e0 bd 27 65 11 3e cc 78 01 be c3 ee 27 3d
       -0.109798126 0.14198743 -0.12643737 0.040999185
0001a0 2d 4d 7c 3e 6e 26 ab 3c ed f8 e5 3c be ee d3 3b
       0.24638815 0.020892348 0.028072799 0.0064676693
0001b0 07 3d 06 3c f1 cf 9e bf ea 04 1e 3d 02 50 82 bf
       0.008193261 -1.2407209 0.038578905 -1.0180666
0001c0 02 ca 17 3d 6f 3e b1 bd 1b da fb 3c 3f df 4e bd
       0.037057884 -0.086544864 0.03074365 -0.050505873
0001d0 b5 95 33 3c 1e 5a 9d bd 92 e0 cc bd 50 bc 03 be
       0.010960986 -0.07683204 -0.10003771 -0.12864804
0001e0 3f 08 cb be b0 ff 97 bd c2 41 02 3d 73 74 32 bd
       -0.3965473 -0.074218154 0.031800993 -0.043568086
0001f0 d9 c4 7c 3d 84 b6 28 bd 84 cc 9a 3d 50 46 b7 3c
       0.061711166 -0.041189685 0.075585395 0.022372395
000200 86 3d 88 3d 56 9e a6 3c c5 97 17 3d 75 c9 0b 3c
       0.0665236 0.020339172 0.037009973 0.008531918
000210 46 52 a0 bd a6 90 bd 3c 19 ac 1b 3d 0a 86 dc bc
       -0.078281924 0.023140263 0.038005922 -0.026919384
000220 a0 0f 39 3d 35 c5 17 3d 31 d9 76 bd f2 52 09 bd
       0.045180917 0.037053306 -0.060265724 -0.03352637
000230 26 a5 a8 bd 65 be 4f bd aa c1 6d bd 42 06 ab 3c
       -0.082346246 -0.050718684 -0.05804602 0.020877007
000240 dd 5e 17 3a ac 2e ae 3d f8 0b 67 3d 7b 32 f3 3b
       0.00057743286 0.08504996 0.0564079 0.007421789
000250 75 f1 a6 3d ca cb 39 bd ea 9f be bc 5d b0 aa bd
       0.08151523 -0.045360364 -0.023269612 -0.0833442
000260 8a 52 80 3d 7c a2 73 3c 99 fd e0 bc cb e6 28 bd
       0.06265743 0.014870282 -0.027464675 -0.041235726
000270 35 21 a7 3d 7c 82 99 bd 43 bc 86 bd 57 21 24 3d
       0.081606306 -0.07495591 -0.06578877 0.040070858
000280 bd bd 4c 3d 0c f4 61 bd 2a 5f 91 bd 19 99 82 3d
       0.049985636 -0.05516438 -0.07098229 0.06376857
000290 23 cc 96 bd f7 78 d1 bc 61 f1 78 bd df 2f c3 bc
       -0.07363155 -0.025570376 -0.060777072 -0.023826538
0002a0 54 20 91 3d 49 cc 31 3d e9 a2 86 bc 48 9e 68 bd
       0.07086244 0.043407712 -0.016435103 -0.056791574
0002b0 4e 21 a2 bc 38 7a a6 bd 11 62 65 bd 4d ef a3 3d
       -0.019791272 -0.0812878 -0.056001727 0.080046274
0002c0 0a f1 8e 3d 68 3d 9e 3d 18 28 08 3d 04 5d 9f 3d
       0.06979568 0.07726556 0.03324136 0.07781413
0002d0 23 28 85 3d 76 71 21 3d 28 7f 5b bd f8 24 ee 3a
       0.06501796 0.039414845 -0.053588063 0.0018168977
0002e0 a9 b0 49 3d e5 5a a2 3c 8f 37 82 3d 91 13 92 3d
       0.049240742 0.019818733 0.06358253 0.07132638
0002f0 75 aa 6d bc 3b 41 0b 3c 15 7d ad 3c f2 2e 96 bc
       -0.014505972 0.008499439 0.021177808 -0.018332932
000300 1e 0f c5 3b 0e d7 b5 3b 55 9f 75 3d 6b 24 91 3d
       0.006013765 0.005549318 0.059966404 0.07087024
000310 d0 5d 63 3d be 7a 90 bd b4 40 a6 bd 3c 78 8d bb
       0.05550939 -0.07054661 -0.0811781 -0.0043173116
000320 16 30 c5 bb 61 53 09 3d 76 e2 ad 3d be 95 d0 3c
       -0.006017695 0.033526782 0.084904596 0.025462028
000330 3c 88 43 3d fc 18 a3 3b 7d 55 70 bd 54 13 a3 3d
       0.047737345 0.0049773436 -0.058675278 0.07962671
000340 d7 16 04 3d ef e8 57 3d ce 9c 44 3c 7d a8 c6 3a
       0.032248344 0.052712377 0.012000276 0.0015156415
000350 40 a2 e1 bc 48 46 1a bd 32 fd ff 3c 94 ed 83 bd
       -0.027543187 -0.03766468 0.031248663 -0.06441799
000360 a0 cf 5c bd 83 2d 3d bd 26 c0 11 3d 7a b3 eb bc
       -0.053908944 -0.04618598 0.035583638 -0.028772105
000370 4c cc 88 3d ae 1b 7c bd 59 bd 69 bc f9 2b 8c bd
       0.066795915 -0.061549835 -0.014266335 -0.068443246
000380 cf 54 a7 bd 17 96 8a 3d f8 a4 00 3d a7 42 99 bb
       -0.08170473 0.067669086 0.031407326 -0.004677135
000390 ed 32 c8 bc d9 4a 06 bd 6a 08 0d 3d e9 ca 01 3d
       -0.024438346 -0.032786224 0.034431852 0.03168765
0003a0 7f f5 e9 bc 5b 71 71 bd f9 88 e0 3c fd 57 e0 bc
       -0.028559444 -0.058945995 0.027409064 -0.027385706
0003b0 fd 9b 80 bd ab a2 8c bd 43 6d 1f 3d 53 eb 2d 3d
       -0.062797524 -0.06866964 0.03892256 0.04246075
0003c0 16 37 98 bd ca 63 a4 3d 40 ce e7 bc 9d d6 97 bd
       -0.07432382 0.08026846 -0.02829659 -0.07413981
0003d0 25 b2 38 ba 50 07 d5 3c 21 a0 81 bd 16 e7 1b bd
       -0.00070455886 0.026004463 -0.0632937 -0.038062178
0003e0 6d 7d ba bd 89 a3 b3 3d d1 a0 19 bd 7f 58 c4 3b
       -0.09105954 0.08771426 -0.037506882 0.005991995
0003f0 16 05 9f bd 3e 6b 32 3d f6 95 8d bc e0 e6 25 3d
       -0.07764642 0.043559305 -0.017283421 0.040503383

layers.3.bias f4 [128]
000000 9a 95 58 3e d8 65 8b bd ce 5f 8b 3c f0 01 a0 3c
       0.21150818 -0.068065345 0.017013457 0.019532174
000010 bb a5 1d 3d cf bb 78 bd 54 28 b0 ba 27 22 8c 3d
       0.03848813 -0.060725983 -0.0013439753 0.068424515
000020 4a 2e 8d bb b6 de b2 bd eb 51 13 3e cd 0c 16 bd
       -0.0043084966 -0.08733885 0.14386718 -0.0366333
000030 55 7d 64 3b 25 d0 53 3e 3b 31 79 3d 12 3d 1e be
       0.0034864743 0.2068487 0.060837965 -0.15452984
000040 35 8f ac bd 32 11 d9 bd 92 df 27 bd be f1 87 bd
       -0.08425752 -0.10598983 -0.040984698 -0.066379055
000050 98 a4 f2 bc 20 83 9f bd dd af 7a 3b 5d 0a e8 3d
       -0.0296195 -0.07788682 0.0038251795 0.11330102
000060 dd b2 46 be 3f 54 51 3e a4 10 5d bd 97 e8 3d bd
       -0.19404168 0.20442294 -0.053970948 -0.046364393
000070 68 7b 86 3c f0 2a a1 bd 94 59 a2 3d 28 bd e7 3c
       0.016416267 -0.07869518 0.07927242 0.028288439
000080 b9 a0 35 bd 7b 16 90 bc 80 81 cf 3d 5a 6c ac bc
       -0.04434273 -0.017588845 0.10132122 -0.02104776
000090 2d ce 39 bb f4 bf f5 bd 74 bd 5c 3d d2 3a fb bd
       -0.002835165 -0.11999503 0.053891614 -0.122670785
0000a0 1e d1 62 bc 30 ec 78 bd 79 80 59 3e 2f 5e c2 3b
       -0.013843803 -0.06077212 0.21240415 0.0059316377
0000b0 2e ae 8b 3d 0d 40 bb bd c7 b1 08 3e 3d 32 56 3c
       0.068203315 -0.09143076 0.13349067 0.013073501
0000c0 16 e5 d8 3d 12 a9 42 bd 3d e5 10 3e 20 df f7 bd
       0.1059057 -0.04752452 0.14149947 -0.121031046
0000d0 52 2d ed 3d 8b 50 96 bd bd 4f 9c bd b4 9b 93 3c
       0.1158091 -0.07339581 -0.07632396 0.018018581
0000e0 70 95 3e bd 43 42 8f 3d cb 2f 15 be 67 cf f7 bd
       -0.046529233 0.0699506 -0.14569013 -0.12100106
0000f0 f9 cf 4a 3d 1f 17 9d bd 5f 0a 3f be d5 1a b7 bc
       0.049514744 -0.076704256 -0.186563 -0.022351662
000100 26 4c 52 3c 63 3b e7 3d 99 1f 04 bd d5 e7 d8 bd
       0.012835538 0.11290624 -0.032256696 -0.105910935
000110 43 52 26 3d 4d 2e ce 3b 15 fc 25 bd 6d 98 ca 3c
       0.040605795 0.0062921406 -0.040523607 0.024730885
000120 72 7b 20 3d 3f f6 90 3c 0b b3 38 bd 56 c7 6a bd
       0.039180227 0.017695544 -0.045092624 -0.057319008
000130 38 f4 71 bc f8 d6 21 3d 74 de 07 3c f9 ee b8 bc
       -0.014767699 0.03951165 0.008292783 -0.022574889
000140 af 66 13 be ca 41 16 3d cb 47 7e 3d 11 da 24 3d
       -0.1439464 0.036683835 0.062080186 0.040247027
000150 d4 c2 b6 3d 89 87 87 bd 52 af b7 bd 75 da 5c bd
       0.08923879 -0.06617648 -0.089689866 -0.053919274
000160 2a 58 a0 be 90 95 3f bd 45 dc 7e bd 10 f6 cf 3c
       -0.31317264 -0.046773493 -0.062221784 0.025385886
000170 56 ea 5e 3b c7 34 b5 3d 16 9e 7a 3c bc d8 f3 bd
       0.0034014187 0.08847957 0.01529648 -0.11906573
000180 4f c9 8e bd 42 ff 02 be c5 bb b0 bb bf 9a b4 bd
       -0.0697199 -0.12792686 -0.0053934776 -0.08818578
000190 9c 37 4d be a8 73 7a bd 80 d0 34 3e 6b ed 12 be
       -0.20040745 -0.061145455 0.17657661 -0.1434838
0001a0 d9 44 f9 3d 01 e7 80 3d bc 3d 61 3d d5 07 51 3d
       0.12171335 0.062940605 0.054990515 0.05103286
0001b0 c2 8d 2b bd cf 03 b8 bd 95 b1 05 bd cc 44 83 bd
       -0.041883238 -0.089851014 -0.03264006 -0.06409606
0001c0 a7 21 c5 bb fa 33 12 3b b2 34 1c 3e 89 c9 86 bd
       -0.0060159746 0.0022308812 0.15254477 -0.065814085
0001d0 c5 5a 27 be b0 18 92 bc 84 bb 0b be 9b 60 c3 3d
       -0.1634322 -0.017834038 -0.1364575 0.095399104
0001e0 d2 92 c2 bd 53 0a 18 3e dc e5 09 bc a4 59 f5 3d
       -0.0950066 0.14847688 -0.008416619 0.11979988
0001f0 8d cb e2 bd 0b 12 0c 3e d0 24 a4 bd 12 17 3b bd
       -0.110739805 0.13678758 -0.08014834 -0.0456763

layers.5.weight f4 [3, 128]
000000 87 ce 40 bf 53 33 1d 3c 41 41 59 3f 9f 3c cc be
       -0.75315136 0.009594756 0.84865195 -0.3989
000010 07 4d c1 3e c3 a2 a5 3c c8 7c 0c bf 10 eb cf bd
       0.3775408 0.020219212 -0.548779 -0.101522565
000020 f8 24 df bf 6b 00 be bf 26 e9 a7 bd 02 3f 97 3c
       -1.7433157 -1.4843878 -0.081987664 0.018462662
000030 56 a9 a2 be 40 6b 4c be f7 a3 00 bd 54 f4 47 3d
       -0.31769818 -0.19962788 -0.03140637 0.048816994
000040 9a 36 e9 3e 94 cf 8e 3e 57 9b 42 3e 26 c8 88 3f
       0.4554947 0.27892745 0.1900457 1.068608
000050 a7 61 61 bd f6 d5 93 3c 58 6d d4 bc e5 d9 fe be
       -0.05502477 0.01804636 -0.025931045 -0.49775615
000060 20 c7 6d 3d b6 ef 3f 3c aa ee 8b bd a0 f2 66 3e
       0.05805123 0.011714866 -0.06832631 0.22553492
000070 71 a3 d2 3e 57 3d 38 bc 28 81 06 bf d3 56 fe 3e
       0.4114032 -0.011245093 -0.52540827 0.49675617
000080 48 f8 c5 3e 82 00 59 3e 62 2f b6 bf 9b 4f fc 3e
       0.38665986 0.211916 -1.423321 0.49279484
000090 da 85 c5 bf d8 2e fd bd c0 ac e1 be 33 55 39 3f
       -1.5431473 -0.1236245 -0.4407711 0.7239563
0000a0 ee 67 3d 3d 1a 04 63 bd 9e 8a de be 79 89 0c 3f
       0.046241693 -0.055423833 -0.43465132 0.54897267
0000b0 1f 59 2c 3c 83 6b 1d 3f ef 35 88 bf 7c 80 38 3f
       0.010519295 0.61492175 -1.0641459 0.7207105
0000c0 a2 87 44 be 7f dd d4 3e d5 9d 09 be a1 7d df 3e
       -0.19192365 0.41575238 -0.13439114 0.43650535
0000d0 d0 48 db be 06 b8 c7 3e ec 22 25 3e 6b 00 be be
       -0.4282899 0.39007586 0.16126603 -0.37109694
0000e0 9f 9e 0f 3f 4d 0f c4 3f 0b 95 27 c0 7a 72 89 3e
       0.5610141 1.531717 -2.6184719 0.2684515
0000f0 29 b3 69 bd d1 6b 15 3f 75 56 fb 3e 46 87 b1 bc
       -0.057055626 0.5836764 0.490894 -0.021670949
000100 67 0b 5d 40 54 b3 05 bf 58 11 56 bd 76 f5 01 3f
       3.453821 -0.5222676 -0.052262634 0.5076517
000110 f6 72 85 3a 49 ff 10 3f db 9f 02 bf 2d 97 00 3f
       0.0010181356 0.56639534 -0.5102517 0.50230676
000120 b0 b2 12 be f6 bb 55 3c 2a e1 81 bc f0 6c 5b bd
       -0.14325976 0.013045302 -0.015854437 -0.053570688
000130 74 2e 12 3e 44 94 54 3f 4f 6a f8 3e 67 26 91 bd
       0.14275533 0.83038735 0.48518607 -0.07087403
000140 08 6d 98 bf 7b cf d4 3b 85 6e 9a 3f 8b f8 be bc
       -1.1908274 0.00649446 1.2064978 -0.023311874
000150 22 bd 0e be 44 5d 74 3d eb d6 cc 3e b9 b5 23 bd
       -0.13939336 0.059659258 0.4000772 -0.039968226
000160 8a d8 a8 3e 83 f8 fe 3e 5d 2c 12 3f 77 8d d3 3c
       0.32977706 0.49798974 0.57098943 0.025824292
000170 78 e1 61 bf e9 77 89 be 2e 87 f6 bc 3d 39 0d bf
       -0.88234663 -0.26849297 -0.030093756 -0.55165464
000180 19 dd 0b 3f 50 d2 12 bd 25 cd 1f 3f b5 0f 12 3f
       0.54634243 -0.0358451 0.624224 0.5705522
000190 6c fd 37 3f 09 0d f1 3c 31 aa af be c6 cb 7c 3f
       0.71871066 0.029425161 -0.34309533 0.98748434
0001a0 b8 ff 2d bf b7 fb 11 bd 04 28 b3 bc ba 6f 4f 3d
       -0.6796832 -0.035640445 -0.021869667 0.05064366
0001b0 e8 55 77 3e a7 50 8f bc 62 57 3e 39 51 a6 9f 3d
       0.24153864 -0.017494513 0.00018152365 0.07795394
0001c0 bd 79 99 be 8c 45 03 be 62 55 65 be 2e 14 89 3f
       -0.2997569 -0.12819499 -0.22395852 1.0709283
0001d0 24 47 e5 bf 92 d0 32 3f 8d c2 2f 3c 42 4f 71 be
       -1.7912335 0.69849503 0.010727537 -0.2356539
0001e0 13 6d 6c bd 52 7e b6 be ff 56 99 3e 36 d0 af be
       -0.05772121 -0.3564325 0.29949185 -0.3433854
0001f0 24 ec 02 3f db 64 d7 be d4 28 3e bd 21 6d 7d 3e
       0.5114157 -0.42069134 -0.046425655 0.2474866
000200 31 03 15 bf 54 37 6c bd bf 00 2e bf 91 f6 4c 3d
       -0.58207995 -0.057669953 -0.6796989 0.05003983
000210 16 7b 85 bf c0 fd 54 bf 0a e2 2c bf f4 ba 6c bf
       -1.0428188 -0.8319969 -0.6753241 -0.9247277
000220 8e 98 17 3c 24 52 73 bd 88 0e 59 bf e9 3e 21 3d
       0.00925268 -0.059404507 -0.847878 0.039366636
000230 5a 21 57 bf 86 3f 6c bf 35 d1 8d 3d 85 c4 68 3d
       -0.84035265 -0.9228443 0.06924669 0.05682804
000240 1a 2d 9f bf e8 0d 1f bf 7c c6 7f bf b7 7e 8d bf
       -1.2435639 -0.62130594 -0.9991224 -1.1054295
000250 1f e2 6e 3d f0 cc 5e bd dc 09 6b bc 2c 83 64 bf
       0.058321115 -0.054394662 -0.014345612 -0.8926265
000260 d8 62 42 bf f4 30 24 bf 3c f6 b1 3d dc 10 79 bf
       -0.75932074 -0.64137197 0.086895436 -0.9729135
000270 b2 d3 19 c0 ad a4 6a 3d 8d cb 9b bf 53 97 8f bf
       -2.4035459 0.057285953 -1.2171494 -1.1218055
000280 dd 7a e4 bf 1e c7 0a bf bc 5f 42 bf ba d0 b3 bf
       -1.7849995 -0.5421008 -0.7592733 -1.4048073
000290 6f 6a 36 bf 51 1e a6 3d 24 2e 1f bf ea f4 6f 3d
       -0.71256155 0.08111251 -0.6217978 0.058583178
0002a0 3d b6 4d 3d 8e 28 ac 3d 1a 9e 9b bf a9 cb 27 bd
       0.050222624 0.08406173 -1.2157624 -0.04096571
0002b0 5c ab d7 bc ab 60 9b be 49 b3 81 bf fa b4 6b bf
       -0.026326828 -0.3034719 -1.0132838 -0.92073023
0002c0 73 48 c7 be f9 8b 7c bf 40 43 3d bf 8b dc 82 bf
       -0.38922462 -0.9865108 -0.7393074 -1.0223554
0002d0 b5 dc 01 bf f6 00 25 c0 8b d6 5d bf 58 78 a4 bf
       -0.507274 -2.5781837 -0.8665549 -1.2849226
0002e0 bd e7 21 bf c1 07 fb be 2a ca b4 bd 13 83 70 bf
       -0.6324423 -0.49029353 -0.08827622 -0.93950003
0002f0 c4 a4 13 bc 62 c9 a4 be c5 b0 ff be 87 b9 93 3c
       -0.009011451 -0.32184893 -0.49939552 0.018032802
000300 1d 4d 9b bc fd 8a a5 bf 31 e2 ab bd 99 eb 10 bf
       -0.018957669 -1.2933041 -0.08392752 -0.56609493
000310 bd c6 4a 3d 4a 40 9a bf b4 d5 b2 bd 35 7b 41 bf
       0.049505938 -1.205087 -0.08732167 -0.75578624
000320 2a cb e6 be 8f 47 61 3d 0e 2a c5 bc 10 b1 4e bd
       -0.45076877 0.054999884 -0.024067905 -0.05046183
000330 b4 5d e8 bf cb 90 e7 bb 6d c2 35 bf 7d d0 83 3c
       -1.8153596 -0.007066821 -0.70999795 0.016090626
000340 c1 76 3a 3d f7 20 ab bb 24 ae 3d bf 88 15 9a 3d
       0.04552341 -0.0052224356 -0.7409384 0.07523638
000350 89 23 69 bf fe 72 b0 bd df b3 94 bf e6 e0 90 3b
       -0.9106985 -0.08615683 -1.1617392 0.0044213412
000360 49 e0 60 bf 77 0c 99 3d 1c 74 67 bf 45 25 05 bb
       -0.8784223 0.074730806 -0.90411544 -0.0020316404
000370 fd 5d 01 bf a4 4f 85 bf 49 cd c7 bc 66 28 f6 be
       -0.5053404 -1.0414929 -0.02438988 -0.48077697
000380 cf b4 57 3d 33 cb 96 3b 10 94 3c bf 2c 71 81 bf
       0.052662667 0.00460186 -0.73663425 -1.0112662
000390 3a 67 2c bf b0 c5 08 3d 6e 20 99 bf d0 5c 7e bf
       -0.6734501 0.033391654 -1.1963022 -0.9936037
0003a0 c4 1d 16 3c 82 98 85 bd 43 9f 6e 3c c5 9f 4a bf
       0.00916237 -0.06523229 0.014564338 -0.7915004
0003b0 d3 e1 37 bf d0 c5 36 bb ca 9e 7f bb 4a fd a4 bc
       -0.71828955 -0.0027888902 -0.0039004558 -0.020140309
0003c0 69 7e 5f bf d3 23 65 be 43 f2 03 bf cb 31 6c bf
       -0.8730226 -0.22376947 -0.5154154 -0.9226348
0003d0 6b fd 26 bf 91 3e da be 6f dc 8b 3d d4 32 42 bf
       -0.65230435 -0.4262586 0.06829154 -0.7585881
0003e0 5a 47 7c bc 4d 28 fc bf 18 67 21 bf ac 89 b8 bf
       -0.015397871 -1.9699799 -0.63047934 -1.4417014
0003f0 6e 37 22 bf e0 84 77 bf 41 88 36 bc 40 23 4e bf
       -0.6336583 -0.96687126 -0.011140884 -0.8052254

layers.5.bias f4 [3]
000000 a6 0e d0 bd b0 a4 0a c0 2d 8b 15 3e
       -0.10159044 -2.1663017 0.14603873
