model_zoo/GAIL/MountainCarContinuous-v0/actor_6705216.pth (torch, 137536 bytes, 7 tensors)

layers.0.weight f4 [128, 2]
00000000: 7f69 f03e 9c6f 07bf 0b88 11bf 00a8 813e
00000010: 0b58 323e 3dc8 b5bf 9358 413e 86d7 f23f
00000020: d6a0 e6bd 88ae edbf 77f3 5f3e 512e abbe
00000030: 88e4 9c3d 08ea 3cbf d179 9d3d db7c 743f
00000040: e03a 313f b60a 22bf 7c52 a3be 0d9c e6be
00000050: 0518 32bf 220c 28bf c417 053f be7b 82bf
00000060: 5cf0 7d3c 118b a03f 3091 4dbe 22fa 743f
00000070: 715e 1d3d da7f e0bf f005 c2be 0099 90be
00000080: 6eed 0f3f 68da cdbf 4015 743e 606d 1240
00000090: b9e2 163f 1bc7 293f ad33 e33e 4259 fdbe
000000a0: b956 193e b868 0d40 5c24 503e 1f29 613f
000000b0: de01 4f3e ca02 b1bf fbd2 0dbf e367 273f
000000c0: c6d2 acbd 021e f2bf 27e3 923e df8c 95bf
000000d0: 0636 d0be 4c3a 113f 1ea5 1fbe fb6d 09c0
000000e0: 9d0d 0f3e 5d11 36bf 7643 32bb f807 df3f
000000f0: fffd cfbe 7a8b 56bf 072e 9c3e 7eaa 01bf
00000100: 3fc5 17be 39e9 a3bf 0207 83bd c026 acbf
00000110: ec13 0f3f 85d7 4f3f a10c 2b3f 5fcf 96bf
00000120: 9134 39bc 061a d8bf 1210 6cbe 6175 853f
00000130: 262a 0abd 3155 2f3f 1ccf 9abe 7373 ddbd
00000140: 7715 513f 569b 303f 2596 0b3f bcf0 3cbf
00000150: 4cbe 623d 7a05 d6bf 471f 9fbc 87a2 c6bf
00000160: 8169 c33e 5bba a83d 94c6 b43e da2d 393f
00000170: 74db acbe 80b8 f73f 16aa 3c3e afcf f63f
00000180: b08e 4d3e 98cd bbbf 50ab 313d c331 c0be
00000190: ff38 063e 6e55 ecbf 914c e13d caf3 0340
000001a0: acab c43e 18b6 9b3f b8ad e1bc e115 c73f
000001b0: a99a b3be be5a d53f a333 1a3d f31c 5d3f
000001c0: d03f 4e3e 7a1d b63f 9af3 b93e 4ed6 00c0
000001d0: 93d2 4c3e fe50 aebf 4db5 ff3e c132 bf3e
000001e0: f7b4 12bf c3bb 163e bf55 02bf 1816 023f
000001f0: 124b c4be 47e3 723f ec8d 0dbf 4e30 2d3f
00000200: 1298 ed3e 49fa a03f ebb8 a73d 305e aebe
00000210: bb7b cebb 3127 4e3f a5e7 e9be 465c 3fbf
00000220: effb db3d dc8a e53e a1e6 073f 8c0e 463f
00000230: c2e3 bcbd 8cdd 0bc0 d2bf e3bd 73cb b13f
00000240: 9440 883d 6afe dcbf 53eb 983e 81dd 00c0
00000250: 5dd1 1a3f 11ad 24be cc40 113f 1f1f 95bf
00000260: 8a42 903e 00c6 763d 4c79 e33e 206d 433f
00000270: 4a4e bf3d 0fcc 173f 7425 543c 11d6 0840
00000280: 6dd0 193e 19ef edbf f0d0 8f3e 26f5 2abf
00000290: c771 3cbf f527 683e 4975 16be a715 50bf
000002a0: 11f7 91be 921e ab3f 524f 91bd e618 8bbf
000002b0: 3107 7d3d cc19 853f 407f 02bb 0aae 983f
000002c0: 9c19 a4bd 162d 603e 9a5c 34bf 01f6 10bf
000002d0: 0736 3f3e 3594 a13f 30d1 173f 7b97 903e
000002e0: ee8a 363f 2697 24bf c0a2 cf3d 5002 433f
000002f0: f06c 943e 0e08 be3f 2642 89bc 9675 0ac0
00000300: 42f2 9c3d 672d d63f b424 ba3e 8d7b c8bf
00000310: fb7e b3bd 1ac7 743f 4f8a ab3e d2c9 a6bf
00000320: 6d0c ff3c 9019 af3f 7cfb 3d3e 9643 bfbe
00000330: d7e1 c13e 5ccf 92be 9189 8a3e 8c35 88be
00000340: 7372 e53e ba56 27bf 52e5 14bd 1e34 6a3e
00000350: 4e4d 213e d7fb c63f 04b6 b03e 8a06 71bf
00000360: 5a0f f83e 8e0f a83f 75fa 023d 246d cdbf
00000370: 5ddf ccbd 2815 8f3f e581 c1be 93f0 3ebf
00000380: 11e2 343f 76da 6d3e 59fb a03d d3be 99be
00000390: d2b1 cfbe a761 15bf b387 1e3f 487c 233f
000003a0: 04f8 69be 0158 5b3f 5052 143f 0868 b2be
000003b0: 675d 14bf 02d3 9e3f a945 40bf d9c4 7fbe
000003c0: b635 66be 693d 8bbf e218 8e3e ab31 46be
000003d0: e325 d0be 2609 ca3d ddad 703e fef5 17be
000003e0: b91e a0be 169f e53f 2d88 99be f8fc 13bf
000003f0: ab66 1ebf d751 7cbe b009 64be 7651 493f
0.46955487 -0.5290468 -0.5684821 0.25323486 0.17416398 -1.4201733 0.18881445 1.8972023
-0.11261146 -1.8568888 0.21870218 -0.33433774 0.076607764 -0.73794603 0.0768925 0.95503014
0.6923046 -0.63297594 -0.31898868 -0.45040932 -0.695679 -0.65643513 0.5198939 -1.0194013
0.015499201 1.254244 -0.20074916 0.9569417 0.038420144 -1.7539017 -0.37895155 -0.2824173
0.56221664 -1.6082277 0.23836231 2.2879257 0.589397 0.66319436 0.44375363 -0.4948216
0.14974488 2.2095165 0.2032637 0.8795337 0.20215556 -1.3828976 -0.55400056 0.65392894
-0.08438639 -1.8915408 0.28688928 -1.1683615 -0.40666217 0.5672958 -0.15590331 -2.1473377
0.13970037 -0.71120244 -0.0027200854 1.7424307 -0.4062347 -0.83806574 0.30503866 -0.50650775
-0.14821337 -1.2805549 -0.06397821 -1.3449326 0.55889773 0.8118823 0.66816145 -1.1782035
-0.011304037 -1.6882942 -0.23053005 1.0426446 -0.033731602 0.68489367 -0.30236137 -0.10813036
0.8167338 0.68987024 0.5452598 -0.7380483 0.055357262 -1.6720421 -0.019424094 -1.551835
0.3816643 0.082386695 0.35307753 0.7233559 -0.3376118 1.935318 0.18424258 1.928213
0.20073962 -1.4672117 0.043376267 -0.37537965 0.1310768 -1.8463571 0.11000932 2.0617547
0.38412225 1.2164946 -0.027548656 1.5553552 -0.35078934 1.6668317 0.0376469 0.863723
0.2014153 1.4227746 0.36318666 -2.0130801 0.20002203 -1.3618467 0.4994301 0.3734341
-0.5730738 0.14720063 -0.5091209 0.5081496 -0.38338524 0.9487805 -0.5529468 0.6765183
0.46405083 1.2576381 0.08189567 -0.34056234 -0.006301371 0.8052855 -0.45684543 -0.74750173
0.10741412 0.44832504 0.53086287 0.77365947 -0.09223129 -2.1853971 -0.11120571 1.3890213
0.06652942 -1.7265141 0.29867038 -2.0135195 0.60475713 -0.16081645 0.567395 -1.1650122
0.28175765 0.06024742 0.4442848 0.76338387 0.09341104 0.59295744 0.012948383 2.1380656
0.15020914 -1.8588592 0.28089094 -0.66780317 -0.7361111 0.22671492 -0.14693178 -0.8128304
-0.2850881 1.3368704 -0.07095207 -1.0866973 0.061774436 1.0398498 -0.0019912273 1.1928113
-0.08012697 0.21892199 -0.704538 -0.5662537 0.18672954 1.2623354 0.5930357 0.2824057
0.7130574 -0.64293134 0.10138464 0.76175404 0.28989363 1.4846208 -0.016755175 -2.1634269
0.076633945 1.6732606 0.36356127 -1.5662705 -0.08764454 0.95616305 0.3350396 -1.3030341
0.031133855 1.3679676 0.18552965 -0.3735625 0.37867615 -0.28673828 0.2705808 -0.26603353
0.4481388 -0.6536671 -0.03635151 0.22871444 0.15752146 1.5545605 0.34513867 -0.941506
0.48449212 1.3129747 0.031977136 -1.6048932 -0.10003541 1.1178331 -0.37794414 -0.7458584
0.7065745 0.23227867 0.07860441 -0.300284 -0.40565354 -0.5835213 0.6192581 0.63861513
-0.22848517 0.8568116 0.579381 -0.34844995 -0.5795502 1.2408144 -0.7510629 -0.24977435
-0.22481427 -1.0878116 0.2775336 -0.19354884 -0.40653905 0.09865026 0.23503824 -0.14839932
-0.3127344 1.7939174 -0.29986706 -0.57807875 -0.6187541 -0.24640594 -0.2226932 0.78639925

layers.0.bias f4 [128]
00000000: 0059 023f 147e 04be 9aea c8bd ac5c a73e
00000010: 5115 e03d d441 b43e d2ed b2bd 34fa 103e
00000020: e1bf 003f 69a7 26be c823 c0be fd16 fe3e
00000030: 09a3 a5be fd43 a6be 2af6 bebd d200 babe
00000040: 9848 773d 1690 223d 6f77 7c3e 3eb1 ea3e
00000050: 4a97 8bba 4a2b 8c3e 42ad 193f 0715 babe
00000060: 023f 203d 4987 943d f802 bbbe 8507 0dbe
00000070: 1718 953e 95ff 35be eac4 cebe 7b7b ed3e
00000080: f63b 1abd abe4 413e 53ff 023e c500 1e3f
00000090: ab92 2a3e 9bb6 09bd 9379 d6bd 8306 39be
000000a0: 06b5 353f c439 fb3e d936 383e ad5a 363e
000000b0: d787 c03e 3459 ad3e e85f 213e 7cce 90bc
000000c0: bedc 8c3e 789e 8abd df30 913d 5667 51be
000000d0: d433 b53e a711 76be 01ac 263e a54a 033e
000000e0: a435 e83d cae8 08be cfb6 a03e 624a ae3e
000000f0: 43f1 c2be dd03 ebbe adb9 37be 5676 c6bd
00000100: 2487 2d3e d21b 49bd 4595 bbbd c982 d5be
00000110: c899 53be ca2b 063f 5742 2d3e e191 f83c
00000120: 821c 933e 1fb6 91be 1d30 2f3f a9c5 c13e
00000130: 100f 3bbd dc9a a03d 7e13 f1bd 65c6 1b3e
00000140: 2f77 72be 9c86 d13e 2caa 02bf 9370 fabd
00000150: e06e fdbe a9ba 24be bf6d c7be 36ea 9c3d
00000160: bce4 81be 61a2 ccbe dd38 a2ba c9f7 693e
00000170: 7003 bf3e 685f 72bd 690c 94bd 567b e2bd
00000180: 21a2 40be 0bbf 833e 44e3 f8bd dbb2 9c3d
00000190: 6091 5e3d 009b ea3e 9cbd 0f3e 5ae8 273e
000001a0: 0e22 0e3f 028a c33d ebc1 b13d f7f8 9e3e
000001b0: e614 cb3e be9e 88bd c465 9fbe ca42 0bbf
000001c0: f10f d13e 9aed 8c3e 96a1 a9be 73ea 113f
000001d0: 3660 4abc cb36 b43e 9f60 55be 28c8 2cbf
000001e0: 5426 c6be e29b 4e3e 93b5 99be e013 853e
000001f0: bcd3 77bd 1646 b63e bd9b 13bf ee48 aabe
0.50917053 -0.1293872 -0.09810372 0.3268789 0.10941566 0.35206473 -0.08736767 0.14157945
0.50292784 -0.162748 -0.375273 0.49626914 -0.32350948 -0.32473746 -0.09324296 -0.3632875
0.060371965 0.039688192 0.24654935 0.4583835 -0.0010649946 0.27376777 0.60029995 -0.36344168
0.03912259 0.07252366 -0.36525702 -0.137724 0.29119942 -0.17773278 -0.40384609 0.4638327
-0.03765484 0.18934886 0.12792711 0.61719924 0.16657512 -0.03362141 -0.10472407 -0.1806889
0.70979345 0.4906751 0.17989673 0.17808028 0.37603638 0.3385712 0.15759242 -0.017676584
0.27512163 -0.06768507 0.070893995 -0.20449576 0.35391104 -0.24030171 0.16276552 0.12821443
0.11338356 -0.13370052 0.31389472 0.34041125 -0.38074693 -0.45901385 -0.17941923 -0.096905395
0.16946083 -0.049098797 -0.0915933 -0.41701344 -0.20664132 0.52410567 0.16919838 0.030342998
0.28732687 -0.2845926 0.6843279 0.37846115 -0.04566866 0.07842037 -0.11771296 0.152124
-0.23678277 0.4092301 -0.5104091 -0.12228503 -0.49498653 -0.1608683 -0.38950917 0.0766186
-0.25369823 -0.39967635 -0.0012376566 0.22848429 0.3730731 -0.059173018 -0.072289295 -0.11058681
-0.18811847 0.25731692 -0.121527225 0.076513015 0.05433786 0.4582138 0.14037174 0.16397229
0.55520713 0.09547807 0.08679565 0.3104932 0.39664382 -0.06670903 -0.3113233 -0.5439879
0.40832475 0.27525026 -0.33131093 0.56998366 -0.01235204 0.35198054 -0.2083764 -0.67492914
-0.38701117 0.20176652 -0.30021343 0.25991726 -0.06050466 0.35600346 -0.5765951 -0.33258766

layers.1.weight f4 [128, 128]
00000000: 0a8f 23bc c443 0b3e e441 923b 4c93 aa3d
00000010: 15df 19bf 63cf 22bd f26b e9bd 0953 6d3d
00000020: 7f17 43be 07f8 1ebd cfb2 003c 2080 14be
00000030: 60d1 c53d 4873 3d3e f6e6 86be 313e 00bc
00000040: 4842 13be 9c12 883e cbbf 3bbd afa9 4cbc
00000050: 1353 763e 9d2c 6b3d 6100 05bd 22f0 903d
00000060: 4912 1ebf 6409 3dbe 4026 7e3d 7940 eabe
00000070: 6768 d6bd 29bf 413e 06e3 3cbb 974f d9bd
00000080: ae7a 9abd 3ff2 bcbd 4730 13bd 1f84 8fbd
00000090: 3ebf f1bd 4aac b93e 374e 263e 0c16 703d
000000a0: 306d 5a3d 6e1b a9bd 0a9d d4be 1c86 a1be
000000b0: 1d8a 7bbd 04c2 473d 4420 c13c b572 553d
000000c0: 2429 d9be a883 a1bd ed68 b7be b455 303f
000000d0: e6cd 233e ff67 333e c292 803d e7f5 0c3e
000000e0: ac27 923d 47ce 07be 8c07 71be 26e8 9cbd
000000f0: b8c4 203e c89c e23d 943d 373e 6669 153b
00000100: a3d3 99bc 0cea f4bd 3f5e 823d 87d0 96bd
00000110: 847e 58bd 726e 71bb 52aa 41bf 48a6 663e
00000120: 72b6 9cbe 6128 903c 8625 edba 3582 3abe
00000130: f18a 683d 4091 6cbc 871c 903d af67 a83e
00000140: 0e08 bbbd 6aa0 7bbd b163 66ba 38ef f1bd
00000150: 408e aa3b 8d22 babd 626e b13a 3773 e73d
00000160: fe0a 3d3d db66 823b ae3f 093d 4b1d 2dbd
00000170: 25c0 c7bd c0a7 033e 4dd5 f73c e26c f4be
00000180: f51a 4c3e 17cf 93be 6acb bd3d d438 19be
00000190: ecc7 b23d 2b4b 0fbd b58b e9bd 3f0f 2fbd
000001a0: fab0 69bd 18cd 5bbd d6e6 173e 9206 94be
000001b0: 99b2 883d 36fc 38be 45ee 96bb ad30 d7bd
000001c0: 9788 493d 083e 6b3d bea0 c2bd a090 e53d
000001d0: a6e2 033e 8c2b a0bd 1b62 133e 6792 c43c
000001e0: 5106 c33c 9d63 6bbd 416d 1c3d 32eb 39be
000001f0: 8411 753e 8513 69bd b5b3 b1bd 0bef c63d
00000200: 3803 9d3e c58e 5cbd 071d e2bd c3c4 363e
00000210: fb70 943c 6ede 813d 5785 adbd 383b b83c
00000220: cf5c 0d3f 7a3f 283d 21f6 febd 9a39 283f
00000230: a22d 28be 21ed d7bd 8965 88bd a488 25bf
00000240: dfde 8abd 2e8e 44bd 061f e83d 140c 963e
00000250: 45e7 9fbd 295c 353e 8a06 1e3e b3d8 b3be
00000260: f08b 03bc 15fa fbbd 8ca9 40bf b103 423d
00000270: 6bba cf3d 580c b4bd ddfb 27bf dfd6 e23d
00000280: 3dcd 0c3d f5d5 933d a1f6 0a3d 3201 253f
00000290: eb46 243e 6772 d43d cd04 1fbd ddf3 94bc
000002a0: d4fd 3a3f 75b9 4f3f 8966 333c cc21 ff3d
000002b0: 32bf 563f 4bc8 113f 3aa6 273e e500 72bd
000002c0: 19ea cf3e 216e e4bc 94ca b83d 46da eebd
000002d0: db37 053f abea 06be 963e 863c 1800 92ba
000002e0: b163 2dbd e4a2 f2bc c2c5 983e 467e 9b3e
000002f0: 4db8 b6be ee0e 60bf 3c23 2c3c 7453 bd3c
00000300: 7b8d cd3a 508c 15bb 08f1 0ebe 2830 29bf
00000310: 555a cebd 80d3 233f 8cd8 453e 7d37 ef3c
00000320: 440a 3b3e 8468 ddbc b0ed 5b3e 48e6 ab3e
00000330: f673 dcbc 7032 5ebd f595 d7bd cb83 543e
00000340: f31f 0bbd d13f a13d 4558 0abf ab94 22bc
00000350: 69ce 28be 12e6 04be 338d 08be ffb2 e63d
00000360: 8ea7 9abd 90b1 5fbe ce13 98bb fcc7 083e
00000370: 5e8f 713e b9f3 8cbd 59ac e4bd 5e41 7fbd
00000380: 4057 bebc f462 ed3d 20db e7bd cd2d 88bd
00000390: 1746 1b3d 53fc e63d 6212 87bd 41ce 313d
000003a0: 9d6a 893e 0979 d73d bef2 a83d a9bb 2f3f
000003b0: b897 a63e 7c56 0fbd a4d5 21bd fe32 75be
000003c0: 8045 023e a35d df3b 8641 b5be aa87 423f
000003d0: 8646 863d ff4c 263e 6e03 943d 6454 2ebf
000003e0: 8dee 33be 0995 1d3c d64d 83be 04ba 123f
000003f0: 45db 323c 9726 083e 014a 42bf db8c 77be
-0.009982834 0.1360007 0.004463421 0.08328876 -0.6010602 -0.03974856 -0.11397542 0.057940517
-0.19051932 -0.038810756 0.007855131 -0.14502001 0.09659076 0.18501008 -0.26348084 -0.007827328
-0.14380753 0.26576698 -0.045837205 -0.012491628 0.24055128 0.057415593 -0.032471064 0.07077052
-0.6174665 -0.18460613 0.062048197 -0.45752314 -0.10469132 0.18920578 -0.002882184 -0.10610884
-0.075429305 -0.09225892 -0.035934713 -0.07007622 -0.11804055 0.3626426 0.16240774 0.058614776
0.053326786 -0.08257185 -0.4152606 -0.3154763 -0.061411012 0.048769012 0.023574956 0.052111346
-0.424142 -0.078864396 -0.3582224 0.6888077 0.15996513 0.1752014 0.06277992 0.1376568
0.07136473 -0.13262282 -0.23538035 -0.07661466 0.15700042 0.1106506 0.17894584 0.0022798418
-0.018777674 -0.119587034 0.06365632 -0.07363992 -0.05285503 -0.0036839512 -0.75650513 0.22524369
-0.30607945 0.01759738 -0.0018092848 -0.18213733 0.05677313 -0.014438927 0.07036691 0.32891604
-0.09132396 -0.06143228 -0.0008788659 -0.118132055 0.005204946 -0.09088621 0.0013536925 0.11301272
0.04615306 0.0039795465 0.033507995 -0.042264264 -0.097534455 0.1285696 0.030253077 -0.4773932
0.19932158 -0.28868935 0.09267314 -0.14963084 0.08729538 -0.034983795 -0.114036 -0.04273915
-0.057053544 -0.05366239 0.1483415 -0.28911263 0.0667469 -0.18064961 -0.0046060407 -0.10507331
0.049202528 0.057432204 -0.095033154 0.11209226 0.12879428 -0.07820806 0.14392893 0.023995591
0.023806723 -0.057468046 0.03819013 -0.18156126 0.23932463 -0.05690338 -0.086768545 0.097135626
0.30666518 -0.053847093 -0.11040693 0.17848496 0.01812028 0.06341253 -0.08472698 0.022489175
0.5521974 0.04107616 -0.12449289 0.65712893 -0.16423658 -0.105432756 -0.06659991 -0.6466162
-0.067807905 -0.047987156 0.11334042 0.2930609 -0.07807783 0.17710938 0.15432182 -0.35126266
-0.008028969 -0.12303559 -0.7525871 0.0473668 0.10142978 -0.08791417 -0.6561869 0.1107614
0.034375418 0.072185434 0.03392661 0.6445495 0.16042678 0.10373383 -0.038822938 -0.01818269
0.7304356 0.8114236 0.010949739 0.12457618 0.8388549 0.5694625 0.16372004 -0.059082884
0.4060829 -0.027884545 0.09023014 -0.11662726 0.52038354 -0.13175456 0.016387265 -0.0011138944
-0.0423314 -0.029618688 0.29838377 0.30369776 -0.35687485 -0.8752278 0.010506447 0.023111083
0.0015682423 -0.0022819228 -0.13959134 -0.66089106 -0.10075823 0.639946 0.19320887 0.029201264
0.18265635 -0.027027376 0.2147739 0.33574128 -0.026910763 -0.05424732 -0.10526649 0.207534
-0.033966016 0.078735 -0.5404094 -0.0099231405 -0.16484989 -0.1297839 -0.13335113 0.112646095
-0.0755149 -0.21845078 -0.004641033 0.13357538 0.23589846 -0.06882424 -0.11165685 -0.0623182
-0.023234963 0.115911394 -0.11321092 -0.06649361 0.03790864 0.11278596 -0.06595303 0.04340959
0.26839152 0.105211325 0.082494244 0.6864572 0.32537627 -0.034994587 -0.039510384 -0.23945233
0.12721825 0.0068165823 -0.35401553 0.75988257 0.0655642 0.16240309 0.07227217 -0.6809752
-0.17571469 0.009618052 -0.25645322 0.5731509 0.010916536 0.13295971 -0.7589417 -0.24174826

layers.1.bias f4 [128]
00000000: 50cb 47bd 7448 b33d 93cc eb3d a54b 40bd
00000010: 8a33 943c 79a6 833d 0433 30be da0d 283d
00000020: 2ea9 02be 076b cd3d f8a5 b2be 10de 30be
00000030: 102d 113e 945f 4dbe 938b b23d ae91 b1bd
00000040: a65c 293c 93cc ccbd 94cd e53e 151d ebbd
00000050: ddf1 0cbd 2ff8 0abe dc04 d4bd 1b2f c93c
00000060: 0194 f8bc 2a11 0ebd aa8d 2dbd 678c ecbd
00000070: fdba 273d d138 90bd 0245 8cbc ae77 643e
00000080: bcef 57be 1ee6 f53d 048a 47be 51d6 803d
00000090: 805d 25be f759 463e 97e2 173e f2f7 213e
000000a0: af5b c13d b1a3 1dbe 8973 2f3d 9352 34be
000000b0: af53 d0bb f6f9 3e3e 1e5a e93c 0fdb aebd
000000c0: 456b 59be 24ce 8abd e284 04be 64ea 38be
000000d0: f88e a7be 2076 b23e 5e40 81bc dbcf 433e
000000e0: c07d b2bd 8707 4ebd 08a7 573d 409e a13d
000000f0: 8428 72bd 1174 aa3e 2db7 903d a0c1 7bbd
00000100: 95d6 ac3e ff59 e1bd 0a37 98bc c872 58be
00000110: fdf0 9bbd 1eb7 41be d85d a7be 9bc4 4c3e
00000120: c7fd ea3d 97a1 a93d 3520 acbd 0c34 9dbe
00000130: 8cad 84be 3854 643e d0a5 cc3d 3b3e 45be
00000140: 88bd 83bc 5765 88bc ba2a 28be cce7 9e3c
00000150: 0cb7 b23d b238 bb3e 9937 3d3e dfa8 10be
00000160: 059c ff3d b28e 003c 484c a13d a1da 173e
00000170: 1507 3fbd a4a6 1b3e 1c43 c3bd 88a7 a53d
00000180: 8c30 2c3e f48f 05be da98 b43e 2904 49be
00000190: d07a 603d ef95 b83d 9a64 21be 4031 10be
000001a0: 04f2 843e 0b03 513e d332 24bb 596b f63d
000001b0: 2f6b 293e 50e5 db3d 4dbc 423e 0ba4 84bc
000001c0: 9739 b13e 21a1 133e 602b 01be ab70 153e
000001d0: c61c 07bd c48d 9dbb acb1 313e 6d8a 99bd
000001e0: d150 aebe cd41 983d 334a 25bd 614e 183e
000001f0: a9ea 54be c9e5 1fbe afce 993c 28a0 5e3e
-0.04877788 0.08754054 0.11513629 -0.04694714 0.018090982 0.064282365 -0.17206961 0.041028835
-0.1275985 0.100301795 -0.3489225 -0.1727221 0.14177346 -0.20055991 0.08718028 -0.08670364
0.0103370305 -0.09999957 0.44883406 -0.11480156 -0.034410346 -0.13571237 -0.10352489 0.024558594
-0.030344011 -0.034684338 -0.04237143 -0.11550217 0.04094981 -0.07042087 -0.01712275 0.22311279
-0.21087545 0.12006782 -0.19486243 0.062908776 -0.16148949 0.19370256 0.14832531 0.1581724
0.094413154 -0.15394475 0.042834792 -0.17609625 -0.006357632 0.1865004 0.028485354 -0.08537876
-0.21232326 -0.067775995 -0.12941316 -0.18058163 -0.32726264 0.34855747 -0.015777763 0.1912226
-0.08715391 -0.050300147 0.052649528 0.07891512 -0.05912067 0.33291677 0.07066188 -0.061463952
0.33757463 -0.110034935 -0.018580932 -0.21137536 -0.07614324 -0.1891751 -0.32688785 0.19996874
0.114741854 0.08282774 -0.084045805 -0.3070377 -0.25913656 0.22297752 0.09992564 -0.1926202
-0.016081586 -0.016649885 -0.16422549 0.019397639 0.0872632 0.36566693 0.1847824 -0.14126919
0.1248093 0.007846521 0.078758776 0.14829494 -0.046637613 0.15200287 -0.095342845 0.08088595
0.16815394 -0.13043195 0.35272866 -0.19630493 0.054804623 0.090129726 -0.15761033 -0.14081287
0.25965893 0.20411317 -0.0025054708 0.12032194 0.16544794 0.10737097 0.19017144 -0.016191503
0.3461425 0.14416935 -0.12614202 0.1459376 -0.032986425 -0.0048081595 0.17352933 -0.07497106
-0.34046033 0.074344255 -0.040353965 0.14873649 -0.20792641 -0.15615 0.018775312 0.21740782

layers.3.weight f4 [128, 128]
00000000: a4df 7cbe e836 123e 0b92 02be 5322 2d3c
00000010: 1ae9 d93d c1d5 d83d 1306 66be 87ac 0abe
00000020: 305d 13be 9d16 8e3e ce83 abbd 2cd7 17be
00000030: 3621 413e 8a79 e1bd f1d7 263d 8f98 323d
00000040: 43f1 65bd 9eef 10be bdc4 1e3c a5a9 07be
00000050: 68af 8bbd 98c4 2ebd 7e43 2ebe 13a0 6c3e
00000060: 60bf 0f3e ea73 853c 8875 0cbe 46c7 a33c
00000070: 2072 273e 4e88 c3bc a038 b53c 5897 833d
00000080: d39d a2be ec7a 523b e54a c43d de9c 123d
00000090: f23f a6bd 4e95 97bc 66d8 10be 8155 aa3d
000000a0: 6d74 57bc aee8 b2bd 02ab 073e 1f29 2c3e
000000b0: f98e da3d 8077 693d aeb4 8dbe 34c7 493e
000000c0: 4423 88bd fff8 c03c 964b a33c b0a0 e6bd
000000d0: 8750 1cbe 9e46 b23d c742 eabc c576 94bb
000000e0: 5514 d6bd f11f 0f3e 561a d93c d94b b1bc
000000f0: d239 863e 5726 3a3d 7740 203d 3c4c 773d
00000100: 9caa 693d 2121 f53d e8c9 ab3b 462c b73d
00000110: dd89 14bd cc90 f3bd 78dc bcbd 7d2f 523d
00000120: c98e 2f3e 28bb 313e 0ec5 23be 844e 03be
00000130: 6fd6 01be 3af9 28be 628c bcbd b271 a1bd
00000140: 58d8 7abe 62b2 debd 0679 1abd 09b5 01be
00000150: ac2a 153e 259f e73d 128d 583b f01b 2b3e
00000160: 2946 db3d 6521 9e3e 4826 fc3c 99e9 183e
00000170: 593c 8ebe 815c 73be c39e 49bd 7f0d dbbd
00000180: 041b 97bd ac6e d4bd d0cb 113e 9def 90be
00000190: 15bd f0bd bd62 32be 4eb7 92be a633 26be
000001a0: 148e 833d bfd4 b13d 1b71 d33d 584f 603e
000001b0: 8066 fa3d 99e9 3e3e ddac 823e 3025 293e
000001c0: edc0 213e a169 5abc 7014 63bd 2e71 823e
000001d0: 8881 6fbe 77b0 64be 210b 2cbe 8c36 07be
000001e0: c70c 03bd aec7 a93c fd71 adbc 711f fcbc
000001f0: 99c3 aebd dc3e de3d db14 00be 4e1e 0e3e
00000200: e473 0b3e 6618 e6bb 5f7f 463d f0e5 bebd
00000210: b42a 04be 65cc 823c 7218 643e f565 a43d
00000220: 5113 473d 2132 bebd f218 333d d2f4 f8ba
00000230: 8237 09be 5510 5c3d c404 f1bb d0a8 a1bd
00000240: 6e38 abbd f0db 493e b040 a1bd d1b2 ee3d
00000250: 9ee0 033e e28e 06bc c8fc ed3d 4502 3abe
00000260: 9ffd 493c af3f aa3c a2c7 c9bb cc50 ecbd
00000270: 2a33 ec3c 73dd 61bd 15cb 793c 80cf 94bd
00000280: 23bf 2e3e bbae 0abe da80 05be c929 0d3c
00000290: ad2e 733d 171c 32bd 146b ee3c a6fc 0cbd
000002a0: 0f29 8b3d 26ca 7b3d b35b 5abd 799d 1cbd
000002b0: eb5a 05be 8727 8ebd 8e09 993d 4440 4abb
000002c0: 87be 343d fd0c 3d3e abb1 4c3d bd04 f9bb
000002d0: 3c62 4b3e 3bd3 abbd 5437 ce3d 7150 41bd
000002e0: bf03 6a3d 26c1 cebc f6f2 ec3d 0b60 533d
000002f0: 5ade ffbd 3138 d9bd 2ae3 f4bd 082f e2bd
00000300: 9793 c7bd 3e31 1abd 6fe4 283e 8047 7e3d
00000310: 5e64 8d3d 03b1 cfbc 3267 5b3d 949e f6bd
00000320: 4869 c6bd 4339 48bd 3ac7 243e bb2e 1d3e
00000330: ca27 413e 57c6 a33d 9a5c 013d 3ef6 d73d
00000340: 58ec 6c3d c179 ac3d 6c3c 11bd 5cc4 e53d
00000350: da16 0dbe 2dfa 1dbe 9ed0 bd3d e65c 15be
00000360: 0c3e 10be 8a43 1bbe b17a 313d 529e 08be
00000370: 220c 3c3e fd0c c0bc 1cdf 0c3c e584 76bd
00000380: 40d0 8fbd 7d86 493e 67a7 c5bd 79d0 213e
00000390: 8f74 b23b 4efb a93c d5b0 383e 70d7 313e
000003a0: ca14 423d 6320 16be 23c2 0bbc 7066 c1bd
000003b0: fb49 86bd 4d42 ffbd dfe0 d7bd d989 22bd
000003c0: 98a4 48be 3738 813d e18f 9bbd ba4c 2abe
000003d0: 843b f43d 85f0 1f3e 3aee a53c 3904 a2bc
000003e0: 932f 233b 9343 4a3d 28f6 dcbc 8d0f debc
000003f0: 1881 77bd 461f 33bd 5965 c73d 06ae 60bd
-0.24694687 0.14278758 -0.12751023 0.010567266 0.10640164 0.10587645 -0.22463255 -0.13542376
-0.14391017 0.27751628 -0.08374749 -0.14828175 0.18860325 -0.1100951 0.04073328 0.043602522
-0.05613829 -0.14153907 0.009690461 -0.13248308 -0.068205655 -0.042667955 -0.17017934 0.23107938
0.14037848 0.016290624 -0.1371671 0.019992482 0.16352129 -0.023868706 0.022121727 0.06425351
-0.31761035 0.0032116724 0.095845975 0.03579413 -0.08117665 -0.018503811 -0.1414505 0.0831709
-0.013150317 -0.087357864 0.13248828 0.16812561 0.10671801 0.05699873 -0.2767691 0.19704896
-0.066473514 0.02355623 0.019933503 -0.112611175 -0.15265094 0.087048754 -0.028596295 -0.00453076
-0.10453097 0.13977028 0.026501816 -0.021642612 0.26215988 0.04544672 0.03912398 0.060375437
0.05704747 0.119692095 0.005242575 0.08943991 -0.03626429 -0.11892852 -0.092217386 0.05131482
0.17144312 0.1735655 -0.15993139 -0.1282292 -0.12679456 -0.16501322 -0.092064634 -0.07883014
-0.24496591 -0.108738676 -0.037713073 -0.12666716 0.1456706 0.11309651 0.0033043069 0.16709876
0.10706741 0.30884853 0.030779973 0.1493286 -0.27780417 -0.23765756 -0.049223673 -0.106959336
-0.073782 -0.103726715 0.14237905 -0.2830781 -0.117548145 -0.17420478 -0.28655475 -0.1623064
0.064235836 0.08683156 0.103243075 0.21905267 0.122265816 0.18643798 0.2552251 0.16518092
0.15796252 -0.013330848 -0.055439413 0.25476974 -0.23389256 -0.22332941 -0.1680112 -0.13204402
-0.031994607 0.020725098 -0.021172518 -0.030776711 -0.08533401 0.10851833 -0.12507956 0.13878748
0.13618428 -0.0070219515 0.048461314 -0.09321201 -0.12906915 0.015966604 0.2227495 0.08027259
0.048602406 -0.09286905 0.04372496 -0.001899386 -0.13400081 0.053726513 -0.0073553044 -0.078935266
-0.083603725 0.19712806 -0.07873666 0.116552 0.12878653 -0.008212777 0.1162048 -0.18164928
0.012328534 0.02078232 -0.0061578313 -0.11538848 0.02883299 -0.05514283 0.015246172 -0.0726614
0.170651 -0.13543217 -0.13037434 0.008615919 0.059370685 -0.04348382 0.029103793 -0.03442063
0.06794941 0.06147208 -0.053310107 -0.038236115 -0.13022964 -0.06941133 0.074725255 -0.003086106
0.044127014 0.18461986 0.049974125 -0.007599442 0.19861692 -0.083898984 0.10069147 -0.047195856
0.05713248 -0.025238585 0.115697786 0.051605266 -0.12493582 -0.10606421 -0.119573906 -0.11044127
-0.097449474 -0.037644617 0.1649339 0.062079906 0.06903909 -0.02535296 0.05356521 -0.12041965
-0.096880496 -0.048882734 0.16091624 0.15349858 0.18862835 0.07996815 0.031582452 0.10545014
0.057842582 0.0842166 -0.035458013 0.11219093 -0.13778248 -0.15427466 0.09268306 -0.14586219
-0.14086169 -0.15162483 0.0433299 -0.13341644 0.18364003 -0.023443693 0.008598115 -0.06018533
-0.070221424 0.1968021 -0.0965107 0.15802182 0.005446024 0.020749714 0.18036206 0.17367339
0.047383107 -0.14660792 -0.0085301725 -0.094433665 -0.065570794 -0.12463818 -0.10540938 -0.039682243
-0.19594038 0.0630955 -0.07595802 -0.16630831 0.11925414 0.15619095 0.020255197 -0.019777404
0.0024900183 0.04938085 -0.026972845 -0.027107025 -0.060425848 -0.043730997 0.097361274 -0.05485346

layers.3.bias f4 [128]
00000000: a633 ef3d 7c6f 39be 9cb4 87bd be08 5d3c
00000010: c282 553e 1515 533d 5cd1 e9ba 8155 6abe
00000020: 4f7b c6be d2b9 933d 66ba 333e 6a5d 1abe
00000030: 2ddc a13e 6f41 fe3d 1cc9 dcbc 33e1 68be
00000040: 8280 7a3d 271a 17bc 8b8e b93e a118 40be
00000050: 6be2 c1be 5976 d9bd 99ad 46bd 4a2a ccbd
00000060: ce31 2abe 759a 373e aba8 60bd 3d7b 7f3e
00000070: 5660 8a3d ab40 d3be 769f 6c3d 5e63 cbbd
00000080: 4985 c8bd 1826 533e 28a8 30bd 1d15 d03d
00000090: 2147 eebd 6c40 f7bd f32e 743e daf8 11be
000000a0: c321 f2bd e1cd ccbe 7d24 6c3e ae93 a3bc
000000b0: b46c 983d 1791 10be 91a5 313e a1c3 e33c
000000c0: 042e c23e 71ed e33d 9dee b5be 1d95 5b3d
000000d0: 38e0 3cbd 8c87 27be 49f7 313e 46fe c2bd
000000e0: 79e8 75bd 8137 613e d4ef 6d3b 4367 8abd
000000f0: 722c 443e 2181 183d b0ba 0f3d 6c0a 143e
00000100: 73c0 ebbd b6d4 473d 4286 bbbd 54ba 86bd
00000110: 4781 a03e 8df9 d63b 7755 a93d 6578 f6bd
00000120: aacb 9f3d 90f9 313b c72c d6bd e5b1 1bbe
00000130: 8c3e 38be 52aa d13d a36c 873d e119 a8bd
00000140: 6266 7ebd fcfb f4bd 95ad 2b3e 5296 593e
00000150: a1ea 2ebe ae0a 00be 777c 27be 9530 d4bd
00000160: 4f99 0ebe bafc c6bd 11cd 22be 525f c4bc
00000170: c18d e2bd e1be 443d 86ae fdbd dc91 e13c
00000180: 2413 903d 00fe 58be 19a9 cdbd 1590 9e3d
00000190: 60a9 8f3d 9fca 88be 58fd 113e 6617 e0bc
000001a0: fdf5 87be 35a6 95bd 7e1f 403e 8c32 e23d
000001b0: 10d1 6fbd 7e51 fabc e339 f6bd 0b01 ae3e
000001c0: 8fb7 bbbc 0d3e bcbe e53f fd3d 8b59 39be
000001d0: 89ea e4bd b0dd c53c 7d02 22be 5c66 bebe
000001e0: 9ff7 94bc 91ae b93d 660b 7abd 35cc eb3d
000001f0: e4d3 29be bb34 713e 38cc 1fbe c792 c3bd
0.11679773 -0.18108934 -0.066262454 0.013490854 0.20850661 0.051533777 -0.0017838883 -0.2288418
-0.38765952 0.07213177 0.17551574 -0.15074697 0.31613293 0.12414824 -0.026951365 -0.22742157
0.06115771 -0.009222544 0.36241564 -0.18759395 -0.37868056 -0.10618276 -0.0485054 -0.099690035
-0.16620561 0.17930014 -0.054848354 0.24949355 0.06756656 -0.41260275 0.05776926 -0.09931062
-0.09791047 0.2062 -0.043129116 0.10160277 -0.116346605 -0.12072834 0.23846035 -0.14255086
-0.11822846 -0.40000823 0.23060794 -0.01996788 0.074426085 -0.14117847 0.17348315 0.027803244
0.37925732 0.11129273 -0.3553361 0.053609002 -0.04611227 -0.16360301 0.17379488 -0.09521155
-0.060036156 0.2199383 0.0036306279 -0.06757977 0.1915758 0.037232522 0.03509015 0.144571
-0.11511316 0.04878684 -0.09156467 -0.06578508 0.3134863 0.0065605105 0.08268254 -0.12034682
0.07802518 0.0027156807 -0.10457759 -0.1520458 -0.1799261 0.10237564 0.06612518 -0.08208061
-0.06210936 -0.11962125 0.16765435 0.21248749 -0.17081691 -0.12504074 -0.16356073 -0.10360829
-0.1392567 -0.097161725 -0.15898539 -0.023971234 -0.11062194 0.0480336 -0.12386803 0.027535371
0.07034901 -0.21190643 -0.100420184 0.07742325 0.070147276 -0.26717088 0.14256799 -0.027354907
-0.26554862 -0.07307092 0.18762013 0.11044797 -0.058548987 -0.030556437 -0.1202276 0.3398517
-0.022914676 -0.3676609 0.123657025 -0.18100564 -0.111775465 0.02415356 -0.15821262 -0.3718747
-0.018184481 0.09066499 -0.061046027 0.11513559 -0.16584736 0.23555271 -0.15605247 -0.0954948

layers.5.weight f4 [1, 128]
00000000: 9dbd 333c 10bb 01bd 5225 03bd 7a51 16bd
00000010: 742d eb3c f3c0 7c3a d279 913a d87f 5d38
00000020: 18fa 11be f7fb 433c 9eef 9f3c fb43 f1bc
00000030: 7659 a73d 0b59 113c 7ba3 cabb 7bf3 07bd
00000040: d979 013d fc8e 8dbc 5056 733d 26e0 d93c
00000050: c8bd d3bd 744b 0dbc 03ef f73c fbfa ddbb
00000060: f25d 35bc a15c fe3c c5f5 9c3c b972 f93d
00000070: 03d3 09bb 2460 e8bd e418 c3bd e0f9 a53d
00000080: 6b91 9c3d 497b ab3c 146c 4ebc 8b42 623b
00000090: 5980 503d 6bee 1ebc a4c6 8c3d 9b86 f03d
000000a0: 51cc 51bb ff00 0bbe bc20 70bc bdfa c33c
000000b0: f9d6 30bc 7012 57bc cd00 043d db32 a1bc
000000c0: 0e39 8f3d 1a10 a63c 91d3 04be a119 8e3a
000000d0: 4203 93bc bc6a 23bb 444a 7d3c eeed 653d
000000e0: 1d8a b93d db05 563c 8027 acba cd7f 863c
000000f0: 0a8f 84bc 02e4 1cbc 9eca 4c3c 9fe3 3fbd
00000100: e738 bdbd 3ca4 733c 5f02 e5bc b74e a6bc
00000110: 8ce4 fdb9 ef10 033d 6f05 a63b 90d6 a8bc
00000120: 5581 023d 345c e63d 80af 83bc 7c10 11bd
00000130: 59ec 1a3d 687c dbbd 8548 ab3c 9300 4bbc
00000140: 8b5d 16bd 1088 1b3d 4104 abbd aff2 e83c
00000150: ccb6 ebbc f155 9f3d fb53 4c3d a53c 1abc
00000160: 9b33 b2bd 78bf 87bc 1de7 c6bb 72fc 7ebc
00000170: f199 eabc 5004 a7b9 8102 aabc c6e0 efbb
00000180: ce0e 213d 11af ad3d 509f 9bbc 57d1 0f3b
00000190: 63e9 a2bc b513 313d 3f64 a1bd 5ef7 233d
000001a0: c5da 96bd 224e eabc afb8 3dbc 603f 39bd
000001b0: b36b 34bd 1cf3 abbc 47e9 a1bc 2099 e93d
000001c0: 2a53 02bc 9611 b1bd 592f b7bd 0734 cdbc
000001d0: 2dd0 0a3d 691a 543b 3a67 8d3d f4ea fabd
000001e0: 03de 313c 99e1 0c3c acb1 a93d 85f1 293d
000001f0: af15 db3d 0507 c2bd d3fc e4bb 498a ba3d
0.0109705 -0.031672537 -0.032018013 -0.036698796 0.028708197 0.0009641789 0.0011098927 5.280957e-05
-0.1425556 0.011961929 0.019523438 -0.02945136 0.0817136 0.008871327 -0.006184039 -0.033191185
0.031610344 -0.017280094 0.059408486 0.02659614 -0.10338932 -0.008623946 0.030265337 -0.006774304
-0.011069762 0.031050028 0.01916016 0.12180085 -0.0021030314 -0.11346462 -0.09526232 0.081043005
0.07644924 0.02093281 -0.01259901 0.0034524526 0.050903652 -0.009700398 0.06873825 0.11744424
-0.0032012651 -0.13574599 -0.014656242 0.023923272 -0.010793441 -0.013126954 0.032227326 -0.01967757
0.06993304 0.02027135 -0.12971331 0.0010841378 -0.01794589 -0.0024935445 0.015459601 0.05613511
0.09059546 0.0130629195 -0.001313433 0.016418362 -0.016181488 -0.009575846 0.01249948 -0.046847936
-0.09239369 0.0148706995 -0.027955232 -0.020301206 -0.000484262 0.03199857 0.0050665657 -0.020610124
0.031861622 0.11248055 -0.016074896 -0.03541611 0.037823055 -0.10717088 0.020908603 -0.012390274
-0.036710303 0.037971556 -0.08350421 0.028436033 -0.028773688 0.07780064 0.049884778 -0.009413873
-0.08701249 -0.016570792 -0.0060700313 -0.015563117 -0.028637858 -0.00031855935 -0.020753147 -0.0073204963
0.03932076 0.08480657 -0.018996865 0.0021944845 -0.019886678 0.043231685 -0.078804485 0.04003083
-0.07365946 -0.02860171 -0.0115796765 -0.045226455 -0.044048022 -0.020989947 -0.019764556 0.114061594
-0.007954398 -0.086459324 -0.08944578 -0.025049223 0.03388994 0.0032364374 0.069044545 -0.12251845
0.010856154 0.008598709 0.08285841 0.041490097 0.10697495 -0.09473995 -0.006988147 0.09108407
