model_zoo/GAIL/MountainCarContinuous-v0/critic_6705216.pth (torch, 137536 bytes, 7 tensors)

layers.0.weight f4 [128, 2]
0	0xbed9ec47	-0.42563078
1	0xbf85f8b5	-1.0466524
2	0x3ee96260	0.45582867
3	0xbfbd3612	-1.4782126
4	0xbf0c2b74	-0.54753804
5	0xbfbdc07a	-1.4824364
6	0x3e1b9b9f	0.15196083
7	0x3fc2751d	1.519199
8	0xbed88b18	-0.4229362
9	0xbfbf2470	-1.4932995
10	0x3ebe6fa8	0.37194562
11	0xbfa3505c	-1.2758899
12	0x3e58ee4a	0.2118465
13	0x3ff48d23	1.9105572
14	0x3ef06a5c	0.46956146
15	0x3fc62b4d	1.5481964
16	0x3e8bd4d5	0.27310815
17	0xbf8cf2e1	-1.1011621
18	0x3e39c32c	0.18140858
19	0x3fe7a305	1.8096625
20	0xbdfbe159	-0.12298841
21	0xbf377959	-0.71669537
22	0xbf2e45fa	-0.68075526
23	0x3f30eafe	0.6910857
24	0x3f00e168	0.5034394
25	0x3fdefe0d	1.742128
26	0xbf1ea473	-0.6196968
27	0xc00240b7	-2.0351999
28	0x3f0152b8	0.50516844
29	0xbf8afe16	-1.0858791
30	0x3d432ee4	0.04765214
31	0x3fb32535	1.399573
32	0x3e53014d	0.20605965
33	0xbfef70c1	-1.8706285
34	0x3cc66abc	0.024220817
35	0xbfa8b06f	-1.3178843
36	0x3f032ef7	0.5124354
37	0x3f17f332	0.5935546
38	0x3f1914df	0.5979747
39	0xbecef4c8	-0.40421128
40	0x3f30e47d	0.69098645
41	0x3f12e80f	0.57385343
42	0xbdf599ce	-0.119922265
43	0xbfd2845c	-1.6446643
44	0x3e824603	0.2544404
45	0xbfc5a056	-1.5439556
46	0x3de9a197	0.11407774
47	0xbfff66ac	-1.9953208
48	0xbed7e8fd	-0.42169943
49	0xbfb2bd62	-1.3964045
50	0xbe1c107c	-0.15240663
51	0x3f8ca0fe	1.0986631
52	0xbefb9d98	-0.49143672
53	0xbfd384e1	-1.6524926
54	0xbec05fd0	-0.375731
55	0xbff9f84d	-1.95289
56	0xbec0a728	-0.3762753
57	0xbfd51cb0	-1.664938
58	0xbf0b2d04	-0.54365563
59	0x3d8b8925	0.068132676
60	0x3d9b865e	0.07593988
61	0x3fbddb00	1.4832458
62	0x3deca734	0.11555329
63	0x3fb074c3	1.3785633
64	0x3ddc78ea	0.1076525
65	0xbfbf062a	-1.4923756
66	0xbe947c79	-0.29001215
67	0x3fe12dae	1.7592065
68	0x3f2e72fb	0.68144196
69	0xbfc46269	-1.5342532
70	0xbeaedbac	-0.3415197
71	0x3f8b510e	1.0884111
72	0x3ed190b9	0.40930727
73	0xbf8bd752	-1.0925086
74	0xbee7912f	-0.45227954
75	0x3fbb2cd4	1.4623055
76	0x3ea8b806	0.329529
77	0xbfbedaee	-1.4910562
78	0x3da5d484	0.08097175
79	0x3fd9dcd8	1.7020521
80	0xbc4d884c	-0.012544703
81	0xbfba3958	-1.454875
82	0x3f27da0d	0.65567094
83	0x3fcb7988	1.5896463
84	0xbed9461e	-0.42436308
85	0x3f158eb4	0.5842087
86	0x3e0dab8d	0.13834973
87	0xbfa112f4	-1.2583909
88	0x3f19ef12	0.6013042
89	0x3f9e0ef7	1.2348317
90	0xbc584ebe	-0.013202367
91	0xbfdbba98	-1.7166319
92	0x3e46052e	0.19337913
93	0x3ddc0232	0.10742606
94	0xbe9a7aa3	-0.3017169
95	0x3fdf2335	1.7432619
96	0x3d87fc77	0.06639951
97	0xbfae5ad8	-1.3621473
98	0x3dbf5fd7	0.09344452
99	0xbedef0ac	-0.43542993
100	0x3e83f560	0.25773144
101	0xbfa4343f	-1.2828444
102	0xbf2b31c7	-0.6687283
103	0x3e3c0240	0.18360233
104	0xbe202a29	-0.15641083
105	0xbefacf32	-0.48986202
106	0x3eaf95ae	0.34293884
107	0xbfb41470	-1.4068737
108	0xbdee5bb6	-0.11638586
109	0x3f94f583	1.1637424
110	0xbd9e93a0	-0.07743001
111	0xbfbe766c	-1.487989
112	0xbe5b8e18	-0.21440923
113	0x3fc4dfae	1.5380762
114	0x3e26930f	0.16267036
115	0xbfb13a96	-1.3846004
116	0x3ee92565	0.45536342
117	0x3ff08ffc	1.879394
118	0xbdc139a2	-0.09434821
119	0xbf34f729	-0.70689636
120	0xbed44201	-0.41456607
121	0xbfb563da	-1.4171097
122	0x3f3e7c53	0.74408454
123	0xbedb286c	-0.42804277
124	0x3e541964	0.20712811
125	0x3fa68e83	1.3012241
126	0xbef4485a	-0.4771145
127	0x3feb0fab	1.8364156
128	0xbf2c278c	-0.67247844
129	0x3f552674	0.832618
130	0x3cd84ce7	0.026403857
131	0xbff4e315	-1.91318
132	0xbf31383c	-0.6922643
133	0x3fcde5c1	1.608574
134	0x3f08ddcc	0.53463435
135	0x3fdd3acb	1.7283567
136	0x3e949b35	0.29024664
137	0xbf9473ad	-1.1597801
138	0x3e35abc8	0.1774131
139	0x3fd95373	1.6978592
140	0x3db8a76a	0.09016307
141	0xbfbe3cef	-1.4862345
142	0x3e8bdaf2	0.2731548
143	0xbf93a2df	-1.1534079
144	0xbf169ae3	-0.5883009
145	0x3f93b337	1.1539067
146	0x3eda7874	0.42670023
147	0x3fa5c1db	1.2949785
148	0x3ee88286	0.4541208
149	0xbfb18bde	-1.3870809
150	0xbc935eb5	-0.017989496
151	0x3e30c3ae	0.17262146
152	0x3f34d74d	0.7064102
153	0xbfcaca6a	-1.5843022
154	0xbf2fdc6a	-0.686957
155	0x3f281af0	0.65666103
156	0x3ed48d27	0.4151394
157	0xbfc3df58	-1.5302534
158	0x3ed38a30	0.41316366
159	0xbfb330a2	-1.3999217
160	0xbd99aa98	-0.07503241
161	0x3fb79dcb	1.434503
162	0x3df07f48	0.11743027
163	0x3fc44bed	1.5335671
164	0xbe830ccc	-0.255957
165	0x3fe9f5b8	1.8278112
166	0xbcc4e024	-0.02403266
167	0x3f9eeff9	1.2416984
168	0x3eb45685	0.3522226
169	0x3faff6f4	1.3747239
170	0xbecc714f	-0.39930198
171	0x3fcff621	1.6246988
172	0xbf201887	-0.62537426
173	0x3f86db11	1.0535604
174	0x3f1508f7	0.58216804
175	0x3fb3c9dc	1.4045978
176	0xbe59245a	-0.21205273
177	0xbfc2f093	-1.5229667
178	0xbeb55327	-0.35415003
179	0x3f21f78c	0.6326835
180	0xbe4dd383	-0.20100217
181	0xbfd85c38	-1.6903143
182	0xbe3f6ff1	-0.18695046
183	0x3f9796c4	1.1842885
184	0x3e4952f2	0.19660547
185	0xbfb2767a	-1.3942406
186	0xbebf7590	-0.3739438
187	0xc00239cb	-2.0347774
188	0xbef2ac7b	-0.47397217
189	0xbf6be286	-0.9214252
190	0xbc85e27b	-0.016343346
191	0xbfd2a6fb	-1.6457208
192	0x3e147bbf	0.1450033
193	0xbfdc83fc	-1.7227778
194	0xbd423777	-0.047416177
195	0xbfc42b4e	-1.5325716
196	0x3de6f40f	0.11277019
197	0x3e337461	0.17524864
198	0x3f1c3ba5	0.6102851
199	0x3fb37b72	1.4022048
200	0x3e44014b	0.19141118
201	0xbfaebe58	-1.3651838
202	0xbf00df8e	-0.5034112
203	0xbfc7b6c2	-1.5602648
204	0xbe57bd4f	-0.21068309
205	0x3f79df90	0.97606754
206	0xbf300d81	-0.68770605
207	0xbfa38b93	-1.277697
208	0xbf0a6571	-0.5406104
209	0xbda4f759	-0.0805499
210	0xbe8a2d20	-0.26987553
211	0x3f565d37	0.83735985
212	0x3e988232	0.2978683
213	0xbfd17039	-1.6362373
214	0xbdee3ad1	-0.11632312
215	0x3ece5b4b	0.40304026
216	0x3e6abfd6	0.22924742
217	0x3fafe88c	1.3742843
218	0x3f1b9450	0.6077318
219	0x3fd8d55d	1.6940113
220	0x3dbfb331	0.0936035
221	0x3ffd7dc6	1.9804008
222	0x3ea5a4e4	0.32352364
223	0xbfbd0300	-1.476654
224	0xbac8a4db	-0.001530792
225	0x3fe33d8c	1.7753158
226	0xbf23dd14	-0.64009213
227	0xbfd59d6b	-1.6688665
228	0x3d856322	0.06513049
229	0xbfda40ec	-1.7051063
230	0x3e721639	0.2364129
231	0x3f95500b	1.1665052
232	0xbf2ad69c	-0.6673372
233	0x3f7ba17d	0.98293287
234	0x3efd4bca	0.49471885
235	0xbf7d199d	-0.9886721
236	0xbed86f08	-0.4227221
237	0xbfe521dc	-1.7900958
238	0x3f11f474	0.5701363
239	0x3ff97b48	1.9490747
240	0x3de3e653	0.11127915
241	0x3ff25c45	1.8934408
242	0x3d2206d8	0.039557308
243	0x3fbad077	1.4594868
244	0x3ed746d3	0.42046222
245	0xbfb015dc	-1.3756671
246	0xbd1aa7da	-0.037757732
247	0xbfda8164	-1.7070737
248	0xbdbf983d	-0.09355209
249	0x3f78b73a	0.9715458
250	0x3f044b7a	0.5167767
251	0x3fd80265	1.6875731
252	0x3eeb1836	0.4591691
253	0xbfa2fc30	-1.2733212
254	0xbf231c52	-0.6371509
255	0x3f978338	1.183692

layers.0.bias f4 [128]
0	0x3ce51eb3	0.02796874
1	0x3dff23b9	0.124579854
2	0xbee9ef39	-0.45690325
3	0x3c2e7938	0.010649018
4	0xbe0fbe43	-0.14037423
5	0x3cea8c4b	0.02863135
6	0xbe870a42	-0.26375014
7	0xbe239ac0	-0.15977001
8	0x3e56fd5c	0.20995086
9	0x3ddf8011	0.109130986
10	0x3e88f642	0.2675038
11	0xbf08148d	-0.5315636
12	0x3f259f29	0.64695984
13	0x3df65c02	0.12029268
14	0x3e2a58f3	0.16635494
15	0xbe1db995	-0.15402825
16	0x3f0636d3	0.52427405
17	0x3e792e34	0.24334031
18	0xbe2ab371	-0.16670014
19	0x3f0e1c6f	0.55512136
20	0xbe72a68a	-0.23696342
21	0xbb209e17	-0.0024508291
22	0xbf1bb874	-0.6082833
23	0x3ed147c4	0.40875065
24	0x3e61a3a4	0.2203508
25	0x3e8adaf9	0.27120188
26	0xbebaeb5d	-0.36507693
27	0xbea0a400	-0.31375122
28	0x3ef9db19	0.4879997
29	0xbf187b29	-0.5956293
30	0x3ee4b6e3	0.44670781
31	0xbda7dc75	-0.08196346
32	0xbec6f85d	-0.3886136
33	0xbed266a4	-0.41093934
34	0x3d2a2816	0.041542135
35	0x3ede112d	0.4337248
36	0xbf001108	-0.5002599
37	0xbcc02c34	-0.023458578
38	0x3ec62805	0.38702407
39	0xbecb0f51	-0.39660123
40	0xbed156f2	-0.40886647
41	0x3f0e9082	0.5568925
42	0x3ee505a3	0.44730863
43	0x3f199e8c	0.6000755
44	0xbceaac03	-0.028646475
45	0xbf31dff1	-0.6948233
46	0xbd1cf699	-0.03832111
47	0xbe95b9df	-0.2924337
48	0xbe4ba961	-0.19888832
49	0x3f0bd5e2	0.54623234
50	0xbe857615	-0.26066652
51	0xbe37e1f2	-0.17957285
52	0x3e6bba43	0.23020272
53	0x3f0e6e1b	0.5563676
54	0xbe4b180f	-0.19833396
55	0x3e5f4f01	0.21807481
56	0xbe87e206	-0.2653963
57	0x3ee34739	0.44390276
58	0x3d780539	0.060551856
59	0xbe7a1997	-0.24423824
60	0x3d5169de	0.051126353
61	0x3f1c5b49	0.6107679
62	0xbd8f8e23	-0.07009532
63	0xbf159e08	-0.5844426
64	0xbe6bc5b4	-0.23024637
65	0x3e8e6673	0.27812538
66	0xbeaa6c7b	-0.3328589
67	0xbe878dd3	-0.2647539
68	0x3e03ce32	0.12871626
69	0x3ec8a16e	0.3918566
70	0xbef2cd32	-0.47422177
71	0x3eab282a	0.3342908
72	0x3e99b1fb	0.300186
73	0x3e43d660	0.19124746
74	0xbea7cdb5	-0.3277413
75	0xbe198133	-0.14990692
76	0x3ec3030a	0.38088256
77	0x3e54f359	0.20795955
78	0xbe571ee3	-0.21007876
79	0xbe8c1d53	-0.27366123
80	0xbe825921	-0.25458625
81	0x3ed840bd	0.4223689
82	0xbf210ca9	-0.6290994
83	0x3f158bd8	0.5841651
84	0x3ed1c10f	0.40967605
85	0xbec1ecb3	-0.378759
86	0x3efcc76d	0.493709
87	0xbed69478	-0.41910148
88	0xbe0f4d02	-0.1399422
89	0x3e5cdefd	0.21569438
90	0x3d9dbcb2	0.077020064
91	0xbe94e5e2	-0.29081637
92	0x3e65a3ff	0.22425841
93	0x3dda7a16	0.10667817
94	0x3ecb8963	0.39753255
95	0x3eb46841	0.3523579
96	0xbdbe8b18	-0.09303874
97	0xbe1eef80	-0.1552105
98	0x3edaa7e8	0.42706227
99	0x3f003817	0.50085586
100	0x3da1e2ac	0.07904562
101	0xbe61b412	-0.22041348
102	0x3ee96c7b	0.45590577
103	0x3d1b22d4	0.03787501
104	0xbf1b7a2c	-0.60733294
105	0x3ee134ba	0.4398554
106	0x3ed9b90c	0.42523992
107	0x3ebdf9f2	0.37104756
108	0xbe46a3f3	-0.19398479
109	0x3dfc0d82	0.12307264
110	0xbd45c89b	-0.048287015
111	0xbdcebb4b	-0.10094317
112	0xbeca118b	-0.3946651
113	0xbe5add24	-0.21373421
114	0x3b2ea69a	0.0026649595
115	0xbd87bb78	-0.06627554
116	0xbeeba97a	-0.46027738
117	0x3f153b93	0.5829403
118	0x3daa0b37	0.0830292
119	0xbb344421	-0.0027506428
120	0xbf0d79a4	-0.55263734
121	0x3e5dda7e	0.2166538
122	0x3ed7833f	0.4209232
123	0x3e81b231	0.25331262
124	0xbde68b29	-0.112570114
125	0x3e85f010	0.26159716
126	0x3f1cdb01	0.61271673
127	0xbf326709	-0.6968847

layers.1.weight f4 [128, 128]
0	0xbccdcb80	-0.02512145
1	0xbe002fe4	-0.12518269
2	0xbe2067b8	-0.15664566
3	0x3ecc0980	0.39850998
4	0xbe8fd545	-0.280924
5	0xbd331d45	-0.043729085
6	0x3e44acf7	0.19206606
7	0x3dc1d8f5	0.094652094
8	0xbdd3216b	-0.10309108
9	0x3eed10a4	0.46301758
10	0xbcb0bca1	-0.02157432
11	0x3d567c51	0.05236465
12	0x3e01d91a	0.12680474
13	0xbe2f3cae	-0.17112991
14	0xbe1f487f	-0.15554999
15	0x3e0ca02f	0.1373298
16	0xbd3726c4	-0.044714704
17	0xbc83dcae	-0.01609644
18	0x3c02b4f1	0.00797771
19	0x3c35a68e	0.011087073
20	0x3dd1a61f	0.10236763
21	0xbf3094a1	-0.6897679
22	0x3d5ef2e2	0.05443085
23	0xbe199910	-0.14999795
24	0xbe015184	-0.12628752
25	0x3da28675	0.07935802
26	0xbe625710	-0.22103524
27	0xbe6b6b40	-0.22990131
28	0xbe1a0ba0	-0.15043497
29	0x3d1f386e	0.038872175
30	0x3da1e3eb	0.079048
31	0x3dfdc7ce	0.12391625
32	0x3c6cab93	0.014445203
33	0x3db68c2d	0.08913455
34	0xbe35fe74	-0.17772847
35	0xbd815d3a	-0.0631661
36	0xbd477459	-0.048694942
37	0x3e4d0629	0.20021881
38	0xbd5cc657	-0.05390009
39	0x3d437645	0.047720212
40	0x3cecce02	0.028906826
41	0x3e09328f	0.13398193
42	0xbde5690c	-0.11201677
43	0xbde0c6c5	-0.10975412
44	0x3dc49641	0.09598971
45	0x3d8a514b	0.06753787
46	0xbb15f67b	-0.002288251
47	0x3e88962d	0.26677075
48	0x3c924087	0.017853035
49	0xbdb32420	-0.08747125
50	0xbdb66e15	-0.08907715
51	0x3aea4fca	0.0017876562
52	0x3c96dbfe	0.018415447
53	0xbd8a0c54	-0.06740633
54	0x3e140795	0.14456017
55	0xbda230ed	-0.07919488
56	0x3e02041c	0.1269688
57	0xbe11f4e1	-0.1425357
58	0x3ea65719	0.32488325
59	0x3d681bf3	0.05666728
60	0xbe4a4b2f	-0.19755243
61	0xbb4f58a6	-0.0031638532
62	0x3e3d51b1	0.18488194
63	0x3e2b6733	0.16738586
64	0x3ac28556	0.0014840763
65	0xbe201425	-0.15632685
66	0x3e61ef62	0.22063974
67	0x3d04aa49	0.03238896
68	0xbe1b0c8b	-0.15141504
69	0x3dee3eb4	0.116330534
70	0x3d496cdf	0.049176093
71	0xbe210c05	-0.15727241
72	0xbc8714ae	-0.016489353
73	0x3dc72904	0.0972462
74	0xbd01be2e	-0.03167551
75	0x3d90630d	0.070501424
76	0xbdabc899	-0.0838787
77	0x3d93ed2b	0.072229706
78	0xbd9ef17d	-0.07760904
79	0xbda3d757	-0.08000057
80	0x3ddcd24c	0.107822984
81	0x3cd407ca	0.02588262
82	0x3d665ed6	0.056242786
83	0xbd903721	-0.07041765
84	0x3df381a4	0.11889961
85	0x3e49c7c4	0.19705111
86	0x3d4344c2	0.047672994
87	0x3dc9dbc0	0.09856367
88	0xbe6d9157	-0.23199974
89	0xbd95ade8	-0.073085606
90	0xbe33a713	-0.17544203
91	0x3e1dc34a	0.15406528
92	0xbe79eb0f	-0.24406074
93	0xbe26c7f5	-0.16287215
94	0xbda5d9f3	-0.08098211
95	0xbd94583b	-0.07243391
96	0xbe7c3dc6	-0.2463294
97	0xbdb92ff2	-0.09042348
98	0xbd360b27	-0.04444423
99	0x3e28f9ca	0.16501537
100	0xbeb23fe6	-0.34814376
101	0xbe975a5c	-0.29561126
102	0xbd5ae2e2	-0.05343903
103	0xbdce68be	-0.10078572
104	0xbcfec0d3	-0.031097805
105	0x3c70c25c	0.014694776
106	0xbdaffc34	-0.08593026
107	0xbde0f5e4	-0.109844
108	0x3e10981a	0.14120522
109	0x3e103f19	0.1408657
110	0x3f45dde1	0.77291685
111	0xbd94357c	-0.07236764
112	0x3d387a78	0.04503867
113	0xbe8b9718	-0.27263713
114	0xbf39f716	-0.7264265
115	0x3dcd045f	0.10010599
116	0x3dc3b60d	0.09556208
117	0x3c15d3aa	0.009144703
118	0xbe44bb56	-0.19212088
119	0x3e202b16	0.15641436
120	0x3e0dc86b	0.13845985
121	0x3cc778fa	0.024349678
122	0xbd909ac0	-0.07060766
123	0xbdd23de0	-0.10265708
124	0x3d7a8cff	0.06116962
125	0x3e907d3c	0.28220546
126	0xbc85fff2	-0.016357396
127	0xbb482f33	-0.003054571
128	0xb943ea52	-0.0001868394
129	0x3e8d147f	0.275547
130	0xbcef160e	-0.029185321
131	0xbe9cff20	-0.30663395
132	0x3d7eaecb	0.062178414
133	0x3e5bc77f	0.2146282
134	0xbd1fd633	-0.039022636
135	0xbdc162dc	-0.09442684
136	0x3ed93fe9	0.42431572
137	0xbebe6d02	-0.3719254
138	0xbcec9a73	-0.02888224
139	0xbe90c060	-0.2827177
140	0xbd648d2f	-0.055798706
141	0x3d2441e5	0.040101904
142	0x3e3f23a4	0.1866594
143	0xbe63aa9b	-0.2223305
144	0x3dfb2d56	0.122645065
145	0x3bfea8e8	0.0077716
146	0xbd521ceb	-0.05129711
147	0x3e4143ca	0.18873516
148	0x3c26e991	0.0101875225
149	0x3ea460ec	0.32105196
150	0xbcafa440	-0.021440625
151	0x3e19516b	0.14972465
152	0xbcb2f37a	-0.021844614
153	0x3d0ae737	0.03391191
154	0x3d18c351	0.037295643
155	0x3cc6434d	0.024202013
156	0x3d824767	0.06361275
157	0xbe3f2196	-0.18665156
158	0xbda241f7	-0.07922738
159	0xbde93846	-0.113876864
160	0xbc9ef821	-0.019405426
161	0xbe2b3cea	-0.16722456
162	0x3df8c9bf	0.12147855
163	0x3ca01ddc	0.019545488
164	0x3d3151b9	0.043290827
165	0xbe9485ec	-0.29008424
166	0x3ea60229	0.32423523
167	0xbe25fcab	-0.16209666
168	0x3db3bdde	0.08776449
169	0x3dd5994c	0.1042963
170	0xbc9581c9	-0.018250363
171	0x3dfee918	0.12446803
172	0xbd0f46d7	-0.034979668
173	0xbc1419fa	-0.009039396
174	0xbd04c86f	-0.03241771
175	0xbf016b14	-0.50554013
176	0x3b64c143	0.0034905232
177	0x3dc4ca0f	0.09608852
178	0x3dd9ac03	0.10628512
179	0xbe281a23	-0.1641622
180	0xbbde39b5	-0.0067817816
181	0x3e64ebdf	0.22355603
182	0xbe52aa05	-0.2057267
183	0x3e392908	0.18082058
184	0xbecce786	-0.40020388
185	0x3d8e44a7	0.06946688
186	0xbc031e27	-0.008002794
187	0xbd4e0c6a	-0.050304808
188	0xbd767639	-0.06017134
189	0x3e95ea06	0.29280108
190	0xbdfba4f5	-0.122873224
191	0xbe7d9d6f	-0.24767087
192	0xbe3ee5ab	-0.18642299
193	0x3e504c3a	0.20341578
194	0xbec86f9d	-0.39147654
195	0xbd7ffd0b	-0.06249718
196	0x3ebd7cd1	0.3700929
197	0x3c9bd4a2	0.01902229
198	0xbc644679	-0.013932818
199	0x3e27c0d5	0.16382153
200	0x3acbdc5b	0.0015553342
201	0x3d89df38	0.06732029
202	0x3c816dc3	0.015799409
203	0xbcf2ae81	-0.029624226
204	0x3ebf9e42	0.3742543
205	0x3cb444af	0.022005407
206	0x3d6a12ca	0.057146825
207	0x3d2e9113	0.042618822
208	0xbd7bce2b	-0.061475914
209	0xbd480f20	-0.04884255
210	0xbd8ac48f	-0.06775772
211	0x3d44a0e7	0.04800501
212	0x3caf7734	0.021419145
213	0xbec7655e	-0.38944525
214	0x3c02cd7e	0.0079835635
215	0xbd058a99	-0.03260288
216	0x3e4de03a	0.20105067
217	0xbb15484d	-0.002277869
218	0x3e047a26	0.12937221
219	0xbdda1c4a	-0.10649927
220	0x3ed6488a	0.41852218
221	0x3cfb3af9	0.030667769
222	0x3dcb7b4f	0.099356286
223	0x3dc38c99	0.09548301
224	0x3e699665	0.22811277
225	0x3e6a4c79	0.22880735
226	0x3c85d378	0.016336188
227	0x3e05f90d	0.13083287
228	0x3ee50758	0.44732165
229	0xbde81a25	-0.11333112
230	0xbd731545	-0.059346456
231	0xbc832279	-0.016007649
232	0xbd341061	-0.043960933
233	0x3c3c28b4	0.011484314
234	0x3e5ad6cd	0.21371002
235	0xbd045477	-0.032307114
236	0x3c919017	0.017768903
237	0xbcc67e9e	-0.024230298
238	0xbee02708	-0.43779778
239	0x3e4b4f37	0.19854437
240	0xbe3c7f11	-0.18407847
241	0xbd09938e	-0.033587985
242	0x3f797811	0.9744883
243	0xbdeed836	-0.11662333
244	0xbebdfa1c	-0.3710488
245	0x3e13238c	0.14369029
246	0x3d151c9c	0.036404237
247	0xbdf49053	-0.1194159
248	0xbe3236fe	-0.1740379
249	0xbc4f1061	-0.012638182
250	0x3e76b556	0.24092612
251	0x3df0eb02	0.11763574
252	0xbe267595	-0.16255791
253	0xbcb79519	-0.022409962
254	0x3e80088e	0.25006527
255	0xbe43e641	-0.19130804

layers.1.bias f4 [128]
0	0xbde9e586	-0.11420731
1	0x3c631e16	0.0138621535
2	0xbd95ee8e	-0.07320891
3	0x3d761912	0.060082503
4	0x3e06b593	0.13155203
5	0x3dac20b4	0.08404675
6	0x3e07d5f7	0.13265215
7	0x3d0a709b	0.033798795
8	0xbdc7a31e	-0.09747909
9	0xbbf34fdb	-0.007425291
10	0xbd2d0009	-0.04223636
11	0x3dbfe815	0.09370438
12	0x3d5b3161	0.05351389
13	0xbc464c16	-0.012103101
14	0x3ce3e757	0.027820272
15	0x3d0c9cb7	0.034329142
16	0x3e034770	0.1282022
17	0xbd1255f1	-0.03572649
18	0x3d203793	0.0391155
19	0x3d6d279c	0.057899103
20	0x3d57d7e4	0.052696124
21	0xbd06e97e	-0.03293752
22	0x3d2139e3	0.039361846
23	0x3da96319	0.082708545
24	0xbda5f2d4	-0.081029564
25	0xb993f1d1	-0.00028218192
26	0xbdde5d65	-0.10857657
27	0xbd1a739d	-0.037707914
28	0xbd5fcd55	-0.05463918
29	0xbd98a5ce	-0.074535
30	0xbddb7f70	-0.10717666
31	0xbd64a372	-0.055819936
32	0x3dc9461c	0.098278254
33	0x3d0f7fd8	0.03503403
34	0x3bb84622	0.005623595
35	0x3d646298	0.05575809
36	0x3dee7fc8	0.11645466
37	0xbe2d519e	-0.16925666
38	0x3d1a663e	0.037695162
39	0xbcd32da2	-0.025778595
40	0x3d6b343b	0.057422858
41	0xbd82c96b	-0.06386074
42	0x3a25eaf7	0.0006329263
43	0x3d8c8155	0.068606056
44	0x3d018e40	0.0316298
45	0xbd3f8804	-0.046760574
46	0x3c37de49	0.0112224305
47	0x3d81f868	0.06346208
48	0xbd90acdb	-0.070642196
49	0xba064678	-0.0005122195
50	0x3cc7ea4b	0.024403712
51	0xbd445849	-0.047935758
52	0xbc45c80d	-0.012071622
53	0xbc5fa28d	-0.013649595
54	0x3dc75d70	0.09734619
55	0x3cb8ee65	0.022574613
56	0xbd9c54f5	-0.07633392
57	0xbcae3404	-0.021265037
58	0xbcfdc053	-0.030975496
59	0xbe0a02c3	-0.13477616
60	0xbd2930f0	-0.041306436
61	0xbdb2d1f5	-0.087314524
62	0xbde09f3e	-0.10967873
63	0xbde38f9e	-0.11111377
64	0x3cb3f4c8	0.021967307
65	0x3e557035	0.20843585
66	0x3cd40ad3	0.025884068
67	0x3c63cc37	0.013903669
68	0x3cd9e97e	0.026600596
69	0xbdca1c4b	-0.09868678
70	0xbd44c375	-0.048037965
71	0x3c912b3e	0.017720815
72	0xbc0c3c20	-0.008559257
73	0x3ce0c96f	0.027439801
74	0x3d2816bf	0.041037317
75	0x3d9bdda9	0.07610638
76	0x3e4c77d8	0.19967592
77	0x3c9ce7c6	0.019153487
78	0xbcc6a437	-0.024248226
79	0x3c90629b	0.017625144
80	0x3dce5090	0.1007396
81	0x3dcfe333	0.10150757
82	0xbcc6386b	-0.024196824
83	0x3e02c76a	0.12771383
84	0xbc60c413	-0.013718623
85	0x3dcfc7ea	0.101455525
86	0xbdf3b02c	-0.118988365
87	0xbc3eb250	-0.011639193
88	0x3c8e86ca	0.017398257
89	0xbe3222b3	-0.17396049
90	0xbd4f3c34	-0.050594524
91	0xbd0040f9	-0.031311963
92	0xbdaa3fa6	-0.08312921
93	0x3ceafb1c	0.028684191
94	0x3e100a5b	0.1406645
95	0x3c1f8af8	0.009737723
96	0xbda9ee06	-0.082973525
97	0xbd437f21	-0.04772866
98	0xbc143b0d	-0.009047282
99	0x3e2e33b1	0.17011906
100	0xbe03bac5	-0.12864216
101	0x3defe8a6	0.11714296
102	0xbd892284	-0.066960365
103	0xbd266145	-0.040620107
104	0x3a6625e6	0.0008779451
105	0x3bf5837a	0.00749248
106	0xbdf40446	-0.119148776
107	0x3d8428c2	0.064530864
108	0x3d036160	0.032075286
109	0x3cf63e5e	0.030059036
110	0xbc7c947c	-0.015416261
111	0xbc6647dc	-0.014055219
112	0xbd284b74	-0.041087583
113	0xbe18c3e5	-0.14918478
114	0x3e09d4f2	0.13460138
115	0xbbce3055	-0.0062923827
116	0x3da60a0e	0.081073865
117	0xbb527c17	-0.003211742
118	0xbd87ef2d	-0.06637416
119	0xbd08f4bf	-0.033436533
120	0xbe38b65f	-0.18038319
121	0xbd145876	-0.036217175
122	0xbdaa9b28	-0.08330375
123	0xbcfa9a1e	-0.030591067
124	0xbc911beb	-0.017713508
125	0x3e02eac4	0.12784868
126	0x3d1d9283	0.038469803
127	0xbe325e1a	-0.1741871

layers.3.weight f4 [128, 128]
0	0xbe1f21c9	-0.15540232
1	0x3b1ae757	0.0023636424
2	0xbdf179ea	-0.117908314
3	0xbd386534	-0.04501839
4	0x3eae7a3e	0.34077638
5	0x3d104e7f	0.03523111
6	0x3cfd3809	0.030910509
7	0x3e6b6d37	0.22990881
8	0xbe62daaf	-0.22153734
9	0x3e4b1b6c	0.1983468
10	0xbe3f9f0f	-0.1871302
11	0x3e5ba8a7	0.21451055
12	0x3dcac3ba	0.09900613
13	0x3d5bcda7	0.053662922
14	0x3d2e89f5	0.042612035
15	0x3cb6fb60	0.022336662
16	0x3e1aa3b6	0.15101513
17	0xbda68e91	-0.08132661
18	0x3daa502c	0.08316073
19	0x3e268f8d	0.16265698
20	0xbe22c625	-0.15895899
21	0xbd27c55e	-0.04095971
22	0xbd0e2c02	-0.034709938
23	0x3d4b5b1f	0.049647447
24	0xbe1fc6ff	-0.15603255
25	0xbdb09c88	-0.08623606
26	0xbcee43bc	-0.029085033
27	0xbddd3b57	-0.10802334
28	0xbe1a70ba	-0.15082064
29	0xbb9efa67	-0.0048516276
30	0xbd640b13	-0.055674624
31	0xbe525578	-0.20540416
32	0x3caa0d2a	0.02075823
33	0xbc21deff	-0.009879827
34	0x3c030b69	0.007998326
35	0x3d909ab2	0.07060756
36	0xbe0493cb	-0.12947004
37	0x3e662475	0.22474845
38	0x3d0b86be	0.034064047
39	0x3dc8dc35	0.09807626
40	0xbe63ec6c	-0.22258157
41	0xbd753d23	-0.059872758
42	0xbdd39382	-0.10330869
43	0x3d546244	0.051851526
44	0x3c3bac44	0.011454646
45	0xbe820d0d	-0.25400582
46	0xbdd20ea9	-0.102567025
47	0x3e248245	0.16065319
48	0xbdc66808	-0.09687811
49	0x3e0ddb94	0.13853294
50	0xbe0004d0	-0.12501836
51	0x3e80a65b	0.2512692
52	0xbd252237	-0.040315833
53	0xbe1142e8	-0.14185679
54	0x3d1da4a7	0.038487103
55	0x3de2c79f	0.11073231
56	0xbd57f8a1	-0.052727345
57	0x3c4aae50	0.012370661
58	0xbdd94192	-0.1060821
59	0xbe1e3523	-0.15449958
60	0xbdf3424c	-0.118778795
61	0xbe19cf11	-0.15020396
62	0xbd48ae7e	-0.048994534
63	0xbe5157ad	-0.20443602
64	0x3d2b7003	0.04185487
65	0x3dea5cc8	0.11443478
66	0x3e4df21c	0.20111889
67	0xbdc0b5b2	-0.09409656
68	0xbdad5e61	-0.08465267
69	0x3b8eb655	0.0043552318
70	0xbd9b0c25	-0.07570676
71	0x3e6933b5	0.22773631
72	0xbd6f0e6c	-0.058363363
73	0x3bf75810	0.0075483397
74	0x3b0ee677	0.0021804848
75	0x3b93e607	0.0045135054
76	0x3dc344e1	0.09534622
77	0xbe23d071	-0.15997483
78	0x3e21be7a	0.15795317
79	0xbc899e52	-0.016799126
80	0x3e05e155	0.13074239
81	0xbd52d748	-0.05147484
82	0xbb1868f9	-0.0023255928
83	0x3daaee9b	0.08346292
84	0xbdfddaf8	-0.123952806
85	0x3dba41d2	0.090945855
86	0xbc8b34aa	-0.016992886
87	0x3db77e66	0.089596555
88	0xbe9ae5ad	-0.30253354
89	0xbdb79b62	-0.08965184
90	0xbe18e8e8	-0.14932597
91	0xbdaa5f81	-0.08318997
92	0xbdf543e8	-0.11975843
93	0x3d00daf9	0.03145883
94	0xbd5a11fa	-0.0532398
95	0xbdc5105f	-0.09622263
96	0x3d29b26c	0.041429922
97	0xbe9cf33c	-0.30654323
98	0x3e1c2bc4	0.1525107
99	0x3daceca8	0.08443576
100	0xbe3166c6	-0.17324361
101	0x3e855c9d	0.2604722
102	0xbda9eea7	-0.082974724
103	0xbe8d57be	-0.27606004
104	0xbe878d58	-0.26475024
105	0xbe6a65ae	-0.2289035
106	0x3d17c726	0.037055157
107	0xbd992ce0	-0.07479262
108	0x3cf298a5	0.029613802
109	0x3e104427	0.14088498
110	0xbd9b79e4	-0.07591608
111	0xbd3f31e5	-0.046678443
112	0x3db969c2	0.09053375
113	0xbde95112	-0.11392416
114	0x3d5e6840	0.05429864
115	0xbda35de5	-0.07976893
116	0xbce331c8	-0.027733698
117	0x3e005b6d	0.12534876
118	0xbe2d6e72	-0.16936663
119	0xbe0d896f	-0.13821958
120	0xbe4fefca	-0.20306316
121	0xbdb34c3c	-0.08754775
122	0xbe0a7823	-0.13522391
123	0xbdf25f9b	-0.118346415
124	0xbdfe9fbb	-0.1243281
125	0x3bb84f54	0.005624691
126	0x3e684d71	0.22685792
127	0xbdcc4082	-0.099732414
128	0xbe069710	-0.13143563
129	0xbd9afbca	-0.07567556
130	0x3e3580f6	0.17724976
131	0xbeb38128	-0.35059476
132	0xbee9728d	-0.45595208
133	0xbde05764	-0.109541684
134	0x3d4ef49e	0.050526254
135	0xbe4d7973	-0.2006586
136	0xbd597c26	-0.053096913
137	0x3c971537	0.018442733
138	0x3eaf009d	0.34180155
139	0x3c15366f	0.009107216
140	0x3c47c154	0.012192089
141	0xbc493ffd	-0.012283322
142	0xbe88eaea	-0.26741725
143	0x3e043fa2	0.12914899
144	0xbd0a9860	-0.033836722
145	0x3d655ed9	0.055998657
146	0xbd9ec7ab	-0.077529274
147	0x3dd089d2	0.10182537
148	0x3e7e11e2	0.24811509
149	0xbdecafaa	-0.11556943
150	0xbe8a77e2	-0.27044588
151	0xbc87d172	-0.016579363
152	0x3d428d9b	0.047498327
153	0x3e5445c4	0.20729738
154	0xbb310e0a	-0.0027016425
155	0x3e13c6e5	0.14431341
156	0x3d38c2bf	0.0451076
157	0x3e8ec6b3	0.2788597
158	0xbdd1656b	-0.10224422
159	0x3e5b84bb	0.21437351
160	0x3e99f729	0.3007138
161	0x3e8b633c	0.27224147
162	0x3b679d49	0.0035341552
163	0xbe40d756	-0.18832144
164	0x3da56250	0.08075392
165	0xbe572554	-0.21010333
166	0xbdfc5912	-0.12321676
167	0x3e1e3751	0.15450789
168	0xbdf0f9e2	-0.11766411
169	0xbdac484c	-0.08412227
170	0x3d4715c3	0.048604738
171	0xbe3ba2eb	-0.18323867
172	0xbdbfd316	-0.09366433
173	0x3dac2bfc	0.08406827
174	0x3d9854c0	0.0743804
175	0x3e60528c	0.21906489
176	0xbe098698	-0.1343025
177	0xbdda360d	-0.106548406
178	0xbd893a07	-0.06700521
179	0x3e1ae80e	0.15127584
180	0x3e8bc49d	0.27298442
181	0x3d2074d0	0.0391739
182	0xbe09dbe2	-0.13462785
183	0xbde6eae6	-0.11275272
184	0x3e463298	0.19355237
185	0x3e3c4a95	0.18387826
186	0x3e8c5973	0.27411994
187	0x3d132009	0.035919223
188	0x3db94b51	0.090475686
189	0xbdc77681	-0.097394
190	0xbcfe9df4	-0.031081177
191	0x3d843e02	0.064571396
192	0xbc8362cd	-0.016038323
193	0xbc1664c3	-0.009179297
194	0xbbce25ed	-0.006291142
195	0xbd4f2722	-0.05057443
196	0x3e1f5514	0.15559798
197	0x3db923d1	0.090400346
198	0x3e80a2ea	0.25124294
199	0x3e0c7454	0.1371625
200	0x3dc0cc17	0.09413927
201	0x3e7bedac	0.24602383
202	0x3e979d45	0.29612175
203	0xbe28186d	-0.16415568
204	0xbd86ebf6	-0.06587975
205	0x3ca2c137	0.019867523
206	0x3de2ebc6	0.110801265
207	0x3c173342	0.009228529
208	0xbe72b6f4	-0.23702604
209	0x3c9bd9a9	0.019024687
210	0xbe6770fa	-0.22601691
211	0xbcb7fa50	-0.022458225
212	0x3e05e4fd	0.13075633
213	0xbe3fe449	-0.18739428
214	0x3e02cc43	0.12773232
215	0xbdbae50c	-0.091257185
216	0x3d1d5026	0.038406514
217	0x3d1c9bb1	0.038234416
218	0xbc43807a	-0.011932487
219	0x3ce0c6dd	0.027438575
220	0x3da79e6f	0.08184516
221	0xbe19a877	-0.1500567
222	0xbe59277a	-0.21206465
223	0x3cbdac49	0.023153441
224	0xbc2bcd77	-0.010485998
225	0xbc16fd26	-0.009215629
226	0x3c8c0218	0.017090842
227	0x3cf7dc28	0.030256346
228	0x3ce2d94c	0.027691506
229	0x3dfa79dd	0.12230275
230	0x3de15ef8	0.11004442
231	0x3e2dd40c	0.1697542
232	0x3ba94e97	0.0051668393
233	0xbc4ba549	-0.012429544
234	0x3db1a522	0.08674075
235	0x3e72883f	0.23684786
236	0xbd895227	-0.067051224
237	0x3b0a78ac	0.0021129055
238	0x3d9c947b	0.07645508
239	0xbda3b6c5	-0.07993845
240	0x3dd5d727	0.10441428
241	0x3dac4322	0.08411242
242	0xbd9f4784	-0.077773124
243	0xbdee1001	-0.11624146
244	0x3a8e4a0b	0.0010855807
245	0x3dad4316	0.08460061
246	0x3e0b095f	0.13577794
247	0xbcb25555	-0.021769205
248	0x3d94046c	0.07227406
249	0xbdda5426	-0.10660581
250	0x3e012680	0.12612343
251	0x3d5a45bd	0.053289164
252	0x3db67ec7	0.089108996
253	0xbe6db557	-0.23213707
254	0xbed857fd	-0.4225463
255	0x3dab15b7	0.08353751

layers.3.bias f4 [128]
0	0x3e10d843	0.14144997
1	0xbde5dd9d	-0.1122391
2	0xbc9bf726	-0.019038748
3	0xbbe67126	-0.0070325313
4	0x3d3e6b0f	0.046488818
5	0x3e20cb77	0.15702616
6	0xbdf5540b	-0.119789205
7	0xbe46b68d	-0.19405575
8	0xbe95646b	-0.29178175
9	0x3dc8a228	0.09796554
10	0x3e572cf6	0.21013245
11	0x3e0818ef	0.13290761
12	0xbdbc1ba3	-0.09184959
13	0x3e06ad2d	0.13151999
14	0xbd39e459	-0.045383785
15	0x3d6a9452	0.057270356
16	0xbdf75db4	-0.12078419
17	0xbc3b5d2c	-0.011435788
18	0xbd8451a2	-0.06460883
19	0xbe46c26c	-0.19410104
20	0x3c81e92a	0.015858252
21	0x3e2a4adf	0.16630124
22	0x3dd4dbd0	0.103934884
23	0x3c9b426a	0.018952567
24	0x3d8371a8	0.064181626
25	0x3e2ea0d6	0.17053542
26	0xbc499b50	-0.012305096
27	0x3e1720c8	0.14758599
28	0x3dd888d5	0.10572974
29	0x3d4e23cf	0.05032712
30	0x3e5116dc	0.20418876
31	0xbd883b4e	-0.066519365
32	0xbdb540af	-0.08850228
33	0xbbb073e4	-0.005384909
34	0xbb0c54a8	-0.0021412764
35	0xbd9254f1	-0.071451075
36	0xbdc1ea52	-0.09468521
37	0xbe247e62	-0.16063836
38	0xbe39f3e2	-0.1815944
39	0xbe19f01b	-0.15032999
40	0xbe83f2e7	-0.25771257
41	0x3b957bec	0.004561892
42	0xbdec0b22	-0.11525561
43	0xbdd4fd14	-0.10399833
44	0xbd98dfc5	-0.07464556
45	0x3c333354	0.010937531
46	0xbe01bb6f	-0.12669156
47	0x3d92261e	0.071361765
48	0x3d30d73b	0.04317401
49	0xbbfbf92e	-0.0076896166
50	0x3d857aea	0.065175846
51	0xbdf4b186	-0.119479224
52	0x3cc819fc	0.024426453
53	0x3d95e4df	0.07319044
54	0x3c92bd8a	0.017912645
55	0x3ce6f2d5	0.028191963
56	0xbe062cb0	-0.13102984
57	0xbb167d27	-0.002296278
58	0x3da8c629	0.08240921
59	0x3da434aa	0.080178574
60	0xbb29fd88	-0.002593847
61	0xbdb44cc1	-0.08803702
62	0x3d315826	0.043296956
63	0x3da8ce7a	0.08242507
64	0xbdd95ae7	-0.10613041
65	0xbe91d713	-0.284844
66	0x3dc1b4bc	0.094583005
67	0x3d92f174	0.0717496
68	0xbe3533c5	-0.1769553
69	0x3e043d1d	0.12913938
70	0xbdb058b4	-0.08610669
71	0x3e4b0d45	0.1982928
72	0x3e55529f	0.20832299
73	0x3cba8f6a	0.022773463
74	0x3e44b862	0.19210961
75	0x3e73803a	0.23779383
76	0xbce112c4	-0.027474768
77	0xbce6e769	-0.028186517
78	0xbd338c11	-0.04383475
79	0xbdd46b1e	-0.103719935
80	0xbdff7bab	-0.1247476
81	0x3d9b990d	0.075975515
82	0x3d990138	0.074709356
83	0xbbc37ec7	-0.005966041
84	0x3dc67ebc	0.096921414
85	0x3c2cd0a8	0.010547794
86	0xbd6e9c9c	-0.058254823
87	0x3dd45d9c	0.10369417
88	0xbdf5133b	-0.119665585
89	0xbdf98ed2	-0.12185444
90	0x3b8fe931	0.0043918123
91	0x3e295d72	0.16539553
92	0xbb6fe954	-0.003660758
93	0xbc2d0cbd	-0.010562119
94	0x3db8a4c6	0.09015803
95	0x3e11b4c3	0.14229111
96	0x3dec92c6	0.11551432
97	0x3e5a2b51	0.21305586
98	0xbe0a1309	-0.13483824
99	0x3d9decd8	0.0771119
100	0x3e212992	0.15738514
101	0xbe126d34	-0.1429947
102	0xbd523adf	-0.051325675
103	0x3b2520fa	0.0025196658
104	0xbe5d9504	-0.21638876
105	0xbe36d838	-0.17855918
106	0x3c1b8cf8	0.009494059
107	0xbd94fef6	-0.072751924
108	0x3e27bdab	0.16380946
109	0xbd670811	-0.056404177
110	0xbd23cf95	-0.039992888
111	0x3e482908	0.19546902
112	0x3d52aee1	0.05143631
113	0x3dbd06af	0.092297904
114	0xbded1a38	-0.115772665
115	0x3cf2c9bb	0.029637208
116	0xbe104b79	-0.1409129
117	0x3d54c368	0.051944166
118	0xbe0b0a87	-0.13578235
119	0x3e1a3be8	0.15061915
120	0xbcc70857	-0.024295969
121	0xbd46e273	-0.048555803
122	0x3c783b89	0.015150913
123	0xbd8ac128	-0.06775123
124	0x3dbb52d1	0.09146655
125	0xbe0993cb	-0.13435285
126	0x3d8b0fad	0.06790099
127	0xbe144800	-0.14480591

layers.5.weight f4 [1, 128]
0	0xbe001f13	-0.12511854
1	0x3ec175e5	0.3778526
2	0xbd448f25	-0.047988076
3	0x3e83b0c0	0.25720787
4	0x3eb8f92f	0.36127612
5	0x3e803d8b	0.25046954
6	0xbe897346	-0.2684576
7	0x3d6afcdf	0.057370063
8	0xbeb6833c	-0.35647
9	0xbe1d7a0a	-0.15378585
10	0x3eb8f823	0.36126813
11	0xbd9c5ce2	-0.076349035
12	0xbeaa68a3	-0.33282956
13	0x3e8a3e73	0.2700077
14	0xbe682972	-0.2267206
15	0xbe1d13f4	-0.15339643
16	0xbea7b95c	-0.32758605
17	0xbe10db21	-0.14146091
18	0x3d3226a6	0.04349389
19	0x3e569708	0.20956051
20	0xbe9354ac	-0.28775537
21	0xbe51e6ce	-0.20498201
22	0x3e9728cd	0.29523316
23	0x3e97bc9f	0.29636094
24	0xbe501338	-0.20319831
25	0xbe6df39f	-0.23237465
26	0x3e3e064b	0.18557088
27	0xbd32057f	-0.043462273
28	0xbe95b84c	-0.2924217
29	0xbe9dfeae	-0.30858368
30	0xbdd7f12c	-0.10544047
31	0x3e0f8590	0.14015794
32	0xbdfb498d	-0.12269888
33	0xbe052129	-0.13000931
34	0xbe1873e7	-0.14887963
35	0xbd7560cc	-0.059906766
36	0xbe619fc5	-0.22033603
37	0x3dfb65f0	0.122753024
38	0x3ddc5bd8	0.10759705
39	0x3e2c1229	0.16803803
40	0x3dc58a67	0.09645539
41	0x3e7b34cf	0.24531864
42	0x3e4d0f8b	0.2002546
43	0x3e505640	0.20345402
44	0xbb178a2f	-0.0023123135
45	0xbd6adc55	-0.05733903
46	0x3d819641	0.06327487
47	0xbe5820c7	-0.21106254
48	0x3df3ac68	0.11898118
49	0xbe3984b9	-0.18117036
50	0xbe16dc4f	-0.14732479
51	0x3e238658	0.15969217
52	0x3e87d08b	0.26526293
53	0xbd85504f	-0.06509458
54	0x3e5baab9	0.21451844
55	0xbd887c02	-0.066642776
56	0xbea46234	-0.32106173
57	0xbe34d4fc	-0.17659372
58	0xbe25f5ba	-0.16207018
59	0xbdb3320c	-0.0874978
60	0xbe8c43c2	-0.27395445
61	0x3e1250c7	0.14288627
62	0xbdf067f0	-0.117385745
63	0xbe69adc7	-0.22820197
64	0xbe83863c	-0.2568835
65	0x3dcfa43c	0.10138747
66	0xbe467ba0	-0.19383097
67	0x3e74f25f	0.23920582
68	0x3dca3656	0.09873645
69	0xbd6bfe00	-0.05761528
70	0x3e20016b	0.15625541
71	0xbde06051	-0.10955871
72	0xbe405901	-0.18783952
73	0xbe73b46a	-0.23799291
74	0xbe299fee	-0.16564915
75	0x3e99e6bc	0.3005885
76	0x3e824f24	0.25451005
77	0xbe1dcb66	-0.15409622
78	0xbd31e037	-0.04342672
79	0x3e2696ac	0.16268414
80	0x3cbd2511	0.023088964
81	0x3e95b372	0.29238468
82	0x3e858620	0.26078892
83	0xbddb0f86	-0.1069632
84	0xbd7a1a35	-0.06106015
85	0x3e306838	0.17227256
86	0x3e6feba1	0.23429729
87	0x3e8575d8	0.2606647
88	0x3db46d5e	0.08809923
89	0x3d1a4151	0.037659947
90	0x3c82d4b5	0.015970567
91	0xbda17983	-0.07884505
92	0xbe29170f	-0.16512702
93	0xbe24f1b6	-0.1610783
94	0xbe1b19a9	-0.15146507
95	0xbdbb7f70	-0.09155166
96	0x3e958d5e	0.29209417
97	0xbd7a80bb	-0.061157923
98	0x3e8be049	0.27319553
99	0x3e4b4171	0.19849183
100	0x3eb612b3	0.3556114
101	0x3e39d28b	0.18146722
102	0x3d9fc8f4	0.07802001
103	0xbc29290e	-0.01032473
104	0x3d9ba6ac	0.076001495
105	0x3d8817a4	0.06645134
106	0xbde8040b	-0.11328896
107	0x3d5ae5f0	0.05344194
108	0xbe0e8517	-0.13917957
109	0xbe7c484a	-0.24636951
110	0xbe9e8124	-0.309579
111	0xbd7af784	-0.061271206
112	0x3ed6de74	0.41966593
113	0x3e488068	0.19580233
114	0x3e6c511d	0.23077817
115	0xbe77aa0f	-0.24185966
116	0xbd2ec47d	-0.042667855
117	0x3e203bb3	0.15647773
118	0x3dedde96	0.116147205
119	0x3ea04d92	0.3130918
120	0xbe9d049d	-0.30667582
121	0x3e994422	0.29934794
122	0xbe13e0f2	-0.14441279
123	0xbe2cd3ee	-0.1687772
124	0xbd7284f1	-0.059208814
125	0xbe95bff6	-0.29248017
126	0xbc035b88	-0.008017428
127	0xbe939c2f	-0.28830096
