model_zoo/GAIL/MountainCar-v0/actor_756608.pth (torch, 138295 bytes, 8 tensors)

layers.0.weight f4 [128, 2]
000000 59 26 07 3f 36 9d 16 3f 77 09 fc be 73 ee 57 bf
       0.5279289 0.58833635 -0.4922597 -0.8434822
000010 bd c7 cb 3e ae 71 5d bf 08 31 35 be df 3c 0d 40
       0.39800826 -0.86501586 -0.17694485 2.2068403
000020 4a 58 17 3d 5b 47 0d c0 67 6a 73 bd 5b 80 d8 3f
       0.036949433 -2.2074802 -0.059427645 1.6914171
000030 b9 0d 8c be c5 9d ab bf 3a 58 28 3f 36 45 d6 bf
       -0.2735422 -1.3407522 0.65759623 -1.6739872
000040 51 1b 3f 3f 70 6c ba 3d bb 25 67 be a7 7d 0e c0
       0.74651057 0.09102714 -0.22572987 -2.2264192
000050 00 27 2c bf 91 76 00 c0 c3 2a 10 3f 33 5f 2c bf
       -0.6724701 -2.0072367 0.5631525 -0.6733276
000060 4e c5 b3 3c 80 17 0d 40 cf 3b 8f be d1 00 9d be
       0.021944668 2.2045593 -0.27975318 -0.30664685
000070 b5 91 41 bc 6e db 1e bd 38 eb 9c be 93 7b f3 bf
       -0.011814524 -0.038783483 -0.30648208 -1.9022087
000080 05 cb 26 3f bb db 50 bf c3 85 88 3e 8c c9 07 40
       0.65153533 -0.8158528 0.26664552 2.1216764
000090 ca aa 0a 3f cd 6d e9 3f ca 8a e8 3e 76 a6 05 3e
       0.54166853 1.8236634 0.45418388 0.13051781
0000a0 ad 00 67 3e 0a 61 20 40 3c 1d d1 bd 25 eb e8 3f
       0.22558852 2.5059228 -0.10210654 1.819676
0000b0 df 75 83 3e 6e 34 0c c0 3c 9e 19 bf 16 94 c9 be
       0.25675866 -2.1907 -0.6000707 -0.39370793
0000c0 c2 89 e7 3c 2a 23 05 c0 c4 3a 88 3e 04 fd 8a 3f
       0.02826393 -2.0802712 0.26607335 1.0858464
0000d0 9e 77 e2 be e7 67 8e bf f4 6d d7 bd 90 1e 27 c0
       -0.44231886 -1.1125458 -0.10519019 -2.6112404
0000e0 e3 4b 10 3d 98 0f c8 bf b6 89 96 be ed 80 13 40
       0.03522862 -1.5629759 -0.2940194 2.304744
0000f0 6c 65 4b be 2c 29 f2 bf 50 6c b4 3e 8e 00 8c 3f
       -0.19862908 -1.8918815 0.35238886 1.0937669
000100 6a 1f b7 be a7 ba 0c c0 c2 37 02 3f 2f ee 0f c0
       -0.35766155 -2.1988924 0.5086633 -2.2489126
000110 68 3f 19 3f ca d0 f0 3f 2b 9a 3a 3f 16 47 11 bf
       0.59862375 1.8813717 0.7289149 -0.56749094
000120 c9 65 5e 3e a8 44 a0 bf 6b c4 f5 3c b4 8f 77 bf
       0.21718515 -1.2520952 0.030000886 -0.9670365
000130 1f f1 4a 3d ba 0e f5 bf 1c c0 65 be 88 ba fb bf
       0.049546357 -1.9145119 -0.22436565 -1.96663
000140 86 3a 4e 3f 6b 83 a5 3f f8 c7 1b 3f ac d1 8d 3e
       0.8055805 1.293073 0.60852003 0.2769903
000150 0b a8 50 3e 0e 1d cc bf 08 a1 d6 3d 08 35 2c bf
       0.20376603 -1.5946367 0.10479933 -0.6726842
000160 64 9f cc 3e aa e1 bb 3f dc f0 2e 3e 79 21 16 40
       0.39965355 1.4678242 0.17084068 2.345793
000170 ce 09 23 bf 6f 31 b9 3f e4 30 66 3e 86 d4 0d 40
       -0.63686836 1.4468211 0.22479588 2.2160964
000180 68 e8 a4 3e d9 58 1c c0 e6 4e 9d 3e 86 02 c1 3f
       0.32208562 -2.4429228 0.30724257 1.5078895
000190 1b 55 79 3e 99 c9 e1 bf fe 85 a5 bd b6 df 2b 40
       0.24348871 -1.7639648 -0.080821976 2.6855292
0001a0 ff ec 83 3e 7d 07 22 40 83 16 e7 bd 97 5b e7 3f
       0.2576675 2.531707 -0.11283591 1.8074826
0001b0 e4 5f 03 bf eb de 46 3f 51 2e f1 3e 6b 67 01 40
       -0.5131819 0.77683896 0.4710565 2.0219371
0001c0 aa cd a0 3e 9e 74 14 40 86 71 0b 3f 5c f7 e8 bf
       0.3140691 2.3196177 0.544701 -1.8200488
0001d0 5b aa 91 3e ec 50 9e bf f3 78 e5 3e dd ed 05 40
       0.28450283 -1.2368445 0.4481884 2.092643
0001e0 94 74 1c bf 51 ff 9c bf c3 14 13 bf 55 7a b8 be
       -0.61115384 -1.2265416 -0.57453555 -0.36030832
0001f0 76 45 c9 be 41 02 e4 be e8 cf 08 bf 7b 42 2a bf
       -0.39310807 -0.4453297 -0.5344224 -0.6650769
000200 27 8f ea 3e 62 22 ec 3f dd 3c f2 3e 47 a0 28 bf
       0.45812342 1.8447993 0.4731206 -0.65869564
000210 a2 d1 b2 be ad b1 95 bf d0 02 a6 be b4 2b 0d c0
       -0.34925562 -1.1694847 -0.3242402 -2.2057924
000220 4c 67 69 3e 0e f1 ca 3f 5b c8 f6 3e 4b 07 fb 3f
       0.22793311 1.5854814 0.48199734 1.9611601
000230 3f b5 ec 3d c6 6a 26 c0 e4 06 2a 3d 75 28 00 40
       0.115580074 -2.600267 0.041510478 2.0024693
000240 09 76 49 3e 4f 43 fe bf b5 ca a9 3e 21 f4 40 bf
       0.19673933 -1.9864291 0.33162466 -0.7537251
000250 06 a3 2b 3f 9c 43 20 3f 95 df 1f 3f 8e 2f 08 bf
       0.6704563 0.62603164 0.62450534 -0.5319756
000260 f3 fb ee 3e 12 f0 da 3f f5 cb fd 3e c9 09 00 40
       0.46676597 1.7104514 0.4956967 2.0005972
000270 e3 bb eb 3e 02 6d ae bf 91 2a 4a be 2c e4 20 40
       0.46041784 -1.3627017 -0.197428 2.5139265
000280 ed 5b d2 3e 9b 7b e0 bf e0 8d 80 3e c8 f3 06 bf
       0.4108576 -1.7537721 0.25108242 -0.5271573
000290 43 de 49 bf 5d 29 30 bf 09 0d 96 be 9c 07 e4 bf
       -0.7885477 -0.68813115 -0.2930682 -1.7814822
0002a0 6b f7 b6 be 52 c6 3b 3f 79 d4 a5 bc 22 0a 59 3f
       -0.3573564 0.7334949 -0.020242916 0.84781086
0002b0 33 02 bf 3c 28 0f 32 3f b6 df 82 3d 6d 8a e1 3f
       0.023316478 0.69554377 0.06390326 1.7620369
0002c0 68 e0 68 3e 31 e3 ce bf f8 80 2d bf fb 27 fb bf
       0.22741854 -1.6163083 -0.67774916 -1.9621576
0002d0 2b e5 49 3e 54 db 1a be 6c fb 0a 3f 3e 21 e9 3f
       0.19716327 -0.1512273 0.5428989 1.821327
0002e0 15 1e 41 3f dd 99 7f 3e ef 6b 61 be e3 81 9f 3f
       0.75436527 0.24961038 -0.2201383 1.2461513
0002f0 38 1c be bd 3c 8d 28 3d 3b 8a 82 3d 0d 43 0d c0
       -0.09282726 0.041150317 0.063740216 -2.2072175
000300 bf 64 5c 3d 9f 91 1b 40 9d 3e e4 3e 1e bd a9 bf
       0.053807016 2.430763 0.4457902 -1.3260839
000310 79 1c a9 bc 72 d5 dd 3f 2c d4 a2 3e 0a 15 c6 3f
       -0.02064346 1.7330763 0.318025 1.5475171
000320 6a 92 e5 3e 56 34 08 40 be 6d f0 3d de 6b ae 3f
       0.44838268 2.1281943 0.11739682 1.3626668
000330 19 cf e1 3e f8 81 cb 3f 40 cb 5d 3e e7 59 ed 3f
       0.44103315 1.5899038 0.21659565 1.8543061
000340 1d a2 00 3f 9d e5 a0 3e 51 1a 77 be b7 f2 a4 3f
       0.50247365 0.3142518 -0.24131133 1.2886571
000350 c5 b7 61 3e ee 12 02 40 a3 2e da 3e 32 a5 0e 3f
       0.22042759 2.0324054 0.42613706 0.5572082
000360 b3 2e ac 3e b9 54 24 40 c9 c3 c4 3e 9f ec 80 3f
       0.3362938 2.567671 0.38430622 1.0072211
000370 fa f1 44 3d 2e 53 ca 3f e2 8f 63 be 0a 97 0a c0
       0.04808233 1.5806634 -0.22222856 -2.1654687
000380 e1 da 39 3f ef af ca 3f 67 bb 00 3c 76 8a b5 bf
       0.7259961 1.5834941 0.00785718 -1.418288
000390 10 d2 a9 be 25 c4 0b c0 15 46 0c 3f 51 73 03 40
       -0.33168077 -2.1838467 0.54794437 2.0539134
0003a0 5c 23 00 bf fb 61 c9 bf fc 91 1f 3f d9 88 83 3f
       -0.50053954 -1.5733026 0.6233213 1.0276138
0003b0 79 c6 21 bf b6 a0 9d 3e e8 27 35 bf 78 71 8c bf
       -0.6319347 0.30786675 -0.7076402 -1.0972128
0003c0 7d d3 fe 3d 49 2b 12 c0 28 f3 ca bd f4 b1 c9 3f
       0.12442682 -2.283892 -0.099096596 1.5757432
0003d0 99 d8 c9 be ef a0 04 c0 e6 18 43 3e dd c5 08 40
       -0.39423063 -2.0723226 0.19052467 2.1370766
0003e0 ba bd a3 be f3 ff 39 3f 02 28 a4 be fc c2 c5 bf
       -0.31980687 0.7265617 -0.32061774 -1.545013
0003f0 8f a4 1b bf c6 c1 cc bf aa c6 51 be cf 82 b1 bf
       -0.6079797 -1.5996635 -0.2048594 -1.3868045

layers.0.bias f4 [128]
000000 88 97 cb 3e 6c 72 e5 bd f5 1a 72 be c7 ba 04 3f
       0.39764047 -0.11203465 -0.23643096 0.518475
000010 07 9b 19 3d 20 56 02 3f d0 a1 3a 3e 8d 93 ae be
       0.03750136 0.50912666 0.18225789 -0.34096947
000020 1c b8 db 3e 1b 9c a3 bd a5 34 9b be c1 c5 e2 3e
       0.42913902 -0.07988759 -0.30313602 0.442915
000030 c3 61 d1 be a3 3b 66 be 9d b1 e4 bc cd 55 7c be
       -0.408949 -0.22483687 -0.027916724 -0.24642105
000040 aa 7a c9 bc d7 15 df bd 65 c2 3a 3e 31 ab c7 3e
       -0.024594624 -0.108928375 0.18238218 0.38997796
000050 f3 e1 37 be 54 e3 b2 3e d3 c7 16 3f 62 2c 9c be
       -0.17957287 0.34939063 0.5889866 -0.3050261
000060 e4 2f 68 3d 6b 36 a6 3d 4f b3 8a be c3 b2 75 bd
       0.056686297 0.08115848 -0.27089927 -0.059984934
000070 e7 37 c2 3e 52 98 8c 3d 7a dc b4 be c9 05 b9 3e
       0.37933275 0.0686499 -0.3532446 0.36137226
000080 75 0d 9d 3e 25 d0 96 be b7 21 9e 3c 1d 22 0a 3f
       0.3067433 -0.29455677 0.019303186 0.539583
000090 42 c5 af 38 b4 18 59 bd ee 65 13 be 82 0c da bd
       8.3813924e-05 -0.053002074 -0.14394352 -0.10646917
0000a0 e3 b6 1a 3f 05 a9 c8 3e f6 fa a5 3d 7d 73 b6 3d
       0.60435313 0.39191452 0.081045076 0.089087464
0000b0 ef 40 7d 3e 11 45 af 3e 7c 6d a1 3e d5 b4 3f be
       0.24731801 0.3423238 0.31528842 -0.18721326
0000c0 fd 0e 3b 3e 2c cd a8 be 0a 26 a1 3c ca 15 a2 bd
       0.18267436 -0.32969034 0.019671459 -0.07914312
0000d0 1f b3 85 3e 80 a2 79 be de 60 73 3e 58 38 a6 be
       0.2611322 -0.24378395 0.2376742 -0.32464862
0000e0 82 d5 db bd c5 d8 6a be 15 4a 7b 3e 1c dd 7b 3e
       -0.10734083 -0.22934254 0.24539979 0.24596065
0000f0 7a d9 9a be a0 2c b7 be 2f 15 19 be 15 1b 93 bd
       -0.30244046 -0.35776234 -0.14949487 -0.071829
000100 ac fc a2 3d ea 74 8f be 97 76 4e 3e a7 e3 b2 be
       0.079583496 -0.28018886 0.20162426 -0.3493931
000110 48 cb c1 be 52 ad cd 3e 9d dd 27 3c 1b 94 80 be
       -0.37850404 0.40171295 0.010245708 -0.25112996
000120 bd 57 45 3e 96 3c 5e be f4 02 0f 3f 11 3c a5 3e
       0.19271751 -0.21702799 0.5586388 0.3227239
000130 15 b5 94 be 6f 4b 31 bd ab 14 dc be d8 ce 55 3e
       -0.29044405 -0.04328483 -0.42984518 0.20879686
000140 fb ad e2 be 87 5b de 3e 79 f5 dd be 2f cf e8 3d
       -0.44273362 0.43429205 -0.43351343 0.11367642
000150 d3 63 d5 be 2f 31 ee bd ca f6 96 be 2c 2b 0b be
       -0.41677722 -0.11630475 -0.2948516 -0.13590688
000160 d7 2c cc be 9d d4 ab be 68 e7 b4 bc 12 25 4f 3e
       -0.3987796 -0.3356065 -0.022083 0.20228985
000170 07 8b ab 3e 64 1f 60 3d c3 37 48 3e a8 a1 a9 bd
       0.33504507 0.054717436 0.19552521 -0.082827866
000180 1e 1c 50 be a2 4b 54 3e 3d 3d a0 be 04 da b4 3b
       -0.20323226 0.20731977 -0.3129672 0.0055191536
000190 28 7d f0 be 39 ca ae 3e 2a 36 43 bc e8 52 6d 3d
       -0.46970487 0.3413866 -0.011914769 0.057940394
0001a0 b4 e8 f2 3e 0e eb 65 3e a8 eb d6 bd 01 ea 50 3e
       0.47443163 0.22452947 -0.104941666 0.20401765
0001b0 90 09 a4 3e bb aa a5 be 80 99 df be f5 a5 f8 be
       0.32038546 -0.3235682 -0.436718 -0.48564115
0001c0 3c 5f b1 3e 34 46 e0 3e 81 50 62 be 93 23 ec 3e
       0.3464297 0.4380356 -0.22101022 0.4612089
0001d0 f4 75 63 3e 0c 4a 95 3e d6 c3 15 be 73 68 1a bf
       0.22212964 0.29158056 -0.14625487 -0.60315627
0001e0 11 7d fa be e6 07 fb 3e 53 62 4c be db f1 fc 3d
       -0.48923543 0.49029464 -0.19959383 0.12350818
0001f0 19 bb 97 bd b8 58 eb 3e f5 28 f4 be 92 ba 59 be
       -0.07408733 0.45966125 -0.47687498 -0.21262577

layers.1.weight f4 [128, 128]
000000 e4 d0 de bd bd 34 80 3e b8 fd a5 3c 9d 66 a7 3c
       -0.108796865 0.25040236 0.020262584 0.020434672
000010 2e a0 84 be 66 80 b2 3b 7d 33 b8 3d de f4 d2 bd
       -0.25903457 0.005447435 0.089941956 -0.10300611
000020 19 10 e9 be 03 9b b0 3d 24 e8 02 3f 1c df 6c be
       -0.45520094 0.08623316 0.5113547 -0.23131984
000030 d0 be 21 3d 36 4a 23 3e 70 9b b7 bd 64 47 8d 3d
       0.039488614 0.15946278 -0.08965194 0.06898382
000040 6d 5f 23 be 64 bf bf 3c bb 4c d7 be bf 71 a1 bd
       -0.15954371 0.023406692 -0.42050728 -0.078830235
000050 9a 2e 4b 3d 25 73 c2 3d f6 bc 1a bd fb 10 d1 3e
       0.04960499 0.09494618 -0.037777863 0.40833268
000060 3a fb 5d be 37 81 32 be 99 57 11 3e 9d e4 db bd
       -0.21677867 -0.17432104 0.14193572 -0.10736964
000070 c6 1a 88 bd eb 9a 29 3e 94 b0 35 3d d5 46 1b be
       -0.06645732 0.16563003 0.04435785 -0.15163739
000080 4b 42 8e bc 34 3a 1e be 9d 4c 1c be 9f ce 52 be
       -0.017365595 -0.1545189 -0.152636 -0.20586632
000090 1f 3c a8 bd 78 75 09 3d ec bb 15 bd 56 a9 37 3e
       -0.08214592 0.033559293 -0.03655617 0.1793569
0000a0 6b ca 25 be 47 44 60 be 6c a2 fc be 05 80 8f bd
       -0.16190498 -0.21901046 -0.49342668 -0.0700684
0000b0 7b 1e 3d be 5f 77 4e 3d c1 99 ec 3c 82 cd bf bd
       -0.18468659 0.05040681 0.02888191 -0.093653694
0000c0 98 4b 2c bf 73 89 0b bd f1 74 69 be 96 15 b9 3e
       -0.67302847 -0.03406663 -0.22798516 0.3614928
0000d0 f0 b1 25 3d 8e 15 c1 3d 21 7c 82 3d f6 39 6c 3c
       0.040452898 0.09427939 0.06371332 0.014418116
0000e0 7a a8 b1 bd 94 ef 07 be 57 b2 47 be bc ee b2 be
       -0.086747125 -0.13274986 -0.19501625 -0.34947765
0000f0 1e 9a 00 3f 1e c7 8f 3e 50 7b ed 3e a4 59 8b 3d
       0.50235164 0.28081602 0.46383142 0.06804207
000100 64 59 5b be 00 3c 01 be cb ec 05 bd a0 f4 89 3b
       -0.21420819 -0.12620544 -0.032696526 0.00421007
000110 db 28 ca bd 2a 99 21 be 09 21 a7 be cd e4 1b bd
       -0.09871074 -0.15781084 -0.3264239 -0.03806
000120 f6 3a 6b be 5e 67 04 3d 9e fb 13 be 8a 26 0f bf
       -0.2297171 0.03232514 -0.14451453 -0.5591818
000130 ee 34 05 3d 8a 04 cb bd cf 52 b1 bb 7f 6c 1c 3e
       0.03252118 -0.09912975 -0.005411483 0.15275763
000140 4c 07 a6 bd b2 4c 7f bd 8a 89 a3 3e ed 1e 0e bb
       -0.081068605 -0.062329 0.3194087 -0.0021685914
000150 5c c5 6f 3b 56 86 2a bd f8 39 70 bd 68 9b 96 bd
       0.0036586141 -0.04163202 -0.058649033 -0.0735386
000160 e7 5c 02 bc b2 a6 ee 3e 83 80 c0 bd 09 75 d9 be
       -0.00795672 0.46611553 -0.09399512 -0.42472103
000170 71 d3 34 bf 36 8e 17 3e 4e 6e 90 3d c1 24 b8 bd
       -0.70635134 0.14800343 0.07052289 -0.08991385
000180 c1 a6 0a 3d d5 7f 3b bf 71 44 af 3c 83 e4 ad bd
       0.033850435 -0.7324193 0.02139494 -0.08490851
000190 3f 41 4d bd 18 e7 ad bc 3e 73 09 be b6 e4 ee bd
       -0.05011105 -0.021228358 -0.13422868 -0.11664717
0001a0 74 53 05 be a7 3b d0 bc b8 da 17 bd 27 7a cc be
       -0.13020116 -0.02541907 -0.03707382 -0.39936945
0001b0 e5 53 d5 bd 42 7c 9c 3c f1 24 95 bd d1 54 2c bd
       -0.10416392 0.01910222 -0.07282437 -0.042073075
0001c0 ac 4c de be db 3a 92 3d 3b af a1 3d 5f 88 3c bd
       -0.4341787 0.07140132 0.07894751 -0.04602849
0001d0 a1 61 b8 bc 80 67 02 bf fd b2 7e 3e e9 7c 40 3e
       -0.02250749 -0.5093918 0.24872966 0.1879765
0001e0 de 82 2c 3d 42 df 95 3c d4 20 84 3e cb 2f f9 bd
       0.042116992 0.018294934 0.25806296 -0.12167319
0001f0 bb 6f 40 3e 5c f0 70 bb 30 11 92 3d e8 96 55 3d
       0.18792622 -0.003676436 0.071321845 0.05214587
000200 01 fd e7 bc de fa 87 bd 69 20 76 bc f2 ab 7f bc
       -0.028318884 -0.06639646 -0.015022376 -0.01560496
000210 09 d3 1e bf 75 42 54 bc 3d e5 8c bc ce 8f 07 bd
       -0.62040764 -0.012955298 -0.017199153 -0.033096127
000220 d0 c2 d0 bd d1 82 48 be bc 70 0d be 2b a3 04 bd
       -0.101934075 -0.19581152 -0.13812536 -0.03238217
000230 e3 96 af bc d0 22 42 3d d9 90 05 3d 8c 91 79 bd
       -0.021434253 0.04739648 0.03260884 -0.06092982
000240 98 38 9b bd 43 07 30 3d 30 b7 f6 3d 04 f8 af bd
       -0.07579154 0.042975675 0.12046659 -0.08592227
000250 3a 6b 27 3d 03 40 42 bd 66 29 48 bd 31 2b 2e bd
       0.040873744 -0.047424328 -0.048867606 -0.04252166
000260 a0 d1 d9 be 9c b6 41 bd e4 d5 b9 bc f3 b3 71 bf
       -0.42542744 -0.04729329 -0.022684999 -0.94415206
000270 e3 81 54 bc a2 cb f1 3d e0 52 2d bd a5 1a 05 bd
       -0.0129704205 0.11806418 -0.042315364 -0.032496113
000280 08 9c 3c bd 88 3d cd bd 0c af 88 3d 50 59 d7 bd
       -0.04604724 -0.10021502 0.066740125 -0.10515082
000290 61 df 8e bc d4 69 01 3d 7d fb 6f bd d6 13 8c be
       -0.0174405 0.031595066 -0.058589447 -0.27358884
0002a0 58 38 7d bc 34 89 8d bd ab b4 c3 be e2 b1 da 3b
       -0.015455328 -0.06910935 -0.38223776 0.0066740373
0002b0 3e 8c 82 3d 7b 47 03 3e 80 9a ea 3d 27 d3 24 3d
       0.06374405 0.12820236 0.1145525 0.040240433
0002c0 f2 49 0f bf 63 ff 7c 3d 1d 09 8a bd 09 f5 2a 3f
       -0.55972207 0.061766993 -0.067400195 0.66780144
0002d0 6d 68 57 3e 98 bc 22 3d 38 49 1c bd 96 21 b9 3b
       0.21035929 0.03973064 -0.038155764 0.0056497557
0002e0 18 15 0f 3d 7c b7 6c bb 49 3c 94 bd bc 03 8b 3e
       0.034932226 -0.0036120107 -0.07238061 0.27151287
0002f0 5a 9e e5 bd c8 f2 23 bb 2e e8 73 bc a4 0a 2e 3b
       -0.11211844 -0.0025016535 -0.014886899 0.0026556635
000300 33 fe 18 3d d0 fb 3f 3d a4 66 a9 bd 87 37 03 be
       0.0373518 0.046871006 -0.0827153 -0.12814151
000310 cf 31 9a bc 47 6d a8 3d 0a 36 03 bf bb fc 97 3d
       -0.018822579 0.08223968 -0.5125433 0.074212514
000320 c5 f8 46 be df 48 1d 3d c7 47 af bd 55 7e 37 be
       -0.19430836 0.038399573 -0.08558612 -0.17919286
000330 6c 8f 33 3d aa 00 da 3b de 79 a5 bd 83 cf 00 3e
       0.04383795 0.006652911 -0.08079885 0.1257916
000340 cf 22 40 3d 34 70 48 bd 2c e3 3e 3d f4 d4 5f bd
       0.046908196 -0.04893513 0.046603367 -0.054646447
000350 06 3e 79 3d ee d4 9c 3b 22 df 1d bd 19 93 0a 3e
       0.060850166 0.0047861254 -0.038542874 0.13532676
000360 29 a5 0f bc 7a 83 47 be b2 e2 cc 3c 39 bc 28 3e
       -0.008767405 -0.19483748 0.02501044 0.16478051
000370 d7 e1 91 3d 65 3d 1d 3d 89 a8 5f bc 8c 0e b7 bd
       0.07123154 0.03838863 -0.013651022 -0.089383215
000380 76 14 2d 3e c8 96 8b be 52 91 d5 bc 43 24 07 3d
       0.16902336 -0.27263474 -0.02607027 0.032993566
000390 39 bf a7 3d 1e fe a8 3b 71 6b 5e bc 40 83 2d 3e
       0.0819077 0.0051572463 -0.013575421 0.16944599
0003a0 5c 6b 13 3d 7d 4a 96 3d 09 4e 15 3e 16 3b a4 3d
       0.035991058 0.07338426 0.1458055 0.08019082
0003b0 2f ad 0c 3d 00 9e 0d 3d 7d a2 95 3d 10 47 a4 bd
       0.03434485 0.03457451 0.07306383 -0.080213666
0003c0 5d 35 09 3d e2 ef d1 bd 15 3f 41 be 95 ca 94 3d
       0.033498157 -0.10250832 -0.1887172 0.07265202
0003d0 7d 89 11 bd 42 b0 01 3d bf 59 02 3e 7b c2 a6 3d
       -0.03553151 0.031662233 0.12729548 0.08142563
0003e0 f6 dd 37 bd 26 d3 d1 3c a7 8d 70 be 5d cb 81 3e
       -0.044889413 0.025613379 -0.23491536 0.25350466
0003f0 7c ce 5c bc 87 57 52 3d a6 f0 95 bd af bf a8 bd
       -0.013476964 0.051353004 -0.07321291 -0.08239686

layers.1.bias f4 [128]
000000 63 33 95 bd 93 01 04 bd 80 2f c1 3d c3 6f e0 3d
       -0.07285192 -0.032228064 0.09432888 0.10958817
000010 a1 12 23 bd e5 8d 3e bd 8d 2c 43 3d 7a a1 ca 3d
       -0.039812688 -0.04652204 0.04764991 0.098940805
000020 9a 0c 77 bd 35 02 30 bd e3 3c 68 3c da 64 fe bc
       -0.060314752 -0.042970855 0.014174673 -0.03105395
000030 c2 28 e0 3c da 10 90 bd 0f a8 bf bd 35 7c 5c bd
       0.027363185 -0.07034464 -0.093582265 -0.05382939
000040 5e a9 32 3c 0c 72 19 3c 60 40 a4 3d f3 13 8c bb
       0.010904638 0.00936557 0.08020091 -0.004274839
000050 c2 d1 c6 3b 7c 60 0c be 65 bd 91 bd 3a af f7 3c
       0.0060674855 -0.13708681 -0.07116202 0.030234922
000060 d5 ba e4 3c b0 17 93 3d f5 3c 9a 3c 41 b3 49 3d
       0.02792112 0.071822524 0.018827895 0.049243215
000070 21 80 d0 bd 01 52 17 3c d1 53 b9 3b 9d fb 06 3e
       -0.10180689 0.00923586 0.0056557436 0.1318192
000080 1f 1c d4 3c 99 1e 77 bc 4d 71 38 bd 84 4d 7e bd
       0.025892315 -0.015082979 -0.045029927 -0.062085643
000090 c0 c3 0a 3c df a1 c0 bc 01 80 fa 3d 0e 2f 10 3d
       0.008469522 -0.023514686 0.12231446 0.035201125
0000a0 e6 1f 9d bc 57 96 3f bc 6d 6d 0d be 5e 1a e4 bd
       -0.01918025 -0.011693559 -0.13811274 -0.11137842
0000b0 98 7e d7 3c 9d 91 10 bd d4 05 7d 3d 26 3e 80 bd
       0.026305482 -0.035295118 0.061773136 -0.06261854
0000c0 a2 a1 d3 3b d9 db 38 3d db a2 98 bc 5b af 82 bc
       0.006458477 0.045131538 -0.018632343 -0.015952757
0000d0 a0 5d 46 3d bc 6b 0b 3d 06 8b bc 3d 0a b8 68 3d
       0.04842913 0.03403829 0.09206204 0.05681614
0000e0 9c 72 0a 3d b9 5a 3d bc 2f 34 a7 bd c7 a0 af 3b
       0.033800706 -0.0115572745 -0.0816425 0.0053597423
0000f0 55 59 11 be fc 9f 8a 3d e7 be a7 bd 8b 21 1d 3d
       -0.14194234 0.06768796 -0.081907086 0.038362067
000100 93 8a 60 bd 80 e0 07 bd 16 a2 8e 3d 72 57 07 bd
       -0.054819655 -0.033173084 0.06964509 -0.03304238
000110 6a d5 85 bd b7 57 c1 bd 9f cf bf 3d 55 6a 8c bd
       -0.06534846 -0.094405584 0.093657725 -0.06856219
000120 3c d0 c2 bd ca 8f c0 3c b2 93 01 3e db 6c d1 bd
       -0.09512374 0.023506064 0.12653998 -0.10225841
000130 4f 53 30 bd ad 1b 41 3e 3c 46 2b bd ec df 92 bd
       -0.0430482 0.18858214 -0.041815028 -0.07171616
000140 5b ea b3 bb a1 cb a7 3c 5e b8 05 bc 82 ce 24 3e
       -0.005490584 0.02048284 -0.008161632 0.16094401
000150 c7 98 c5 bd 61 14 5c 3d c2 c2 0f 3d 26 da cd bb
       -0.096482806 0.053730372 0.035097845 -0.006282109
000160 bf 49 72 3d af 3d 27 bd cb 6b 34 bd 90 b4 e5 bb
       0.05915236 -0.04083031 -0.044048112 -0.00701005
000170 28 76 42 3d e3 8c ab 3d 3a 0d a4 3c 41 f4 d5 3c
       0.047475964 0.083764814 0.020025838 0.026117446
000180 c3 c5 e6 3d ba 36 fb 3c a5 a3 34 3d 85 b8 82 3d
       0.11268189 0.030665744 0.044101376 0.063828506
000190 94 6e 93 3d 83 10 b7 3c cb 5a 6d 3d a9 ec 72 bd
       0.071988255 0.02234674 0.057947915 -0.059307728
0001a0 66 dc 97 3d a5 62 ac 3d 15 db 0b be 9b 76 ed 3d
       0.074150845 0.084172525 -0.13657792 0.11594888
0001b0 aa fe 3f 3d 51 ee 6f 3d ad c4 9d bd 95 9b 74 3d
       0.046873726 0.058576886 -0.077035286 0.059718687
0001c0 9c 52 d4 3d b8 e2 fe 3d 7f 93 fa 3c 98 9f 03 3e
       0.10367319 0.12445587 0.03058791 0.12853849
0001d0 1e 67 97 3d 07 67 de 3d 15 93 dc 3d e5 5a 83 3d
       0.07392715 0.10859495 0.10770241 0.06413821
0001e0 e7 3b 68 bd 72 5f 84 3d cd 71 a1 3d 62 59 e3 bc
       -0.056697752 0.06463517 0.07883034 -0.027752582
0001f0 d8 84 b6 bd 7d 8c 6b bd ac b1 7e 3d ab 08 57 bc
       -0.08912057 -0.057507027 0.06218116 -0.013124625

layers.3.weight f4 [128, 128]
000000 84 63 b7 3d 79 04 dc 3d 06 7a fb bc f8 d4 39 be
       0.08954528 0.107430406 -0.030697834 -0.18147647
000010 15 0e e9 3d 0e fd 3a 3b b4 ad b4 3c 04 88 42 bb
       0.11379639 0.002853218 0.022055484 -0.0029683122
000020 b7 bb 1f 3d 61 ee 31 3e d3 97 19 3e eb 9d 1e be
       0.03899738 0.1737609 0.14999323 -0.15489928
000030 35 43 1b 3e 16 40 88 3d 4a 7c 08 3c b5 0c 0c 3e
       0.15162356 0.066528484 0.008330414 0.13676722
000040 65 c4 3b 3d aa f5 dc bd 1a fe 3d be 37 93 c3 bc
       0.045841593 -0.10789044 -0.18553963 -0.023873908
000050 4e ef 07 bd 83 b6 0d 3d 5b 3a 63 3e e0 9d 21 3e
       -0.033187203 0.034597885 0.2219023 0.15782881
000060 7a 1a f3 3c 07 59 cb 3d e8 e0 3f 3d 84 73 2c 3e
       0.029675711 0.0992909 0.046845347 0.1684094
000070 fd 61 04 bd 8e 03 f0 bc 63 09 e0 3d 36 9d 9a 3c
       -0.03232001 -0.02929857 0.109392904 0.018873792
000080 d4 77 1d be 64 48 af be aa 0d 36 be 8f d1 cc 3c
       -0.15377742 -0.34234917 -0.1777865 0.02500227
000090 f5 56 0c 3d 0f 41 35 bd 0f fe 83 3d 13 07 ca 3c
       0.034262616 -0.044251498 0.06444942 0.024661576
0000a0 48 8a ef bc 89 09 33 3d 94 07 19 3e e1 1c 2a 3e
       -0.029240742 0.043710265 0.14944297 0.16612579
0000b0 7e b5 00 be 4a a9 db 3d 90 32 4a 3d 32 72 e4 3c
       -0.12569234 0.10725649 0.049364626 0.027886484
0000c0 ab 09 c3 bc d4 d1 20 bd 1d 12 f5 3e 52 51 70 bd
       -0.023808321 -0.039262608 0.47865382 -0.058671303
0000d0 73 32 e4 3c 10 44 45 be b4 2d c8 bd 31 3f 51 be
       0.027856087 -0.19264245 -0.09774342 -0.20434262
0000e0 a4 19 1d be ad 61 04 3e 91 4a 23 3d d6 15 4d be
       -0.15341812 0.12927885 0.039866034 -0.20027861
0000f0 c2 e9 6a 3d 4f b5 05 be ff 15 85 3e 23 79 f2 3d
       0.057351835 -0.13057445 0.25993344 0.11839511
000100 f7 42 ef bd bb 7b 26 3e 47 e7 3c bc 29 06 8d bd
       -0.116826944 0.16258137 -0.01152975 -0.068859406
000110 20 e0 4d 3d 10 cc 26 3e 63 8a a9 3d 37 6a 7a 3d
       0.05026257 0.16288781 0.08278348 0.06113645
000120 2a 52 35 3d f3 59 02 be 1b d8 88 bd aa 33 b0 bb
       0.04426781 -0.12729625 -0.06681844 -0.0053772526
000130 3e 29 94 3d 7d 27 0f be f8 4a de bb 9c db a8 bd
       0.07234429 -0.13979907 -0.0067838393 -0.08245012
000140 d3 17 9f bc 69 4a a7 bc 10 d0 07 3c 04 2c b9 3c
       -0.01942054 -0.020421224 0.008289352 0.022603996
000150 44 d2 be bd 51 f0 05 3d 3e 30 ff 3d 8b 2d 13 3e
       -0.09317449 0.032699887 0.12460373 0.14372842
000160 4c bd b9 3d 3f 24 a0 3d 1d 4f f2 bc 05 92 72 3e
       0.09069309 0.078194134 -0.02957874 0.23688515
000170 18 7e 7c bd 82 ee 49 bd f2 94 79 bd 59 e4 8a 3e
       -0.06164369 -0.049299724 -0.06093306 0.2712734
000180 8d 32 93 3c c4 22 74 bd ac 8a 42 bd 10 15 b6 be
       0.01796844 -0.059603468 -0.04749553 -0.35562944
000190 71 60 9d 3d 47 c1 cc bd 14 25 ab 3c c5 70 ed 3d
       0.0768441 -0.09997802 0.020891704 0.11593775
0001a0 3f 71 a0 3e ff 6c 31 bc 4e 49 b8 3c 2d ba 23 3c
       0.313364 -0.010829209 0.022495892 0.009993118
0001b0 96 52 01 3e 92 44 cf bc 12 5c e7 3d 62 11 05 be
       0.1262916 -0.025301252 0.11296858 -0.12994912
0001c0 0a 06 79 3d a3 ce 61 bd 9e 56 22 be d9 f1 c0 3d
       0.060796775 -0.055128705 -0.15853354 0.09421129
0001d0 e8 9c 1d 3d 88 e3 72 3c 03 b9 a0 bc 73 52 12 be
       0.038479716 0.0148247555 -0.01961947 -0.14289264
0001e0 46 58 02 3e 0d 86 2b be 23 e3 72 3d 96 26 b2 bd
       0.12728986 -0.16750355 0.059298646 -0.08698766
0001f0 7d 79 c4 bd 77 86 18 bd ad 41 48 3d e2 87 72 bd
       -0.095934846 -0.03723761 0.04889076 -0.05921162
000200 7a 4c 2b bd dc 7c e4 bd e3 2c 38 3d 5a bf 09 3e
       -0.04182098 -0.111566275 0.044964682 0.13451901
000210 7b c1 e5 be a0 9d b5 3c f3 af 88 3e 0b 55 1c 3d
       -0.44874176 0.022169888 0.2669674 0.03816704
000220 e6 a5 9a bd 9c b6 22 be 63 e1 9b be ce d8 b2 3d
       -0.07551174 -0.15889972 -0.30445394 0.087327585
000230 8d 4c 84 be 04 04 50 be 41 bc 8c bc ef d5 25 bd
       -0.25839654 -0.20314032 -0.01717961 -0.040487226
000240 c4 85 99 bc fe 2a f1 3d 20 2b ac 3d 9b c5 ca 3c
       -0.018740542 0.11775778 0.08406663 0.024752429
000250 a1 3b e6 bd 34 36 19 bd b8 59 13 be 14 87 95 be
       -0.11241842 -0.037405208 -0.14389694 -0.2920462
000260 70 a9 27 3c 12 aa a0 bb aa 54 c4 bc c9 e1 a6 be
       0.010233268 -0.0049030865 -0.023966152 -0.32594135
000270 7f 6e f0 3d 5c 33 9e bd ff 40 33 be 23 cc bd 3d
       0.117398255 -0.0772464 -0.17505263 0.092674516
000280 fe fc 8c 3d 08 7b 28 3e 4b 10 c2 3c 35 fc 0e be
       0.06884192 0.16453183 0.02368941 -0.13963397
000290 ce 89 20 bd ff dc ce bd b2 d6 75 bd eb f6 d8 bc
       -0.03919392 -0.101007454 -0.060019203 -0.026484927
0002a0 f9 b4 7b 3d ae bd 8e bc 8e a7 c5 bd aa 74 2b be
       0.061451886 -0.01742443 -0.09651099 -0.16743723
0002b0 86 dd 90 3d ce 33 8c be 93 10 92 be 2e 33 7f bb
       0.07073502 -0.27383274 -0.2852827 -0.0038940418
0002c0 e7 93 a3 3d f0 56 3e 3e 65 9b 4f be f8 17 33 3e
       0.079871945 0.18587852 -0.20274122 0.17489612
0002d0 01 07 cb bc 4f de a6 3e b8 be 03 bd 1a 65 ac 3d
       -0.024783613 0.32591483 -0.032164305 0.08417721
0002e0 46 01 7d 3e 87 b3 89 be b6 61 ce 3d c2 b1 16 3e
       0.24707517 -0.2689478 0.10077231 0.14716247
0002f0 a2 19 01 bd 2b 1b 1b 3e 6e 66 24 be 2a 2e 76 be
       -0.031518586 0.15147083 -0.16054699 -0.24041048
000300 1d e9 70 3e 93 c5 e5 bc 30 1b fd 3d 35 e1 2d 3e
       0.23526426 -0.028048312 0.12358701 0.16980441
000310 89 d8 8c 3d 65 42 4c be 5a db 29 be 22 d4 b1 bc
       0.06877238 -0.19947203 -0.16587582 -0.021707598
000320 27 38 ad 3c 64 f3 3d 3e 5f 91 fa 3d 1e dc 0d be
       0.02114494 0.18549877 0.122347586 -0.138535
000330 0b 08 c4 bc 7d d4 eb 3c c5 89 b3 bd b6 e9 5e 3e
       -0.023929616 0.028787846 -0.08766512 0.21768841
000340 26 ec 17 3d 90 1b 8b 3d 78 12 17 bd 77 80 84 bc
       0.037090443 0.067923665 -0.036882848 -0.016174538
000350 d7 86 af bc c8 f5 13 bd 55 57 dc bd 30 33 8b be
       -0.021426601 -0.036123067 -0.10758845 -0.2718749
000360 fb 7f 75 bd 15 87 a5 bc 29 2d 68 3d 0d 51 ac bd
       -0.059936505 -0.020206014 0.056683693 -0.08413897
000370 e3 41 40 3e 23 1e 29 3c 11 fb 05 3e c7 9d e5 be
       0.18775134 0.010322127 0.13084055 -0.44846937
000380 70 1b 9d bd 0b 80 2e 3e 46 f6 6d 3e 64 c5 64 3e
       -0.07671249 0.17041032 0.23238477 0.22340924
000390 e5 83 30 bd d3 13 91 3d e1 60 28 3d bc 07 2e be
       -0.043094534 0.07083859 0.041108016 -0.16995138
0003a0 3f ce 7b be e8 cb 56 bd a0 a0 8d bc 10 95 7c 3d
       -0.24590395 -0.052440554 -0.017288506 0.061665595
0003b0 1f d7 7a bd ae a9 15 bd 10 58 1e be 1a 52 74 3e
       -0.06124031 -0.036538772 -0.1546328 0.23859444
0003c0 ff b4 ac bd 40 87 03 3e db b5 20 3c aa 71 aa bd
       -0.0843296 0.12844563 0.009808983 -0.08322461
0003d0 d2 77 f9 bb a5 5b a9 3d 84 7b 96 bd 7c 58 dc 3c
       -0.0076131606 0.08269433 -0.073477775 0.026897661
0003e0 8d 28 90 be 81 56 95 3e 96 10 fb bc 30 4e 4f ba
       -0.28155938 0.2916756 -0.030647557 -0.0007908074
0003f0 68 66 0b 3e f6 90 3c 3d 16 c7 12 3d 42 ef 68 3e
       0.13613284 0.046036683 0.035834394 0.2274752

layers.3.bias f4 [128]
000000 96 c1 8f 3d 02 52 90 bd 83 ed 80 3d 71 eb 96 bd
       0.070193455 -0.07046892 0.06295302 -0.07369126
000010 ae c9 ac 3d 57 f7 29 b9 5a aa 2b 3d 42 63 da 3c
       0.08436905 -0.00016209237 0.041910507 0.026658658
000020 99 b9 07 bd df 39 aa bd da fc 92 bc 06 ec 6b bd
       -0.033135984 -0.08311819 -0.017942835 -0.057598136
000030 88 4a 4d 3c 1d 13 9d 3d 2c 13 02 bc eb 93 9f bd
       0.012529977 0.07669661 -0.007939141 -0.07791885
000040 02 73 0a be 69 09 d6 bd 76 c2 20 3e 91 d5 aa bb
       -0.13520434 -0.104510136 0.15699181 -0.0052134474
000050 61 74 23 be 28 26 3c bd da 50 b4 bb 6d 76 0b 3d
       -0.15962364 -0.045934826 -0.0055028023 0.034048487
000060 e9 b2 ed 3d 04 5e d4 3d fa 82 18 be 97 de c2 3d
       0.1160639 0.103694946 -0.14893714 0.09515112
000070 85 7c 36 3e f9 bb 35 be cf b2 2b be 01 ec 2e 3e
       0.17820938 -0.17747487 -0.16767429 0.17082216
000080 f7 8a a3 bb 04 ec 69 3d ae 1b 32 3e 03 f4 d0 3d
       -0.004990931 0.057109848 0.17393371 0.102027915
000090 a4 b1 a5 3d de 7e 67 be e4 c8 1f 3e 63 e4 81 bd
       0.08090523 -0.2260699 0.15603977 -0.063423894
0000a0 9e 68 24 3d 3d ec 36 be 20 0f 8e 3d 94 dd df 3b
       0.040138833 -0.17863555 0.069364786 0.006831834
0000b0 db 72 fe 3d 05 ba 19 3c a7 1b f1 3d a0 5e 1d 3e
       0.12424251 0.009382729 0.117728524 0.15368128
0000c0 f6 71 4b 3e fe e2 4b 3e 2f f8 d1 3c cb d5 31 bd
       0.19867691 0.1991081 0.025631038 -0.04341678
0000d0 99 a8 b9 bd 8d c9 91 3d 48 69 7e 3d 4b c4 4d bd
       -0.090653606 0.07118521 0.062112123 -0.050236028
0000e0 4b cb 52 3e 17 30 b7 3d 76 b3 04 3e b3 c7 ab bd
       0.20585363 0.08944719 0.12959084 -0.08387699
0000f0 bb 43 eb bc 97 c5 97 3b d5 d9 4a be 48 d2 ea bd
       -0.02871882 0.004631709 -0.19809659 -0.11465889
000100 fb d1 75 bc 06 ec 5b bb eb d4 8f 3c da 9a 37 3d
       -0.0150036765 -0.003355743 0.017557582 0.044825412
000110 8e d5 d9 3c b7 76 8e bd 51 2f 09 3e 41 3e f5 3d
       0.026591089 -0.06956237 0.13396956 0.119747646
000120 b1 b5 45 bd 8d 36 b6 3b e2 41 6b bd f3 61 52 bd
       -0.048268978 0.005560702 -0.057435878 -0.051362943
000130 60 db ef bd dc d6 f6 bd cc 45 95 bd 5b 45 21 bd
       -0.11711764 -0.120527 -0.07288703 -0.039372783
000140 37 ef 91 bd 2e 04 d2 3c ed ba 5e 3d ee 9e 63 bd
       -0.07125705 0.025636759 0.054377485 -0.05557149
000150 ad 26 86 bd 8e da 87 3d ff 62 27 be b7 8f 1d be
       -0.065503456 0.06633483 -0.16346358 -0.15386854
000160 7d 35 eb 3d ad 15 61 be 28 c2 b4 bd 7e ee 03 3e
       0.114848115 -0.21980925 -0.08826095 0.12883946
000170 85 d5 3b 3d cb 91 82 bd 0f 91 33 3d 27 87 59 bd
       0.045857925 -0.06375464 0.04383951 -0.053107407
000180 97 e9 2d be 75 e0 03 be 84 f3 53 3d 80 64 0a be
       -0.16983639 -0.12878592 0.051745906 -0.135149
000190 fc 8a f6 bd 54 8f 26 bd 6e 23 e2 bc 28 91 e1 3d
       -0.12038228 -0.040664032 -0.027604785 0.110140145
0001a0 60 ed c1 3c fb 28 95 3d 0d 23 ca 3d 0c 13 e8 bc
       0.02367276 0.07283207 0.09869967 -0.028329395
0001b0 3c d9 34 3e 99 27 f6 bd 53 86 e4 bc ec 7b b8 3d
       0.17660993 -0.120192714 -0.027896082 0.09008011
0001c0 00 52 84 bd f4 f9 b9 bd a9 ab 11 3b 93 c3 b3 bc
       -0.06460953 -0.09080878 0.0022227562 -0.021943843
0001d0 c3 5d 38 bd 34 a4 ce bd 35 03 e8 bd 81 71 92 bb
       -0.045011293 -0.10089913 -0.11328737 -0.004469097
0001e0 e8 79 5c be 5f 7e 71 3d 22 1d 2a 3e c4 03 de bc
       -0.21530879 0.058958407 0.16612676 -0.027101405
0001f0 c3 7a 30 3c be 70 ae 3d 69 b0 32 be 97 7b 81 3d
       0.010771456 0.085175976 -0.17450108 0.06322401

layers.5.weight f4 [3, 128]
000000 f3 97 b4 bd a7 6b ef 3d 76 e7 8e 3d 0f 59 01 be
       -0.088180445 0.11690455 0.069777414 -0.1263163
000010 ee 10 50 be 3a 06 fc 3d 06 c6 e6 3d ff 7a 17 3e
       -0.20318958 0.12305875 0.11268239 0.14793013
000020 58 a0 19 be f6 06 78 3b e3 b0 2c 3d e1 ae 9b bd
       -0.15002573 0.0037845946 0.04216088 -0.07601715
000030 6d b6 17 3e 41 e3 66 bd d0 04 05 be 05 8b 86 3e
       0.14815684 -0.05636907 -0.12990117 0.26277938
000040 66 72 85 bd 52 09 22 be 70 04 ed 3d b3 52 b4 bd
       -0.065159604 -0.15823868 0.11573112 -0.08804836
000050 a4 58 fc bd 7c e1 3f bd 2c 8a 5a bd d9 74 c8 3d
       -0.12321594 -0.046845898 -0.053354427 0.09787912
000060 70 0e c1 3d 27 c4 5c bd ae 28 23 be 33 ec d3 3d
       0.09426582 -0.053898003 -0.15933487 0.10347786
000070 35 97 0e 3e 6b f5 0b be 4b 3c 1a be 7b c4 20 3e
       0.13924868 -0.13667838 -0.15062062 0.15699951
000080 bf a3 9d bd d8 f2 1c 3e 0e ac e6 3d e2 4d bb bd
       -0.07697248 0.15327013 0.112632856 -0.09145714
000090 f7 24 54 3d 78 f1 a1 bd d9 09 2d 3e e9 67 16 3e
       0.051793065 -0.07907385 0.16898288 0.14688076
0000a0 2c c8 23 3b fd a6 16 be a6 10 71 3d 55 3f 4b bd
       0.0024991138 -0.14712138 0.058853768 -0.049620945
0000b0 0d 60 af 3d 74 b4 bc 3d 53 c3 2f bd ee 10 12 3e
       0.08563242 0.09214106 -0.042910885 0.1426427
0000c0 ee 55 e5 3d d9 b7 ec 3d e2 4b 2e be e0 05 e0 3d
       0.111980304 0.11558504 -0.17021134 0.109386206
0000d0 8b 81 4c 3e 83 8d 63 3d 57 b1 8f 3c d3 b5 a2 bc
       0.19971292 0.055554878 0.017540617 -0.019862091
0000e0 a6 ff 20 3e 5a 8c 0b be a7 28 2d 3d 46 9d 86 bd
       0.15722522 -0.13627759 0.042275097 -0.06572966
0000f0 45 fd 29 be 4a 5a 46 3d 9b f1 99 bd 16 d1 de bd
       -0.16600521 0.04842595 -0.07516786 -0.10879724
000100 74 db 2b 3e b5 2a 14 be 25 a4 89 bd 53 ee 32 be
       0.16782933 -0.14469416 -0.06720761 -0.17473726
000110 6c ea 00 3e 38 92 43 bd c7 c1 0f 3e 91 a5 61 3d
       0.12589425 -0.047746867 0.14038764 0.055089537
000120 cb d7 bd bd 9a f6 b6 3d a7 81 a6 3d 12 4b 46 3d
       -0.09269675 0.08933754 0.08130198 0.048411436
000130 b7 b3 62 bd bf d7 1f be b6 ff cd 3d 76 ac 2f 3d
       -0.05534717 -0.15609644 0.100585386 0.04288908
000140 8f f1 0d be 86 26 95 bd b2 12 0d bc eb 5d 8d bd
       -0.13861679 -0.072827384 -0.008610414 -0.06902679
000150 b5 fd 03 3e ae 0d 1c 3e ad a1 87 bd a0 96 cd bd
       0.1288975 0.15239593 -0.06622634 -0.10038495
000160 ba 0a 03 3e 7a c9 43 bd d9 7a 93 3d 13 45 eb 3d
       0.1279706 -0.047799565 0.07201166 0.11487784
000170 90 56 8b bd 2b 70 82 bd d4 b5 6c bd 90 1f 04 be
       -0.0680362 -0.063690506 -0.057790592 -0.12902665
000180 e7 c6 bb bd 0a 5c 3a 3e 79 19 31 be ee bb 75 3d
       -0.09168797 0.18199173 -0.17294873 0.059993677
000190 17 ac a1 bd 5d 56 4e bd 32 c0 31 be f4 fa 00 3e
       -0.07894152 -0.05037533 -0.17358473 0.12595731
0001a0 16 68 00 be b7 fc c1 3d 2f 41 ad bd 35 16 2d bd
       -0.12539706 0.0947203 -0.084596984 -0.042257506
0001b0 19 01 ff 3d 42 61 f5 3d bd b3 4a be 8c 00 08 3e
       0.12451381 0.11981441 -0.19795127 0.13281459
0001c0 87 7e 53 bd 5a 2a 11 be 46 6f 68 3c 85 b9 f1 bd
       -0.051634338 -0.14176312 0.014186686 -0.11802963
0001d0 b1 46 d7 bd 8a 70 96 3e 3e 95 2a 3e 2a 20 3c be
       -0.1051153 0.29382735 0.16658494 -0.18371645
0001e0 70 8e 29 be 00 02 2d 3d a5 26 88 3d 1b d2 a8 bb
       -0.16558242 0.042238235 0.06647996 -0.0051519996
0001f0 f5 c2 0b be e9 2e d0 bd 0d 8b 05 be ee 9e 4f bc
       -0.13648589 -0.101651974 -0.13041325 -0.012672169
000200 05 d1 b7 3d fe 78 9d bc ef f3 cd bc 3c f3 a4 3d
       0.08975414 -0.019222733 -0.02514073 0.08054206
000210 b0 e3 aa bd 69 9e 11 bd 98 ac 23 be e5 b2 3d bd
       -0.08344209 -0.035551462 -0.15983808 -0.046313185
000220 b8 82 05 3d 32 8f 7c 3c 68 38 95 3a 3c f3 cf 3d
       0.032595366 0.015415 0.0011384608 0.10153815
000230 6c 33 52 bd 10 fa 35 3d ef 47 4c 3e a0 1d c8 3d
       -0.05131857 0.04442793 0.19949315 0.097712755
000240 76 a7 22 3e 1d 95 9f 3d 78 44 a3 bd 76 7b ef 3c
       0.15884194 0.07792113 -0.07972044 0.029233675
000250 a5 49 8f 3d 51 29 dd bd 55 30 3f 3c dd 6b 60 be
       0.069964685 -0.10798896 0.011669238 -0.21916147
000260 9b 28 44 bd af c7 75 bc 66 cc 0c 3e 15 56 b1 bd
       -0.047890287 -0.015001222 0.13749847 -0.08658997
000270 93 af 06 be 1a 49 d6 3d 8d 1f 0c 3d a9 6b ab bd
       -0.13152914 0.10463162 0.034209777 -0.08370144
000280 9b e8 8f 3c 6a 29 35 3d 59 f1 65 be 14 27 da 3c
       0.01756697 0.04422895 -0.22455348 0.026629962
000290 91 42 38 bd 99 a5 37 3e 23 74 8a bd d5 1f 03 3e
       -0.044985358 0.17934264 -0.067604326 0.12805112
0002a0 d2 af d6 3c 83 e8 14 3e 72 13 2d 3c af f6 d9 3c
       0.026206885 0.14541821 0.010563718 0.026606886
0002b0 97 ba 87 bd e2 8a 89 3d 14 07 01 be 4c ac 00 be
       -0.06627386 0.06715943 -0.12600356 -0.12565726
0002c0 dd 8a 36 be c5 ce d4 bd 60 e5 78 bc e4 67 e0 3c
       -0.1782641 -0.10391001 -0.015191406 0.027393289
0002d0 37 5e ce 3c a0 04 a9 bd a5 12 fa bb 33 a5 21 bd
       0.02519141 -0.08252835 -0.007631617 -0.039464187
0002e0 30 e6 fa bd b9 f0 03 be 94 49 0e be 04 a9 76 3c
       -0.12250936 -0.12884797 -0.13895255 0.015054945
0002f0 c5 25 cb 3d cb e0 8f bc c1 d8 f8 3d 9f 48 2c 3d
       0.09919313 -0.017563244 0.121507175 0.042061444
000300 bf 1d 09 3c 21 03 94 bc 03 6d 38 bd 96 54 50 bd
       0.008368908 -0.018067898 -0.045025837 -0.050861917
000310 7a ff ca 3d b7 24 54 3e b6 87 4c be 52 74 ed bd
       0.099120095 0.2071713 -0.19973645 -0.11594452
000320 0a 48 50 bc 7e f8 00 3e a7 fe 22 3d 4b cb 1f 3c
       -0.012712488 0.12594792 0.039793637 0.009753059
000330 e4 c4 09 3e 98 49 bc 3d 4d 35 c7 3c bd 94 65 3d
       0.13454014 0.091937244 0.024317408 0.05605005
000340 70 17 dc 3d 77 21 d1 3c bc 6e 8d bd a2 be 22 3e
       0.10746658 0.025528653 -0.069058865 0.15893033
000350 6f d8 2c 3e 82 dd 06 be 03 05 fd 3d c7 6d 06 3e
       0.16879438 -0.13170436 0.123544715 0.13127814
000360 15 1d 57 bd 7a a4 b3 3d 0f 16 d6 3d da 15 bf bd
       -0.05251797 0.08771606 0.10453426 -0.0933034
000370 75 d1 cf bd 49 e0 08 3d 34 77 8d bd 8d 13 a2 bd
       -0.10147373 0.03341702 -0.06907502 -0.07913885
000380 9f 68 19 3e b8 e5 3f 3d 29 16 88 bd bb 15 a9 3d
       0.14981316 0.046849936 -0.06644852 0.08256098
000390 97 86 1f bd 8a ec 64 3d 09 11 91 3d 5c b2 e0 bd
       -0.038946714 0.055889644 0.07083327 -0.10971519
0003a0 2c dc a1 bd a8 3e 42 bd 82 63 a0 3c aa e5 dd 3c
       -0.079033226 -0.047423035 0.019578699 0.027087051
0003b0 97 a2 b3 bd 98 fb af 3c db d6 5c bd 5b bc 57 bc
       -0.08771246 0.021482274 -0.05391584 -0.013167466
0003c0 7d 77 a8 bd f5 2c f1 3d 7d 34 12 3d 52 51 06 bc
       -0.082259156 0.11776153 0.035694588 -0.008198099
0003d0 d8 dc 9a bd 1a 6d 9d 3d 79 12 d0 3d 64 8c e7 bb
       -0.07561654 0.07686825 0.101597734 -0.0070662964
0003e0 e7 2f 2a 3d 88 ba 9b bd f3 7a b6 bc 8c 06 d9 3d
       0.04154959 -0.076039374 -0.022275424 0.10596952
0003f0 d8 a3 f0 3c f6 21 8b bd d2 56 93 3c 36 a2 5a bd
       0.029375002 -0.06793587 0.017985735 -0.053377353

layers.5.bias f4 [3]
000000 59 37 a1 3d 88 e1 b1 bd 99 d5 02 3b
       0.07871885 -0.08685595 0.001996374
