model_zoo/GAIL/MountainCar-v0/disc_756608.pth (torch, 138807 bytes, 7 tensors)

layers.0.weight f4 [128, 5]
000000 74 c0 90 be 51 9d e3 3f 78 5b 44 3c 90 22 21 3c
       -0.2827183 1.7782384 0.0119846985 0.0098349005
000010 25 a9 13 be 66 91 3f 3d df 71 c1 3f 41 70 a7 3e
       -0.14419992 0.046769522 1.5112876 0.3270283
000020 60 7d 8b 3c ce a0 82 bd c0 36 57 3e 7a d6 bd 3f
       0.017027557 -0.06378327 0.21016979 1.4831078
000030 91 08 98 bd 7c 1e 87 be 7a 42 d4 3e da 58 98 3e
       -0.07423509 -0.26390445 0.41456968 0.29755288
000040 83 80 f3 bf 4d b3 49 bd 32 6c 6d be e9 c7 a6 bd
       -1.9023594 -0.04924326 -0.23185804 -0.081435986
000050 48 78 02 bf 55 41 71 3f 3f e3 5e 3e 32 c5 0f 3f
       -0.50964785 0.94240314 0.21766375 0.5616027
000060 d2 d8 40 be cf 40 2a 3f c7 40 68 3f e2 d2 80 bd
       -0.1883271 0.6650514 0.9072384 -0.06290223
000070 6d 5b 67 3d 47 5d 90 bd 7c 08 22 bf 43 cf b0 bf
       0.056483675 -0.07049041 -0.63294196 -1.3813251
000080 8e 49 92 3e a3 f8 87 3e 23 39 03 3e 50 75 85 be
       0.28571743 0.26556882 0.12814765 -0.26066065
000090 90 55 04 3f fa 3e a2 3d 36 25 9f 3e 39 de 7b be
       0.5169306 0.07922168 0.31083077 -0.2459649
0000a0 a5 67 6b 3e 3f c1 a8 3f 0e 82 37 3e 54 dc 0c 3e
       0.22988756 1.3183974 0.17920706 0.13755924
0000b0 65 f8 62 be d9 2a ee be 4c 82 c9 3f d4 37 31 be
       -0.22165067 -0.46517065 1.5742888 -0.17306453
0000c0 4c 9e 07 3e bf da 88 bd 3a 93 16 3f 9c fa 8e bf
       0.13243979 -0.066823475 0.588184 -1.117023
0000d0 74 41 1c bd 39 3f 29 3e fe 94 c1 bb c1 42 f9 3e
       -0.03814836 0.16528024 -0.005907654 0.48683742
0000e0 a9 8c 3b bf fa 2d 0c be 7e 2d 2a 3e 2d 9e d4 be
       -0.73261505 -0.13689414 0.16618916 -0.4152693
0000f0 60 3d d8 3e af b5 18 3f 53 73 93 bc ac 06 be 3e
       0.42234325 0.5965223 -0.017999327 0.37114465
000100 1b 2e 7e 3e 47 c7 db 3e 41 80 d9 3f 31 30 c2 be
       0.24822275 0.42925474 1.6992265 -0.37927392
000110 5e f5 b7 bd 34 18 d4 bd cb 6e cb be 18 f1 c8 bd
       -0.08982347 -0.10356179 -0.39732966 -0.0981161
000120 bb 12 e0 3d b7 0b 44 3f 70 64 f7 bd 89 8a 05 bd
       0.109410726 0.76580375 -0.12079704 -0.03260282
000130 a6 ba dc 3f 24 1c 38 bc 8f a0 06 3f 7a cf dc 3e
       1.724446 -0.011237178 0.5258874 0.43127042
000140 c4 e3 b4 3e 13 84 ce 3f 0f 41 9c bd 62 3c c4 bc
       0.3533002 1.6134056 -0.076295964 -0.023954574
000150 f0 30 99 be 0b 80 82 3e 2e 28 f8 3f 08 a7 05 3d
       -0.2992015 0.25488314 1.9387262 0.032629997
000160 82 02 a0 3d 3c 26 e1 3e cc 22 e2 3e 6a 53 18 3f
       0.07812978 0.43974483 0.44167173 0.5950228
000170 14 24 e9 be 16 0e 5c bf 32 fd ab 3e 69 3f 96 3e
       -0.45535338 -0.85958993 0.3359161 0.29345253
000180 6a 2b a2 bf 02 5c 94 be 13 2e 55 3d ac 88 2c be
       -1.2669499 -0.28976446 0.052045893 -0.16849011
000190 37 3b 40 be 10 da d0 bf 5c 4d 2e be 8e 97 12 bd
       -0.18772589 -1.6316547 -0.17021698 -0.035789065
0001a0 ef e1 58 3e d5 e7 ed be 53 89 11 bf ed ed 9e be
       0.21179937 -0.46465936 -0.56850165 -0.31040898
0001b0 1f 28 26 3f 6a 96 49 be 13 34 bb bd 64 ec 01 c0
       0.6490497 -0.19686285 -0.09140792 -2.0300531
0001c0 c2 43 19 be 53 99 4d be 1b 95 9d be 8e d2 3b 3e
       -0.14967254 -0.2007802 -0.3077782 0.18342039
0001d0 73 e4 d9 3f 99 c4 af be a7 1e ed 3d 86 6f 03 be
       1.7022842 -0.3432968 0.11578112 -0.12835512
0001e0 dd 49 07 bf 95 b6 de 3f 1e e5 cf be 91 98 9a be
       -0.5284708 1.739947 -0.4060449 -0.30194524
0001f0 4a 24 3d be 3d 7d 0a bf 2a d4 01 3e 92 dd 03 3f
       -0.18470874 -0.5409735 0.1267859 0.51509964
000200 52 b9 6b 3e 5a 91 f3 be 2d 13 9d be 92 b3 ef 3f
       0.23019913 -0.47571832 -0.30678692 1.8726676
000210 04 b7 08 be a9 f8 12 3f 88 48 bf 3e 06 cb 9f bd
       -0.13351065 0.57410675 0.37360024 -0.078023955
000220 2f 60 e3 bf f9 63 f2 3d d3 9e 6d be 8c 5a a3 3e
       -1.7763728 0.118354745 -0.23205118 0.3190502
000230 55 4f 20 bf 7e 49 f3 3d c2 b2 fd 3e 9c 3d 51 3f
       -0.6262105 0.11879252 0.49550444 0.81734633
000240 b8 57 04 bf 4e 2f e5 be 8b 71 52 3f fa 38 f7 3e
       -0.5169635 -0.44762653 0.822045 0.48285657
000250 1d 23 a0 3d 67 c7 ce be 6a 57 ea 3e 74 d4 cc 3f
       0.07819197 -0.40386507 0.45769817 1.6002336
000260 34 c4 62 3e ef 4b 70 3c fc 02 64 be d7 bf c0 3e
       0.22145158 0.0146665415 -0.22266763 0.37646362
000270 fe 65 c0 bf 5d fc f3 be 22 52 53 be ca 33 93 3d
       -1.5031126 -0.47653475 -0.206368 0.07187612
000280 8e 99 9e be be e6 90 3f a1 a4 9e 3e 5a 70 06 3f
       -0.30976528 1.1320417 0.30984977 0.52515185
000290 34 8e 82 3e e0 1a 66 3e 6e 93 c8 3f 9a 73 ca 3e
       0.25499117 0.2247119 1.5669992 0.39541322
0002a0 a7 36 ed 3e 2f 85 aa 3e 30 5c 66 bd 5e 4f ea bf
       0.4633076 0.33304736 -0.05624026 -1.8305471
0002b0 25 c9 e9 3e 77 a5 f7 3e 36 9a 1a 3e 5a 5e 4a 3e
       0.45661274 0.48368427 0.1509789 0.19762555
0002c0 09 9a bd be 84 0f b6 be ec 44 bd bd 1e 1a 02 3e
       -0.37031582 -0.35558712 -0.092416614 0.12705275
0002d0 3e c6 b4 bb 1a 8a 82 3f 0a a4 c5 3e d4 f1 b0 3e
       -0.0055167964 1.0198395 0.38601714 0.345595
0002e0 3d a9 b8 bd 5c 6b 9e 3e 4f 82 c7 3f 7f 52 c4 3e
       -0.09016655 0.30941284 1.5586642 0.3834419
0002f0 9d d7 a1 3e ed 58 e7 3e fc 57 d3 be 46 b6 c8 3f
       0.31609812 0.45185032 -0.41278064 1.5680625
000300 5b a2 d4 be ce fb 96 3e b8 72 ca 3e b2 05 d1 3e
       -0.41530117 0.29488987 0.39540648 0.40824658
000310 28 a2 e0 3f d8 25 a1 be 3b 3b 6f 3e 2e 99 97 3e
       1.7549486 -0.31474185 0.23362438 0.29609054
000320 58 e8 db be d4 5f a1 3f 08 a2 2b 3e cc 2b b6 3e
       -0.42950702 1.260737 0.16761029 0.3558029
000330 2a 61 29 3e d4 e1 17 bf a6 80 52 bf b3 51 b7 be
       0.16540971 -0.5932896 -0.8222755 -0.3580452
000340 b1 d4 a7 be 20 2d af 3d 54 36 56 3c 74 8c a4 3f
       -0.32779458 0.08553529 0.013074476 1.2855363
000350 49 8d b1 3e a5 b8 fc be 17 61 27 3e d7 f3 9d 3d
       0.34678105 -0.49359623 0.1634563 0.077125244
000360 7a 12 d6 3f e0 96 a6 be 97 49 3a bf 49 5e 9a 3d
       1.6724389 -0.32536983 -0.7276854 0.07537515
000370 0f 8f 11 bf 4d 6c 87 bf 90 8f 59 be e5 20 49 be
       -0.56858915 -1.0579926 -0.21246171 -0.19641455
000380 2f 3d a2 be d0 a8 30 3d a0 ae 59 3f 10 6e de 3e
       -0.31687304 0.043129742 0.8503208 0.43443346
000390 26 72 a1 3e da 0e 98 3e 1c 45 e7 be cc e7 c5 bf
       0.315324 0.2969883 -0.45169914 -1.5461364
0003a0 de 49 6c 3d 37 57 dc 3e 56 0c 95 3e d4 2b fc bd
       0.057687633 0.4303529 0.29110974 -0.12313047
0003b0 22 b3 a4 bf 95 10 65 be 25 cb cb 3e 33 90 82 3e
       -1.2867167 -0.22369607 0.39803424 0.2550064
0003c0 5d ba 28 3d cf 27 1e bf 29 05 f9 be 7f ce c3 be
       0.041193355 -0.61779493 -0.4863675 -0.38243482
0003d0 e0 9a f9 3e 47 f9 9e be 4d 1e c6 bf 9c a1 ce be
       0.48750973 -0.3104956 -1.5477997 -0.40357673
0003e0 a6 f1 19 bf 36 4d 9c bd 97 cb be be ff 7b e5 3f
       -0.6013435 -0.07631914 -0.37264702 1.7928466
0003f0 c4 29 7d 3e 0f e4 e4 bd 04 81 b5 be bb be 12 bf
       0.24722964 -0.11176311 -0.35449994 -0.5732228

layers.0.bias f4 [128]
000000 b6 81 80 3d aa d9 4f 3e 3f 7b cf 3e f1 26 3a 3e
       0.062747404 0.20297876 0.40523717 0.18178917
000010 84 6f a4 bd f7 e5 b7 3e fd 07 88 bd 1c e2 3c be
       -0.080290824 0.35917637 -0.06642149 -0.18445629
000020 50 0f c8 be f1 5d a3 3e 8e 5f 80 3e cd 5b 9e 3e
       -0.39074183 0.3190761 0.25072902 0.30929413
000030 03 ec 79 3e 23 37 00 3b b4 a4 8d 3d e5 f6 b5 3c
       0.24406438 0.0019564114 0.0691618 0.022212455
000040 22 ac f2 3e 3e 5f ad be 8f da a5 be 3c ec 2b be
       0.47396952 -0.33861727 -0.3239331 -0.16789335
000050 84 a3 4f 3e d5 de a3 3e eb 08 48 3e a5 51 98 3e
       0.2027722 0.32005945 0.19534652 0.2974979
000060 7a cc ad be 42 19 97 3c e1 d5 4a 3d a3 fd f5 bd
       -0.33945066 0.018444661 0.049520377 -0.12011268
000070 de 17 14 be ab aa 87 be 7a 4f 42 3c 8c 58 08 be
       -0.1446223 -0.26497397 0.011859769 -0.13315028
000080 01 1f be 3e ec 39 5b be 3c f6 a0 3e 26 bd 35 be
       0.3713303 -0.21408814 0.31437862 -0.17747936
000090 29 60 79 3e e3 df 6e be 2b 4f b8 3d db 87 b1 3e
       0.24353088 -0.23327594 0.08999475 0.34673962
0000a0 21 32 f2 bd a1 ab b7 be ba 3e b8 3e 76 40 b3 be
       -0.118259676 -0.3587313 0.35985357 -0.35010117
0000b0 f1 a5 d0 be f0 01 0a 3e 0f 8e 68 3e 7e d8 8a 3d
       -0.40751603 0.13477302 0.22710441 0.06779574
0000c0 b7 b9 e1 3d af 9f 8d be ab ec be be fc 40 ec bd
       0.110217504 -0.2766089 -0.37289938 -0.11535832
0000d0 bf 18 89 be 5d da 77 3e 3c 80 3d 3e 10 1f 12 be
       -0.26776692 0.24204393 0.18505949 -0.14269662
0000e0 49 a9 3b be 2e ab 3b 3e 46 e5 59 3e 3f aa b7 3e
       -0.18326296 0.18327019 0.21278867 0.35872075
0000f0 9e 33 21 be 89 ac 11 3c 39 6e dd 3e a7 dc b2 be
       -0.15742347 0.008891233 0.43248156 -0.3493397
000100 2c b8 9c be f7 e6 ac be 26 85 ab 3e 87 5d 2d be
       -0.30609262 -0.33769962 0.33500022 -0.16930209
000110 9b bd 41 bd 78 25 63 3e 54 6c d2 be 2d 86 8a 3e
       -0.047299962 0.22182262 -0.41098273 0.27055493
000120 7b 8c a9 be 58 4e d3 3e 0c 61 9f bd 35 e5 96 be
       -0.3311499 0.4127071 -0.07782182 -0.29471746
000130 4b 81 e2 3e 57 0d e0 bd 3f 71 8f be 85 bf e8 be
       0.44239268 -0.109400444 -0.28016087 -0.45458618
000140 1a b0 d5 3e 51 b6 01 bd cf b1 3d 3e 3b ea b6 3e
       0.41735917 -0.03166801 0.1852486 0.3572558
000150 3f 96 c2 be b2 7a ad 3d f9 c8 94 3e d3 32 81 be
       -0.38005254 0.08470668 0.2905958 -0.25234088
000160 26 f5 cc be 9f 50 a2 3e 45 6f 8c be 40 71 e8 bb
       -0.40030783 0.31702134 -0.27428642 -0.0070935786
000170 c1 ca 3f be ce 5a 63 be 08 91 97 be fc a8 d2 be
       -0.18729688 -0.22202608 -0.29602838 -0.4114455
000180 7f 02 bd 3e e9 90 82 be 99 b3 cd 3e 1c 8f d5 3d
       0.36915967 -0.25501183 0.40176085 0.104276866
000190 8c 8d c9 be 4b c4 91 3e 7b 9e 86 3e bf 74 39 3e
       -0.39365804 0.28470072 0.26292786 0.18110941
0001a0 80 39 9f be c3 8e e1 3d ca f3 c7 be 2c 34 f3 3d
       -0.31098557 0.11013558 -0.39053184 0.11875185
0001b0 f0 f0 2a be 39 af 12 be 60 0f f1 3d 96 11 b5 be
       -0.16693473 -0.14324655 0.11770511 -0.3536498
0001c0 c1 4b 90 be 63 bb 55 3e d2 b4 16 be 51 99 04 3d
       -0.28182796 0.20872264 -0.14717415 0.032372776
0001d0 c8 d2 e5 bd f0 04 75 be a5 70 ba 3d 0e 94 7d be
       -0.11221844 -0.23927665 0.091035165 -0.2476351
0001e0 85 bc 34 bd ac ae b7 be 59 00 8d 3e 52 13 23 3e
       -0.0441251 -0.35875452 0.27539328 0.15925339
0001f0 fb b3 70 be c6 67 b3 3d fc bb 26 3e 22 cb 98 bd
       -0.23506157 0.087600276 0.16282648 -0.074606195

layers.1.weight f4 [128, 128]
000000 9e 86 85 be 63 d7 0a bd 21 30 f1 bc 7e fc 23 3f
       -0.26079267 -0.033896815 -0.029441895 0.6405715
000010 bf f8 9f bc 45 6f ca bd 06 84 3d 3e 40 28 9c bc
       -0.019527791 -0.09884504 0.18507394 -0.019062161
000020 50 a4 e0 bd 87 a0 d8 bd f2 8f 3e 3e 46 c9 b3 bc
       -0.1096884 -0.10577493 0.18609598 -0.02194656
000030 56 54 a2 bd 08 f0 34 be 37 d8 0b bd 36 88 0e be
       -0.07926242 -0.1766969 -0.034141745 -0.13919148
000040 bb a2 df bd 7e 50 87 be 51 c9 f0 bc 7c 8d bf 3d
       -0.1091971 -0.26428598 -0.02939287 0.09353158
000050 50 8e 82 3d d1 a5 0b bd 4c 33 19 3f 48 3d 86 be
       0.063748 -0.03409368 0.598439 -0.2621863
000060 cf 30 dc bd 36 a1 32 3d 77 86 a4 bd f4 67 61 3e
       -0.10751497 0.043610774 -0.0803346 0.22012311
000070 ac aa 6d 3d 80 82 f9 38 55 0a ca bc 91 01 01 3d
       0.058024094 0.00011897553 -0.02466313 0.031495634
000080 6a 53 66 bd c7 fe 80 be de 5f 1e 3d 30 03 cf bc
       -0.056231894 -0.2519438 0.038665645 -0.025270075
000090 8e 58 4c bd 85 b4 5c be 54 3d 0c be ab ff e3 bd
       -0.04988914 -0.21553238 -0.1369527 -0.11132749
0000a0 16 ef 6a bd c8 4c 35 bd 34 a3 93 bd eb 3c c5 bd
       -0.057356916 -0.044262677 -0.07208863 -0.0963076
0000b0 07 5c 8e 3d 2a 09 bf bd f8 ad 94 3d c8 64 23 bc
       0.069511466 -0.0932792 0.072597444 -0.009972759
0000c0 16 8e 08 bd 18 a1 2f 3c 8b d4 e9 bd fb 94 8c bd
       -0.03333863 0.01071956 -0.114174925 -0.06864353
0000d0 11 60 9b 3d 10 98 67 bd db 46 17 be e6 89 a1 bc
       0.075866826 -0.056541502 -0.14773123 -0.019719075
0000e0 8b 45 95 3d e6 0f 94 3d 42 30 42 bd e7 ea ea bc
       0.07288655 0.07229595 -0.047409303 -0.028676463
0000f0 30 16 b4 3d 62 0e 5f 3d 6d 0d a5 3d 82 f5 63 bd
       0.087932944 0.054457076 0.080592014 -0.055654056
000100 f3 a1 9d 3d 0f 3b 13 3d cd 3f 84 bc ea ea 3e 3e
       0.07696905 0.035944995 -0.016143704 0.186443
000110 be 9e ac bd f0 9b 15 be 8b 83 7f 3d 7a 0e f6 bc
       -0.08428715 -0.14610267 0.06238131 -0.0300362
000120 ac 8c 94 3d 5d 25 b3 bd 44 16 f5 3e f2 89 ab bd
       0.072533935 -0.08747361 0.4786855 -0.0837592
000130 cc 0e 42 3e bf 52 60 be 0d 73 f3 bc 62 3b d7 bd
       0.18950957 -0.21906565 -0.029717946 -0.10509373
000140 96 82 18 3e 41 55 65 3d 66 d0 f7 3e cf cb 4c 3e
       0.14893565 0.055989508 0.48401183 0.19999622
000150 98 31 5a bd c2 e4 f0 bd 80 2b 8a 3d 2e 38 b9 be
       -0.053269953 -0.11762382 0.06746578 -0.36175674
000160 1e ad fb bd 00 46 08 3e 2a d3 93 3d 0a 00 1f 3e
       -0.12288879 0.13307953 0.07218011 0.15527359
000170 98 d8 47 bc 59 9f df 3d 5d bd 30 be 54 4d 18 bc
       -0.012197636 0.10919065 -0.17259736 -0.00929578
000180 8d 4e 6e 3e ce 81 03 be e9 d6 bc 3d 62 62 6e be
       0.23272152 -0.12842485 0.09220678 -0.23279718
000190 de 89 d5 bd 62 6f fc bd 53 a6 8d 3e 11 67 51 3d
       -0.10426687 -0.12325932 0.27665958 0.051123682
0001a0 5a 91 28 be 66 41 83 bd af b1 f2 bd 63 31 52 bd
       -0.16461697 -0.06408958 -0.11850297 -0.05131663
0001b0 cf b9 24 3c 11 58 77 3d 3a 29 54 3e 6c 04 cc bd
       0.010054066 0.06038672 0.20718852 -0.09961781
0001c0 b2 d5 19 3c 5b 1b 89 3d ba 22 1e 3e 5e 29 61 3e
       0.009389328 0.06694671 0.15442935 0.21988437
0001d0 f3 40 81 bd cf 90 71 3d 49 30 f5 3d ff 32 1d be
       -0.06311216 0.05897599 0.119721 -0.15351485
0001e0 b5 d2 27 3d 9a 5e f2 bd 40 06 13 3c 4b 4b d4 3c
       0.04097243 -0.1183445 0.008973658 0.025914809
0001f0 ce 17 04 3e 34 88 e2 3d 2e 28 06 3d 42 8c fb 3d
       0.12899706 0.11061135 0.032753162 0.122826114
000200 44 e4 95 3e 1a fc 0e 3e 6b bb ac bc b6 06 ce be
       0.29275715 0.13963357 -0.021085462 -0.40239495
000210 e9 4f b2 3c a4 9b a7 bb c5 fa 6a 3a e8 52 aa 3d
       0.02176662 -0.0051149894 0.0008963759 0.08316594
000220 ee 76 96 3c b8 de 0b 3d 4c 01 02 be 7a 8d be bd
       0.018367257 0.034147948 -0.12695807 -0.09304328
000230 9f 3d ae 3d 81 d2 45 bc 3e 56 d4 bd 18 b0 1c 3d
       0.08507847 -0.012074114 -0.10368012 0.038253874
000240 62 70 4c 3e e6 f1 0f 3e 2d b4 c6 3c f5 e0 ec bb
       0.19964746 0.1405712 0.024255836 -0.0072289654
000250 8f 82 8c 3c 13 d0 9c bd c8 52 e4 be a6 6e 11 3e
       0.017152099 -0.076568745 -0.44594407 0.14202365
000260 51 bd 41 3e 9b 72 a0 bd 6b 70 1f 3e 43 13 fc bd
       0.18919875 -0.07834359 0.15570228 -0.123083614
000270 fd dd f8 bb 67 37 31 b9 6c 28 0b 3e 1c 45 b1 bc
       -0.0075948224 -0.00016900674 0.13589638 -0.0216394
000280 58 46 b5 3d 32 f8 64 3e bb 2d 9d bd 33 62 7d bd
       0.08851308 0.22360304 -0.07674738 -0.06186123
000290 f7 0b c6 ba f6 ae 76 3e 2b 39 20 bd 40 8b d9 3d
       -0.0015109767 0.2409018 -0.03911702 0.10622263
0002a0 e4 f8 06 3e b0 f9 b4 bc 25 26 73 3d 9c 43 24 3e
       0.13180882 -0.022091717 0.05936255 0.16041416
0002b0 3e 41 90 bd e2 34 57 3d 52 63 1d bc cb ea 46 bd
       -0.07043694 0.052540667 -0.009606199 -0.04856376
0002c0 c6 54 1c bd 61 77 da bd 03 a1 f9 3d f3 b9 e0 3a
       -0.038166784 -0.10667301 0.12188914 0.0017145261
0002d0 13 a2 23 bd 16 94 e1 bc ae eb 5e 3d bd 2d 91 bd
       -0.039949488 -0.027536433 0.05442398 -0.07088802
0002e0 3a 18 36 be b1 ef 2a bd 19 b6 11 3e 60 32 63 3c
       -0.17782679 -0.041732494 0.14229621 0.013866991
0002f0 cb 77 28 bd af 6d b4 bd 4a 14 18 bd bc 2d b7 bd
       -0.04112987 -0.08809983 -0.037128724 -0.0894427
000300 e4 d5 b9 bd aa 0c a0 3d 42 9a 45 3d 56 e3 fc bd
       -0.090739995 0.078149155 0.048242815 -0.123480484
000310 f0 e0 32 3d ee 84 e3 3d 11 08 13 3d cd fa f7 bd
       0.04367155 0.11109339 0.035896365 -0.12108383
000320 df 0d ad bd 1b c3 a7 3d a1 e6 96 be ce 64 eb 3d
       -0.08449911 0.0819151 -0.2947283 0.11493836
000330 da 25 44 be 0b 66 09 3d d3 c1 6b bd 6c e5 2d 3e
       -0.19155064 0.03354458 -0.057557892 0.16982049
000340 03 0e 24 be a3 67 99 3b 1a b0 cd be 50 77 0c be
       -0.1602097 0.004681544 -0.40173417 -0.13717389
000350 a1 97 35 3d 71 3b b6 3d 94 da b4 bd 08 69 75 3e
       0.044334058 0.08898056 -0.08830753 0.23965847
000360 bf ca 1c 3d 5c 8c 40 bc b8 73 aa 3d ae f6 f6 bc
       0.03827929 -0.011752214 0.08322853 -0.030146923
000370 cd 94 8a bc d0 1f f5 bd d3 db d9 3d 1d 5a ea 3c
       -0.016916657 -0.119689584 0.10637631 0.028607422
000380 8c 7a 45 bd 62 bc d5 3d 1a 3e b8 bd 07 d7 1e 3e
       -0.048212573 0.10436322 -0.0899622 0.15511714
000390 70 c0 28 bd 4c 8f 45 3e af f6 1c be d9 ce 5c bc
       -0.041199148 0.19292945 -0.15328477 -0.013477051
0003a0 ad 93 2b 3e 9c 4c 8a 3d b2 69 57 3d 7e a4 ac 3c
       0.16755553 0.06752893 0.052591033 0.02107453
0003b0 20 86 16 bc 68 a2 ac bc ae a3 37 be 2a 5b 90 3d
       -0.009187251 -0.021073535 -0.17933533 0.07048638
0003c0 02 e0 bf bd 5c 91 5d bd 71 b1 d7 bd dd eb 82 be
       -0.09368898 -0.054093704 -0.10531891 -0.25570574
0003d0 c0 b9 08 3e 7e 90 b1 bd 46 13 07 be 96 01 24 3d
       0.13352108 -0.08670138 -0.13190946 0.040040575
0003e0 9e bb a3 bd 87 41 fe 3c 09 7a 3e bc a7 c6 96 bd
       -0.079947695 0.031037105 -0.011625775 -0.07362109
0003f0 7a 30 a2 bd c0 cf a2 bd 82 44 af bd 14 47 30 be
       -0.079194024 -0.079497814 -0.08557989 -0.17214614

layers.1.bias f4 [128]
000000 82 9c 02 bd 9e 6c 1e bd 72 03 d8 bc c0 10 a2 bc
       -0.03188754 -0.038677804 -0.02636883 -0.019783378
000010 e0 86 c7 bd 39 67 0b 3c 26 f3 dd 3c 0d cf 60 bd
       -0.09742522 0.008508497 0.027093481 -0.05488496
000020 b9 b5 1c bd b1 42 e3 bd 3a a5 65 3d 6b 68 61 3d
       -0.03825924 -0.11096705 0.056065775 0.05503122
000030 3d a0 32 bd 28 6e b9 bd 1f 20 4a 3a 8b ce 02 3d
       -0.043609846 -0.09054214 0.0007710475 0.031935256
000040 ac da 03 be 24 ff 31 bd e1 5a 2c 3c aa 0e d4 bc
       -0.12876385 -0.04345621 0.010519714 -0.025885899
000050 9c 1f 00 bc 2d 38 a1 bc 4b db 19 bd 36 be 1e be
       -0.007820036 -0.019680107 -0.03756265 -0.15502247
000060 dc 88 9c bd e8 8e 34 3d 5d 9a 27 bd ce 67 12 bc
       -0.07643291 0.0440816 -0.040918697 -0.008935882
000070 12 c5 ae 3c 75 f6 b9 3c fe 01 9b 3c c2 07 bc 3c
       0.021334205 0.022700528 0.018921848 0.022952918
000080 f7 78 8b 3a 26 21 02 bd 3a 17 e2 bc 4b 08 c1 bd
       0.0010640909 -0.031769894 -0.027598966 -0.0942541
000090 e9 c2 b7 bd 18 6b 86 bd 04 8b 39 bd cf 37 7e bd
       -0.08972723 -0.06563395 -0.04529859 -0.062064942
0000a0 77 9d 24 be ff da 4e bd ce 80 fc bd ce d1 0e be
       -0.16075693 -0.05050182 -0.12329255 -0.13947222
0000b0 2f 0b eb 3c e0 a8 a0 bd a4 a2 99 3d 48 d6 f6 3d
       0.028691856 -0.0784471 0.07501724 0.1205259
0000c0 eb e6 80 3d 60 dc f9 3d d8 54 39 3d c0 10 a7 bd
       0.06294044 0.12200236 0.04524693 -0.08157492
0000d0 78 12 c2 3d 6e ca bb 3c 27 d2 93 bc 6a c0 e0 bd
       0.09476179 0.022923674 -0.018044544 -0.109742
0000e0 3a af fb 3c 38 72 ff bc 0f ce 55 bd 1c 01 67 3d
       0.030723203 -0.031182393 -0.052198466 0.056397542
0000f0 0d bb 2d bd 9c 2c 3b 3d e6 c9 3d 3d 1a 39 c3 bd
       -0.042414714 0.04569684 0.046335123 -0.09532376
000100 85 bc 5c bd ff cd a7 bc 9d 6b 74 bd 9f 1b 00 bc
       -0.053890724 -0.020483969 -0.05967294 -0.007819085
000110 ef be 77 bd 80 dd 8c 3d 05 2a 13 be 67 50 e3 3d
       -0.060484823 0.06878185 -0.14371498 0.1109932
000120 a3 30 d3 bd bb 1d 0c be 30 62 1f 3e 6d 54 4f bc
       -0.10312011 -0.13683216 0.155648 -0.012654406
000130 98 b0 01 bd d2 bc f7 bc ea 35 c2 3c 16 55 98 3d
       -0.031662554 -0.030241404 0.023707349 0.07438104
000140 56 fb e1 bd 7a f1 e1 bd d8 f0 5a bd a1 91 95 bd
       -0.11034267 -0.11032386 -0.053452343 -0.07303167
000150 44 43 0d bd b6 b4 db 3c f1 25 2f 3e 00 1b 9c bb
       -0.034487978 0.026819568 0.17104317 -0.004763961
000160 80 a3 04 be d6 a1 29 bd ab 67 a0 bd 88 0c 9d bd
       -0.12952995 -0.041414104 -0.07832273 -0.07668406
000170 2d 1d ee 3c 16 8f 92 3d 9d 93 2f bc ec b6 37 3d
       0.029066646 0.07156198 -0.010716346 0.044852182
000180 c3 4f 1d 3d 5f f1 ad 3c 33 90 6e bd f1 91 68 bd
       0.038406145 0.021233259 -0.058242988 -0.056779806
000190 51 81 98 bb 7a d7 91 bd 8c 6b 6b 3d 29 c1 8e 3d
       -0.0046540876 -0.07121177 0.05747561 0.06970436
0001a0 ef 27 f9 3d b0 41 58 3d 65 eb dd 3c 3c 57 60 3d
       0.1216582 0.05279702 0.027089784 0.054770693
0001b0 af b5 b7 bd 18 16 c6 3b 9e 17 f9 3c e1 c0 9b bd
       -0.089702 0.0060451142 0.03040677 -0.07605148
0001c0 72 b5 b6 bc a4 7d 4c 3d 3f 70 bf bc a2 65 73 bd
       -0.022303317 0.049924508 -0.023368953 -0.059423096
0001d0 33 74 70 3d 35 cf 1d 3d 8e 4c 59 bd e2 e0 03 3d
       0.058704566 0.038527686 -0.053051524 0.032196887
0001e0 8a 3c 35 3e 58 17 06 bc 33 f5 1d 3c 00 70 37 bd
       0.17698875 -0.0081842765 0.00964098 -0.044784546
0001f0 d0 65 9c 3c 7e 1d c3 3d 2c fb 92 bd b1 2f b8 3d
       0.019091517 0.095271096 -0.071768135 0.089934714

layers.3.weight f4 [128, 128]
000000 4c 5a 61 bd 58 bd b1 3c 6b 66 21 bd eb 00 14 3d
       -0.055017754 0.021696731 -0.039404314 0.036133688
000010 43 e8 0e be 17 3d 44 bd 3e fa 16 bc f3 14 d8 3c
       -0.13955788 -0.047909822 -0.009214936 0.026377177
000020 a1 e4 7e bd 19 c3 5f be 2a 16 96 3d e5 f7 f2 3d
       -0.062229756 -0.21851768 0.07328446 0.118636884
000030 1e 45 97 be 7b 1d 14 bd 80 e1 a9 b8 86 5d b5 3d
       -0.2954492 -0.036160927 -8.1005506e-05 0.08855729
000040 44 ff 84 be 58 89 34 bb 58 ed 2a bd 8e 01 a0 bd
       -0.25976002 -0.0027547684 -0.041730255 -0.078127965
000050 16 f2 12 3d 2b de a4 bd 72 1f 38 be 26 5f 2f bd
       0.035875402 -0.08050188 -0.17980745 -0.04281535
000060 5f e5 65 3d b3 81 0f bd ef d5 c7 bd 07 1b 17 3d
       0.05612695 -0.0350358 -0.097576015 0.03689101
000070 4a 17 0c be 24 ab 77 bd 14 c5 5c 3d ed a2 38 3e
       -0.13680759 -0.060465947 0.053898886 0.18030901
000080 5f 2f 5c bc e7 11 10 be b1 db 35 3a 1e 62 5b be
       -0.0134390285 -0.14069329 0.00069373386 -0.21424147
000090 e9 94 60 bd 62 fa 93 bd a9 88 01 be 46 04 1b bd
       -0.05482951 -0.07225491 -0.12649788 -0.037845872
0000a0 43 7a 64 be e4 85 98 bd 97 c9 87 bc 10 7f dc bc
       -0.22312264 -0.074474126 -0.016575618 -0.026916057
0000b0 ae 8d 0d 3c 8e 9e 8d 3d 81 31 07 bd e0 29 db 3c
       0.008639736 0.069150075 -0.033006195 0.026753366
0000c0 f6 04 be bc 11 83 40 3e cb f3 7c 3e ae e6 10 3d
       -0.023195725 0.18799998 0.24702375 0.035376243
0000d0 40 94 94 3d 84 9c 40 be 28 39 4e 3d 54 cb fe bd
       0.07254839 -0.18809706 0.050347477 -0.124411255
0000e0 cb 3d 45 3c 7b b1 60 3e 83 8c 83 3d 01 75 22 3d
       0.012038658 0.21942703 0.06423285 0.039662365
0000f0 89 9c b7 bd 2a 03 16 bc dd 17 6f bd 2a 8d 9e bd
       -0.089654036 -0.009156028 -0.058372367 -0.07741769
000100 45 40 cd 3b ab 2d 62 bd fc b0 2a bd 61 c1 b4 3d
       0.006263765 -0.055219334 -0.04167269 0.088259466
000110 04 a3 60 3d a9 c3 06 bc a1 32 88 be aa 78 26 3d
       0.054842964 -0.00822536 -0.26601127 0.040642418
000120 11 4d 8f bb 22 9e 86 bd 54 8f 77 3e d1 98 9d ba
       -0.0043732007 -0.0657313 0.24175769 -0.0012023692
000130 8c 22 3a be 3e 4a 7b be 42 b1 9c bd 0a 5b 03 3d
       -0.18177241 -0.2454004 -0.07650997 0.032069243
000140 6f cd 5e 3d 01 92 4b be 39 a0 0d bc e0 ba 82 bd
       0.054395135 -0.19879915 -0.008644157 -0.063833
000150 49 44 3a bd bd 15 8a bd 3b 3f 27 3c f9 db ed bd
       -0.045475278 -0.067424275 0.010207946 -0.11614222
000160 be 72 9a be a9 80 93 3d 17 36 f6 bd 4a 78 ab 3d
       -0.30165666 0.07202274 -0.120220356 0.08372553
000170 ee e2 97 bc c8 9d ca 3d 74 b6 67 3d 62 6d 8a 3e
       -0.018540826 0.09893376 0.056570485 0.27036577
000180 1b 42 01 be 67 07 ba 3d 64 e8 73 3d bb 9e f9 bc
       -0.12622873 0.09083443 0.059547797 -0.030471196
000190 c7 f5 42 be 18 ff 49 3d 52 89 0b 3e 2b d4 31 3d
       -0.19039069 0.049315542 0.13626602 0.04341523
0001a0 ed 56 4a 3d 5d f9 48 bb d1 78 8e bd 7c 85 c7 bc
       0.049399305 -0.003066621 -0.06956638 -0.024355642
0001b0 a0 cd f6 3d f1 11 bf bd 96 76 ca bc 54 ed e2 bd
       0.120509386 -0.09329594 -0.02471475 -0.11080423
0001c0 c6 65 63 bd dc 32 5c be db db 3b 3d 00 6d 97 bd
       -0.05551698 -0.21503776 0.045863967 -0.07393837
0001d0 3b b2 6b bd 3f c9 80 bc 20 07 30 bd 3a 45 43 3e
       -0.05754302 -0.015720962 -0.042975545 0.19069377
0001e0 74 ad 7f 3e ef c4 a6 3d 52 5b eb 3b 75 2f 82 3d
       0.24968511 0.08143031 0.007182517 0.06356708
0001f0 ec b7 18 3e 75 7e 8a 3a d6 ff 00 3d 9c ac 1a bd
       0.1491391 0.0010566252 0.031493984 -0.03776227
000200 9a e9 c1 bc 58 df a7 3d eb 27 6b be 8a 16 14 be
       -0.02367096 0.08196896 -0.22964446 -0.14461723
000210 ec 01 87 bd 48 5b 81 3e 44 e9 2d 3d 22 01 d8 bd
       -0.065921634 0.25264955 0.042458788 -0.10547091
000220 6c 05 52 bc 35 a1 82 bd 34 bd b5 3d 67 fb 19 3d
       -0.0128186755 -0.06378404 0.08873978 0.03759327
000230 5f 37 b3 3c d2 6e 24 bd 74 d5 8e bd 69 d9 c8 3d
       0.021876989 -0.04014475 -0.06974307 0.09807093
000240 fc 86 8d bd c4 84 98 3d 90 66 51 be fc f5 01 bb
       -0.06910512 0.07447198 -0.2044928 -0.0019830456
000250 66 84 19 be 01 69 2e 3e be 48 64 bd 29 0b 82 3e
       -0.14991912 0.17032243 -0.055733435 0.2539914
000260 dc 13 59 3e 49 c8 01 3e ac 4d 27 be e5 71 11 3d
       0.21198982 0.12674059 -0.16338223 0.03550901
000270 c6 b6 48 be 95 01 85 be ac b2 52 3e 6c 9e ca 3d
       -0.19600973 -0.2597777 0.2057597 0.09893498
000280 4c 1d c8 bd e0 8a 94 3e ee 8e 15 be c0 e3 a8 ba
       -0.09771213 0.29012203 -0.14605305 -0.0012885258
000290 15 46 47 be 45 1d eb bd e0 3b 4d 3e ec a0 f3 bd
       -0.19460328 -0.11480192 0.20042372 -0.11895928
0002a0 13 cf 36 3d 4d 90 cd 3c 12 f9 1b 3c dd d6 23 3d
       0.044631075 0.025093222 0.009519832 0.03999983
0002b0 9a fa 82 3d 29 9c 4d 3d 8d 2e 7e 3c 9d 90 4d 3e
       0.06395455 0.050197754 0.015514028 0.20074697
0002c0 c7 03 23 bc 29 3a 6c 3d cc 0e 01 3d b3 cc 8c bc
       -0.009949631 0.057672653 0.031508252 -0.017187452
0002d0 9b c0 0c 3e 54 ba 66 be e4 62 18 3e 4d 6b 6a bc
       0.13745348 -0.22532016 0.14881474 -0.014307809
0002e0 fe 39 2e 3e 84 ae a6 3b 5f 7d 03 be 12 1c 26 3e
       0.1701431 0.005086722 -0.12840794 0.16221645
0002f0 8a c2 4d be 3d 85 d4 3d 8d 09 8b bd 5f 7f f5 bd
       -0.20093742 0.10376976 -0.06788931 -0.11987185
000300 3e 2f 68 be b9 f8 15 bd 23 ec 3d be f2 4e 5f 3d
       -0.22674271 -0.036614154 -0.1854711 0.054518647
000310 f4 2e 7e bd 32 16 14 3e 92 7d b7 bd c6 dc 1d be
       -0.062056497 0.14461592 -0.089594975 -0.1541625
000320 13 69 70 bd 8b 5f 59 3e 2f d1 7b 3d af 9b 74 bd
       -0.058693957 0.21227853 0.06147879 -0.059718784
000330 4b 8c f1 bd 1e 11 c5 bd ce 1a 36 3e 1d 2b 65 3e
       -0.11794337 -0.096224055 0.17783663 0.22379728
000340 d1 d6 85 bc 8a c4 f4 bd 9d 43 aa 3d 4c 40 fb 3d
       -0.016337784 -0.11951549 0.083136775 0.12268123
000350 f8 83 75 3e d7 60 99 bd fa 68 c5 3d 0d 66 a3 3d
       0.23976123 -0.07489174 0.09639163 0.07978449
000360 a0 71 c4 bc af 66 1e 3e bb 65 7f be d7 a1 bf 3c
       -0.023979962 0.15468858 -0.24941151 0.023392601
000370 5f 40 59 be 86 68 6c 3e f2 43 6d 3d 39 11 76 bb
       -0.21215962 0.23086748 0.057926126 -0.0037546887
000380 18 4f a9 ba 3a fd 1b 3e 7f 0f b6 3d 12 87 f1 bd
       -0.0012917249 0.15233317 0.088896744 -0.11793341
000390 e2 d2 e1 bd c7 aa 20 be 02 7b 13 3e d4 eb 04 3e
       -0.11026551 -0.15690146 0.14402393 0.12980586
0003a0 be 8f 76 3b f1 01 49 3e a4 6a 38 3d ef 14 fa bd
       0.0037622298 0.19629647 0.045023575 -0.12211024
0003b0 eb 06 e7 bd 6b 92 ce bd 13 34 3e 3d c7 9d b0 3c
       -0.112806164 -0.10086521 0.04643638 0.02155961
0003c0 d6 3c 7d 3e 66 ce f3 bd ff d3 49 bd c3 6b b6 bd
       0.24730238 -0.11904602 -0.04927444 -0.08907273
0003d0 bd 98 cf bc 73 2f 76 3d b4 13 da bd 17 e4 3a be
       -0.025341386 0.060103845 -0.10648289 -0.18251072
0003e0 80 2e ea 3d 5e 37 26 bd 74 ab d6 bd 10 bd 00 3e
       0.114346504 -0.040580146 -0.10481921 0.12572122
0003f0 b1 ae 09 3e d7 3c 64 be 74 fa 13 be 41 0e ce 3c
       0.13445546 -0.22288834 -0.14451009 0.025153281

layers.3.bias f4 [128]
000000 88 2e 66 3e c7 d6 07 bd ef 75 91 3d 00 a8 f1 3d
       0.22478688 -0.033163812 0.07102572 0.117996216
000010 ea 73 86 be a7 c0 cd 3d 33 87 b9 3c 51 6e 13 3d
       -0.2626031 0.10046511 0.022647476 0.035993878
000020 a0 cd 88 bb 40 63 81 3d f0 54 9d bc 94 3c 03 3e
       -0.004174903 0.063177586 -0.01920554 0.12816077
000030 5f a7 01 3d 1c f3 09 be 55 20 6b 3b 8f da f4 3d
       0.03165376 -0.13471645 0.0035877426 0.11955749
000040 b1 ba dd 3d 4f 84 30 bb c8 f1 ea bb 6f ff 05 be
       0.10826624 -0.002693433 -0.007169936 -0.13085721
000050 6d eb ac 3d 6a 1e 8c 3d 4b 29 b8 3b ec 1d 0c 3e
       0.084433414 0.068417385 0.005620157 0.1368329
000060 1f 56 11 bd 67 87 cf bc b1 b9 b0 bc 44 7f e1 bd
       -0.035482522 -0.02533312 -0.02157292 -0.11010602
000070 f8 af 05 3e 40 91 44 3c 67 cc 9e 3c f0 11 91 bd
       0.13055408 0.011997521 0.019384576 -0.070834994
000080 c6 44 92 bd 23 52 d0 3d e2 b6 79 bd ed 5d 8d 3c
       -0.07142024 0.10171916 -0.060965426 0.017256701
000090 ce 3a 82 bd 40 3c f8 3d 3f ab 7b 3d 39 1a bf 3d
       -0.06358872 0.12120867 0.06144261 0.093311734
0000a0 a9 ba 87 3e 0e 85 10 be 32 f0 c7 bd e2 0d 10 bb
       0.26509598 -0.14113256 -0.097626105 -0.002198093
0000b0 57 44 8b 3d ae e2 29 be 25 aa db bd a6 20 db 3c
       0.06800144 -0.16590378 -0.10725812 0.026748966
0000c0 78 f4 3f 3e f0 76 1a be 2f 01 27 3e d9 a0 a3 3d
       0.18745601 -0.15084434 0.16309045 0.07989664
0000d0 4f 97 42 be d2 f5 89 bd b0 4e 1f be 5a 29 cb bb
       -0.19003032 -0.0673634 -0.1555736 -0.006199998
0000e0 c0 e5 25 3d 57 24 fa 3c ef 59 01 3d 04 89 fb bd
       0.04050231 0.030534906 0.031579908 -0.12281993
0000f0 44 eb e5 3d 7b ad 3d bd 31 a0 ca bc 56 a0 c5 3a
       0.11226514 -0.046308022 -0.024734588 0.0015077691
000100 72 5a c0 3c e4 bb 4e bd 40 46 8a 3d c5 9e 4e 3d
       0.023480628 -0.050472155 0.067516804 0.050444383
000110 5e a0 2c 3d c0 d4 3b bc 83 57 55 3d b4 79 d6 bd
       0.042145126 -0.011464298 0.05208541 -0.10472432
000120 01 b8 b5 3d 5d 00 b7 3c e9 9d c4 bc 62 b8 80 3d
       0.088729866 0.02233904 -0.024001079 0.06285168
000130 1a 0b 2e be 61 2c 0d bd 63 66 0f bd 37 26 7a 3d
       -0.16996422 -0.03446615 -0.035009753 0.0610716
000140 3e cc 1e be 03 c5 9e bb da e3 b1 3d e5 a3 db bd
       -0.155076 -0.004845263 0.08686037 -0.1072462
000150 20 44 d8 bd 9b c4 1b 3e 7b c1 38 3d 97 5e 61 bd
       -0.10559869 0.15211718 0.045106392 -0.05502185
000160 5e 4b 65 3c 07 30 01 be c8 ba a6 bd cb 54 c0 3d
       0.01399502 -0.12615977 -0.081410944 0.09391173
000170 7c 99 a4 3d 80 10 5c 3c c8 aa 08 bd 76 27 34 3e
       0.08037087 0.013431668 -0.033365995 0.17593178
000180 95 f8 a3 3d 57 ad 97 3d 06 20 8e 3d 53 fb 3e 3d
       0.08006398 0.07406109 0.06939702 0.0466264
000190 78 e1 20 3d 8b 3f cf 3d b2 ea 1d be 38 9c cc 3a
       0.039277524 0.10119542 -0.1542156 0.0015610522
0001a0 6a 40 19 be 57 f2 85 3d b2 17 2d be e1 58 0b be
       -0.14965978 0.06540363 -0.1690357 -0.13608123
0001b0 bb c6 9e 3d 43 c5 85 3d 73 7e 0f be bc 86 52 3d
       0.077527486 0.06531765 -0.1401308 0.051398024
0001c0 61 ad 72 3d 16 ec 0d bd 03 ad a3 3d 05 be a3 3d
       0.05924738 -0.034648977 0.07991984 0.07995228
0001d0 ca 54 5f 3c 78 cf c1 bd 31 40 db bd 5f 92 32 be
       0.013631055 -0.094634 -0.10705603 -0.17438649
0001e0 d3 f3 fa 3d 25 dd bf 3b ad f4 af bd 44 b3 8d 3d
       0.12253537 0.00585522 -0.0859159 0.06918958
0001f0 32 86 f8 bc 93 44 ab bc 2e cb 29 be 23 d3 c2 bc
       -0.030337427 -0.020906722 -0.16581413 -0.023782318

layers.5.weight f4 [1, 128]
000000 f5 85 3a 3e 4f be b8 bd 51 18 97 3e 7c 2d 93 3e
       0.18215163 -0.090206735 0.2951074 0.2874564
000010 d5 24 60 be 8f bd 40 be 6a 09 53 3e e4 6f 58 be
       -0.2188905 -0.18822311 0.2060906 -0.21136433
000020 b3 7c 52 bd 40 df 83 be 2a f6 9c 3d ff fb 26 3e
       -0.051388454 -0.25756264 0.076641396 0.16307066
000030 75 40 a1 3e a9 39 94 be a4 8e 03 be 53 02 d7 3d
       0.3149449 -0.2895024 -0.12847382 0.1049849
000040 37 33 68 3e a0 8a 2f 3e 94 93 3d be ee f2 68 3e
       0.22675787 0.17142725 -0.18513328 0.2274892
000050 98 75 a3 be 39 c8 61 be 32 4a b6 be de d8 b2 3e
       -0.31925654 -0.22049035 -0.35603482 0.34931082
000060 8d 6a 4a be 5a 91 51 be cb 64 07 be e9 d5 22 be
       -0.19767208 -0.20465603 -0.13222043 -0.15901913
000070 3d 3f 16 3e b9 22 af be d2 f9 98 be c7 b2 6f 3e
       0.14672561 -0.3420618 -0.29878098 0.23408042
000080 33 03 37 3e 0a f9 41 be 2b 0e c2 be 01 cf 2a 3e
       0.17872314 -0.18942657 -0.37901434 0.16680528
000090 68 1f 80 3e 92 8f 03 3f 3c 97 65 be 72 c3 4e be
       0.2502396 0.51390946 -0.22420973 -0.20191744
0000a0 9a 72 4e 3e d3 9f 41 be 19 42 cd 3d 6f 7b 52 be
       0.20160905 -0.18908624 0.10022373 -0.20554899
0000b0 2e 46 8c 3e 55 e4 f0 be 84 d5 5d 3e dd 00 44 3e
       0.27397293 -0.47049204 0.21663481 0.19140954
0000c0 e9 63 71 be d1 15 83 be e1 a7 86 be 1b 3d 00 be
       -0.23573269 -0.25602582 -0.26299956 -0.1252331
0000d0 32 b7 4e 3e ca 98 8b 3c b3 06 4a be 75 09 90 3e
       0.20187071 0.017040629 -0.19729118 0.28132215
0000e0 a1 75 68 3e 77 29 b8 3e a2 a5 6e 3e aa 7d 7d be
       0.22701122 0.35969135 0.23305371 -0.24754968
0000f0 47 68 3c 3e 35 09 54 be a7 8c 48 be fa 8d e7 be
       0.18399154 -0.20706637 -0.19584905 -0.45225507
000100 0e 42 23 3e b6 25 85 3e 18 11 7d be 05 23 49 3e
       0.15943167 0.26005334 -0.24713552 0.19642265
000110 78 ce 52 3e 36 e5 32 be f6 78 31 3d cf c6 54 3e
       0.20586574 -0.1747025 0.043328248 0.20778964
000120 c0 67 60 3e 1e 86 84 be 1d 7a 55 be 9d de 5a be
       0.21914577 -0.25883573 -0.20847364 -0.21373983
000130 01 ff 77 3e ab 9b e8 bd 0b 7c 26 be 0e ab d7 bd
       0.2421837 -0.11357816 -0.16258256 -0.10530673
000140 ca 78 6a 3e 68 c6 42 3e 06 c4 96 3e fd 5f 6d 3e
       0.2289764 0.19020998 0.2944643 0.23181148
000150 1c c1 76 be 20 ea 80 3e 69 2e 86 be 1c 27 60 3e
       -0.24097103 0.25178623 -0.26207283 0.21889919
000160 9d 0a 5e be 06 ff 5b 3e cf fc d7 3d 63 fc 91 3e
       -0.21683736 0.21484002 0.10546266 0.28512868
000170 90 e4 c4 3d 11 3e 87 3e 91 a4 8a be 7e b1 7e be
       0.09613907 0.2641454 -0.2707868 -0.24872395
000180 35 3c 69 be 20 13 40 be f1 3e 84 be 36 e5 32 be
       -0.22776873 -0.18757296 -0.2582927 -0.1747025
000190 c6 22 17 3e b8 ce a0 3e f0 e0 14 be 57 9a 01 bf
       0.14759359 0.31407714 -0.14538932 -0.5062613
0001a0 75 ff 2a be 3b 4c 87 3e cb d4 84 3e 15 9b 75 3e
       -0.16699012 0.26425347 0.25943598 0.2398494
0001b0 bb d3 3a be 09 b6 7d 3e b3 0a 3a be 4f bd ba bd
       -0.18244831 0.24776472 -0.18168144 -0.09118139
0001c0 00 54 3e be 87 b2 27 be 42 4b 00 3e 98 58 27 3e
       -0.18586731 -0.16376697 0.12528709 0.1634239
0001d0 57 3f 0d be 95 9b 49 3e 29 8f 02 3e f1 03 6d 3e
       -0.13793693 0.19688256 0.12749924 0.23146035
0001e0 c0 ad 71 3e b8 b7 4e be 01 08 8f 3e 79 d7 40 be
       0.23601437 -0.2018727 0.27935794 -0.18832196
0001f0 4e 8f 06 3e 52 a6 1d 3e 3c 2d 6d be 82 be f9 3d
       0.13140604 0.15395477 -0.23161787 0.121945396
