model_zoo/Apprentice/CartPole-v0/critic_2.pth (torch, 138295 bytes, 7 tensors)

layers.0.weight f4 [128, 4]
0	0xbeed644a	-0.46365577
1	0x3eadd8b6	0.339544
2	0xbf2bac74	-0.6706002
3	0x3ed78969	0.42097023
4	0x3e99cf78	0.300411
5	0xbe275a31	-0.16342999
6	0xbd1338bf	-0.03594279
7	0xbeb38a14	-0.35066283
8	0x3f098833	0.5372345
9	0xbee53b9f	-0.4477205
10	0xbedb72fd	-0.42861167
11	0xbe9df139	-0.308481
12	0x3f02bae3	0.51066417
13	0xbe81adb2	-0.25327832
14	0x3f04a497	0.51813644
15	0x3ec82b9d	0.39095774
16	0xbeed4d66	-0.46348113
17	0xbed4961d	-0.41520777
18	0xbd9a7ada	-0.07542963
19	0xbedc712c	-0.43055093
20	0xbe04629d	-0.12928243
21	0xbe1c453a	-0.15260783
22	0xbe3c94ea	-0.18416181
23	0xbf003b6b	-0.50090665
24	0xbead2117	-0.33814308
25	0x3e7c88b8	0.24661529
26	0xbee21844	-0.44159138
27	0xbdf2828a	-0.118413046
28	0xbf15dcab	-0.5853984
29	0x3dececea	0.11568625
30	0xbed72c71	-0.42026094
31	0xbef0013c	-0.46875942
32	0xbefed895	-0.49774614
33	0x3eaec24c	0.34132612
34	0x3e3eeeb6	0.18645748
35	0xbe8d41f0	-0.2758937
36	0x3e4ac3c4	0.19801241
37	0x3eb02223	0.34401044
38	0x3e02c422	0.12770131
39	0xbba5b3bb	-0.005056826
40	0x3f1515eb	0.5823657
41	0xbcbaabc6	-0.022786986
42	0x3d69a810	0.057045043
43	0x3df09b03	0.11748316
44	0x3ef3e12c	0.4763273
45	0x3f0038e3	0.500868
46	0x3cbbfd8f	0.022948055
47	0x3ec3901f	0.38195893
48	0xbe6e1b38	-0.2325257
49	0xbde9d05e	-0.11416696
50	0x3dde9f93	0.1087028
51	0x3e19fea9	0.15038551
52	0xbe22c7e5	-0.15896566
53	0xbee1bf1a	-0.4409111
54	0xbeafbf19	-0.34325483
55	0x3e373bf6	0.17893967
56	0xbe36d1d5	-0.17853482
57	0x3e62fadc	0.22166008
58	0xbf5052c3	-0.81376284
59	0x3e48d991	0.19614245
60	0xbe95cd71	-0.29258302
61	0x3de8a9e8	0.11360532
62	0xbf215933	-0.6302673
63	0xbea61d6f	-0.3244433
64	0x3e5bdd75	0.21471198
65	0x3ded9429	0.11600525
66	0xbeb30621	-0.34965613
67	0xbe2d6fff	-0.16937254
68	0x3e5a9f5b	0.21349852
69	0xbdb599be	-0.088672146
70	0x3e845663	0.25847158
71	0x3ecd1b44	0.40059865
72	0x3e64cdc7	0.22344123
73	0xbe344c9c	-0.17607349
74	0x3de8eaad	0.11372886
75	0xbdf6df37	-0.120542936
76	0x3f0fbac7	0.56144375
77	0x3e001599	0.12508239
78	0x3e00bae8	0.12571299
79	0x3ed0d011	0.40783742
80	0x3e69587d	0.22787662
81	0x3e8e2fab	0.27770743
82	0xbf0987a4	-0.53722596
83	0xbd8e6c32	-0.0695423
84	0xbefffcd1	-0.4999757
85	0x3ed72927	0.42023584
86	0x3e888aa8	0.26668286
87	0x3e74c3bb	0.2390279
88	0x3e812525	0.25223652
89	0xbea18c1f	-0.31552216
90	0x3f24e287	0.64408153
91	0xbeccf420	-0.40030003
92	0x3f0d9b24	0.5531485
93	0x3edd34a2	0.43204218
94	0x3f2f0363	0.6836454
95	0xbe87f772	-0.26555973
96	0xbe8f7c5a	-0.2802456
97	0x3d91a6b8	0.07111877
98	0xbe2158f4	-0.15756589
99	0xbe861ff1	-0.26196244
100	0x3e6df56d	0.23238154
101	0x3ebf2cd6	0.37338895
102	0x3d8c8541	0.06861354
103	0x3d6ac350	0.05731517
104	0xbd01c69b	-0.031683546
105	0xbe299766	-0.1656166
106	0x3e93ae25	0.288438
107	0xbe95eb22	-0.29280955
108	0x3da5324e	0.080662355
109	0x3e95fe14	0.2929541
110	0x3e54ac4e	0.20768854
111	0x3eb1aacd	0.34700623
112	0x3ed06eab	0.40709433
113	0xbe8cafa2	-0.27477747
114	0xbdadca01	-0.08485795
115	0x3ece2e72	0.4026981
116	0xbdb1a280	-0.086735725
117	0xbee1cf2a	-0.44103366
118	0x3e0a0d98	0.13481748
119	0xbee093b8	-0.438627
120	0xbddee8c6	-0.10884242
121	0x3eee0fbb	0.46496376
122	0xbeb6784c	-0.35638654
123	0x3db4263c	0.08796355
124	0xbe1d79ec	-0.15378541
125	0xbea532bd	-0.32265273
126	0xbe9e7d2e	-0.3095488
127	0xbe6f5a20	-0.23374224
128	0x3f17634b	0.59135884
129	0xbdd07752	-0.101790085
130	0x3edaaa93	0.42708263
131	0x3e9adf29	0.30248383
132	0xbeb8fb1a	-0.36129075
133	0xbef1a6ac	-0.47197473
134	0x3edd3020	0.4320078
135	0xbdb291bb	-0.08719202
136	0x3e0012ab	0.12507121
137	0x3e77c17a	0.24194899
138	0xbf01d4fe	-0.50715625
139	0x3e1b96e4	0.15194279
140	0x3ebf0512	0.37308556
141	0xbe81ee54	-0.25377142
142	0x3d5c0815	0.053718645
143	0xbefad4ac	-0.4899038
144	0xbebc073d	-0.36724272
145	0xbd0311b8	-0.03199932
146	0xbe2b412b	-0.16724078
147	0xbe41df4d	-0.18932839
148	0x3e7d66b4	0.2474621
149	0xbec2d64e	-0.38054127
150	0xbebbec81	-0.36703876
151	0xbe14fc22	-0.14549306
152	0xbdd9d3c6	-0.10636096
153	0x3eb25fad	0.3483862
154	0xbe7124f9	-0.2354926
155	0x3b48c3fc	0.0030634394
156	0x3e9ef57c	0.31046665
157	0xbe1862fa	-0.14881507
158	0xbeed8323	-0.46389112
159	0xbebfea0f	-0.3748326
160	0xbefff824	-0.49994004
161	0xbe96e8e0	-0.29474545
162	0x3ee609bd	0.44929305
163	0x3e9e837b	0.30959687
164	0x3ed635c9	0.4183791
165	0x3ee54a4f	0.44783255
166	0x3f16c0c3	0.5888788
167	0x3e117e06	0.1420823
168	0x3deab0f4	0.114595324
169	0xbe983e1e	-0.29734892
170	0x3ee44b75	0.4458882
171	0xbe127b2b	-0.14304797
172	0xbede90cb	-0.43469843
173	0xbed90cec	-0.4239267
174	0xbe1249a9	-0.14285912
175	0x3d993122	0.074800745
176	0xbf03df25	-0.51512367
177	0x3ef11972	0.47089726
178	0xbd946b06	-0.072469756
179	0xbe18b1ea	-0.14911619
180	0xbe87bdc6	-0.26511973
181	0xbe05dbda	-0.13072148
182	0xbd5effc0	-0.05444312
183	0x3dede00a	0.11614998
184	0x3f0c0aed	0.5470417
185	0xbd145215	-0.036211092
186	0x3e4280ca	0.18994442
187	0x3ea948ed	0.3306345
188	0x3dc1e474	0.09467402
189	0x3d53feb9	0.051756594
190	0x3f105d25	0.5639213
191	0xbee2c0ba	-0.44287664
192	0x3e858296	0.26076192
193	0xbc50f123	-0.012752804
194	0x3e9db36f	0.3080096
195	0xbe663eda	-0.22484913
196	0x3e8fd570	0.28092527
197	0xbc853b4f	-0.016263632
198	0x3e72fef7	0.23730074
199	0x3de4faec	0.11180672
200	0xbf08e447	-0.53473324
201	0xbe22c3da	-0.15895024
202	0x3e3b3a14	0.18283874
203	0x3e750d72	0.2393091
204	0xbed39559	-0.4132488
205	0x3ee4253a	0.44559652
206	0xbf2fd221	-0.68680006
207	0xbeab303b	-0.33435234
208	0xbdbecda0	-0.093165636
209	0xbec1bb06	-0.37838
210	0x3eec5de7	0.46165392
211	0x3dffcb1d	0.12489913
212	0xbe2ed27d	-0.17072482
213	0xbe0c0ab0	-0.13675952
214	0x3f2891bc	0.65847373
215	0xbcd876f2	-0.026423905
216	0x3e60b02c	0.21942204
217	0xbe8eb55e	-0.27872747
218	0xbd38e9c1	-0.0451448
219	0x3e6abcb3	0.22923546
220	0x3eda2ad3	0.42610797
221	0xbcc06d9a	-0.023489762
222	0x3ea727b2	0.32647473
223	0x3e4c15fd	0.19930263
224	0xbe803f5b	-0.25048336
225	0x3dea716b	0.11447414
226	0xbece341a	-0.40274125
227	0x3ec05c6b	0.3757051
228	0xbe872ed0	-0.26402903
229	0xbead84b2	-0.338903
230	0xbea069e1	-0.3133078
231	0xbea9ca49	-0.33162144
232	0x3ea85b53	0.32882175
233	0x3e38c0a5	0.18042238
234	0xbea28ea1	-0.31749442
235	0x3e44410e	0.19165441
236	0x3e954420	0.29153538
237	0xbeb2f736	-0.34954232
238	0xbefa8d3b	-0.48935875
239	0x3eda347e	0.42618173
240	0xbed9a613	-0.42509517
241	0xbeec63e1	-0.46169952
242	0x3d8e5e45	0.06951574
243	0xbd451334	-0.048114017
244	0x3e60bdaa	0.21947351
245	0x3e7526f8	0.23940647
246	0x3f006191	0.50148875
247	0x3eae1b18	0.34005046
248	0x3d387798	0.04503593
249	0xbe019507	-0.12654506
250	0x3f1d173a	0.61363566
251	0x3d798da1	0.060926083
252	0x3dfce140	0.123476505
253	0x3ef1c7d8	0.4722278
254	0x3e4d468e	0.20046446
255	0x3ea06f1b	0.31334767

layers.0.bias f4 [128]
0	0xbe8266d9	-0.25469092
1	0xbe6cc0a7	-0.23120366
2	0xbd5a6d88	-0.053327113
3	0x3cc6daa5	0.02427418
4	0xbeb7669b	-0.3582047
5	0xbedaa914	-0.4270712
6	0x3dfe4476	0.12415402
7	0x3e5e58b3	0.21713524
8	0x3ed579f4	0.41694605
9	0x3e92b1ed	0.28651372
10	0xbedbb256	-0.42909497
11	0xbc3eb06a	-0.01163874
12	0x3ec1fd7a	0.378887
13	0xbe05d531	-0.13069607
14	0x3c6fb6e9	0.0146310115
15	0xbed22164	-0.410411
16	0x3ea947da	0.3306263
17	0x3edfb9cb	0.43696436
18	0xbe6d8907	-0.23196803
19	0xbe754808	-0.23953259
20	0x3eea45ed	0.45756474
21	0xbec8fdd1	-0.39256147
22	0x3ee5f068	0.44909978
23	0x3d409d6f	0.04702514
24	0xbe346db1	-0.17619969
25	0x3ecabea0	0.3959856
26	0xbe876790	-0.264462
27	0xbe2dbef0	-0.16967368
28	0x3e2e76dd	0.1703753
29	0x3e710758	0.23537958
30	0xbee71a35	-0.45137182
31	0x3ea3440f	0.31887862
32	0x3d7000e0	0.058594584
33	0xbe91305f	-0.28357217
34	0xbe942ff1	-0.28942826
35	0x3c062878	0.008188359
36	0xbecddfeb	-0.40209898
37	0x3caad8ca	0.020855326
38	0x3ede72c0	0.43446922
39	0xbeb06c5a	-0.34457666
40	0x3e8f2d4a	0.2796424
41	0x3d86c777	0.06581014
42	0x3e3b784a	0.18307605
43	0x3ee51c8a	0.44748336
44	0x3e30ee6c	0.1727845
45	0xbee57080	-0.44812393
46	0xbec6f030	-0.38855124
47	0xbe559dc9	-0.20860972
48	0xbead266c	-0.33818376
49	0xbec13d50	-0.3774209
50	0x3e3c877c	0.18411058
51	0xbe5a0016	-0.21289095
52	0xbea7444e	-0.326693
53	0x3e9fbeb5	0.31200185
54	0xbe8199a8	-0.25312543
55	0x3e99492f	0.29938647
56	0xbe886c1c	-0.2664498
57	0x3ee75210	0.45179796
58	0xbe4bcdfb	-0.19902794
59	0xbe826da3	-0.2547427
60	0x3d9a1041	0.075226314
61	0xbe3fb756	-0.18722281
62	0x3e225535	0.15852816
63	0xbee40f18	-0.44542766
64	0x3e097dcf	0.13426898
65	0xbe7af800	-0.24508667
66	0xbe9f67d8	-0.31133914
67	0xbd57c5ca	-0.05267886
68	0x3e3592b7	0.17731749
69	0xbdfe05e7	-0.124034695
70	0xbe815354	-0.25258887
71	0x3ef14f8a	0.47130996
72	0x3eaa97f1	0.33319047
73	0xbdee684b	-0.11640986
74	0x3eeb03e5	0.4590141
75	0x3e3a6ba1	0.1820512
76	0xbe13efda	-0.14446965
77	0xbe39d584	-0.18147856
78	0xbdfbb8cc	-0.122911066
79	0xbe52ced5	-0.20586713
80	0x3e7a578b	0.24447457
81	0xbe6c885b	-0.2309889
82	0x3ed6f4cf	0.4198365
83	0x3ebf9944	0.3742162
84	0x3e721479	0.23640622
85	0x3ec9176d	0.39275685
86	0xbe060c36	-0.13090596
87	0x3ee48e86	0.44639987
88	0xbe4dab31	-0.20084836
89	0xbe873c6a	-0.2641328
90	0x3ec824ea	0.39090663
91	0x3dabf6de	0.083966956
92	0x3dbdab23	0.09261157
93	0x3f00a3e4	0.5025008
94	0x3e81eab0	0.25374365
95	0x3d9beab8	0.076131284
96	0xbe71433d	-0.23560806
97	0x3cdad518	0.02671294
98	0xbe8fb780	-0.28069687
99	0xbe50cc17	-0.20390354
100	0xbd8d5fa4	-0.069030076
101	0xbed6142b	-0.41812262
102	0x3ef88a71	0.48543122
103	0xbeb13c64	-0.34616387
104	0x3e94cc07	0.2906191
105	0x3eece2de	0.46266836
106	0xbdc0140c	-0.09378824
107	0xbd2a0cd6	-0.041516148
108	0x3e450f49	0.19244112
109	0x3e9f2fde	0.31091207
110	0xbde04109	-0.109499045
111	0xbee44578	-0.4458425
112	0xbd85e069	-0.065369435
113	0xbe1e74ba	-0.15474215
114	0xbdb61f83	-0.08892729
115	0xbe8c40fe	-0.27393335
116	0xbca76959	-0.020435976
117	0x3eb1a62d	0.34697095
118	0xbee2aa66	-0.4427063
119	0xbecfdd0e	-0.4059834
120	0xbd88af5a	-0.06674071
121	0xbe36dcab	-0.17857616
122	0xbe6c3fcb	-0.2307121
123	0xbec048b6	-0.37555474
124	0x3e1b549d	0.15168996
125	0xbdce439f	-0.100714915
126	0xbef72a08	-0.48274255
127	0x3e46912d	0.19391318

layers.1.weight f4 [128, 128]
0	0x3d865b72	0.065604106
1	0xbd9a47d1	-0.07533229
2	0xbdafcf67	-0.08584481
3	0x3d7eae9e	0.062178247
4	0xbd95db63	-0.07317235
5	0xbd51519d	-0.051103223
6	0xbd6272e3	-0.055285346
7	0x3d3fdd46	0.046841882
8	0xbd4b1fe4	-0.04959096
9	0xbcd5dff9	-0.026107775
10	0xbd819528	-0.063272774
11	0x3c3842ab	0.011246364
12	0xbd8eaa0e	-0.06966029
13	0x39944e68	0.00028287177
14	0xbca19053	-0.01972214
15	0xbd1452bb	-0.03621171
16	0xbcc964a6	-0.024584126
17	0xbc616e46	-0.013759201
18	0x3d506972	0.05088181
19	0xbc7d044d	-0.01544292
20	0x3d80420e	0.06262599
21	0xbbcb3968	-0.0062019117
22	0xbc851151	-0.016243609
23	0xbdc3413d	-0.095339276
24	0xbd646e9b	-0.055769544
25	0xbda588bd	-0.080827214
26	0x3d8bb5c1	0.06821776
27	0xbcb98b62	-0.02264947
28	0x3ce21032	0.027595613
29	0xbd1a6a19	-0.03769884
30	0xbd99cc8c	-0.07509717
31	0xbdbf765f	-0.09348749
32	0x3cd03cf7	0.025419695
33	0x3cc0fde7	0.02355857
34	0x3c3d9e58	0.011573397
35	0xbcecd69c	-0.028910927
36	0xbd9d63d4	-0.07685056
37	0x3d9c17bc	0.076217145
38	0x3b42efb0	0.0029744916
39	0xbda6dae8	-0.08147222
40	0x3cd36213	0.025803601
41	0x3d548dfb	0.051893216
42	0xbcd97ebf	-0.026549695
43	0x3cfc80a2	0.030823056
44	0xbd655842	-0.055992372
45	0x3d5487fa	0.05188749
46	0xbd924a4e	-0.07143079
47	0xbd36a7c2	-0.04459358
48	0xbd5a3034	-0.053268626
49	0x3dbbbbda	0.09166689
50	0x3d92c5a6	0.07166605
51	0x3cb665d5	0.022265354
52	0x3d303f93	0.04302938
53	0xbdc20c4d	-0.094750024
54	0x3dcb2b6e	0.09920393
55	0x3d0c311e	0.03422653
56	0x3dca4636	0.09876673
57	0xbda87d09	-0.082269736
58	0x3c0671da	0.008205855
59	0x3d956f97	0.07296675
60	0x3da3c03c	0.0799565
61	0xba9365f3	-0.0011245593
62	0xbd726f95	-0.059188444
63	0xbd95d4a2	-0.07315947
64	0xbd382e22	-0.04496587
65	0xbd58125a	-0.052751876
66	0x3c849f93	0.016189372
67	0x3ce0c5bc	0.027438037
68	0x3cc957a7	0.024577929
69	0xbc4df2d5	-0.012570103
70	0x3dbaa4dd	0.091134764
71	0xbce5e7f4	-0.028064705
72	0xbd8ac6f7	-0.06776231
73	0x3d10dcd6	0.035366856
74	0xbd3468e1	-0.044045333
75	0xbd9439fd	-0.07237623
76	0x3cb98d55	0.0226504
77	0xbd2d33c6	-0.042285703
78	0x3b6a87c4	0.003578649
79	0xbd13fc88	-0.036129504
80	0x3c4cb73c	0.012494858
81	0x3ccc714e	0.024956372
82	0xbd54e6f0	-0.05197805
83	0xbbf282d4	-0.00740085
84	0xbd27625c	-0.040865287
85	0xbba22e6a	-0.0049493806
86	0xbaafa316	-0.0013400044
87	0xbc815627	-0.015788151
88	0x3d7f3c46	0.06231334
89	0x3d6897cd	0.056785394
90	0xbda82992	-0.08211054
91	0xbd4a632c	-0.049410984
92	0xbc93dad4	-0.018048681
93	0xbda2bea0	-0.07946515
94	0x3cbd9a54	0.023144878
95	0x3d913dec	0.07091889
96	0x3c891765	0.016734788
97	0xbd80fb7c	-0.06297967
98	0x3d3ab349	0.045581136
99	0x3c861cb1	0.016371103
100	0xbc4b5730	-0.012410924
101	0x3ca3b781	0.019984962
102	0xbcb70307	-0.02234031
103	0x3da4b4f9	0.0804233
104	0xbcf90e70	-0.030402392
105	0xbc0a2e45	-0.008433883
106	0x3d95abe1	0.07308174
107	0xbd74c5be	-0.059758894
108	0xbcd3ef16	-0.025870841
109	0xbdb0163c	-0.08597991
110	0xbcb6cca7	-0.022314383
111	0xbd8f9c16	-0.07012193
112	0x3d4d26c9	0.050085817
113	0x3c9c58c2	0.019085292
114	0xbd7a63d4	-0.06113036
115	0x3dfc1c4b	0.12310084
116	0x3c89e26e	0.016831603
117	0xbd8ac938	-0.06776661
118	0xbd32522e	-0.043535404
119	0xbd86cf73	-0.065825365
120	0xbd9a032d	-0.07520137
121	0xbb0e129e	-0.0021678577
122	0x3d52b21e	0.051439397
123	0xba359255	-0.0006926407
124	0xbc0ccc97	-0.0085937
125	0xbcd294ae	-0.025705662
126	0x3db38179	0.08764929
127	0x3c95e712	0.01829866
128	0xbba211c7	-0.004945967
129	0x3d8bee07	0.068325095
130	0x3d6145d8	0.05499825
131	0xbd495e64	-0.049162284
132	0xbd89cf19	-0.06728954
133	0xbd277b36	-0.040888987
134	0xbccf3d4a	-0.02529778
135	0x3d172842	0.036903627
136	0xbc5a0b61	-0.013308377
137	0x3c06307b	0.00819027
138	0xbd6d6724	-0.05795969
139	0x3d0fe33b	0.035128813
140	0xbd2656fb	-0.040610295
141	0x3d9fd395	0.07804028
142	0x3d9a4c59	0.075340934
143	0x3d5a2a7a	0.053263165
144	0x3cca1f3c	0.024673097
145	0xbbd08737	-0.006363775
146	0xbd92fbec	-0.071769565
147	0x3d67b1d9	0.056566093
148	0x3bbe0c23	0.0057997867
149	0xbd23c9f4	-0.03998752
150	0xbc332329	-0.010933676
151	0xbd29893f	-0.041390654
152	0x3d8efecb	0.06982192
153	0xbd49a527	-0.049229767
154	0x3d299ce3	0.041409384
155	0xbd88ea43	-0.06685307
156	0x3d3d37cf	0.0461958
157	0x3c60ff15	0.013732691
158	0xbc3b55a3	-0.011433992
159	0x3b69db39	0.0035683645
160	0x3d5b8ede	0.053603046
161	0xbd3951f2	-0.045244165
162	0x3ce1fd59	0.027586626
163	0xbcc1dc55	-0.023664633
164	0x3daec46b	0.085335575
165	0x3cae034a	0.021241803
166	0xbd47131a	-0.0486022
167	0xbd9f8f34	-0.07790986
168	0x3c1903b5	0.009339263
169	0xbd251e82	-0.040312298
170	0xbd8b6102	-0.06805612
171	0x3c23d17c	0.009998675
172	0x3c901bfb	0.017591467
173	0x3ca09cc7	0.019606007
174	0xbdafc37b	-0.08582207
175	0xbda40d08	-0.08010298
176	0xbd1c9a4b	-0.038233083
177	0xbbdd2f0b	-0.0067499927
178	0x3d4fa417	0.050693598
179	0x3d90ff81	0.070799835
180	0xbd8abd37	-0.06774371
181	0xbcd5f799	-0.02611904
182	0xbc5b2c80	-0.013377309
183	0xbdabd493	-0.08390155
184	0xbd985d69	-0.074396916
185	0xbd937720	-0.07200456
186	0x3d47d77d	0.04878949
187	0x3b90cd28	0.004418988
188	0xbd73f7ad	-0.059562374
189	0x3d3f0b88	0.046641856
190	0xbc94ab70	-0.018148154
191	0xbcb50303	-0.022096163
192	0x3d2acc95	0.04169901
193	0x3d4dedee	0.050275736
194	0x3d97030d	0.07373629
195	0x3d953b49	0.07286698
196	0xbd4a6d07	-0.049420383
197	0x3c845aca	0.016156573
198	0x3d54d919	0.051964853
199	0x3d845ee1	0.06463409
200	0x3d8ad969	0.06779749
201	0x3d2d0f61	0.042250995
202	0xbd3a0730	-0.04541701
203	0xbc8dbeba	-0.01730286
204	0xbd9f9842	-0.07792713
205	0xbd9ee47e	-0.07758425
206	0x3d8bf8ea	0.06834586
207	0xba867c6a	-0.0010260467
208	0xbd9cacb0	-0.07650125
209	0xbcee901f	-0.029121457
210	0x3d9039c2	0.070422664
211	0xbdaa034b	-0.08301409
212	0xbd91fa5e	-0.07127832
213	0xbd7fac85	-0.062420387
214	0x3d843eec	0.06457314
215	0xbd4a1012	-0.049331732
216	0x3d94e0b3	0.072694205
217	0xbd6c15e9	-0.057638083
218	0xbd10ab15	-0.035319407
219	0xbd81c793	-0.06336894
220	0x3d9f6f0f	0.077848546
221	0xbc1c28e3	-0.0095312325
222	0x3cdfd434	0.027322866
223	0x3d982a5e	0.07429956
224	0x3d84f3d4	0.06491819
225	0x3da280d6	0.0793473
226	0xbd507738	-0.050894946
227	0xbd46dcba	-0.048550345
228	0xbd315772	-0.043296285
229	0x3d305d05	0.04305746
230	0xbd93d010	-0.07217419
231	0x3db2f93b	0.08738943
232	0xbc68cb73	-0.014208662
233	0x3d93014d	0.071779825
234	0x3d6e6e76	0.058210813
235	0xbd99098a	-0.074725226
236	0xbd03e754	-0.032203034
237	0xbd2dcee6	-0.04243364
238	0x3d98d112	0.07461752
239	0x3daf5b40	0.085623264
240	0xbd3be94c	-0.045876786
241	0xbcd71fcb	-0.026260277
242	0x3d9163d4	0.07099119
243	0x3d237d18	0.03991422
244	0xbd0bb4d7	-0.03410801
245	0xbd62e966	-0.055398367
246	0x3d3b2852	0.04569275
247	0x3d064a07	0.03278544
248	0xbcbaac86	-0.022787344
249	0x3d8cdcb4	0.06878033
250	0x3d6a0f83	0.0571437
251	0x3c846569	0.016161637
252	0x3db1a22d	0.08673511
253	0x3d844be3	0.06459787
254	0xbd115430	-0.035480678
255	0x3d9ae8b6	0.07563917

layers.1.bias f4 [128]
0	0x3c69cb3a	0.014269644
1	0xbafb57aa	-0.0019175906
2	0xbcf4586f	-0.029827325
3	0x3d5a53aa	0.053302445
4	0xbcd63d6c	-0.026152335
5	0xbd84e2bb	-0.06488558
6	0xbcaed966	-0.021343898
7	0x3da7a208	0.08185202
8	0xbc682911	-0.014169947
9	0xbc04f76a	-0.008115629
10	0x3d86d685	0.06583885
11	0x3dc64502	0.09681131
12	0xbd624763	-0.05524386
13	0x3c8c75fd	0.017146105
14	0xbda02817	-0.078201465
15	0x3d16e143	0.03683592
16	0xbda0c1cd	-0.078494646
17	0x3bd9cab7	0.00664648
18	0xbcae6d7f	-0.021292446
19	0x3d48034d	0.048831273
20	0x3d461a74	0.04836507
21	0x3d40cf2e	0.047072582
22	0x3d124574	0.035710767
23	0x3db6f8e7	0.08934193
24	0xbcc7c623	-0.024386471
25	0xbc28e5d7	-0.010308704
26	0xbd8dc60c	-0.0692254
27	0x3d329a8d	0.043604422
28	0xbca22730	-0.019794077
29	0x3d865b90	0.06560433
30	0x3d270195	0.040772993
31	0x3d744afb	0.05964182
32	0x3cefb3fb	0.029260626
33	0x3c9c9e6c	0.01911851
34	0x3d3b9526	0.045796536
35	0x3bc982d8	0.006149631
36	0xbd2a3cfc	-0.041562065
37	0xbd6946cb	-0.05695228
38	0xbd76cdc3	-0.060254823
39	0xbd438e8c	-0.047743365
40	0xbdaeb0ee	-0.085298404
41	0x3d81ddfe	0.0634117
42	0xbceaac34	-0.028646566
43	0x3d899741	0.067183025
44	0x3cb03b7b	0.021512737
45	0xbd99b52a	-0.075052574
46	0x3ca5e67e	0.020251509
47	0xbd594a50	-0.053049386
48	0xbd838e4c	-0.06423625
49	0xbd9933fa	-0.07480617
50	0x3d8aa7c2	0.067702785
51	0x3d87062a	0.065929726
52	0xbd8f4918	-0.069963634
53	0x3ce8e0c8	0.028427497
54	0x3d21782e	0.039421253
55	0x3d73ded5	0.05953868
56	0x3bb793df	0.0056023444
57	0xbd679a7e	-0.05654382
58	0x3be3ce58	0.0069520883
59	0x3d40c8c3	0.04706646
60	0xbd480648	-0.048834115
61	0x3d0c336a	0.03422872
62	0x3d4add93	0.049527716
63	0x3db32ec2	0.08749153
64	0xbd1b4f19	-0.03791723
65	0xbd33b324	-0.043872014
66	0xbd8ef5a1	-0.06980444
67	0xbd6f7b48	-0.05846718
68	0xbd21d324	-0.039508
69	0xbd38079b	-0.04492913
70	0x3cc4faa4	0.024045296
71	0x3cb08f35	0.021552661
72	0x3d510457	0.05102953
73	0x3d982d21	0.07430483
74	0xbc9bb49e	-0.019007023
75	0x3cfb1923	0.030651635
76	0xbbcf0875	-0.006318147
77	0xbd3b0698	-0.045660585
78	0x3d0144ad	0.031559635
79	0xbd3eeaef	-0.04661077
80	0x3cfdc7aa	0.030978996
81	0xbd6902ed	-0.056887556
82	0xbb695dfb	-0.0035608995
83	0x3d739f2f	0.05947798
84	0x3daa3c4d	0.08312283
85	0x3d9da9f1	0.076984294
86	0xbd711789	-0.058860335
87	0x3dd03d27	0.10167914
88	0x3d562dd4	0.0522898
89	0xbb9c5a42	-0.0047715018
90	0xbcfd1c5b	-0.03089731
91	0x3d65306f	0.055954393
92	0xbd3a1e28	-0.045438915
93	0xbd9e010b	-0.07715043
94	0x3d62d0de	0.055374973
95	0x3d876a3e	0.06612061
96	0xbd9c80aa	-0.07641728
97	0xbd8b69f8	-0.06807321
98	0xb51960a9	-5.71376e-07
99	0x3d79f435	0.06102391
100	0xbd9c6acb	-0.07637557
101	0xbd2d4f0a	-0.042311706
102	0xbd59bd25	-0.053158898
103	0x3da7656b	0.08173641
104	0xbcdadfa0	-0.02671796
105	0x3dca1635	0.09867517
106	0x3da151f4	0.078769594
107	0xbc7c9370	-0.015416011
108	0x3d8f82d6	0.07007377
109	0x3cc889a1	0.02447969
110	0xbc1a6ef2	-0.0094258655
111	0x3cd1820f	0.025574712
112	0x3dca4206	0.09875874
113	0xbce3f722	-0.027827803
114	0xbce98473	-0.02850554
115	0x3d24534d	0.040118504
116	0x3bbb8672	0.0057228142
117	0xbd7f4b99	-0.062327955
118	0xbd75411a	-0.05987654
119	0x3d159da7	0.036527302
120	0x3dc50bb5	0.096213736
121	0xbc724e4e	-0.014789177
122	0xbae62140	-0.0017557517
123	0x3b32de0f	0.0027293002
124	0x3dc8a665	0.09797362
125	0xbb594bef	-0.0033156832
126	0xbd962960	-0.073321104
127	0xbd7b566f	-0.061361726

layers.3.weight f4 [128, 128]
0	0x3daea057	0.08526676
1	0xbdb629f6	-0.08894722
2	0xbcd74008	-0.02627565
3	0xbcb25fdf	-0.02177423
4	0xbb869bf1	-0.004107945
5	0xbc4b87b7	-0.012422494
6	0x3cb04961	0.021519365
7	0xbd926225	-0.07147626
8	0xbda088ec	-0.07838616
9	0xbd2ecca2	-0.04267562
10	0x3d53bb32	0.051692195
11	0x3cb8b3c1	0.02254665
12	0x3d76e053	0.060272526
13	0xbd85a384	-0.06525329
14	0xbd3ce3af	-0.046115573
15	0xbc15b0fc	-0.009136435
16	0x3d709214	0.05873306
17	0xbd589add	-0.052882064
18	0xbbba9612	-0.0056941593
19	0xbd90c67a	-0.070691064
20	0x3ceac8a7	0.028660132
21	0xbd3058d7	-0.043053474
22	0x3c4e1135	0.012577345
23	0x3d110902	0.03540898
24	0x3d9b5afd	0.07585714
25	0xbd935303	-0.071935676
26	0x3d00ad96	0.031415544
27	0xbcebd608	-0.028788581
28	0xbcf5451c	-0.02994018
29	0xbc43b9d9	-0.011946165
30	0xbd391ba7	-0.045192387
31	0xbc5945c6	-0.013261264
32	0x3d5b0f51	0.053481404
33	0x3d99d3d4	0.07511106
34	0x3d7bff30	0.061522663
35	0xbcf951b0	-0.03043446
36	0xbd7bdb1c	-0.061488256
37	0xbd997b1a	-0.07494183
38	0xbd38e286	-0.045137905
39	0xbd252c92	-0.04032571
40	0x3d6b0369	0.0573763
41	0x3d18c572	0.037297674
42	0xbd3ddbbc	-0.046352133
43	0x3cd964cd	0.026537323
44	0xbcdb8c0f	-0.026800184
45	0x3ccae898	0.024769112
46	0xbd6c661d	-0.05771457
47	0x3d2878dc	0.041130885
48	0x3d1eaa69	0.038736735
49	0xbcd7cbb5	-0.026342252
50	0xbd17f07d	-0.037094582
51	0x3da4bd33	0.080438994
52	0xbdaa672b	-0.08320459
53	0xbcf63b6d	-0.030057633
54	0x3c20d4b3	0.009816336
55	0xbc9433ba	-0.018091071
56	0xbda1860c	-0.078868955
57	0x3d3c848f	0.046024855
58	0xbd89c494	-0.067269474
59	0x3d83119c	0.06399843
60	0x3daed06c	0.08535847
61	0x3cd1acb7	0.025595052
62	0xbd15b978	-0.03655383
63	0x3cb91a56	0.022595566
64	0xbd9e382e	-0.07725559
65	0xbd8aff0a	-0.06786926
66	0xbdb0fcb7	-0.086419515
67	0x3d81bb73	0.06334581
68	0xbcf2581f	-0.029583035
69	0x3c1e7280	0.009670854
70	0x3d2a62d6	0.041598164
71	0xbc77db0b	-0.0151279075
72	0xbb9a8a3c	-0.004716186
73	0x3d6c5757	0.05770048
74	0x3d3abb19	0.045588586
75	0xbdaaf8d7	-0.08348244
76	0x3d539f1d	0.051665414
77	0x3da7c492	0.0819179
78	0x3db245f1	0.087047465
79	0x3b967252	0.0045912648
80	0xbdadf39a	-0.08493729
81	0x3c7d1103	0.01544595
82	0xbda918a7	-0.08256655
83	0x3d3ca0c4	0.046051756
84	0xbd6bcac5	-0.057566423
85	0x3d65b780	0.056083202
86	0xbc0a36fe	-0.008435963
87	0xbd95375c	-0.072859496
88	0x3da52e7a	0.08065505
89	0xbc021dc6	-0.007941669
90	0x3d09061f	0.033453103
91	0x3bdf061b	0.0068061478
92	0xbd44c5e2	-0.04804028
93	0xbcd5cdf0	-0.026099175
94	0x3d8a86f0	0.067640185
95	0x3a4ecdaa	0.00078889227
96	0xbd7c703c	-0.061630473
97	0x3d8cedcd	0.068812944
98	0xbcf03f89	-0.02932717
99	0xbb5f55fb	-0.0034078348
100	0x3cf124a5	0.029436419
101	0xbd765bfc	-0.060146317
102	0xbd943ef4	-0.0723857
103	0xbda8fa12	-0.08250822
104	0xbd7e54c3	-0.062092554
105	0xbb80dfce	-0.0039329296
106	0xbdaa51ba	-0.08316369
107	0xbd180c3d	-0.037121046
108	0x3d944bd8	0.072410285
109	0x3da2e2dc	0.07953426
110	0x3d28d8e6	0.041222475
111	0x3c8f845e	0.017519172
112	0xbd170d33	-0.036877822
113	0x3d18ae24	0.03727545
114	0x3d9b32e7	0.07578068
115	0x3bb23bb3	0.0054392456
116	0x3d2f5a04	0.042810455
117	0x3c194375	0.009354462
118	0x3cb1718c	0.021660589
119	0x3ce9aa2f	0.028523533
120	0xbdaacb7b	-0.08339592
121	0x3ccc4b82	0.024938349
122	0xbdb8c683	-0.09022238
123	0x3d4b8d03	0.049695026
124	0xbd2d7650	-0.04234916
125	0x3d6745e1	0.056463126
126	0x3d8d71ac	0.06906447
127	0xbcbea8bc	-0.023273818
128	0xbd317c65	-0.043331522
129	0xbcdf6b58	-0.027272865
130	0x3d8ee287	0.069768004
131	0xbd2769bd	-0.040872324
132	0x3d97f39c	0.07419512
133	0xbcf280a6	-0.02960236
134	0xbd87f913	-0.06639304
135	0xbb2f7d6f	-0.0026777645
136	0x3d5b95b6	0.053609572
137	0x3d02b01e	0.03190624
138	0x3df6086d	0.12013326
139	0x3da1c123	0.07898166
140	0xbda008e0	-0.07814193
141	0x3c99e367	0.018785192
142	0xbb80963b	-0.003924159
143	0xbda9de98	-0.082944095
144	0xbcd0e3a1	-0.025499167
145	0x3c9d298b	0.019184848
146	0x3c212f5b	0.009837951
147	0x3da76b04	0.081747085
148	0xbcfd8134	-0.030945398
149	0xbd67b9d6	-0.05657371
150	0xbd00e5b4	-0.031469062
151	0x3d1fe23f	0.039034124
152	0x3da06ac7	0.07832866
153	0x3cad7761	0.021175088
154	0x3d5ee1b5	0.05441447
155	0x3d7f15ad	0.06227653
156	0x3d57b54b	0.05266313
157	0xbc396de2	-0.011317702
158	0xbc8a690f	-0.016895799
159	0x3de88f90	0.113555074
160	0x3d398884	0.045296207
161	0xbd9aad41	-0.07552577
162	0x3dc3cda9	0.09560711
163	0x3c7de1fc	0.015495773
164	0x3c68965d	0.014196006
165	0xbc43a59e	-0.011941342
166	0x3de263ea	0.11054213
167	0x3d1ad614	0.037801817
168	0xbc8b7475	-0.017023304
169	0x3cfb6f76	0.030692797
170	0x3b3ff4b6	0.0029290146
171	0x3d05e02e	0.032684498
172	0xbd0d2011	-0.03445441
173	0xbcbf837c	-0.023378126
174	0x3dcdd9ed	0.10051332
175	0xbd4a7e4a	-0.049436845
176	0x3c7ac0e2	0.015304776
177	0x3d5e325e	0.054247253
178	0x3c2cc0e7	0.010544038
179	0x3dacba96	0.08434026
180	0x3d6fcad2	0.058543034
181	0x3cb4065c	0.021975689
182	0x3c7c5683	0.015401485
183	0x3dbd3357	0.09238308
184	0x3dc42489	0.09577281
185	0x3bf77451	0.007551708
186	0x3a68b5c9	0.0008877186
187	0xbca0b90e	-0.019619491
188	0x3da24d2b	0.07924875
189	0xbdaadcbd	-0.08342884
190	0x3e2cd6c6	0.16878805
191	0x3c9a4092	0.018829618
192	0x3d8490a6	0.06472902
193	0xba402955	-0.00073303777
194	0x3d5c225f	0.053743716
195	0x3d6e517e	0.058183186
196	0xbd839971	-0.06425751
197	0x3beded18	0.00726093
198	0x3cdebbf4	0.027189232
199	0x3c6beff1	0.014400468
200	0x3db8af85	0.09017853
201	0xbd6a365c	-0.057180747
202	0xbd0bb025	-0.03410353
203	0x3b71125c	0.0036784625
204	0xbd1c139c	-0.03810464
205	0xbda240d6	-0.07922523
206	0xbd4ba794	-0.04972036
207	0x3c99b253	0.01876179
208	0x3cace4f2	0.021105263
209	0x3cb8e3dd	0.022569591
210	0xbd50042d	-0.050785232
211	0xbd19da2f	-0.03756159
212	0xbcec412f	-0.028839676
213	0xbda12e3e	-0.07870148
214	0xbbd52093	-0.0065041273
215	0x3b334ca6	0.0027358918
216	0x3d3ffcf3	0.04687209
217	0xbd18c45e	-0.037296645
218	0xbd4684d2	-0.04846651
219	0x3da28605	0.079357184
220	0x3cc17e6f	0.023619859
221	0x3d979f42	0.07403423
222	0x3dbf30e8	0.093355
223	0xbd927116	-0.07150476
224	0xbcc6d785	-0.02427269
225	0x3c80ed5b	0.01573818
226	0xbb8445c0	-0.004036635
227	0xbd876aa1	-0.06612135
228	0x3d1839ae	0.037164383
229	0x3dc18667	0.09449463
230	0xbc47294e	-0.012155844
231	0x3d7f8974	0.062386945
232	0xbd6650d8	-0.056229442
233	0xbc3f04c4	-0.011658851
234	0x3d0db17e	0.034593098
235	0x397376c1	0.00023218525
236	0x3c218f6d	0.0098608555
237	0xbd655014	-0.05598457
238	0xbdb1ef96	-0.086882755
239	0xbceabde3	-0.028654998
240	0xbcbf87e6	-0.023380231
241	0xbcebab90	-0.02876833
242	0x3dac5fd9	0.08416719
243	0x3c571cc0	0.013129413
244	0x3d2c77a6	0.042106293
245	0xbce46bc8	-0.027883425
246	0x3dae7019	0.08517475
247	0xbdaaae76	-0.08334057
248	0x3d3bac04	0.045818344
249	0x3a57959e	0.0008223894
250	0xbde739fe	-0.11290358
251	0xbc79f4a4	-0.015256081
252	0xbb4eab7d	-0.003153532
253	0xbd00b9e3	-0.031427275
254	0x3d4473b1	0.047961894
255	0x3c3b39df	0.011427372

layers.3.bias f4 [128]
0	0x3d0b3a43	0.03399111
1	0xbd674f0d	-0.056471873
2	0x3cacb421	0.021081986
3	0x3d6b930f	0.057513293
4	0x3d630c3e	0.055431597
5	0xbd531d6d	-0.051541734
6	0xbd547085	-0.05186512
7	0x3d53c93d	0.051705588
8	0x3a0eab9c	0.0005442442
9	0xbd015d4c	-0.031583115
10	0xbceb06f9	-0.028689848
11	0xbcfbb784	-0.030727156
12	0xbd16ed30	-0.036847293
13	0xbdb0808e	-0.0861827
14	0x3c22290b	0.009897481
15	0xbd862301	-0.06549645
16	0x3d8a4c28	0.06752807
17	0x3c5b211f	0.013374596
18	0x3d35157a	0.044209935
19	0x3d8f57f8	0.069992006
20	0x3bf6824a	0.007522856
21	0x3d8ae948	0.06782776
22	0xbc936155	-0.017990747
23	0xbcce579c	-0.02518826
24	0x39aab3bf	0.00032558848
25	0x3d0972f1	0.033556882
26	0xbd8ce0e6	-0.068788335
27	0xbd036480	-0.032078266
28	0xbd515cf0	-0.051114023
29	0xbcd6eb66	-0.026235294
30	0x3d5143b3	0.051089954
31	0x3d8b0001	0.0678711
32	0xbc3b77b6	-0.0114421155
33	0x3c2fd1b1	0.010731147
34	0x3baae319	0.0052150604
35	0x3da69706	0.08134274
36	0xbd99e47f	-0.07514285
37	0x3c41bcf8	0.011824839
38	0x3d99d899	0.07512016
39	0x3d00ae8f	0.031416472
40	0x3d6764df	0.056492683
41	0x3d1c7c97	0.038204756
42	0xbd31f0e6	-0.04344263
43	0xbd4be33a	-0.049777247
44	0x3d2a4ac0	0.041575193
45	0xbd74216e	-0.059602194
46	0x3d56ddee	0.052457742
47	0xbc5148d4	-0.012773711
48	0x3d9cb437	0.07651561
49	0xbce29010	-0.027656585
50	0x3d759623	0.059957635
51	0xbc5ce97e	-0.013483403
52	0x3d99d970	0.07512176
53	0x3d69f2d0	0.05711633
54	0x3cad63e9	0.021165805
55	0xbc8f94ac	-0.017526947
56	0x3dc8e7ee	0.09809862
57	0xbcfc5d9e	-0.030806359
58	0x3c36f2b6	0.011166265
59	0x3c06766b	0.008206944
60	0xbaad8856	-0.0013239484
61	0x3d0cd95b	0.034386974
62	0x3c794a65	0.015215491
63	0xbd80d189	-0.06289966
64	0xbd26d131	-0.040726844
65	0x3cded05e	0.027198967
66	0x3b99e2fb	0.0046962476
67	0x3dbb7069	0.091523
68	0x3d8fea43	0.07027104
69	0x3c5483e8	0.012970902
70	0xbd9f1358	-0.077673614
71	0x3d5e4c28	0.054271847
72	0x3cbf4bf5	0.023351649
73	0x3d80d6b4	0.06290951
74	0xbd96acdd	-0.0735719
75	0x3cbd4e1c	0.023108535
76	0x3d1915d4	0.037374333
77	0x3d5025f0	0.05081743
78	0xbd8853d5	-0.06656615
79	0xbce01a1f	-0.027356206
80	0x3d0db299	0.034594152
81	0x3d692dfb	0.056928616
82	0x3da0ad60	0.07845569
83	0xbcb82077	-0.022476418
84	0x3da86849	0.08223016
85	0x3d41de37	0.04733106
86	0xbd31ab94	-0.04337652
87	0x3d3b11e9	0.045671377
88	0xbda93e30	-0.082638144
89	0xbd2547a9	-0.040351544
90	0x3d21bba0	0.039485574
91	0x3ce311c0	0.027718425
92	0x3db34aa0	0.08754468
93	0x3dcf076a	0.10108836
94	0xbd5872ba	-0.052843787
95	0xbd6e3979	-0.05816028
96	0xbd9f18b3	-0.07768383
97	0xbcb2fffd	-0.02185058
98	0xbdac29de	-0.08406423
99	0xbab85ee2	-0.0014066363
100	0x3d09188b	0.03347067
101	0x3cf8e361	0.03038186
102	0x3d9c66ab	0.0763677
103	0xbd677215	-0.05650528
104	0x3dbbe245	0.09174017
105	0x3bcf126e	0.0063193357
106	0x3d0ea904	0.034829155
107	0xbd81123b	-0.06302305
108	0xbd8bfcfe	-0.06835364
109	0xbd837016	-0.06417863
110	0x3dc031ae	0.09384476
111	0x3d40bd8f	0.047055777
112	0xbdc7c7c4	-0.09754899
113	0xbd416e7a	-0.0472245
114	0x3d195fca	0.037444867
115	0x3d533aa5	0.0515696
116	0x3cf37171	0.029717179
117	0x3d1cc4e5	0.03827371
118	0xbb704b03	-0.0036665804
119	0x3db60f1c	0.08889601
120	0xbd6e4800	-0.058174133
121	0x3d5fccdf	0.05463874
122	0xbce69ae8	-0.028150037
123	0xbdb10544	-0.086435825
124	0xbd56a649	-0.052404676
125	0xbd2a1f06	-0.041533493
126	0x3db97ae0	0.0905664
127	0x3d596c84	0.053082004

layers.5.weight f4 [1, 128]
0	0xbd86a4ae	-0.06574379
1	0xbd318d77	-0.043347802
2	0xbdecaf7b	-0.11556908
3	0xbda69a8f	-0.081349485
4	0xbbfe3232	-0.0077574486
5	0xbd98d7f1	-0.074630626
6	0xbe0fa74c	-0.14028662
7	0xbd9c5cec	-0.07634911
8	0x3d91fcc5	0.0712829
9	0xbb02c1d1	-0.001995195
10	0xbd0799bf	-0.033105608
11	0xbdcc243e	-0.0996785
12	0x3d8f093c	0.06984183
13	0xbba10d52	-0.004914918
14	0xbcfbfee5	-0.030761192
15	0xbdbc563b	-0.09196135
16	0x3dd1ffed	0.10253892
17	0xbdbb43ba	-0.09143777
18	0x3dc15528	0.094400704
19	0x3d55bac1	0.052180056
20	0xbd78d359	-0.06074843
21	0x3db3f211	0.08786405
22	0xbc5dc710	-0.01353623
23	0x3cd47bb1	0.025937887
24	0x3ce0a615	0.027422944
25	0x3da96568	0.08271295
26	0x3d011570	0.031514585
27	0xbd9e0701	-0.0771618
28	0x3d162d9e	0.036664598
29	0x3dc2a813	0.09504714
30	0xbd959f19	-0.07305736
31	0xbce72f1a	-0.028220702
32	0xbd55d4b1	-0.05220479
33	0x3d6d88d2	0.05799181
34	0x3ddb932b	0.107214294
35	0x3dcbb1ff	0.099460594
36	0xbc146bad	-0.009058875
37	0x3d1e8382	0.038699634
38	0xbdafd6fe	-0.085859284
39	0x3d9f5dab	0.077815376
40	0x3d8f8131	0.07007063
41	0x3d7f70ea	0.062363543
42	0x3d1392bb	0.036028605
43	0x3a7f8b2b	0.00097482157
44	0x3d4d5fa5	0.05014004
45	0xbdd2db01	-0.10295678
46	0x3dce537e	0.100745186
47	0xbc9b9006	-0.018989574
48	0x3d3f78e6	0.046746157
49	0x3d9b8437	0.07593577
50	0x3d2df6d3	0.042471718
51	0x3d48dc38	0.049038142
52	0x3d8fd18d	0.070223905
53	0xbda22bea	-0.07918532
54	0x3cd26683	0.025683647
55	0xbdb25530	-0.087076545
56	0x3d002c38	0.03129217
57	0xbd7c980d	-0.061668444
58	0x3d62724c	0.055284783
59	0xbd4f6c1e	-0.050640218
60	0xbdc677c1	-0.0969081
61	0x3de8993f	0.113573544
62	0xbd9a74a1	-0.075417764
63	0x3d8f1dea	0.069881275
64	0xbd599c56	-0.05312761
65	0xbd29b0d7	-0.041428413
66	0x3d83f02f	0.06442296
67	0x3d0ff304	0.035143867
68	0xbd613137	-0.054978576
69	0xbd36aa95	-0.044596273
70	0x3caeee6e	0.021353927
71	0x3d4a758e	0.049428515
72	0x3d9b4f4f	0.07583486
73	0x3ce9dd46	0.028547894
74	0xbd5a7046	-0.05332973
75	0x3d8a9029	0.067657776
76	0xbdaf7064	-0.08566359
77	0xbdb5b948	-0.0887323
78	0x3cd89e3c	0.02644264
79	0x3d8b6b25	0.068075456
80	0xbce2d724	-0.027690478
81	0x3d0241c0	0.031800985
82	0x3d8d0bd5	0.068870224
83	0x3d08a449	0.0333598
84	0xbd245239	-0.040117476
85	0xbdb1f160	-0.08688617
86	0xbd66b56c	-0.05632536
87	0x3dd5c7f8	0.10438532
88	0xbda828f1	-0.08210934
89	0xbd881d3a	-0.066461995
90	0xbc50d79f	-0.012746721
91	0xbd567250	-0.05235511
92	0x3dc8891e	0.09791778
93	0x3d9f90c2	0.07791282
94	0xbcfd06e4	-0.030887075
95	0xbccff6bf	-0.025386212
96	0x3d2321a9	0.039827023
97	0xbd4ac33e	-0.049502604
98	0x3d7ab242	0.061205156
99	0x3ddbeda3	0.10738685
100	0x3d7fd5f2	0.062459894
101	0x3d4d5c51	0.050136868
102	0xbd5e95fb	-0.05434225
103	0xbd844897	-0.06459158
104	0x3d9a6599	0.075389095
105	0x3d918e8d	0.071072675
106	0x3dc33d36	0.095331594
107	0xbd822528	-0.06354743
108	0x3cfb9f49	0.030715602
109	0xbd94dd9c	-0.07268831
110	0x3d84d213	0.06485381
111	0xbc97007d	-0.01843285
112	0xbd139efc	-0.03604029
113	0x3d6e23af	0.0581395
114	0xbd0fd3a1	-0.035113934
115	0x3c85eddf	0.016348777
116	0x3d6fcc9e	0.058544748
117	0xbdd5795e	-0.104235396
118	0x3dafe552	0.08588661
119	0x3d5d7a12	0.054071493
120	0xbcafe88e	-0.021473195
121	0xbd491576	-0.049092732
122	0x3db77526	0.08957891
123	0x3c3adf7f	0.011405825
124	0xbd8e43f9	-0.069465585
125	0xbd8ca3a4	-0.068671495
126	0x3d9bf237	0.07614558
127	0xbdc528db	-0.09626933
