model_zoo/GCL/LunarLander-v2/actor_8939.pth (torch, 141879 bytes, 8 tensors)

layers.0.weight f4 [128, 8]
000000 90 11 35 3e 63 20 e3 bd ea f2 a3 be b7 b4 48 bd
       0.17682481 -0.11090162 -0.32021266 -0.049000468
000010 4b be bd 3e fa 16 98 bc ce 80 1a be f9 71 74 3e
       0.37059245 -0.018565644 -0.15088198 0.23871602
000020 88 0f d1 bc 04 11 ce bd b0 8e 11 bd c2 f1 80 3c
       -0.025520101 -0.10061839 -0.035536468 0.01574028
000030 32 f9 ab be 73 12 91 be 57 7a c3 3e 7d 29 0d bd
       -0.33588558 -0.28334388 0.38179275 -0.034463394
000040 66 ef b1 3e aa 27 27 be be ce d1 bd 8f 0c 27 be
       0.3475296 -0.16323724 -0.10244511 -0.16313384
000050 9a 98 cd be 01 cd c6 be 24 17 53 3e 61 9a 85 be
       -0.40155488 -0.3882828 0.20614296 -0.26094344
000060 79 3e bf 3d 0e 95 d2 3e 2a ba 76 bd 5c 16 64 3e
       0.093380876 0.41129345 -0.060236134 0.22274154
000070 7d da 5e 3e 18 10 58 be 14 f6 30 be 84 d4 25 be
       0.21763034 -0.2109989 -0.17281371 -0.1619435
000080 6a c6 9a 3e e4 50 61 be 15 fc 3a 3e 19 e8 bd 3e
       0.30229503 -0.22003514 0.18260224 0.3709114
000090 ad 56 98 3e 97 6a 81 3e cc 9e 23 3e 57 d9 f7 bc
       0.29753628 0.25276634 0.15978545 -0.030255003
0000a0 96 72 2c 3e 8a 88 cf 3e f1 8e d3 bd ad e2 d7 3e
       0.16840586 0.4053386 -0.10329998 0.42165127
0000b0 96 3d 6b 3d 77 3d 93 be 1f 24 8e be 94 56 be 3d
       0.05743178 -0.2875783 -0.27761933 0.09293857
0000c0 d5 c1 07 bd 58 15 4b be be 49 3f 3e 69 4b 84 be
       -0.033143837 -0.1983236 0.18680474 -0.25838783
0000d0 e9 a7 59 be ca a4 1a bd 62 f0 c8 bd 3c 44 a4 be
       -0.21255459 -0.03775481 -0.098114744 -0.3208331
0000e0 47 39 ca bd 88 e1 80 bc 5c bd 03 be e3 ce 98 3e
       -0.09874206 -0.015732542 -0.12865204 0.29845342
0000f0 3e 1c 3b bd 05 81 70 be 36 b3 12 3e 75 0a c7 3d
       -0.04568123 -0.23486717 0.14326176 0.097187914
000100 e5 a5 8e be 23 ed c8 be e0 ed 80 3e 3c 22 ce be
       -0.27860942 -0.3924342 0.25181484 -0.40260494
000110 75 df bb 3e f4 d3 90 3e 06 69 94 3e ac 82 9c be
       0.36693922 0.28286707 0.28986377 -0.30568445
000120 ec a1 a1 3d 88 eb 98 be 65 06 12 3e 60 96 30 3e
       0.07892212 -0.29867196 0.14260252 0.17244864
000130 e8 5f e5 ba 35 60 9b be 86 03 44 be df 88 a2 bd
       -0.0017499896 -0.30346838 -0.19141969 -0.07936262
000140 89 2d b3 3e 60 e5 35 3e 72 19 83 3e 45 16 13 be
       0.34995678 0.17763281 0.2560535 -0.14363964
000150 dc b5 27 3b 75 4a e1 be b1 1d bb bd b5 43 52 be
       0.0025590574 -0.4400212 -0.091365226 -0.2053364
000160 87 6f 2a 3e b4 4a 7c 3e f4 44 78 3d 01 b0 a0 3e
       0.16644107 0.24637872 0.060612634 0.3138428
000170 ac 76 d0 be 34 a6 36 3d e6 67 69 3e a2 19 b1 3e
       -0.4071554 0.044592097 0.2279354 0.3458987
000180 95 8a cc 3d c8 37 b1 be aa 7c 89 3e 8b 20 3a bd
       0.0998737 -0.3461287 0.26852924 -0.04544119
000190 4c 0c 0e 3d be 72 cc be f0 80 78 3d 36 56 c2 3e
       0.034679696 -0.3993129 0.06066984 0.379564
0001a0 47 14 02 3e 91 30 a5 3e c1 b7 b4 3d 25 ed ba 3e
       0.12703048 0.32263616 0.08824111 0.36509052
0001b0 fa 60 ba be 29 d5 32 3d 3d 44 c0 3e 63 e6 50 3e
       -0.36402112 0.043660317 0.37552062 0.20400386
0001c0 a2 d3 7d 3e 54 d9 4f 3e 1f 31 b0 3e 7d f0 81 be
       0.24787763 0.20297748 0.34412476 -0.2537879
0001d0 31 c8 1c bd 30 c3 ee be dc d2 84 3e c6 2e 2d 3e
       -0.038276855 -0.4663329 0.25942123 0.16912374
0001e0 f1 14 84 be 3a 5d 2a 3d fd 71 65 be 90 a5 c7 3d
       -0.25797227 0.041592814 -0.22406764 0.097483754
0001f0 fc ed 0e be 2f fd 79 3e ee 24 bd be b4 5b 59 3d
       -0.13957971 0.24412988 -0.36942238 0.05306597
000200 64 07 a1 3e cc 0b 52 3e 19 e7 a2 3e 37 a3 16 3c
       0.3145095 0.20512313 0.3181694 0.009194187
000210 db cc ac be 5c a0 25 be ac 06 f0 bd ed 54 57 be
       -0.33750042 -0.16174453 -0.117200226 -0.2102849
000220 20 74 5e 3e a1 2f c0 3d d8 fe 5d 3e 58 f9 cd 3e
       0.21723986 0.093840845 0.21679246 0.40229297
000230 dc a2 91 bc 91 47 fd be 00 88 e2 3d 23 cf 2f 3e
       -0.017777853 -0.49468663 0.11061096 0.1716886
000240 55 65 71 3c a1 dd c7 be bb f7 ad 3e 28 4e cd be
       0.014733632 -0.39036277 0.33978066 -0.4009869
000250 a6 f4 57 3e ea 59 2b bd 96 4c 87 3e 15 98 8e be
       0.2108942 -0.041833796 0.26425618 -0.27850404
000260 fc 08 ab 3e 7d 41 41 3e a6 7c a1 3e 13 1a 9c 3e
       0.33405292 0.18872638 0.31540412 0.30488643
000270 f5 68 5f 3e a2 08 80 3d 32 50 b0 bd 5a 52 aa 3e
       0.21817382 0.062516466 -0.08609046 0.33265954
000280 f9 2c 96 3e 98 a9 8d be 1e e5 1f bb e7 f0 41 be
       0.29331186 -0.27668452 -0.002439804 -0.18939553
000290 11 2f c0 be af d0 92 bd 33 af 72 be c6 d0 d3 bd
       -0.3753591 -0.071687095 -0.23699646 -0.10342555
0002a0 92 80 91 bd a7 97 7c 3e 34 e3 c6 3d 25 e2 9c be
       -0.07104601 0.24667226 0.09711304 -0.30641285
0002b0 a2 34 68 3e f1 ca b3 3e 79 06 86 3e 7b c1 82 3e
       0.22676328 0.3511577 0.26176813 0.2553824
0002c0 7b fb 02 3e 3c 2d a0 bc 55 59 bb be 4a 78 2d be
       0.12791245 -0.01955282 -0.36591592 -0.16940418
0002d0 d0 d6 95 3e a4 19 a5 3e fa 53 ad 3e 82 ce 14 3e
       0.2926545 0.32246125 0.33853132 0.14531901
0002e0 d8 6e b8 3e d1 96 69 be ae 1d ff bd b7 ba ae 3d
       0.36022067 -0.22811438 -0.12456833 0.08531707
0002f0 16 ef 85 be 9c d4 18 3b 04 7b 12 3d 7a 84 fa bd
       -0.2615897 0.0023320084 0.035761848 -0.12232299
000300 d8 99 be 3d 7b ca fe 3d c7 b2 17 3e 85 ad 21 be
       0.09306687 0.12440964 0.14814292 -0.15788849
000310 29 4d f2 3d a0 b1 0e 3e 74 b1 5f 3e 8a 66 ad bd
       0.118311234 0.13934946 0.21845037 -0.084668234
000320 2d 24 93 3e be 46 86 3e 0b 41 2b bd 1e 74 6d bd
       0.28738537 0.26225847 -0.041810077 -0.057972066
000330 f9 7d a1 3e 89 8f 61 3e ae 9f 16 3e a9 e7 e6 3c
       0.31541422 0.2202741 0.1470935 0.028186636
000340 7b f3 19 3e 6c d3 5d bd b5 81 6c be a5 2b ad 3e
       0.15034287 -0.054156706 -0.23096354 0.3382236
000350 9b 60 68 3e 6c ce 8c 3e f4 25 06 3e 57 8b 1d be
       0.22693102 0.27501237 0.13100415 -0.15385185
000360 b3 45 e9 3d bf f6 b6 3e f0 81 7b 3e 6d c6 c3 3d
       0.11390247 0.35735127 0.24561286 0.09559331
000370 90 3a 33 3e f6 7a c7 3e 89 5b 08 be 54 34 b1 be
       0.17502809 0.38961 -0.13316168 -0.34610236
000380 fd 9e bb 3e 50 8c d4 3d e7 c5 a7 bd ae 94 e3 3d
       0.36644736 0.10378325 -0.08192044 0.11112343
000390 14 d1 85 be 64 c4 b9 be 15 25 98 3e f3 ea a9 3e
       -0.26136076 -0.36282647 0.2971579 0.33187065
0003a0 0e 0a a3 be 46 ea a7 bd c6 2b 9c 3e aa ca 8b bd
       -0.3184361 -0.08198981 0.30502146 -0.068257645
0003b0 2e a1 bc be d7 8d 19 3d d1 6e bd be 6a 5b 2e be
       -0.3684172 0.037488785 -0.3699861 -0.17027059
0003c0 74 92 25 3e b4 18 a9 be 64 80 ac bd 1e 6d 22 3b
       0.16169149 -0.3302666 -0.08422926 0.0024784277
0003d0 41 bf 79 be 23 45 33 be 43 24 bc 3d 76 97 01 3e
       -0.24389364 -0.17506842 0.09186604 0.12655434
0003e0 9a 3d 39 be dd ca c3 3e 32 9c 8b be 24 de d3 bc
       -0.18089905 0.3824071 -0.27267605 -0.02586276
0003f0 db da 49 be 0d dd 1e be b7 1b cd bd 41 ac 8f 3d
       -0.19712393 -0.15514012 -0.10015052 0.07015277

layers.0.bias f4 [128]
000000 c5 78 64 be c8 c0 11 bd c1 cc 90 be 9a 25 99 be
       -0.22311695 -0.03558424 -0.28281215 -0.299115
000010 fd aa 88 3c ee 8b ec bd ac 21 ef bd 4d e6 69 3b
       0.016683096 -0.11550127 -0.11676344 0.0035690248
000020 11 ae eb bc 8f 82 23 3e fe 14 49 be bb 42 59 be
       -0.028769525 0.15967773 -0.19636914 -0.21216862
000030 4e 06 3f 3e 90 6e 92 3e 4e 6e 18 3e 8f 5f 49 b9
       0.18654749 0.28599977 0.14885828 -0.00019204452
000040 f6 e6 e2 3d 7c a9 87 3d 70 c6 8a 3d e4 9a 7c 3d
       0.110792086 0.066241235 0.0677613 0.061671153
000050 71 a4 44 be 6c 50 68 3e 89 e6 81 3e 59 7e 99 3e
       -0.19203354 0.22686929 0.25371197 0.29979208
000060 33 db 1e 3e 9f af 10 be 22 09 fe 3d c6 21 9a bd
       0.15513305 -0.14129494 0.12404086 -0.07525973
000070 04 7b 22 3e c3 16 38 be 28 93 21 be 88 e9 85 be
       0.15867239 -0.17977433 -0.15778792 -0.26154733
000080 7e e6 97 be fb 04 eb 3d 5a 6c 72 be fd 97 53 3e
       -0.2966804 0.11475559 -0.23674145 0.20663448
000090 c7 c6 d4 3c 1b 78 6c be 1e fd 5e 3e 7a c2 e9 bd
       0.02597369 -0.23092692 0.21776244 -0.114140466
0000a0 70 4a 6b 3c ad 83 0c be 16 46 21 3e 56 5f 64 3e
       0.014361009 -0.13722105 0.15749392 0.22301993
0000b0 51 19 00 3d 1e eb 8c 3e 17 27 04 3d 12 fe 93 3e
       0.031274144 0.2752313 0.03226384 0.28904778
0000c0 14 0c f4 bd 72 a7 92 be 16 6c 38 3e e6 66 b2 3d
       -0.11916366 -0.28643376 0.18009982 0.087110326
0000d0 27 1c 6b 3e f5 63 d8 bd 8e 04 85 3e ce 46 92 3e
       0.22959958 -0.1056594 0.25980037 0.28569645
0000e0 2a 45 63 3e bc bd 1e 3e 49 20 2d 3e de 95 33 3e
       0.22194353 0.15502065 0.16906847 0.17537639
0000f0 b3 48 c0 bd b9 45 39 bd 2d b0 86 3e b6 bd 4b bc
       -0.09388866 -0.04523251 0.26306286 -0.012435367
000100 3b 41 f8 bd 78 9e 4c 3e 58 96 a9 bd 69 c0 18 3c
       -0.12121817 0.19982326 -0.08280629 0.009323218
000110 74 ea 06 bd 52 e6 d0 3d 64 22 30 3d 30 38 58 bd
       -0.032938436 0.1020018 0.043001547 -0.05278796
000120 f4 d9 ea bb 95 82 ee 3d c0 70 82 3e ae e6 a9 3a
       -0.0071670953 0.11646 0.25476646 0.0012962425
000130 bf 1f 98 be 77 a7 94 bc 90 76 70 bd e8 f9 db bd
       -0.2971172 -0.01814626 -0.05870682 -0.10741025
000140 b9 81 51 3e 25 ea 38 bc bb 61 8e 3e f3 73 a9 3d
       0.20459642 -0.011286293 0.27808937 0.08274069
000150 49 4d b3 3d 9f 93 9c be dc 16 2b bd fe ee 8b 3e
       0.08754975 -0.30581376 -0.041769847 0.27330774
000160 08 dc 76 be ad 5e fc 3d 7a 9c 70 be 27 32 0b 3e
       -0.24107373 0.123227455 -0.23497191 0.1359335
000170 cd 4a 4f be 5e bb 7e 3e 9f 53 2a 3e d1 71 57 3e
       -0.20243378 0.24876162 0.16633461 0.21039511
000180 3c 91 5f be 8a 7e 88 3e a9 4b 9c be 8d 85 ee 3d
       -0.21832746 0.26659042 -0.30526474 0.116465665
000190 7a 17 83 3e b6 86 a7 bd b7 42 70 3e 56 fe fb bd
       0.2560385 -0.08179991 0.2346295 -0.1230437
0001a0 7d 19 2d be 22 1a 03 3e 21 ca e3 3c c3 81 32 be
       -0.16904254 0.12802938 0.027806344 -0.17432313
0001b0 09 a5 2e 3e e9 7a 5d 3d b3 d2 84 3e 3c 0a 8f 3e
       0.17055143 0.054072294 0.25942 0.27937496
0001c0 8c e8 18 3e 64 9e c2 3d 5e 40 56 3e 9b 11 94 3d
       0.1493246 0.09502867 0.20922992 0.072299205
0001d0 3f 5d 89 be 1f 19 5b be d6 98 01 bd ae c9 81 3e
       -0.26828954 -0.21396302 -0.031639896 0.25349182
0001e0 50 af b2 bd 98 e2 9c 3e cc 8f 2c 3e 5d e1 fb 3d
       -0.087248445 0.30641627 0.16851729 0.12298844
0001f0 10 a3 62 be fa 70 88 be bb a2 92 be bd dd 22 3e
       -0.22132516 -0.26648694 -0.28639778 0.15904899

layers.1.weight f4 [128, 128]
000000 47 ec 2f 3d b4 a9 3f 3d 30 86 70 bd ea b0 39 bd
       0.04294994 0.0467927 -0.05872172 -0.045334734
000010 d6 6c c5 3d 95 db c8 bd 53 8e 97 bb fe 9d 36 3d
       0.096398994 -0.09807507 -0.0046251207 0.044584267
000020 be cd e5 3d 5d 99 00 3d aa 54 55 bd 28 e7 69 3d
       0.11220883 0.03139626 -0.052082695 0.057105213
000030 78 6d c7 bd e6 5b 2a bd 02 cd 88 bd ea c3 62 3d
       -0.097376764 -0.041591547 -0.06679727 0.05536262
000040 9c e2 d0 bd f5 c9 37 be fb da 2b 3d 4b 12 91 3d
       -0.10199472 -0.17948134 0.041956883 0.07083567
000050 fb 69 b5 3b f8 74 7f 3d 7a 81 00 3e d3 19 50 bd
       0.0055363155 0.06236741 0.12549391 -0.050805878
000060 4c e8 42 3d 9d 3d 95 3d a4 27 7d bc 27 37 c0 bc
       0.047584817 0.072871424 -0.015451346 -0.023463799
000070 86 4f b8 bc 23 a0 81 bd b3 d0 ec 3c f4 cc 4a bc
       -0.022498857 -0.06329372 0.02890811 -0.012377966
000080 19 c7 1e 3d a3 b3 32 be e4 9b e4 3c d9 50 1c 3d
       0.038764093 -0.17451338 0.027906366 0.03816304
000090 a8 8a c3 bd c0 78 ea 3d 93 31 c8 3d a3 6d 82 bd
       -0.09547931 0.114488125 0.097750805 -0.06368568
0000a0 60 68 a3 3c b9 62 16 3b d3 1a 6d bd 8d dd e9 3d
       0.01994723 0.0022947027 -0.05788691 0.114192106
0000b0 79 2b fe 3c c3 0a e6 bb 28 d1 10 3d 88 ba 74 3d
       0.031026589 -0.007020326 0.035355717 0.059748203
0000c0 a1 ca 56 bd b1 50 ea 3c 71 27 97 3d 38 58 41 bd
       -0.052439336 0.02860293 0.0738057 -0.047203273
0000d0 e9 cf bf 3d 5f f3 73 bc 9d 28 02 3e b5 e7 98 3d
       0.093658276 -0.014889567 0.12710805 0.074660696
0000e0 0d 66 03 bc 88 81 26 3d 12 c2 96 bd 9b bc c0 bb
       -0.008019936 0.040650874 -0.07361235 -0.0058818585
0000f0 77 cb 15 bd 15 af 76 bd 57 8d de bb d4 c8 39 3c
       -0.036570992 -0.060225565 -0.0067917514 0.011339385
000100 05 e2 03 3c 1e 79 24 3c eb 2c 35 bd 93 6e 76 bd
       0.008049493 0.010038642 -0.04423229 -0.060164046
000110 7a 74 29 3e 43 c5 2d 3e ff 45 05 be 10 f0 b0 bd
       0.16548339 0.1696978 -0.13014983 -0.08639538
000120 18 7c 9e bc a7 e9 d3 3d 14 c7 97 3b 30 15 40 3c
       -0.019346282 0.103473 0.0046318863 0.0117238015
000130 27 57 1f 3d cb b4 d7 bd 5d f9 10 3d 4a 08 b9 bd
       0.038901474 -0.105325304 0.03539406 -0.09034784
000140 4c c4 50 3d 9e 16 da 3c 9f b0 08 3e 5f 09 03 3d
       0.050968453 0.026622113 0.13348626 0.03199136
000150 bb ec 09 3e 40 6c dc 3d 3b 0b 45 bc 62 92 95 3d
       0.13469212 0.107628345 -0.012026603 0.07303311
000160 72 21 0e 3e 66 0d c8 3c bb a8 cb 3c 51 3c ac 3d
       0.13879946 0.024420451 0.02486073 0.08409942
000170 0e 71 1b 3c 6e cf 28 3d 3d 56 a6 bd f2 00 f5 3d
       0.009487404 0.041213445 -0.081219174 0.11963071
000180 36 0b d2 bd bf ab c7 3d 60 c6 d0 3c 8a 59 81 3d
       -0.102560446 0.09749555 0.025485218 0.06315906
000190 e4 bf f7 3d 83 cd 9f bc 64 29 29 3c 5c e5 97 3c
       0.12097147 -0.019507175 0.01032481 0.018541984
0001a0 6d 1d da 3d c1 6a cd 3a 70 a1 c7 bd aa d4 9a 3d
       0.10650144 0.0015672074 -0.09747589 0.07560094
0001b0 dd 00 b8 bd 86 ad a9 bd 50 7b fc bc 69 23 17 3c
       -0.0898454 -0.0828505 -0.030820519 0.009224751
0001c0 b4 3e ad bc ca 5a e6 3d 03 c0 6c 3d 4e 41 0b bd
       -0.021148063 0.112477854 0.057800304 -0.033997826
0001d0 9d a7 4f 3d e1 48 98 3d c8 dc 8b 3e 25 80 2c bb
       0.050696958 0.074357755 0.2731688 -0.0026321497
0001e0 0c 89 8c 3d e8 e1 00 3d 8f 02 08 3d 9e 2d 96 bd
       0.06862077 0.03146544 0.033205565 -0.073329195
0001f0 5c c9 d1 3d ec b9 63 3d 62 c6 1d be 7f 07 4d 3d
       0.102434844 0.05559723 -0.15407708 0.050055977
000200 17 32 36 3d bc ec cb bc 7b 26 c4 3d 10 d9 83 bd
       0.044481363 -0.024893157 0.09577652 -0.06437886
000210 d1 e4 52 3b a6 74 f4 bd 30 b5 00 3e f5 ab 8c bd
       0.0032179842 -0.119363114 0.12569118 -0.06868736
000220 c4 cf 23 3e 14 4c d6 3c 9a 6a 99 3d 41 06 1b 3a
       0.15997225 0.026159324 0.07491036 0.00059137127
000230 da 75 10 bc 0e 5d 46 bd ce d8 c7 bc 12 16 b6 3c
       -0.0088171605 -0.048428588 -0.024395373 0.02222732
000240 b0 3a 8b 3d 4f e0 1e be 6e 83 0b 3e 6c ab a9 b9
       0.06798303 -0.15515254 0.13624355 -0.0003236191
000250 10 a1 c3 3d bb d2 b8 3d f9 92 5e bd 72 74 7d bd
       0.095522046 0.09024569 -0.054339383 -0.06187863
000260 cf 1e af 3d 95 48 5c bd 77 8d 1f bd f6 1d 83 3c
       0.08550798 -0.053780157 -0.03895327 0.016005497
000270 74 29 37 bd 08 2e ed 3c 9e ff a2 3c 27 d5 2f 3d
       -0.044717267 0.028952613 0.019897278 0.042927887
000280 cb 51 95 bc a8 34 1c 3d f4 b0 5f bd 47 bf 36 3d
       -0.018227478 0.038136154 -0.054612115 0.04461601
000290 1b 8c 87 3d 73 00 04 be a0 39 6d bc f9 4d 26 3d
       0.0661852 -0.12890796 -0.014479071 0.040601704
0002a0 4d 38 98 3d ad 95 3b bd d4 c5 f3 bd 57 e6 57 3d
       0.074326135 -0.04579704 -0.11902967 0.052709904
0002b0 6c ad a7 3d 6a 7a d2 3c 90 a6 3e be 13 2c ca bd
       0.081873745 0.025693137 -0.18618226 -0.09871688
0002c0 cf 34 98 bd 24 66 ce 3d 86 fd fe bd d4 a6 10 bd
       -0.074319474 0.100780755 -0.124506995 -0.03531535
0002d0 88 52 76 bd 6c bd 91 bd 30 3e 1b 3c 57 da 3f 3b
       -0.0601373 -0.071162075 0.009475276 0.0029274428
0002e0 3f 08 f8 3d ac 51 d3 bd e9 e2 91 3d f3 b9 8a bd
       0.12110948 -0.10318312 0.07123358 -0.06773748
0002f0 f1 aa b3 bd 1c a6 23 3e b0 e7 fb bd 8f e2 11 3e
       -0.08772839 0.15981334 -0.1230005 0.14246581
000300 97 94 cd 3d 04 fd 0a be 2a 7a ce 3d 12 10 c3 bd
       0.10038107 -0.1357308 0.10081895 -0.095245495
000310 09 d0 90 3d 62 f1 15 3d 33 af 3a bd a4 a9 52 be
       0.070709296 0.036607154 -0.04557724 -0.20572525
000320 7e a5 26 3d 19 b3 c0 3c 61 94 3e bd 43 f9 9b bd
       0.04068517 0.0235229 -0.046528224 -0.07615902
000330 a2 5e 3d bd ef 67 6d bd ed 06 98 3c 63 31 84 3d
       -0.046232827 -0.057960447 0.01855799 0.06454732
000340 28 98 d3 bb 71 66 ab bc 08 f8 88 3d 28 ce e2 bd
       -0.0064573474 -0.020922871 0.06687933 -0.110744774
000350 77 26 96 3d 99 e6 de bd de 6e 46 bd 81 9f d2 bc
       0.07331555 -0.10883827 -0.048445575 -0.025710823
000360 fd c5 cd 3c bd 42 03 3c 36 1c 9a 3b 48 76 81 bd
       0.025118822 0.008011517 0.00470307 -0.063213885
000370 88 93 ba bd 39 f5 f2 bc 8b 84 b0 3d f9 38 59 bd
       -0.091101706 -0.029657947 0.086190306 -0.05303285
000380 dc 3d 41 bd 5c d9 d0 bc fe 95 ef 3d 4b fa 57 3d
       -0.047178134 -0.02549427 0.116985306 0.052728932
000390 18 bf 44 3b 23 36 ea bd 60 14 ef bc dd 94 ce bd
       0.0030021127 -0.11436107 -0.02918452 -0.10086987
0003a0 50 6d 2d 3d 40 b2 0e 3d 89 12 01 be a8 ce 02 3d
       0.042340577 0.03483796 -0.12604727 0.031935364
0003b0 c7 00 fa bd 8a 7d 0f 3d 63 5a 5f 3d 26 e3 e5 3d
       -0.122071795 0.035031833 0.05452956 0.11224966
0003c0 f1 9e 65 3d 09 35 7f 3d 47 7f af 3d 77 cc 98 3d
       0.05605978 0.062306438 0.08569198 0.074608736
0003d0 ee 9d 75 3d 03 ab f5 bc 34 aa 30 3d 56 11 8f bd
       0.059965067 -0.029988771 0.04313107 -0.069857284
0003e0 86 9c 5f bd fe 40 df bd 0b aa 8c 3d 62 27 5d bd
       -0.05459263 -0.10901068 0.068683706 -0.053992637
0003f0 e3 7b 8c 3c 42 fc 22 bc 48 c0 22 3d 92 b1 8a 3d
       0.017148918 -0.009947838 0.039734155 0.0677215

layers.1.bias f4 [128]
000000 29 4e 0d 3d 7d cc 55 bd 39 e0 89 bb 90 ab 19 bd
       0.034498367 -0.05219697 -0.0042076376 -0.03751713
000010 28 82 0e 3c 62 64 21 bc f2 e4 1e bd b0 52 2a 3d
       0.008698024 -0.009850593 -0.038792558 0.041582763
000020 8e b4 de 39 7d 85 7e 3c 32 e1 98 bd 43 24 26 3d
       0.00042477663 0.015534756 -0.074648276 0.040561926
000030 3b c0 71 bd ed 23 c1 3b f0 c2 9f bd a4 48 88 3c
       -0.059021216 0.0058941753 -0.07800853 0.0166362
000040 80 5f b0 3d 9c fc a1 3c 1b de 59 3d b1 38 28 bc
       0.08611965 0.019773774 0.053190332 -0.010267423
000050 5f 84 a6 3c 67 dd e6 3c 23 b0 03 3d af 29 e7 bc
       0.020326791 0.028181745 0.0321504 -0.028218118
000060 b2 08 3e 3d 97 46 6b bd 98 1b 3f 3d 82 3f 9b 3c
       0.04639501 -0.057440367 0.046657175 0.018951181
000070 bd e1 90 3d b7 c2 79 3d 96 6b 97 bd b7 86 81 bd
       0.07074306 0.06097671 -0.07393567 -0.06324523
000080 93 3e 6e bc cb e8 da 3c fd a8 80 3d 38 be 1b bd
       -0.014541286 0.026722332 0.06282232 -0.038023204
000090 db cd 0c 3c be ed 61 3d 86 b6 18 bd cc 21 90 3d
       0.008594002 0.05515837 -0.037283443 0.07037696
0000a0 8c f4 49 bd 51 83 fb 3c 5e 67 80 3d e6 4c 81 3d
       -0.049305484 0.030702265 0.06269716 0.06313495
0000b0 a1 08 5d bd 70 1a 86 bd 38 1d a0 bd 5e b7 c1 bd
       -0.053963307 -0.06548011 -0.07818073 -0.09458803
0000c0 5f 6e 7f bd 8a ac 70 bd 9c d0 5a bc 63 a7 89 bb
       -0.062361117 -0.058758296 -0.0133554 -0.0042008623
0000d0 0d 8b f9 bb ef 91 2d 3d c7 84 0e bd 77 4e 30 3d
       -0.007615453 0.0423755 -0.034794595 0.04304358
0000e0 70 f6 df 3b dc a1 45 3c 78 6d ef 3c f6 0e 65 3c
       0.0068347976 0.012062516 0.029227003 0.013980618
0000f0 57 10 83 bd 5b ab d7 3c 56 c9 96 bb 4b 05 08 bb
       -0.06399601 0.026326826 -0.004601638 -0.0020755108
000100 96 03 28 3d 52 8b 16 bd 3f 6e a4 bd 43 49 31 3d
       0.041019045 -0.03675396 -0.0802884 0.04328276
000110 d1 ec 72 bd 3a 52 7e 3d 7a 14 11 3d 35 eb cc bd
       -0.059307877 0.062090136 0.03541992 -0.100058
000120 8b 3b ea bc 01 bc 1a bd bc 07 9d 3c fb d7 2f bc
       -0.028592845 -0.03777695 0.019168727 -0.010732646
000130 8e 23 8c bd 97 5c 88 3c 63 2c 7a 3d 2a ac 30 bd
       -0.06842719 0.016645713 0.061077487 -0.04313294
000140 a6 e6 72 3d 5f cc 5d 3d ad 33 98 3c ae 33 6b bd
       0.059301995 0.05414998 0.018579328 -0.057422332
000150 d8 84 75 3b a8 c5 7e 3c 33 a4 a1 3c d1 9b bf bd
       0.0037463214 0.015550055 0.019731617 -0.093558915
000160 fd 25 7e 3d a7 75 9b 39 0b 73 35 3c e8 dd a9 3c
       0.062047947 0.00029651562 0.011074792 0.020735696
000170 35 4e 99 bc 04 3f c0 bc c5 d4 60 bd 06 3c 80 3b
       -0.01871405 -0.023467548 -0.054890413 0.0039134054
000180 6e ec 9b bc 6f 04 b7 3c 8d ac eb 3c 75 1b f6 3c
       -0.019033637 0.022340981 0.028768802 0.03004239
000190 a9 fa 5b 3c e8 28 85 3d 8c 2d 38 3d 07 42 ae 3d
       0.013426461 0.06501943 0.044965312 0.085086875
0001a0 95 86 a9 bd d4 ad 3b 3d cc ec 4a bd e6 ba cd bc
       -0.082776226 0.045820072 -0.049542233 -0.025113534
0001b0 39 56 9d 3d fe 5a 5a 3d d9 74 45 3d bd 00 64 3d
       0.07682461 0.053309433 0.048207138 0.055664767
0001c0 44 b1 eb bc a6 f5 5c bd dd e5 2a bd ff 47 19 3c
       -0.02877105 -0.053945206 -0.04172312 0.009355544
0001d0 35 43 cd 3c 42 87 66 3d 81 0a 8a bd 37 ea 2a bd
       0.02505646 0.056281336 -0.06740285 -0.04172727
0001e0 8e 19 13 3c 33 ce 08 3c cf 95 47 3d 50 98 9d bd
       0.008978261 0.008349943 0.048726853 -0.07695067
0001f0 62 47 43 bc b0 bd 0c 3d b7 a4 cb 3b cf 40 8d bd
       -0.011918874 0.034360588 0.006214704 -0.06897127

layers.3.weight f4 [128, 128]
000000 7e 0d c0 3d d8 0c a2 3d 64 c5 83 3d 65 7c 38 bc
       0.093775734 0.07912606 0.06434134 -0.011260127
000010 3f 22 34 3d 21 2b e7 3d 97 ba 8e 3c 32 c4 22 3d
       0.043977972 0.11287523 0.017422957 0.039737888
000020 cd 40 d7 3d 99 c8 96 bc 6b eb 86 bd dd 1a f4 3d
       0.10510407 -0.0184062 -0.06587871 0.11919186
000030 5c b7 97 3c e6 05 82 bd b7 bf 8c bd 57 df 50 bc
       0.01852005 -0.06348781 -0.06872504 -0.012748561
000040 e6 fe f7 bc 8b 99 f1 bc e4 4a f0 bd a4 fe 69 3d
       -0.030272912 -0.02949216 -0.11733034 0.05712761
000050 13 59 2d 3d 3d 23 f6 bd f0 55 9d 3c 66 b3 bb 3b
       0.042321276 -0.1201844 0.019206017 0.005728173
000060 89 cf fa bd f0 98 83 bc 99 14 5c 3b e1 d8 ae 3d
       -0.122466154 -0.016064137 0.0033581613 0.0853746
000070 a4 a5 48 bd 5d c4 40 bd 9e 6f 57 3d 79 e6 d2 3d
       -0.048986092 -0.047062267 0.05259668 0.102978654
000080 0f 0b 6c 3d 4c 38 73 3d 12 30 99 3d 23 8f af 3c
       0.057627734 0.05937986 0.07479872 0.021430558
000090 8c 29 15 be 95 a5 69 bd ac 1b 95 bd cd 12 39 3d
       -0.1456663 -0.057042677 -0.072806686 0.045183945
0000a0 0b 22 12 3d bd a7 f7 3c 0c ad 04 3e 38 7f 3e bd
       0.035676997 0.030231351 0.12956637 -0.046508044
0000b0 0d de 62 3d f9 03 dd bc b1 96 30 bc f1 da 47 3b
       0.055387545 -0.026979433 -0.010778115 0.003049549
0000c0 d3 1c c5 bd 26 8e c9 3c a4 2a 63 3d 95 47 c0 3d
       -0.096246384 0.024603914 0.055460587 0.09388653
0000d0 a6 d1 70 3d 0a 33 18 bd 51 09 fd bd 6d ff 84 3d
       0.058793686 -0.03715805 -0.123552926 0.06494031
0000e0 8f ca 0e bd d6 e9 35 3d 64 cf 66 3d 27 ad 2a 3e
       -0.034861144 0.044412456 0.056350127 0.16667615
0000f0 88 5f 62 bd 62 c0 3f 3c 06 37 cf 3d 67 2e 9b 3c
       -0.055266887 0.0117035825 0.10117917 0.018943025
000100 0f d6 50 bd f8 95 94 bd e1 5c 1f 3d bc c0 a9 3d
       -0.050985392 -0.07255167 0.038906936 0.08288714
000110 0c 27 a8 3a c0 cc 09 3e 2c 1a ab 3d dc 24 89 3d
       0.001282902 0.13457012 0.08354601 0.066964835
000120 4c 81 07 bd 6b 8e 28 3d 98 d7 db bc 1a ff a5 3d
       -0.03308229 0.041151445 -0.026836202 0.081052974
000130 88 97 5e 3c 11 0a f2 3c 82 15 0c 3d 5e 2a 83 bd
       0.013585933 0.029545816 0.0342002 -0.06404565
000140 81 66 5d 3c da 95 13 3d 0a bc 7f 3d cf 0a 29 3d
       0.013513208 0.03603158 0.062435187 0.041270074
000150 e5 af 5b 3b 50 94 73 ba ef 68 4e bc 0a 33 a3 3d
       0.003352159 -0.00092918146 -0.01259826 0.07968719
000160 e4 19 a2 b9 65 ca 1a 3d c9 c6 d6 bc 20 d0 96 bd
       -0.00030918338 0.037790675 -0.026217835 -0.073639154
000170 bc 93 37 bd 71 f1 9c 3d 4d f6 41 3d c5 be 6d 3d
       -0.044818625 0.07663239 0.04735403 0.05804326
000180 1d ab c5 bd f1 65 89 3c 96 1b d3 bc 31 9f 0c bd
       -0.09651778 0.016772242 -0.02576999 -0.034331504
000190 2c 4d 57 bd f5 b3 ad bd ce da 01 3e 72 c7 68 3d
       -0.05256383 -0.0848159 0.12681124 0.05683083
0001a0 e5 84 60 bc dd 5e 6d 3d 26 02 d3 bd 73 f7 f7 bd
       -0.0137035595 0.057951797 -0.10303144 -0.12107744
0001b0 a6 ff ed 3d 18 af 1d 3b 45 4f 02 bc ac b5 86 3d
       0.11621027 0.0024060663 -0.00795347 0.0657762
0001c0 20 b2 70 bc b3 69 5b 3c 80 47 8c bb 5c 04 45 3d
       -0.014690906 0.0133919 -0.0042809844 0.04809986
0001d0 d5 1d ed 3d 97 a2 ac 3c 9d 76 1a 3d ec 5f e0 bc
       0.11577956 0.021073623 0.037710775 -0.02738949
0001e0 c4 0e 1e bd 5e b5 0f 3d c0 2d 56 3d 8e 11 69 bc
       -0.0385883 0.035085075 0.052289724 -0.014225377
0001f0 b8 45 b9 3c 95 e4 db bd b3 af e8 bc 37 8e fa bc
       0.022616252 -0.10736958 -0.028404092 -0.030585391
000200 3e 65 23 be 89 a4 15 bc a3 3c 5b bd 5f eb 0c bb
       -0.1595659 -0.0091334665 -0.053524625 -0.0021502597
000210 b5 2a d9 3d 0a ad cc 3c fb 60 f5 bc 0f 31 0d 3e
       0.10603849 0.024984855 -0.02995347 0.13788246
000220 85 c1 7c bd 0f 99 94 bd 35 c5 9c bd 45 11 37 bd
       -0.061707992 -0.07255756 -0.07654802 -0.044694204
000230 67 78 0f be cb 1f f3 bc 78 2a 83 bd 87 88 c3 bd
       -0.14010774 -0.029678246 -0.06404585 -0.09547525
000240 cb c8 22 3e c0 c5 2f 39 7d be 42 bd 08 95 1b 3e
       0.15896909 0.00016762968 -0.047544945 0.1519357
000250 6c 2d c8 bc b9 17 aa 3d e3 42 1f 3d a4 57 ea 3d
       -0.024435721 0.08305306 0.038882148 0.114424974
000260 56 e6 61 3b c4 d1 42 be 6f 05 5c bd 15 81 29 3d
       0.0034469566 -0.19025332 -0.05371612 0.041382868
000270 29 35 c1 3d ba 30 24 bc ea 96 bc bc 96 56 61 bd
       0.094339676 -0.010021383 -0.02302118 -0.055014215
000280 44 fa 01 bd 1e 0c 38 bd 96 18 ef 3d 91 57 68 bd
       -0.031732813 -0.04493343 0.11674611 -0.056724135
000290 54 b4 f9 bd bc 21 af bd cd 90 f9 bd f2 ce 95 bd
       -0.12192598 -0.08551356 -0.12185822 -0.07314862
0002a0 de d7 99 3d fd 5e f5 3a ab 8e 0f 3e 49 94 cd bc
       0.075118765 0.0018720325 0.14019267 -0.025095122
0002b0 c4 53 11 bd e5 7f a5 3d c2 3e be bd 9a 19 45 3b
       -0.035480276 0.080810346 -0.09289314 0.0030075074
0002c0 15 99 4b bd 94 57 e6 bd 6c d2 61 3d 11 21 fa 3d
       -0.049706537 -0.11247173 0.055132315 0.12213338
0002d0 c3 5a 88 bd 3a c1 d2 3d 70 13 3d 3d 50 f3 0f 3e
       -0.066579364 0.10290761 0.046161115 0.1405766
0002e0 7a 10 02 3e c0 4d 96 3d 77 ff 00 3b 08 e1 d4 3d
       0.12701598 0.073390484 0.001968352 0.10394484
0002f0 77 4a 97 3d 68 e6 b1 bd 0c 53 52 3c 08 c1 bc 3d
       0.0738725 -0.08686525 0.012837183 0.09216505
000300 77 29 23 3d c1 0d 25 be 70 06 df bd 6a 30 09 3d
       0.039834466 -0.16118528 -0.108899 0.033493437
000310 88 a5 5b be 84 b4 3d 3e 46 09 05 bd 1c fc 01 be
       -0.21449864 0.18525892 -0.032479547 -0.12693828
000320 d9 3c 03 3e 12 ce 86 bc 8b 6d 65 be 67 1d 9e 3c
       0.1281618 -0.016455684 -0.22405069 0.01930113
000330 6a a8 44 be f2 96 42 3c cd 93 1e 3e ce 88 35 bd
       -0.1920487 0.0118768085 0.15486069 -0.04431992
000340 35 fc 69 3d c7 37 a7 bd 2e a2 5f bc ca 7a e8 bc
       0.05712529 -0.081649356 -0.0136495065 -0.028378863
000350 f5 18 27 bd 30 d4 d9 3c 2e a4 48 3d f0 09 ec bc
       -0.040795285 0.026590437 0.0489847 -0.028813332
000360 60 ce 48 bd e1 dd 00 be 57 b3 2f 3d 9b a3 43 be
       -0.04902494 -0.1258464 0.04289564 -0.1910538
000370 bc e6 04 3e b6 5e 90 3d de 8b 85 bb 50 b8 76 bc
       0.12978643 0.07049315 -0.0040755114 -0.015058592
000380 74 eb 1b bd d1 52 55 3e a2 7e e6 3d 38 66 05 ba
       -0.038066342 0.20832373 0.11254622 -0.0005088779
000390 e2 e3 5a 3d 16 e4 b9 bd ab fd 17 3e 9c 85 3b bd
       0.053439982 -0.09076707 0.1484286 -0.045781717
0003a0 5d 4c 66 3d 72 a1 c3 3d 5f a0 42 bd 54 cb df bd
       0.05622517 0.095522776 -0.047516223 -0.10927454
0003b0 7c 61 39 3e 9f 17 35 3d 07 be b0 3e 3c ab 0e 3e
       0.18103594 0.04421198 0.3451998 0.13932508
0003c0 bf 09 c5 3d f4 4a 57 3d 53 21 06 3b 1e fb 3e 3e
       0.096209995 0.052561715 0.002046664 0.18650481
0003d0 8e f5 e9 3d 35 fb f6 bd 84 e9 a7 bd 9c 77 f4 3d
       0.11423789 -0.12059633 -0.081988364 0.11936876
0003e0 d2 d6 bc 3d 93 31 28 3e 6e 80 67 bd 81 7e 9c bc
       0.09220661 0.16425161 -0.056518964 -0.01910329
0003f0 9d 28 af be b2 a1 2f 3d da 7a f2 bc 45 e7 64 bd
       -0.34210673 0.042878814 -0.029599596 -0.05588462

layers.3.bias f4 [128]
000000 76 63 63 bd e0 8c 27 3d a1 c8 5b 3c b9 4a 38 3c
       -0.055514775 0.040905833 0.013414533 0.011248284
000010 1a 92 15 bd 97 0f c1 3d 2d b9 5b 3c 2f 45 df 3c
       -0.036516286 0.09426802 0.013410849 0.027254669
000020 2d 73 da bc f5 c5 ca b8 f3 aa 03 bd 07 66 bd bc
       -0.026666248 -9.668983e-05 -0.03214545 -0.02311994
000030 b9 0a 7f 3c 96 7c c5 bd cb c4 1a 3c c7 4b 8f bd
       0.015566521 -0.096429035 0.009446333 -0.06996875
000040 7f dc 5c bd 1c f6 b6 bb e7 f3 1f bd 09 ef b6 bd
       -0.05392122 -0.0055835377 -0.039050963 -0.08932311
000050 1e f9 f0 3a f6 1b 26 3c 40 31 b0 bd f3 2e 60 bd
       0.001838479 0.010138502 -0.08603144 -0.054732274
000060 38 e1 fb bc af b2 f5 bc 4b 5a a0 3d 5a 52 44 3d
       -0.030747041 -0.02999243 0.07829722 0.0479301
000070 df 48 36 bd b7 ab 4f 3c 0f 06 92 bd 3e d5 32 bd
       -0.04450309 0.012675217 -0.07130062 -0.043660395
000080 50 a6 77 bd 4e b0 b5 bd b9 dc 5f 3d 79 85 4c bd
       -0.060461342 -0.08871518 0.054653857 -0.049931977
000090 74 2f 49 3b 16 41 5d 3d 0f fb 4f bd f9 ce 94 3d
       0.003069845 0.05401715 -0.050776538 0.072660394
0000a0 39 43 bd bd 1f 3e 9b 3d 5a 77 53 3d 8f 2c eb 3b
       -0.09241337 0.07580208 0.051627494 0.0071769427
0000b0 ab 79 93 3c dd a3 05 bc ee 1f 93 bc 27 92 8b bd
       0.018002352 -0.008156744 -0.017959561 -0.06814986
0000c0 17 42 a2 3d 86 76 55 bd c3 ab 18 3d f4 3a 0a 3d
       0.07922762 -0.052114986 0.03727318 0.03374763
0000d0 8d f9 14 bd e5 14 f6 3a de 04 b4 3d 1e 87 5c 3b
       -0.036370803 0.0018774538 0.08789991 0.0033649872
0000e0 ce 26 50 3d 5d be 54 bd f5 e8 18 bd 00 49 e1 3d
       0.050818257 -0.051939357 -0.03733154 0.11000252
0000f0 7d 23 26 bc 5d 10 ab bd 46 0b 9f 3c fd ca a2 bd
       -0.010140297 -0.083527304 0.019414555 -0.07948873
000100 57 f8 c2 3c 7e a6 8b 3b f6 2b 73 3c 69 e9 9d bd
       0.023800058 0.004261791 0.014842024 -0.07710535
000110 45 36 cf ba e9 59 03 3c 5d 7c 94 3d 1b 79 03 bd
       -0.001580902 0.008017042 0.07250283 -0.032097917
000120 0f b9 51 3b 06 40 b3 3c 61 c8 95 bc dd f9 d7 bc
       0.0032001173 0.021881115 -0.018284025 -0.026364261
000130 f9 4c 92 bc 81 ca 2a 3d 66 5c 56 3d 67 70 90 bd
       -0.017858969 0.04169703 0.05233421 -0.07052689
000140 fe 16 c0 bc 7c 5c bd 3d 2b d1 ca bb e1 1a ac 3d
       -0.023448464 0.092461556 -0.0061894855 0.08403564
000150 ec 7b 63 3d 94 2f cf ba bf 86 1b 3d 49 17 d0 3c
       0.055538103 -0.0015807026 0.0379703 0.025401728
000160 5c 7b e1 bb d5 b5 02 3d 36 11 28 3d 52 a8 87 bd
       -0.0068811607 0.03191169 0.04103204 -0.066239014
000170 4e f8 ae 3d 56 50 3e 3d f4 f0 81 bd ed b0 99 3d
       0.08543454 0.046463333 -0.06344786 0.07504449
000180 e8 23 3a bd 52 79 e3 bd b0 03 84 3d d7 f6 a4 3c
       -0.0454444 -0.111071244 0.06446016 0.020137234
000190 f2 d7 5e 3d ed 6c 99 bc 4f 69 c0 bd 8d fe 05 bd
       0.05440516 -0.018728698 -0.09395086 -0.03271346
0001a0 3b 1d 00 bd ad 1d 27 3d b9 61 80 3d e5 1b c7 bc
       -0.031277876 0.040799785 0.06268639 -0.024305293
0001b0 60 52 ba bc 06 cb 1f 3d ae bc 60 bd 6d 8d 5c 3d
       -0.022744358 0.039011978 -0.05486744 0.05384581
0001c0 3f ef 38 bb 6a f0 51 bd ef ae e2 bb b5 2b 5a 3d
       -0.0028218774 -0.051254667 -0.0069178264 0.05326434
0001d0 69 58 d0 bd 73 a3 32 bc 85 68 11 bc 27 51 27 bd
       -0.10173113 -0.010903227 -0.008875017 -0.040848877
0001e0 3c 3a b3 bd 54 8c d5 bd 64 c4 dd 3c 19 7a c6 bd
       -0.08751342 -0.10427156 0.027071185 -0.09691257
0001f0 8d 03 16 bd c9 ba 87 bd 73 12 32 bd 2e 64 8b 3d
       -0.03662448 -0.06627423 -0.043474626 0.06806217

layers.5.weight f4 [4, 128]
000000 38 dd d9 3a dc 2c be 3d 91 d2 a4 3c 9d 96 5e bb
       0.0016621714 0.092859 0.020119937 -0.0033964284
000010 81 ab 97 3d ba 92 84 3d da 03 53 3d c9 8d bc bd
       0.07405759 0.06473298 0.051517345 -0.09206731
000020 41 cc 91 3d 2d 6e 28 be d1 8c 28 be c6 0e a9 3c
       0.071190365 -0.16448279 -0.16459967 0.020636927
000030 09 96 85 bd 6e 66 b3 bd 49 cd ae 3b 25 74 c6 bd
       -0.065227576 -0.08759771 0.0053345305 -0.096901216
000040 dd 12 46 3d 37 28 03 3e 59 4a 1e 3e 9f 0c 3e be
       0.048357833 0.1280831 0.15458049 -0.18559502
000050 7b 89 49 3e e4 10 72 bd 39 d6 68 bc da d0 21 be
       0.19681351 -0.05909814 -0.014211231 -0.15802327
000060 7e 64 bf bc 21 b8 50 3e 7b 1d 7d bc f8 c9 c0 bd
       -0.023363348 0.2038274 -0.015448923 -0.094135225
000070 b8 15 24 3e cb 9b 9e 3d ea 62 07 bd e1 fa 19 3e
       0.1602391 0.07744559 -0.033053316 0.15037109
000080 a4 bc f2 bd b1 e4 f0 3a f2 bd 80 bd bf 82 a7 3d
       -0.118523866 0.0018378702 -0.06286229 0.08179235
000090 82 78 76 bd 5b e0 e5 3b d2 b8 0e bc c7 3f 1e be
       -0.06017352 0.0070152706 -0.008711057 -0.15454017
0000a0 4e 47 4e 3b 4c b0 06 3d 34 dc 28 bc 57 69 f7 bc
       0.0031475606 0.032882974 -0.010306407 -0.030201597
0000b0 8d e2 a0 bc 0b 7c ba 3d e6 a0 9f bd b3 f3 5f 3d
       -0.019639278 0.091056906 -0.07794361 0.05467577
0000c0 82 00 9b bd 69 ae 83 3d 06 36 0a be a8 73 04 be
       -0.07568456 0.064297505 -0.13497171 -0.12934744
0000d0 97 9a b4 bd 7a 28 c6 3d d2 61 4f 3e fc 91 88 3d
       -0.08818548 0.09675689 0.20252159 0.06668469
0000e0 93 51 59 bd c4 ee 01 3e 14 68 63 3c ae 7c 6b 3d
       -0.05305631 0.12688738 0.013879795 0.05749195
0000f0 af 3f 81 bd 03 bc 48 bc fb ec 30 3e d6 f2 8e 3d
       -0.06310975 -0.012251857 0.17277901 0.06979911
000100 e4 c4 3c 3e 82 9b 3b be b5 6b 2d be 06 dc 1e bd
       0.18434483 -0.1832104 -0.16935618 -0.03878405
000110 9a 12 f6 3d f4 1a 8d bd 38 49 72 3d a3 2a 40 3e
       0.12015267 -0.068899065 0.059151858 0.18766265
000120 f1 22 e7 3d 92 aa 98 bd a3 a6 50 3d b3 43 37 3d
       0.112859614 -0.07454409 0.050940167 0.044742297
000130 74 c8 e7 3c 26 91 fc 3d 17 ab b7 bc 3e 32 66 bc
       0.028293826 0.12332372 -0.02242045 -0.014050065
000140 a9 a6 b8 3c bf 80 51 3e 71 e4 9e 3d 1f 0c 01 be
       0.022540407 0.20459269 0.077584155 -0.1260228
000150 56 37 63 bd 55 ba ea 3d 75 09 ff bd f8 76 47 be
       -0.055472694 0.11461321 -0.12452976 -0.19478977
000160 f5 9f 66 bd 1b d4 7c 3d 56 c9 9c 3b d4 84 a1 bd
       -0.05630489 0.061725717 0.0047847433 -0.07886663
000170 cb e5 a5 3d ce 1c 5c 3e 63 17 b1 bc b4 f0 86 bd
       0.0810047 0.21495363 -0.021617597 -0.06588879
000180 33 42 a9 3a 3f f8 eb bd 48 e4 fd bc 10 2c 9a 3d
       0.0012913406 -0.115219586 -0.030992642 0.075279355
000190 fd 24 4e 3e 9e 41 c8 bd c8 00 92 3c bc 38 93 bd
       0.20131297 -0.097781405 0.017822638 -0.071885556
0001a0 25 ed 03 be 9a 0f 3d bd 91 c6 da 3d 16 ad 8a bd
       -0.12883432 -0.046157457 0.10682405 -0.06771295
0001b0 5e 29 fb bc fd 48 3e bd 19 8f d3 bd d9 71 4e be
       -0.030659374 -0.046456326 -0.10330028 -0.20160617
0001c0 3c 83 8e bd 89 76 45 3d 03 aa 97 bc f0 1e b9 bd
       -0.06958625 0.048208747 -0.018513685 -0.09039104
0001d0 02 f5 02 be a8 95 2b 3e bc 7f 1e 3d 8a d1 c6 bd
       -0.12788776 0.16756308 0.038696036 -0.09707935
0001e0 c0 98 6f bb 79 1d 1f bd 5a 21 ae bd 9e d8 36 be
       -0.0036559552 -0.038846467 -0.08502455 -0.1785607
0001f0 34 5f 86 bd 90 93 ec bd ff 43 f1 bc 78 0d 40 be
       -0.06561127 -0.11551583 -0.029451368 -0.18755138
000200 6f 6a 19 be ba 93 98 3d de ce 86 be be 7e 66 3e
       -0.14982007 0.074500516 -0.26329702 0.22509286
000210 f8 f1 78 bd e6 02 2e 3b be 28 bf bd af a1 82 3e
       -0.060777634 0.002655202 -0.09333943 0.2551398
000220 d7 28 92 3d 0a fb b0 3d 70 c3 93 3d 9c 30 12 bd
       0.07136696 0.08641632 0.07215011 -0.03569089
000230 a7 5b 20 3e 24 60 21 3c 6d 0a d5 bd 9b 2e 88 3c
       0.15659963 0.009849582 -0.10402379 0.016623786
000240 73 7f 2d be 5b 1f 67 be 2c 82 57 3c 0d 10 80 3e
       -0.1694315 -0.22570555 0.013153594 0.25012246
000250 6e aa 8b bd ae f9 32 be 68 97 1b be 6b e6 98 3d
       -0.06819616 -0.17478058 -0.15194476 0.07465824
000260 92 d6 0e 3e da 78 5b 3d 49 ba 05 3e 58 4d 9f bd
       0.1394904 0.05358205 0.13059343 -0.07778424
000270 18 dd 9d bc 56 41 00 3c 27 d0 82 3e 36 28 b6 3d
       -0.019270465 0.007828077 0.25549433 0.088943884
000280 22 fb f3 bc 4f 27 6f 3e 13 f0 7a 3d 31 97 61 3e
       -0.029782835 0.23354839 0.06126411 0.22030331
000290 ea 22 b2 bd ba b0 79 be 7b 11 e7 3c b9 bf 83 3d
       -0.086980656 -0.24383822 0.028206578 0.064330526
0002a0 e4 c5 6f 3e 6c 25 0e be 26 1d 69 be 07 1a 8b 3b
       0.23415333 -0.13881463 -0.22765025 0.004245046
0002b0 69 35 44 3e 3f 0f 24 3e 01 5f 11 be 8b c5 1c 3d
       0.19161 0.16021441 -0.14196397 0.03827433
0002c0 44 e6 26 be 52 fc 89 be a4 7f d8 3d 9c a2 bf bd
       -0.16298777 -0.26950318 0.105712205 -0.09357187
0002d0 95 27 b9 3d 0a 70 95 be fa b4 d7 3c 32 2f 3a 3d
       0.09040753 -0.29187042 0.026331414 0.045455165
0002e0 a3 85 ac 3d 58 8a 01 3e 89 34 89 3e c3 1e bf 3d
       0.08423927 0.1265043 0.26797894 0.09332039
0002f0 c6 d8 7f bd 77 5a 83 3e bc 44 18 bd 94 2a 60 be
       -0.06246259 0.25654957 -0.037174925 -0.21891242
000300 07 ed c9 bc c7 0a 2f 3d 21 79 89 3d 7f 8c 09 3e
       -0.024649156 0.042734887 0.06712557 0.13432501
000310 ba 69 a2 3d 7a 78 76 be 55 b1 6e 3e d2 63 da bd
       0.07930322 -0.24069396 0.23309834 -0.106635705
000320 ff 82 06 3e 83 51 97 3e d6 1e 19 3e 80 61 5d be
       0.13135909 0.29554376 0.14953169 -0.21619225
000330 f5 9e 1b be 8b ad 15 be 7a 66 5b 3e c1 a9 e9 3c
       -0.15197356 -0.14616983 0.2142581 0.028523328
000340 fd bf 05 3d bd 65 bd 3c 9e 3f 44 bd ea 1c db 3d
       0.032653797 0.023119802 -0.047912233 0.10698874
000350 0c dc d2 bd ff c1 8d be 48 18 23 3e b5 ec 6c bd
       -0.10295877 -0.2768707 0.15927231 -0.05784293
000360 63 cb 1e bd 24 f2 0e 3e 75 69 83 3d 0d 66 2f bd
       -0.038768183 0.13959557 0.06416599 -0.042821933
000370 df 32 85 3d 3f c5 da bc 1f 73 46 bd 8e d7 31 3e
       0.065038435 -0.026705382 -0.04844963 0.17367384
000380 40 2c 27 be f5 b1 21 bd a5 ef 52 be ee f3 9a be
       -0.16325474 -0.039476354 -0.2059923 -0.3026423
000390 0b 8b 65 3d 37 39 0e bd 0f 6e 19 3e 2d 63 6f 3d
       0.056040805 -0.034722533 0.1498339 0.05844419
0003a0 4d 94 f1 bc 9a c5 1d be 29 f8 17 3e 83 54 58 bc
       -0.02948966 -0.1540741 0.1484076 -0.013203743
0003b0 a1 68 5a 3e 2b 92 0e 3e 64 8b 73 3c 79 cf 9e 3c
       0.21328975 0.13922946 0.014864776 0.01938604
0003c0 de 20 5f bd 28 b9 28 be 29 e1 27 be 20 5d e5 3d
       -0.054474704 -0.16476882 -0.16394486 0.11199403
0003d0 d7 8a 99 bd df ab 35 bd 2c 5e e0 bd 30 ba 37 be
       -0.07497185 -0.044353362 -0.10955462 -0.17942119
0003e0 c7 4e 43 be 74 40 2e 3e 9a a2 5e 3e a1 ba 46 bd
       -0.1907302 0.17016774 0.21741715 -0.048517827
0003f0 30 1c 70 be 4c 4a 42 3d e2 f3 0f bd f7 1b cb 3d
       -0.23448253 0.047434136 -0.035144694 0.09917443

layers.5.bias f4 [4]
000000 9f c7 71 bc 01 75 88 bd a2 2e bb 3d db 5f 47 bd
       -0.014757066 -0.06662942 0.09139754 -0.0486754
