model_zoo/GCL/LunarLander-v2/cost_8939.pth (torch, 142391 bytes, 7 tensors)

layers.0.weight f4 [128, 12]
00000000: dd1d 69be 7027 84be a891 c6bd 9d6d 8dbd
00000010: 6139 c83e 977b f43e d97d 10be 6aae 333d
00000020: 2deb d5bc 23fd d8bd e79b 0d3e d5e7 b73c
00000030: e0c3 213e 6b89 04be 34a0 55be 0b16 153e
00000040: 9b8a 46be 2ecb cbbd 2f8e eabd 3f07 0e3d
00000050: 9c2f b93d a890 1abe 414c 1b3e a7d0 303e
00000060: 6544 9bbe fd01 1dbe 8266 903c 7b55 afbe
00000070: 7d20 bbbe 4fc2 eebe c214 aebd af3b d2bd
00000080: 9ce3 233e 9a20 c6bd e35e b1bd dc5a 6a3e
00000090: 086c 9fbd 2710 003e c380 fd3d 9e8a 71be
000000a0: cd12 88be c589 33be b1ac 51be 42a0 b93c
000000b0: 2b29 5b3e 0d44 87be 3fae b03d 1df7 a0bd
000000c0: 9fbc 99be a7dd 083e 5f88 b1be b289 6d3c
000000d0: 56f0 3e3e 05b2 ce3e 7c2b ac3c 3c74 4dbd
000000e0: 47ae 303e 4635 e4bd cf45 0a3e 1ece 0ebd
000000f0: 8c37 9d3d 7472 f0bd fdab cfbd d4a6 a9be
00000100: 2ff0 dcbd 5a19 b4bd 5740 033e f251 98bd
00000110: 43c4 ccbd adc3 82bd c63a 38be 7400 6a3e
00000120: b217 d43e 5755 f6bd 793a bb3d 9cd3 85be
00000130: 8c0a bcbe a414 dbbe d40b 4b3e 4686 4b3e
00000140: 2fc6 fe3d 796e 583b 541f 2f3e 193d f93d
00000150: 36b7 613d dea8 e5bd c3a6 943e 8d3f 2d3e
00000160: b120 ebbe 9909 eebe f906 6dbd e6f7 79bd
00000170: 07d5 e3bc e5d5 ca3d 4096 32bd 89ef e53d
00000180: 22fd c2be 5fea a23e 770e 96be 4343 d03e
00000190: 6bfa 053e eced b43e 4567 ddbc 2c60 183d
000001a0: 0719 47be 963b b8bd cca3 303e 7267 423e
000001b0: 26bc 95be 5468 983d b72b 6e3e ad76 243e
000001c0: b18c a7be 4e25 aabe c3c2 c5bd 4d08 48be
000001d0: 41cb 2c3e 765e 2cbe 0f7a bf3d b0a6 9b3d
000001e0: 72a6 1fbe c790 ec3d 0037 74bd 3c42 713e
000001f0: c7ee d53c 0a65 443e 3145 02be c941 353d
00000200: 081f 55bd 962e 9dbd e456 233d 9955 003c
00000210: 2279 cc3e 7dc8 06be 2995 7ebe e936 6c3c
00000220: b387 893e c1fd af3e ea8a d93d c66a 2f3e
00000230: 3e8e 3f3c 7877 333e 2e96 663e 63ec 6dbe
00000240: e7e9 acbe 97b7 3c3d 8ee5 7d3d 426f 303d
00000250: e1cc ae3e f072 b23d f2ed c1bd 702f 7bbe
00000260: c8d2 403b 4c57 fc3d 57ed c3bc 951b 85be
00000270: 2e9b b23e b342 cc3c bd77 0b3e 4d17 093c
00000280: 4277 8ebe 4343 dabe 9530 063e fd2d 773d
00000290: 3429 8d3c 57fe 83bd 3a64 593d f093 8bbd
000002a0: f45a 21be 8a72 30be 66d5 a43e 2ce8 3fbe
000002b0: 7988 7c3e d6a7 e7be 8fab 8d3d 53c6 e2bd
000002c0: ef52 803d 4027 8e3d 6d6d 8fbb db24 42be
000002d0: 5a8b 76be 6458 3ebe 2638 e6bd 5204 f2bd
000002e0: 0cf8 5a3e 5709 863e c72f 6d3e a20e 6f3d
000002f0: fefc 22be fe3c 05be bf51 5b3c 2508 123e
00000300: 1d8d da3e 5746 813e 52b0 82bd 38f0 863e
00000310: 1fa2 ed3e 81e0 1fbe b6de 163e b6a7 f3bc
00000320: 998f 44bd 08a1 2f3d 8e98 6c3e 1034 93be
00000330: 9829 273e 5a7d 07be f8bb 2b3e b0d8 0b3c
00000340: bcd1 f1bd 859b 27bc 188a 3e3c 131a 60bd
00000350: a559 8ebd de5f d9bd bc69 0d3e 78e3 923d
00000360: 54df cd3d a037 873e b203 65bc 7565 c43e
00000370: 5c1e c03e 6f56 903e b944 ed3d 2845 30bb
00000380: aadd 363e 66d0 9bbd 6180 403e 7417 4a3d
00000390: eb06 97be 95ea 98be 6c55 d4bd 0c6e d6bd
000003a0: 27a4 b73e 26a4 b43e 69d7 41be e3fb 993c
000003b0: 4866 6a3e 23fc 50be 40b0 253e 5364 f73d
000003c0: 3a6c e7bd a247 85be 0b30 78be 8bc2 10be
000003d0: fd8c afbd 5f6f 5f3e a0c2 483e 9cfb 7b3e
000003e0: 28ed 39be f767 5e3d 0cfb ce3d 671d e73d
000003f0: afad a9be 0095 c7be 822e 28be 778c 42be
-0.22765298 -0.25811338 -0.096957505 -0.06905673 0.39106277 0.47750542 -0.14110507 0.043867506
-0.026113117 -0.10595157 0.13829003 0.022449413 0.15797377 -0.12943046 -0.20861894 0.1455919
-0.19388811 -0.09950863 -0.114529006 0.03467488 0.09042284 -0.15094244 0.15165807 0.17267095
-0.30325618 -0.1533279 0.017627005 -0.34244904 -0.36548224 -0.4663262 -0.08500053 -0.1026529
0.16004795 -0.09674187 -0.08660676 0.22886223 -0.07784277 0.12506162 0.12378075 -0.23588035
-0.26576844 -0.17533024 -0.20476033 0.022659425 0.21402423 -0.26419106 0.08626985 -0.07859633
-0.3002672 0.13365804 -0.34674355 0.014498161 0.18646368 0.40370193 0.021016829 -0.050159678
0.17253982 -0.111429736 0.13503192 -0.034864537 0.0767661 -0.1174058 -0.10140226 -0.33135092
-0.10787999 -0.08793898 0.12817512 -0.07437505 -0.099983715 -0.063849784 -0.1799117 0.22851735
0.41424328 -0.12027996 0.09142012 -0.26138008 -0.36726797 -0.42789185 0.19828731 0.1987544
0.12440144 0.0033024831 0.17101794 0.121698566 0.055106364 -0.112138495 0.2903348 0.16918774
-0.4592338 -0.46491697 -0.057867978 -0.06102743 -0.02781154 0.099040784 -0.04360032 0.11227328
-0.3808375 0.31819436 -0.2930791 0.40676317 0.13083808 0.3533777 -0.027026782 0.03720109
-0.19443141 -0.0899574 0.17249984 0.18984774 -0.29245108 0.07441774 0.23258863 0.16060896
-0.32724527 -0.33231586 -0.096562885 -0.19534416 0.1687441 -0.16832909 0.09349453 0.076001525
-0.15590838 0.115510516 -0.059622765 0.23560423 0.026114834 0.19179168 -0.12721707 0.04425219
-0.052031547 -0.07674901 0.039877787 0.007832908 0.39936167 -0.13162418 -0.24861588 0.0144173885
0.26861343 0.34373286 0.10622199 0.17130575 0.011691628 0.17526042 0.22518227 -0.23234706
-0.33772203 0.046073522 0.0619865 0.043074854 0.34140685 0.08713329 -0.094692126 -0.24529815
0.002942251 0.12321338 -0.023916883 -0.25997606 0.34884018 0.024934148 0.13619895 0.008367372
-0.27825361 -0.42629442 0.1310447 0.060346592 0.017231561 -0.06444996 0.0530741 -0.06815326
-0.15757352 -0.17231193 0.3219406 -0.1874091 0.24661435 -0.45245236 0.06917488 -0.110729836
0.06265818 0.0694108 -0.0043770582 -0.18959372 -0.24076596 -0.18588406 -0.11241178 -0.1181723
0.21383685 0.26179 0.23162757 0.058363564 -0.15916821 -0.13011548 0.013386189 0.1426092
0.42685786 0.25248978 -0.06381287 0.26355147 0.4641275 -0.15612985 0.14733395 -0.029743057
-0.047988508 0.04287818 0.2310507 -0.28750658 0.1632446 -0.13231412 0.16770923 0.008535549
-0.11807582 -0.01022995 0.011629604 -0.054712366 -0.06950692 -0.10613988 0.13809866 0.071722925
0.10052362 0.26409626 -0.013977932 0.38358656 0.37523162 0.28190944 0.115853734 -0.002689669
0.17857996 -0.07608108 0.18798973 0.049338773 -0.29497465 -0.29866472 -0.103678554 -0.104702085
0.35867426 0.35281485 -0.18929829 0.018796867 0.2289058 -0.20408683 0.16180515 0.12079682
-0.112999395 -0.26031214 -0.24237077 -0.14136712 -0.08571813 0.21819828 0.19605494 0.246077
-0.18156874 0.054298367 0.10106477 0.11284905 -0.33140323 -0.38980865 -0.16423991 -0.18998896

layers.0.bias f4 [128]
00000000: ab23 e4bb 22c9 143c 34b4 9b3d a8b2 1bbe
00000010: 23bf 38be 1fa5 13bd 4e7e 44be 014f 573d
00000020: 74c1 07be b842 d2bc bb61 053b 5d76 d5bd
00000030: dcb7 563d fe1a e9bc 07a5 98bd 5e26 9f3d
00000040: b89e 10bd 708c afbd bead e5bd 41d5 dfbd
00000050: 726d 123e e9ba 2a3d 3826 3f3d a3a0 60be
00000060: d260 13bd ff5a 553d 2292 b83d ab56 1cbe
00000070: 4f76 1f3e 2109 463e 1623 3abe 4869 fe3c
00000080: 42ea df3d 5d51 7a3d 5f1d ebbd 8ccb 363e
00000090: 110b 04be 898d 853b 8412 503d a310 7d3c
000000a0: 4da2 f1bd 8f77 d03d c445 993d a492 2b3d
000000b0: 6ea9 813e 4242 1dbe 570b 81bd 63e4 4f3c
000000c0: 034c 62bd 490b b93d bde3 1e3d e2a9 6e3d
000000d0: f864 e8bd 5a50 0abe a1e7 a4bd f0b1 08be
000000e0: 52a9 a4bd 8f17 693d 5ff6 04be 2e05 b9bd
000000f0: 1477 583e 4f65 93bd 090d b23d 20e0 623d
00000100: 30c3 13be 64f0 25be d46c 3fbe d0c0 95bd
00000110: 96a5 8ebd c5a6 ab3d 19ab d5bd 6302 413d
00000120: fe33 bdba 5752 e13d ba33 023c 49c2 f0ba
00000130: aaf8 8e3d 3c6b d63c ae8d 8a3d 4be7 e9bd
00000140: d09a 27be d2e3 813d 82b4 a9bd e0d4 d93d
00000150: f950 a93d 1343 51bc 2187 aebd 21fa d8bc
00000160: 435a f7bd b3b7 adbb 305f c1bd 1412 39bc
00000170: e894 f73d 5a93 483e 6bef bcbd b6a8 36be
00000180: e592 943d 281d b53c c454 e73d 07c0 473e
00000190: da2f fc3c c34d c33d cee4 5b3d c90e 46be
000001a0: 9c3d 283e 771f 9c3d 2c67 4fbe 8792 af3c
000001b0: b736 a73c e40d 86bd cc23 153e aa1c 3d3d
000001c0: 513d 28be f48a 48be 20b9 5c3e 29cb 49be
000001d0: eec5 053e 8194 273d 0f29 f43c bbc5 883d
000001e0: 12f6 44be 1e3e 2ebd 7f14 45be d704 46be
000001f0: e5e2 35be 5d9f 89bd ce31 a3bc 7104 07be
-0.0069622598 0.009081157 0.076027304 -0.1520487 -0.18041663 -0.036046144 -0.19188806 0.05256558
-0.1325739 -0.02566658 0.0020352441 -0.10422967 0.052421436 -0.028455254 -0.074533515 0.0777099
-0.035307616 -0.08571708 -0.11214779 -0.10929347 0.14299563 0.041682158 0.046667308 -0.21936278
-0.035981007 0.052088734 0.090122476 -0.15267436 0.15572475 0.1933942 -0.18177447 0.031056061
0.10933353 0.06111275 -0.114802115 0.17851084 -0.12894846 0.00407571 0.050798908 0.015445861
-0.117985345 0.10179054 0.0748401 0.041887894 0.25324577 -0.15357307 -0.06300991 0.012688729
-0.05524827 0.090353556 0.038791407 0.05826748 -0.11347383 -0.13507214 -0.08051992 -0.13349128
-0.08040108 0.056907233 -0.12984608 -0.09034191 0.21139175 -0.071970575 0.086938925 0.055389524
-0.14429927 -0.16204983 -0.18693858 -0.07312167 -0.06965177 0.08381418 -0.10433025 0.047121417
-0.001443505 0.11002033 0.007946903 -0.0018368448 0.06981023 0.02617418 0.067653045 -0.11421069
-0.1636765 0.063422814 -0.08286382 0.10636306 0.082673974 -0.012772339 -0.085218675 -0.026486458
-0.12077763 -0.0053014397 -0.09441984 -0.011295814 0.120889485 0.1958746 -0.09225353 -0.17837796
0.072545804 0.02210863 0.11295465 0.19506846 0.030784536 0.09536316 0.053685002 -0.19341578
0.16429752 0.07623189 -0.202542 0.021432174 0.020411832 -0.06545618 0.14564437 0.046169914
-0.1642964 -0.19584256 0.21554995 -0.19706406 0.13063785 0.04091311 0.029804735 0.06678339
-0.19234493 -0.04253971 -0.192461 -0.19337784 -0.17762335 -0.06719849 -0.01992121 -0.13185288

layers.1.weight f4 [128, 128]
00000000: 191b 6bbc 9b0e 383d cfa2 71bc b9d0 34bd
00000010: ce30 b1bc a2cf 8a3b 5367 753c 3049 043d
00000020: 91e5 26bd 2146 0ebc e000 15bc 0102 e73c
00000030: 933d acbc 0150 c53c deeb 8a3c 0839 e4bc
00000040: f42e 133d f419 ea3b 93ac b43c 718d 0d3c
00000050: 30ad dbbc 809e 843c 2627 8abd a596 06bd
00000060: 5713 443c 561c 8d3c 4e03 04bd 0a7f 2abd
00000070: fbe8 833c 8013 30bd c2f3 1d3c eef5 f93c
00000080: db99 bbbb fb63 0f3c 37b3 813d 8bec 583c
00000090: 87cb 243c 55f8 0d3b afc9 1e3c 2967 333b
000000a0: 7fd9 383c 13e3 8b3b c4ae adbb cf62 38bd
000000b0: f676 0b3d 1613 a5bc 936f d83c f32b 0ebd
000000c0: b92c 0cbd 4be1 4d3c 6166 3abc 63de 5d3c
000000d0: bd17 d03b e151 073d cfe5 39bc 2be7 67bc
000000e0: 2357 8b3c 26dd 063d 4092 d8bb 1b68 833c
000000f0: 2160 e83c d4ce 203d 48c7 573c 26af 533c
00000100: 2c30 8ebc dc97 1b3d d542 38bc ef19 d73b
00000110: 7473 dfbc 443d 233d d1b4 d13c 1d59 bf3a
00000120: 32a8 8a3c 51ca ce3c 2676 823c 69f2 083d
00000130: d541 b83c b076 22bc 0d00 153d 224d b73c
00000140: cb7c 9c3c 0ca1 75bc 5929 003d 3bc1 6d3d
00000150: ab79 59bb af83 5bbd df03 243d 5f04 753c
00000160: 6fbe 33bb 2782 c93b 5f50 53bb 60aa 883c
00000170: fa3b a03d bed8 95bc 3c17 f6bb 920e 20bd
00000180: 856d cb3c 1db8 153c 7456 1bbd 1feb 813d
00000190: 96ca b7bc 7938 c1bc 7a5b c03a 31e7 e83c
000001a0: 3301 c13c e97c a13b 7035 f73c 651c bebd
000001b0: b6eb 0c3b 4028 90bc 972c b6bb 0d4b 3d3d
000001c0: a3aa 183d 8032 94bb d35d 783d dc34 ceba
000001d0: 38ba 35bc 89cf 65bd 6148 60bc 422a 3bbd
000001e0: f5c3 d6bb cdcc 643c d5ed 0c3c b33a 6dbb
000001f0: bac1 9ebc 051f e83c f25f 0a3d 9cbc 113c
00000200: eb9c 07be 3c73 013d 5f96 2d3c dffd 0ebd
00000210: ed63 6ebd 0c49 0a3c ed96 87bd ab62 973d
00000220: 2a15 803d ee83 973d 651f e33b 3cac e1bd
00000230: d6ca 713c c633 bebc 3719 e9bd 0c25 eabd
00000240: d79b 5cbd e353 00bc b482 0cbd 9b48 96bd
00000250: 6c0d aebd e631 5bbd ddc7 a3bd a9ef ffbc
00000260: 364f a43d 7cfc fe3d 7b53 4fbd 121d 09be
00000270: 935d 883d d07b 4c3d a882 c93d 81e2 c23d
00000280: 3eca 373b df9d 0fbc bc99 c7bd 15e9 eebc
00000290: 26d8 bbbc 65f6 e0bd a116 b63d cac1 acbb
000002a0: 5ecc 93bc 7405 08be 41cc 303c 249f febd
000002b0: 3645 c63d c6f8 64bd 2b98 c6bc 2911 ad3c
000002c0: 2678 16be b372 9d3c 313c 763c d456 dabd
000002d0: d0ae dabd 75e2 2a3c 620c e5bc 2b44 843c
000002e0: edc0 9abd 150a 743d d6e9 7bbd 8d93 73bd
000002f0: 6d03 8b3d 28c4 8cbd 5958 2e3b a752 563d
00000300: 05dd 93bd 7f05 17be dd28 c3bd 93ef 5b3d
00000310: f4df f4bd c764 c73b c0c2 1bbc 58eb 0e3c
00000320: f67e 24bd 8fef da3d c827 d43c d05b a73d
00000330: f620 82bd 30c0 1ebd 3307 e53d a93f 07bd
00000340: bd54 fbbc 1012 04bd a35c ac3d 02aa 2a3e
00000350: f999 123d a9ca bfbd aa9c 8a3d 42f8 ee3d
00000360: 2b8d b7bd ff00 f93c 1a76 9dbb 65a9 85bd
00000370: 63be 8dbd 3b35 fbbc 0815 2cbd 56ed 55bb
00000380: c3a9 b23b 8dcf 083d 0fe4 c9bc 7515 293d
00000390: 0f31 b73a 237d 09bd 99fb 4cbb a297 08be
000003a0: eae5 443d 1294 213e a7c4 efbd 47e0 4ebd
000003b0: 555d 59bd ef8a 773b 043f ee3d 6490 44bd
000003c0: b977 8ebd 1f91 4fbc 16f9 353e 9449 173d
000003d0: 3f4c 763d 70f0 063d f718 03bd d491 0d3d
000003e0: 0a6f 133c 79e1 dabd 300b 3abd a7aa ab3d
000003f0: 49c4 19bd 3d53 91bd 532c 8f3d 909e 873d
-0.014349722 0.044935804 -0.014748289 -0.044144366 -0.021629717 0.0042361775 0.014978248 0.03229636
-0.040746275 -0.008683712 -0.009094447 0.028199198 -0.021025455 0.024086 0.016958173 -0.027859226
0.03593345 0.007144207 0.022054946 0.008639679 -0.02681598 0.01618886 -0.06745748 -0.03285851
0.011967502 0.017225426 -0.032229714 -0.04162506 0.016102305 -0.042987347 0.009640636 0.030512776
-0.005725128 0.008751865 0.06333011 0.01323999 0.01005829 0.002166291 0.00969164 0.002737472
0.011282324 0.0042690127 -0.0053003747 -0.045016106 0.034048997 -0.020150702 0.02642039 -0.034709882
-0.03422234 0.012565921 -0.011376948 0.013541791 0.006350486 0.03303707 -0.011346295 -0.014154236
0.017009323 0.032925747 -0.0066092312 0.016040852 0.02836615 0.039259747 0.013170071 0.012920177
-0.017356955 0.03798662 -0.011246403 0.006564371 -0.027276732 0.03985335 0.025598915 0.0014598701
0.016925905 0.025242956 0.015925478 0.033434305 0.022492329 -0.009915993 0.036377 0.022375647
0.019102475 -0.01499201 0.031289432 0.058045607 -0.0033184092 -0.05359238 0.040042754 0.014954655
-0.002742674 0.0061495486 -0.003224395 0.016682804 0.078239396 -0.018291827 -0.007510094 -0.039076395
0.024832496 0.009138134 -0.037924245 0.06343674 -0.022435468 -0.023586499 0.00146757 0.028430553
0.023560142 0.0049282205 0.030176848 -0.092827596 0.00215028 -0.017597318 -0.0055595147 0.046214152
0.037272107 -0.0045226216 0.060636353 -0.0015732306 -0.011091761 -0.056106124 -0.0136891315 -0.045694597
-0.0065541216 0.013964844 0.008601625 -0.0036198318 -0.019379485 0.028335104 0.033782907 0.008895066
-0.13243453 0.031604037 0.010594933 -0.03491008 -0.058200765 0.008440267 -0.06620584 0.07391866
0.06254037 0.073982105 0.0069312328 -0.11019179 0.0147578325 -0.023218047 -0.113817625 -0.114328474
-0.053859558 -0.0078325 -0.034304336 -0.07338067 -0.08498654 -0.053514384 -0.07997105 -0.031242209
0.08022921 0.12450501 -0.050616723 -0.13389996 0.06658473 0.049922764 0.09839374 0.095158584
0.002804413 -0.008765667 -0.097461194 -0.029163877 -0.022930216 -0.10984496 0.08891035 -0.005272125
-0.018041786 -0.1328333 0.010790885 -0.124326974 0.0968117 -0.05590131 -0.024242481 0.021126347
-0.1469427 0.019219732 0.015028999 -0.106610924 -0.10677874 0.010429968 -0.027960006 0.016145786
-0.07556329 0.059579927 -0.0615023 -0.059466887 0.06787763 -0.06873351 0.0026602952 0.052324917
-0.072198905 -0.1474819 -0.095292784 0.053695273 -0.11956778 0.0060850116 -0.009506881 0.0087231025
-0.040160142 0.106902234 0.025897875 0.08171809 -0.06353943 -0.038757503 0.11183014 -0.033019695
-0.030680055 -0.03224379 0.084161066 0.16666415 0.03579137 -0.09364826 0.067681625 0.11668445
-0.089624725 0.030395983 -0.0048053386 -0.0652645 -0.06921079 -0.03066503 -0.042012244 -0.0032642684
0.005452366 0.03340106 -0.02464488 0.04128023 0.0013976413 -0.033566605 -0.0031277894 -0.13339093
0.048070826 0.1577914 -0.1170743 -0.050506856 -0.053067524 0.003777202 0.11633113 -0.047989264
-0.06956429 -0.012668877 0.177708 0.036935404 0.060131308 0.032944143 -0.03200623 0.0345629
0.008998642 -0.10687537 -0.045420825 0.08382159 -0.037540708 -0.070959546 0.06990876 0.0662204

layers.1.bias f4 [128]
00000000: 28f4 b3bc f3fe cdbc 3eb4 cdbc 5b5a 31be
00000010: d622 36bd 2b21 adbd fc8d b3bd f206 ebbd
00000020: 2ee7 47bd ae77 40ba c041 ffbc f320 51bd
00000030: 6559 513d 1ddf b2bd 94e7 60bc 6989 f5b9
00000040: b91f b7bd 1d98 1bbd 6f96 ccbd ed13 cabc
00000050: 1968 c0bd 4c54 8abd 18cb b8bd 1ddb 4a3d
00000060: 67d4 fcbd eb9d d2bb 0581 10bd 82e7 883d
00000070: 9f67 5dbd 996b 05be 2338 1bbc 1747 a8bd
00000080: 9827 45bd 701c e0bd 8492 75bc 5ec7 8bbd
00000090: f56a 02be 016d 49bc c5ad 03be f53a c6bc
000000a0: 2107 bcbb 1558 a83c 2430 233d a130 74bd
000000b0: 0669 87bd ad89 26be 5a63 1abe 07e6 72bd
000000c0: a70b e7bc 0c97 423c 4127 c2bd 78c7 203c
000000d0: 2715 5fbd 8878 e4bd d2ed fb3a 8015 5e3c
000000e0: 0dc8 dcbd 6b1b acbd 4f2b 18bd e21e fcbc
000000f0: e907 71bd a615 4ebd ae03 08be 3bae 28bc
00000100: 97b7 393d 7df8 50bd ecf0 0b3d 1be3 3d3c
00000110: 04d9 3fbc 42e0 aabd 8994 55bc 180f a43b
00000120: d1a2 0abe 5238 68bd 25d0 4cbc 199b 30be
00000130: c6aa 9a3d 20ae 483d 288a 51bb d76b 17bd
00000140: 8ab8 78bd 098f 8ebd 5773 9a3b 51bc 8ebc
00000150: 0fdc 41bc 71c6 eebd 9d6b adbc 5dc8 a33c
00000160: 3816 44bc a306 98bd 8524 ecbd bf62 cbbd
00000170: a6fd c83c 346f 5dbc f76e 3e3d 54f8 1bbe
00000180: 04d0 8dbc b3e2 a9bd 41ec 13bd 838d 12bd
00000190: df85 dcbd 84a5 fdbd 92f9 48bd b10f cc3c
000001a0: faaa c2bd a0c9 eb3b 2a1d c0bc a328 57ba
000001b0: 5b66 d0bd a528 a6bd 18a8 5cbd 7724 0bbd
000001c0: 709a 9bbd 0161 4abd 319b 06bd 2065 7cbd
000001d0: 7061 513c cc6b b23c c131 883b a619 02bd
000001e0: 1f5b 87bc b4cc 99a3 1a4e 8e3d 96c8 83bd
000001f0: c975 2dbd bfb9 ebbd de9d f9bd e702 9dba
-0.021967009 -0.025145983 -0.02511036 -0.17319624 -0.044466816 -0.08453592 -0.08767316 -0.11475934
-0.048804455 -0.00073420524 -0.031159282 -0.051056813 0.051110644 -0.08733962 -0.0137270875 -0.0004683242
-0.089415975 -0.037986863 -0.099896304 -0.024667704 -0.09394855 -0.067543596 -0.09023112 0.04952537
-0.123452 -0.0064275167 -0.035279293 0.066847816 -0.0540539 -0.13029326 -0.009473833 -0.08216684
-0.048133463 -0.10942924 -0.014988545 -0.06825136 -0.12736113 -0.012294055 -0.12859257 -0.024198035
-0.0057381545 0.020549813 0.039840832 -0.05961669 -0.066118285 -0.16263457 -0.15076962 -0.059301402
-0.028203798 0.011876833 -0.09480143 0.009813182 -0.05446353 -0.11155802 0.0019220656 0.013554931
-0.10780344 -0.08403667 -0.037150677 -0.030776445 -0.058845434 -0.050313614 -0.13282654 -0.010295446
0.0453411 -0.051018227 0.034165308 0.011589791 -0.011709455 -0.08343555 -0.013035902 0.005006682
-0.13538672 -0.056694336 -0.012500797 -0.17246665 0.07552104 0.048994184 -0.0031973217 -0.03696808
-0.060722865 -0.069608755 0.0047134566 -0.01742378 -0.011832251 -0.116589434 -0.021169478 0.019993002
-0.011968188 -0.07423141 -0.11530403 -0.09930944 0.024535012 -0.013515282 0.046492543 -0.15231448
-0.017311104 -0.082951926 -0.03611398 -0.035779487 -0.107677214 -0.12385085 -0.049066134 0.024909826
-0.095052674 0.0071956664 -0.023451407 -0.00082076545 -0.10175773 -0.08113221 -0.053871244 -0.033970322
-0.07597816 -0.049408916 -0.032862846 -0.061619878 0.012779579 0.021779917 0.0041563218 -0.03176274
-0.016522942 -1.6674988e-17 0.069484904 -0.06434743 -0.042348657 -0.11510038 -0.12188314 -0.0011979014

layers.3.weight f4 [128, 128]
00000000: 1f35 933d 01d3 d6bd 595e 263d 84dc 083e
00000010: b810 f3bd 1e7b cb3e edcb 3bbe aaa1 143e
00000020: 9f7e 12be a447 9fb5 5464 6abd e7e7 033e
00000030: b94a f4bd 1b57 2c3e 84f8 5abd 9f4a 12b8
00000040: e5fd 213e 3800 743d 5dc3 973d 7518 babd
00000050: 5d51 383e 188c a5bc 3520 143e ae20 95bd
00000060: 4795 e73d b1bd 3e3e 9496 3abe c071 23bc
00000070: 8303 fc3c 6676 273e 1f3f 85bd 02d4 bd3d
00000080: e8ec 853d d155 d13d 2eca a83d 7385 debd
00000090: 0925 903e d441 f0ba d376 2a3d 52a0 623c
000000a0: cac9 b1bc b721 e5bd d401 593e 56e5 db3c
000000b0: 28c3 823d 0f1a 803e b296 323e 6206 343e
000000c0: 1bb6 533e 26d8 48be bf11 ec3d f770 afbd
000000d0: cc5e 053e 7375 763e c7af 4c3e 32e2 39bb
000000e0: dc29 663e 5743 96bc 8403 e43d f5cd 43be
000000f0: 4762 67be a2ab 5b3c 4508 333e 6a38 17be
00000100: 5491 26bd 4f96 02be b9b1 20bd f16b a6bd
00000110: b5b1 853e 05ff 203e 1626 4b3e d742 cf3b
00000120: c248 753e 7553 ff3d 0dff 3dbb 3176 113e
00000130: f6a7 95bd 1dcc 51be 8c3b 17be a75b 1e3e
00000140: 9763 a9bd 52ff f83c 9e1f de3d bcdc fe3d
00000150: a83a 3abc 9c25 19be 24a5 783e c230 2e3e
00000160: 3ecb 37bc 9151 c9bd c6bf d63d cdd0 753e
00000170: eb87 91bb d41f 0abb 7f48 f93b d5cf cf3e
00000180: edc9 243b 899b 8ebe bcf9 cabd 3a45 44bd
00000190: e4e0 27be 7d8d 363d e244 9fbe 3d85 4dbe
000001a0: b095 efbd 5ce1 88bc 881d de3d 6746 50be
000001b0: 45c9 2c3e e78b a5be 10ab 333d b1e8 eb3c
000001c0: 0e78 123e 8493 d83d c2ff 293c cfa6 913d
000001d0: ba4f 3b3d 741d d1bc 6534 923d 85f3 5c3e
000001e0: ed5b 2e3c 1051 0400 7787 a3bb 4b6e f63d
000001f0: 95dc 39be 64ff e83d 7d1d 4abe 0e25 c63c
00000200: 0b36 9fbb ead0 5abc f6db 7f39 58b6 d23b
00000210: 8e06 bbbb 3e48 283c 3e0e f4ba 9eb8 a13b
00000220: fa0b 54bc 84a7 0080 36cf e2ba 1c8b b43b
00000230: cab7 373a 9777 a237 b7c8 85bb 992e 0080
00000240: b028 573b 9ea4 f1bb 08e7 4bbc 4f70 633a
00000250: 98ac 28ba 8c44 2abc 9fe5 043c 24c0 8ebb
00000260: bbe2 e3ba fc09 31bb 72f4 0bbb 9aa2 c83b
00000270: 983c 11ba 8957 903a 58d5 adba c5e0 033b
00000280: 9880 22bc 66e3 503b 7802 7aba 9b56 e1bb
00000290: baa9 9c3b 430d c139 eb5f 6b3b 66b8 413b
000002a0: bef3 4d39 eec5 773c 633e 4d3b e231 1dbb
000002b0: 3eb8 d6bb a446 4237 d0a9 8bb9 017a e5ba
000002c0: 279d 573b c125 093a 90dc bcba 6d6a c93a
000002d0: 5062 a83a 4791 2eba 65ff 943c 9401 623b
000002e0: 7b45 5c3c f1b8 8abb 99db 023b 89f7 1fbc
000002f0: 536b 36bc 42c0 64b7 5aa9 be3a c22f 81b9
00000300: 3433 a83c b4fb 2abc 1873 f43a 6386 293b
00000310: 59c2 7e3c 1561 0a3b 5475 76bb b2a3 a039
00000320: bd64 903a 428d 0339 3743 1b38 7a2a 4d3b
00000330: d20b 8f3c 3bdc 48bb 3519 17bb cf9c 3bbb
00000340: 46f7 0fbc ebaf 2337 8479 363b 24a8 e4bb
00000350: e21b 4abb 8c99 5ebb d893 dc3b 40eb 6ebb
00000360: 4160 ab35 7a8d 56bb 7027 2b3b f6ab c83b
00000370: a1ee 51bc 8636 81b9 825d 323c 22f4 223b
00000380: 56b8 9939 7773 1bbc 7c4a 09bc 02a4 abba
00000390: 5b55 d4bb abed 07bb b12a a4bb 3791 89bc
000003a0: a1b4 b3ba a487 a03a 5e56 2cbb 90e7 24bc
000003b0: 8e6a 48bc f95a 96bc 86be 633a 0d6d 96bb
000003c0: b80a afba ae9d c43b 22ef a03a a7e9 d9b9
000003d0: b09e d7b8 d030 25bc ca8e 9dbc 91ac c83b
000003e0: c5d7 8abb 8efc 0000 22d4 8f39 4502 3e3b
000003f0: fba0 0cbb d05c 1cba 21e2 ecba 41f7 083c
0.071878664 -0.104894646 0.04061732 0.1336537 -0.11868423 0.39742368 -0.1833951 0.14514795
-0.14306115 -1.1867273e-06 -0.057224587 0.12881432 -0.11928315 0.16830103 -0.05345966 -3.487861e-05
0.1581951 0.05957052 0.074103095 -0.09086696 0.17999788 -0.020208403 0.14465411 -0.07281624
0.11307769 0.18627049 -0.18221503 -0.009975851 0.030763393 0.16353759 -0.0650618 0.09268953
0.06539327 0.10221446 0.08241688 -0.10865297 0.28153256 -0.0018330165 0.041617226 0.013832169
-0.021702666 -0.11188071 0.21192104 0.026842754 0.06384879 0.2501988 0.17440298 0.1758056
0.20674936 -0.19613704 0.11526822 -0.08566468 0.13024443 0.24068241 0.19988929 -0.0028363583
0.22476906 -0.018342657 0.11133483 -0.19121535 -0.22596084 0.01340762 0.17483623 -0.14767614
-0.04066594 -0.1275265 -0.03923199 -0.08126057 0.26112142 0.15722282 0.19838747 0.0063251066
0.23953536 0.1246709 -0.0028991133 0.14205243 -0.07307427 -0.2048802 -0.14768809 0.1546465
-0.082709484 0.030395184 0.10845874 0.124444455 -0.011366524 -0.14955753 0.24281746 0.17010787
-0.01121789 -0.09830011 0.10485797 0.24005432 -0.0044412515 -0.00210761 0.007607519 0.4058825
0.0025144771 -0.2785304 -0.09910914 -0.047917582 -0.16394383 0.044568527 -0.3110724 -0.20070358
-0.116984725 -0.016709022 0.108454764 -0.20339356 0.16873653 -0.323333 0.04386431 0.02879748
0.1430361 0.105750114 0.010375919 0.07111894 0.04573033 -0.02552674 0.071389 0.2157727
0.010642034 3.96422e-40 -0.004990514 0.120327555 -0.18150552 0.11376837 -0.19737811 0.02418759
-0.0048587373 -0.013355473 0.00024400637 0.0064304285 -0.0057075685 0.01027113 -0.0018619967 0.004935338
-0.012942309 -6.0093e-41 -0.0017304185 0.005509747 0.00070082827 1.9367593e-05 -0.004082765 -1.6716e-41
0.0032830648 -0.00737436 -0.012445219 0.0008676098 -0.000643441 -0.010392319 0.008111387 -0.004356401
-0.0017386297 -0.0027014008 -0.0021355418 0.0061228992 -0.000554034 0.0011012416 -0.0013262434 0.0020122987
-0.009918354 0.0031873821 -0.0009537111 -0.0068767793 0.004780975 0.0003682171 0.0035915326 0.0029559373
0.00019641125 0.015122874 0.0031317703 -0.0023986031 -0.006552725 1.1579748e-05 -0.00026638666 -0.0017507673
0.0032900067 0.0005231761 -0.0014408994 0.00153668 0.0012846682 -0.0006659221 0.018188188 0.0034485804
0.0134443 -0.0042334725 0.0019967316 -0.009763607 -0.0111339865 -1.36346225e-05 0.001454632 -0.0002464038
0.020532228 -0.010435987 0.0018650023 0.0025867454 0.015549266 0.0021114994 -0.0037606554 0.0003063954
0.001101635 0.00012545756 3.701748e-05 0.0031305836 0.017461691 -0.0030648846 -0.0023055796 -0.00286274
-0.008786982 9.756516e-06 0.0027843425 -0.0069780517 -0.0030839373 -0.0033966033 0.0067314915 -0.0036456138
1.2768506e-06 -0.0032738135 0.0026116036 0.006124015 -0.012813241 -0.0002464542 0.010886552 0.0024864753
0.00029319775 -0.009487978 -0.008379575 -0.0013095143 -0.0064799017 -0.0020741026 -0.005009972 -0.016792877
-0.0013710448 0.0012247455 -0.0026296596 -0.010064974 -0.012232436 -0.018353926 0.0008687753 -0.0045906366
-0.0013354635 0.006000242 0.0012278298 -0.0004156355 -0.00010281557 -0.010082439 -0.019233126 0.006124087
-0.0042371475 9.06e-41 0.00027433137 0.0028993052 -0.0021458257 -0.0005964758 -0.0018072763 0.008359731

layers.3.bias f4 [128]
00000000: 7a4a 593d 6e8c e8bb 6d2d 9f3d 7ad2 4bb4
00000010: 5258 4dbb 0260 e1b9 1086 76b6 c2ea d9bb
00000020: be30 dcbb 2732 eb3c 19e4 ce3d dbfe f53b
00000030: dfa8 063d d833 723d 4a54 c63d 1d62 f33c
00000040: b567 9ca2 1edf 2fbc 3a8c 1f3d 7984 3f3c
00000050: cd0b ee3d fe13 a6bc 439c 19bc ea7b a3b5
00000060: c5d9 ae3d 09af a93d 19a3 83b8 d8bc 9f3d
00000070: 6dc9 e73c d207 ec3d 89e0 e337 c1da b73c
00000080: fcbc d2bc c9b8 8c3c 5dc7 333d b551 e83b
00000090: fe4e 283d 99d9 8f3d 0236 d5ba 57d0 073d
000000a0: 6d96 d43d 61ac 8f3b b9fb 223d a93c 4b3c
000000b0: 944e acba dcc9 613c c2c4 213b 29a3 faba
000000c0: 06bc 363d da72 d1bb 7bd7 e53b af16 953b
000000d0: fa25 263d 594b a08f 5d8c ce3a 51b8 8a3d
000000e0: f76f b03d 7288 a33c cf57 8e3c fedb 013d
000000f0: cbf4 8abb a63a e2af 84ae 863d e78f d33c
00000100: a070 b13b 66d4 6f3d 8ecf a23d 22e5 293c
00000110: 41a3 58bc 1649 babc 2997 a63c 77ec b23b
00000120: 9f8d ffbc 49ed 1dbb 173f c83d 6729 9d3b
00000130: 0344 3ebc 8e25 e33d 0564 1a3c b1bb e23b
00000140: 146c 0437 795a 9abc 9456 2b3d 8f60 b23c
00000150: da6e 33bc c545 473e 407e f33b 662a d73d
00000160: cc53 833c bf20 423b 0ada 7e3c 65b0 033e
00000170: a1bf 253d c104 4fb9 3434 eb3d ffba 183d
00000180: 3abc 583d 0719 e53c 8eb4 0bbb 94ff 823d
00000190: 2aea 133c 12b7 31bd fbe9 183c 143e 53b6
000001a0: 24d1 f53d 024d e23c 4cc0 7fba 7888 143d
000001b0: a692 a3aa 04b9 b23d e4c8 903b b0b9 863d
000001c0: 1965 3f3c ae8c 0a3d 6aee fd3c 022e f93d
000001d0: e64b 883d af45 473d 5557 1fbb 0d08 f43c
000001e0: 6e8c 0fbd e702 2cb5 80c6 7b3d 7f4b ecbc
000001f0: 62a8 c53d 01d7 723d adeb 143c de75 c3bb
0.053049542 -0.0070968186 0.07772336 -1.8982419e-07 -0.003133316 -0.00042986876 -3.6734891e-06 -0.0066502998
-0.0067196777 0.028710438 0.101021 0.007507188 0.03287589 0.059131473 0.096840456 0.02970987
-4.239369e-18 -0.010734348 0.03895209 0.011689299 0.116233446 -0.020273205 -0.009375635 -1.218051e-06
0.0853763 0.082853384 -6.276946e-05 0.07799691 0.02829429 0.11524929 2.7165066e-05 0.022443177
-0.02572488 0.017177956 0.0438913 0.0070898184 0.041090958 0.07023925 -0.0016266706 0.033157673
0.10380254 0.004384563 0.039790843 0.012404599 -0.0013145977 0.013781037 0.0024683927 -0.0019122112
0.044612907 -0.006391865 0.0070142127 0.0045498232 0.04056356 -1.5806241e-29 0.0015758384 0.06773437
0.086151056 0.019962523 0.017375855 0.03170394 -0.0042406074 -4.1150833e-10 0.06576255 0.025825454
0.0054150373 0.05855217 0.07949744 0.010369571 -0.0132225165 -0.022739928 0.02033575 0.0054603177
-0.03119546 -0.0024097732 0.097776584 0.0047961953 -0.011612895 0.11091147 0.009423261 0.006919347
7.892977e-06 -0.018841969 0.041830614 0.021774558 -0.010951722 0.19460209 0.0074308217 0.10506134
0.016031168 0.002962157 0.015554914 0.12860258 0.040465955 -0.0001974283 0.11484566 0.03728771
0.05291388 0.027966036 -0.0021317336 0.06396404 0.009027997 -0.04338748 0.009333129 -3.1477584e-06
0.12002781 0.02762461 -0.00097561325 0.03626296 -2.9056374e-13 0.08726695 0.0044184793 0.06578386
0.011681818 0.03382557 0.030997474 0.121669784 0.066551015 0.04865044 -0.0024313529 0.029788995
-0.035046034 -6.4079217e-07 0.0614686 -0.028844593 0.09651257 0.059287075 0.009089393 -0.0059649786

layers.5.weight f4 [1, 128]
00000000: 192b d63f ac54 3f3d a3d6 cebe adf1 6338
00000010: cbb5 a73f 6df5 a237 9267 303a a1bd 4a3f
00000020: 3655 b33e 4fde c0be 0dd1 e03f 4b6b df3e
00000030: 3864 9f3f 262f e83e f08e aabe 38df dabd
00000040: f6f1 8eb7 c6a2 c93e dfe4 cebe 8d7d 50be
00000050: f8ad c0be b055 253f 0643 4e3e 08ae 523a
00000060: f7c7 fabe 5ad1 83be 10e9 f439 8898 953f
00000070: df69 00bf c532 babe 0199 cf3d 89ee 23be
00000080: fb98 3e3f 0f77 773e 0d07 923f 8729 873e
00000090: a9b4 fcbe 5eb1 ea3f 6c58 3339 821e 20be
000000a0: 0f14 513f 2fa7 b5bd ab0b 833f 8a8f 3dbd
000000b0: 1fee a03e c103 393e 3da3 543e 154d 403f
000000c0: 32ea bc3f e691 083f d60c 083f 6b07 d43e
000000d0: cd80 4bbe 4eb7 bc31 ef7e 6b3f f2b9 7abe
000000e0: e6a9 acbe a1a5 0f3f 9e65 78be 4d21 f0be
000000f0: 3c93 1a3a 5889 a934 1f1b cabe 6acb 663e
00000100: 4d1c 1ebd cf95 9cbe f74e 713f 2552 043f
00000110: 781f 933e 958b 803f 55a0 44be 6549 3c3f
00000120: 10c8 853e a54e a13e d033 9cbe 6f11 163c
00000130: cde4 143f 574a 5b3f daef 673e d61f 0e3f
00000140: 35af 913e 7911 b93e de8e 95be 4be4 763f
00000150: f0b9 c83e 775b 12bf 22f4 de3e becb 02bf
00000160: 093b ba3f 121b 2ebd cf0c 723f 2ee1 3d3f
00000170: f1ce 693f 272f f9ba 746e e3be 85c5 693f
00000180: b66c 86be 4ae5 47be 36c3 ddbb 426c bc3f
00000190: a6e1 92bc 1493 aebe 0079 14bd b47a 76b9
000001a0: 8fc4 eabe 4d77 c6be 30d7 8fbb ecef 2cbe
000001b0: 7836 00ab 143f 853f d854 45be 7a50 c53f
000001c0: 411e 4ebd 6f21 e1be 8274 46be fe07 f6be
000001d0: ab01 f53e b020 e5be bc7e 273d de26 de3d
000001e0: 3d98 e5be d2f7 deb5 7669 e0be aa20 453f
000001f0: a679 4e3f 138b 5f3f 775a e83e 2408 18be
1.6731902 0.04671161 -0.4039813 5.4346096e-05 1.3102354 1.942619e-05 0.00067293004 0.791956
0.35025948 -0.37669608 1.7563797 0.43636546 1.2452459 0.4534847 -0.33312178 -0.10687107
-1.7040391e-05 0.39382 -0.4040899 -0.20360394 -0.37632728 0.64583874 0.20142755 0.0008036797
-0.48980686 -0.2574566 0.00046712952 1.1687174 -0.50161546 -0.3636686 0.10136605 -0.16008963
0.7445218 0.24166511 1.1408402 0.2639887 -0.49356583 1.8335378 0.0001710371 -0.15636638
0.8167123 -0.08869778 1.0237936 -0.046279468 0.31431672 0.18067838 0.20765395 0.7511762
1.4758971 0.53347623 0.53144586 0.4141191 -0.19873352 5.4923595e-09 0.9199056 -0.24484995
-0.33723372 0.56112105 -0.24257514 -0.46900406 0.00058965734 3.1578634e-07 -0.39473817 0.22538534
-0.03860121 -0.30583045 0.94261116 0.5168784 0.28734946 1.0042597 -0.19201787 0.7354949
0.26129198 0.31505314 -0.3050828 0.00915943 0.5816162 0.8566031 0.2265009 0.5551733
0.28453985 0.36146143 -0.29210562 0.964421 0.3920436 -0.57170814 0.43545634 -0.51092136
1.4549266 -0.042506285 0.94550794 0.7417172 0.9133139 -0.0019011245 -0.44420207 0.91317016
-0.26254815 -0.1952106 -0.0067676557 1.4720538 -0.017929863 -0.34096587 -0.036248207 -0.00023506099
-0.45853087 -0.38762894 -0.004389666 -0.16888398 -4.5550326e-13 1.0409875 -0.19270647 1.5415184
-0.05032182 -0.4397082 -0.19380382 -0.48052973 0.47852835 -0.447515 0.040892348 0.10847257
-0.4484271 -1.6612414e-06 -0.4383046 0.77002966 0.8065437 0.87321585 0.4538152 -0.14846855
