model_zoo/BC/MountainCarContinuous-v0/net_3009888.pth (torch, 137418 bytes, 7 tensors)

layers.0.weight f4 [128, 2]
0.5425072 -2.0984282 -0.38502288 2.2890813 0.0036512231 -0.061630137 0.008406189 2.9309776
0.033195086 -2.2255216 0.31873283 1.6676404 -0.08318839 2.4087462 0.38680133 -2.6782544
0.66274583 -2.4891434 -0.19173415 -2.2338812 -0.52779514 -2.1985793 0.52318025 -2.7147892
-0.21182933 0.7468973 -0.2790444 -1.0989887 0.09658881 -2.8543332 -0.37656835 0.42604205
0.4642678 -3.120542 0.21274726 2.6575868 0.3907533 2.2160168 0.49719808 -1.4723434
0.15206622 2.5715406 0.16283569 2.801829 0.45721278 -1.8865268 -0.5137978 2.4719632
0.008509683 -2.4614172 0.19786206 -2.0709925 -0.39517576 2.2463245 -0.121780954 -2.9099889
0.18759303 -1.9323629 -0.1057123 2.8931777 -0.36198106 -1.5200354 0.37394983 1.7601438
-0.043138172 -2.3855858 0.24029282 -3.0841558 0.3501303 1.9925232 0.65912133 -2.7466779
0.14610547 -2.9725173 -0.109117135 2.1721823 -0.066052966 -2.6376991 -0.19883727 -2.0482361
0.6797166 2.2595222 0.4955916 -2.2616932 0.13550873 -2.6132667 0.11249142 -2.3331718
0.35723102 1.744237 0.27591217 2.9014835 -0.0604793 0.60555476 0.19239406 2.6364505
0.24371515 -2.8023083 0.025731497 -1.6653526 0.1186291 -2.8412006 -0.012344045 2.9115183
0.2667256 2.6614676 -0.16220523 0.20733942 -0.14672893 2.524987 0.12940249 0.27251738
0.14225735 2.3100197 0.34263593 -2.8727126 0.256729 -2.5842042 0.40695602 1.387955
-0.52663434 2.018351 -0.58363724 2.0093677 -0.3070699 2.5930035 -0.37774158 2.5505536
0.3423019 2.333156 0.06417148 -2.3236299 -0.12655249 2.3673148 -0.36872157 -2.6735086
-0.1048087 1.5280437 0.4628828 2.9173548 0.06697669 -2.9836898 -0.03883996 2.4206703
0.157075 -2.720166 -0.032494724 0.70456517 0.65517396 -1.8520135 0.513595 -2.8505995
0.3957212 -2.4017036 0.29662436 -2.0557694 -0.020102685 -1.2129635 0.001717131 3.0429153
-0.047057852 -2.612814 0.2876902 -1.9527885 -0.69981647 2.0782146 -0.15702774 -1.2690953
-0.40116537 2.57381 -0.09081495 -2.4754217 0.043481562 2.233697 0.026184848 2.3267922
-0.1187237 -2.2961776 -0.5487019 -2.2405457 0.09337401 -2.3135388 0.39854792 1.9649947
0.60605955 -2.4052982 -0.0569239 2.6541803 0.13970426 -1.0255126 -0.03900238 -2.5767055
0.077287704 2.8282917 0.3416316 -2.9034019 -0.10528378 -2.2930539 0.22208571 -1.6388599
0.06222095 1.821957 0.33336094 -1.7087326 0.25349256 1.7166996 0.1860155 1.9557489
0.53058726 -2.0497901 0.0436908 2.1641307 0.12797704 -1.7179688 0.31031612 -2.6166687
0.37177163 2.8719325 0.20768015 1.9938346 -0.23152508 2.2429123 -0.46878862 -1.203294
0.63863087 -1.3317182 0.19392292 2.3310888 -0.34936416 -2.400233 0.55414325 1.9200181
-0.14470793 -1.5999938 0.5114347 -2.1478522 -0.4311658 2.5379732 -0.7194936 -0.29932058
-0.037171733 -2.971089 0.21425034 2.369333 -0.3383307 -2.095029 0.24334939 2.4557416
-0.18871707 2.8944607 0.06659452 -1.6276778 -0.6087854 0.7023395 -0.25596613 -1.8603734
00000000: c0e1 0a3f a64c 06c0 b821 c5be 4f80 1240
00000010: 5c49 6f3b e26f 7cbd 1dba 093c 2395 3b40
00000020: 92f7 073d f26e 0ec0 f330 a33e 3e75 d53f
00000030: ad5e aabd e628 1a40 d30a c63e 8568 2bc0
00000040: b6a9 293f 204e 1fc0 f555 44be e9f7 0ec0
00000050: 951d 07bf 86b5 0cc0 24ef 053f 1bbf 2dc0
00000060: cae9 58be a934 3f3f e8de 8ebe a9ab 8cbf
00000070: 5bd0 c53d 65ad 36c0 91cd c0be 2f22 da3e
00000080: 82b4 ed3e f6b6 47c0 6bda 593e e715 2a40
00000090: d110 c83e 38d3 0d40 bf90 fe3e c075 bcbf
000000a0: 3fb7 1b3e 1f94 2440 66be 263e 2b51 3340
000000b0: cb17 ea3e b679 f1bf 4188 03bf a534 1e40
000000c0: 336c 0b3c dc87 1dc0 5a9c 4a3e 248b 04c0
000000d0: 7a54 cabe c8c3 0f40 4b68 f9bd 423d 3ac0
000000e0: 6318 403e ab57 f7bf b17f d8bd d329 3940
000000f0: 9555 b9be 8590 c2bf 5a76 bf3e 644c e13f
00000100: a7b1 30bd 70ad 18c0 520f 763e cf62 45c0
00000110: 4744 b33e 000b ff3f 2dbc 283f 92c9 2fc0
00000120: ac9c 153e b93d 3ec0 ce78 dfbd 0905 0b40
00000130: c746 87bd 10d0 28c0 ff9b 4bbe 4d16 03c0
00000140: e801 2e3f 039c 1040 2fbe fd3e 95bf 10c0
00000150: cdc2 0a3e c33f 27c0 e761 e63d b052 15c0
00000160: fce6 b63e 2843 df3f 5c44 8d3e e8b1 3940
00000170: 24b9 77bd a305 1b3f f302 453e 9bbb 2840
00000180: 7790 793e 0559 33c0 dcca d23c 462a d5bf
00000190: d0f3 f23d 3bd6 35c0 ad3e 4abc 5156 3a40
000001a0: 4290 883e 7c55 2a40 2119 26be c950 543e
000001b0: 1c40 16be 6399 2140 1682 043e 6687 8b3e
000001c0: e9ab 113e 5dd7 1340 fa6d af3e 86da 37c0
000001d0: fc71 833e 9a63 25c0 8a5c d03e 82a8 b13f
000001e0: 82d1 06bf aa2c 0140 4069 15bf 7b99 0040
000001f0: 4438 9dbe c5f3 2540 5867 c1be 453c 2340
00000200: 3242 af3e 6e52 1540 566c 833d 5ab6 14c0
00000210: fa96 01be 1682 1740 13c9 bcbe c41a 2bc0
00000220: f2a5 d6bd f096 c33f f9fe ec3e f1b5 3a40
00000230: 132b 893d c6f4 3ec0 a616 1fbd 43ec 1a40
00000240: 45d8 203e 3317 2ec0 3019 05bd 625e 343f
00000250: 7bb9 273f c70e edbf f67a 033f 3970 36c0
00000260: f89b ca3e 83b5 19c0 26df 973e ba91 03c0
00000270: 63ae a4bc 6342 9bbf 5b11 e13a 20bf 4240
00000280: bcbf 40bd 5838 27c0 214c 933e f9f4 f9bf
00000290: 2c27 33bf 7801 0540 e1cb 20be b771 a2bf
000002a0: 8c65 cdbe 4eb9 2440 30fd b9bd 4f6d 1ec0
000002b0: b919 323d e4f4 0e40 9b81 d63c 2aea 1440
000002c0: 6925 f3bd 93f4 12c0 ba77 0cbf 1a65 0fc0
000002d0: df3a bf3d 0511 14c0 790e cc3e f284 fb3f
000002e0: b826 1b3f 68f0 19c0 0929 69bd 17de 2940
000002f0: a20e 0f3e ff43 83bf f6c0 1fbd bee8 24c0
00000300: 0449 9e3d bb02 3540 56ea ae3e 56d1 39c0
00000310: 069f d7bd 65c1 12c0 706a 633e 29c6 d1bf
00000320: 65db 7e3d e335 e93f 49ae aa3e c0b7 dabf
00000330: c7c9 813e d0bc db3f d97a 3e3e fb55 fa3f
00000340: 91d4 073f c32f 03c0 20f5 323d 1e81 0a40
00000350: 6a0c 033e 67e6 dbbf c1e1 9e3e 8077 27c0
00000360: da58 be3e becd 3740 1baa 543e f935 ff3f
00000370: e914 6dbe e08b 0f40 1005 f0be 8a05 9abf
00000380: 507d 233f be75 aabf bb93 463e 8f30 1540
00000390: dcdf b2be 6b9d 19c0 55dc 0d3f 27c3 f53f
000003a0: 512e 14be 99cc ccbf 62ed 023f 6976 09c0
000003b0: c4c1 dcbe 276e 2240 bc30 38bf 8c40 99be
000003c0: 6341 18bd 5226 3ec0 7164 5b3e 27a3 1740
000003d0: ae39 adbe f514 06c0 9530 793e df2a 1d40
000003e0: 0c3f 41be d83e 3940 b562 883d bf57 d0bf
000003f0: 5cd9 1bbf 85cc 333f fe0d 83be b720 eebf

layers.0.bias f4 [128]
0.3957687 -0.22262849 0.0015673538 0.42139205 -0.013957442 0.27826214 0.022734484 -0.117895566
0.4532792 -0.18888234 -0.45601216 0.4151157 -0.20866407 -0.26296395 -0.08305486 -0.35955584
0.081402645 0.038526468 0.34000465 0.37608057 -0.05336541 0.19909357 0.34564096 -0.34116632
-0.014542606 0.11388627 -0.3155949 -0.074267484 0.12178402 -0.03476506 -0.3339109 0.38075608
-0.023283249 -0.11149042 0.30709326 0.5596428 -0.0066044815 -0.045310345 -0.105728626 -0.1863727
0.7222301 0.47130898 0.058058634 0.052222233 0.33576077 0.31929898 -0.038233384 -0.070246875
0.18390551 -0.0110449605 0.04496545 -0.064522564 0.31615886 -0.12525353 -0.07553765 0.10671739
0.14179492 -0.14420317 0.20081978 0.37494764 -0.34866387 -0.33806074 -0.17341055 -0.20154133
0.21497642 -0.012238409 -0.060488455 -0.3797397 -0.058561753 0.47712767 -0.0008720198 -0.11087643
0.14519718 -0.01513523 0.5829263 0.35144618 -0.17137367 0.19349045 -0.03597441 0.077077046
-0.04365717 0.3780405 -0.47987324 -0.1597138 -0.34394157 -0.1100875 -0.3710888 -0.03637759
-0.14629504 -0.4631567 0.038013797 0.34309345 0.41836962 0.0055076643 0.096435584 -0.07721465
-0.16465731 0.21178587 -0.14045079 0.15466914 -0.05836588 0.2397398 0.2292935 0.18054135
0.4317531 0.0660545 0.06235277 0.24852368 0.36011702 -0.18917981 -0.1436355 -0.42774382
0.40487066 0.20948099 -0.25618497 0.5496797 -0.14420675 0.3470783 -0.29914033 -0.6849969
-0.4234044 0.26293227 -0.29162043 0.15386349 -0.08873758 0.027212031 -0.55890656 -0.23398434
00000000: 32a2 ca3e b9f8 63be ab6f cd3a b3c0 d73e
00000010: c1ad 64bc 6078 8e3e ab3d ba3c 3b73 f1bd
00000020: 3614 e83e 5f6a 41be 6d7a e9be 0c8a d43e
00000030: 09ac 55be 36a3 86be ab18 aabd b417 b8be
00000040: 6eb6 a63d eecd 1d3d 1715 ae3e a28d c03e
00000050: b095 5abd 2fdf 4b3e daf7 b03e 5aad aebe
00000060: 1c44 6ebc 343d e93d a895 a1be 8d19 98bd
00000070: e669 f93d cf65 0ebd 5ff6 aabe 76f2 c23e
00000080: 83bc bebc 1755 e4bd 543b 9d3e c044 0f3f
00000090: 686a d8bb 5797 39bd 4088 d8bd 7cd8 3ebe
000000a0: 12e4 383f 694f f13e e4ce 6d3d fbe6 553d
000000b0: d6e8 ab3e 287b a33e 9c9a 1cbd 98dd 8fbd
000000c0: ba51 3c3e ecf5 34bc b12d 383d 6824 84bd
000000d0: 93df a13e 7642 00be 7cb3 9abd a68e da3d
000000e0: b032 113e ffa9 13be b3a3 4d3e 23f9 bf3e
000000f0: 1284 b2be 4c16 adbe 8992 31be da60 4ebe
00000100: c722 5c3e 9c83 48bc bec2 77bd 3e6d c2be
00000110: 73de 6fbd 144a f43e 4298 64ba 2f13 e3bd
00000120: 92ae 143e c1f9 77bc a83a 153f c1f0 b33e
00000130: 947c 2fbe 5c22 463e e759 13bd 92da 9d3d
00000140: dcd1 32bd 868e c13e f2b1 f5be 048c 23be
00000150: 1c19 b0be 8e75 e1bd 5aff bdbe ab00 15bd
00000160: 5ece 15be e022 edbe 5bb4 1b3d f2a9 af3e
00000170: 8b34 d63e a379 b43b 0580 c53d b722 9ebd
00000180: ed9b 28be 65de 583e 55d2 0fbe 9661 1e3e
00000190: 1011 6fbd 5a7e 753e eacb 6a3e d5df 383e
000001a0: be0e dd3e 9547 873d 9e65 7f3d fe7c 7e3e
000001b0: 4261 b83e 5ab8 41be 2f15 13be 3d01 dbbe
000001c0: 354b cf3e 2f82 563e ad2a 83be cfb7 0c3f
000001d0: efaa 13be 3fb4 b13e ec28 99be f55b 2fbf
000001e0: 76c8 d8be 0f9f 863e 464f 95be 648e 1d3e
000001f0: 0cbc b5bd c4eb de3c 8014 0fbf 9799 6fbe

layers.1.weight f4 [128, 128]
0.019676475 0.042971537 0.22800583 -0.05066 -0.25622287 -0.0333872 -0.011043694 0.030066676
-0.057779808 -0.07881227 0.025778359 -0.044802938 0.060693998 0.08579583 -0.04655052 -0.027278105
0.04289038 0.32065868 -0.033365022 0.034163706 0.26247507 0.037411243 0.008405177 -0.07460016
-0.36858594 -0.026321243 -0.073484376 -0.00336293 -0.10880743 0.019123174 0.044582527 -0.102215216
-0.17464215 -0.029531365 0.04199015 0.014235569 0.032419425 0.059153084 0.033085663 -0.02504734
-0.004350674 0.0068149734 -0.26922372 -0.14708541 -0.027558915 0.039291922 -0.16543958 0.09858941
-0.1093344 0.07848435 -0.05617194 0.64541614 0.07439904 0.05495253 -0.010488117 0.100575946
0.12602034 0.0030564724 -0.044078 -0.0696484 0.078997515 0.021307003 0.08233438 -0.080833904
0.03774858 -0.00701042 -0.12557116 -0.046918854 0.048346914 -0.065274954 -0.045167975 -0.019717488
-0.07917401 0.090263724 -0.036266368 0.030208288 0.14394721 0.048304677 0.09187953 0.048479285
-0.0058333105 -0.07076771 -0.08526671 -0.12445789 -0.050104115 -0.008227079 0.02846004 -0.06939576
0.070110224 0.005385998 0.027051205 0.0007442503 0.016728597 0.033646807 0.03118543 0.02466018
0.14695497 -0.03160083 0.05852914 0.0619784 -0.00491032 -0.03164717 0.04722092 0.10381948
-0.049396772 -0.095802546 -0.088658705 -0.052988615 -0.03810675 0.15154596 -0.01443866 -0.03904864
0.08231081 0.042921238 -0.072343275 0.05676908 -0.24794549 0.029289847 -0.0035318532 0.062105063
0.1113282 -0.03153424 -0.047175266 -0.060069025 -0.022654284 -0.07239461 -0.051527698 -0.00292738
-0.018682571 -0.06450798 0.0029075951 -0.051056333 -0.0735484 -0.03227007 -0.0017663639 0.00073670584
-0.015822105 0.07948329 0.033386204 0.06264451 -0.07788743 0.036872033 0.041389007 0.008224199
-0.033925485 -0.020388495 0.049812254 -0.06842505 -0.039202724 -0.08111363 0.022146335 -0.041913588
-0.078750424 -0.05744003 0.0050778734 0.04959779 0.024035841 -0.0026967977 -0.0066451356 -0.046996802
-0.009558958 -0.046296235 0.041623298 -0.0032212415 0.059002753 0.05178953 0.015200587 0.05713456
-0.024486097 -0.033910733 -0.080439396 0.043451704 0.011355857 0.067462794 0.08335191 -0.019320168
-0.032913968 0.048696574 0.074787624 0.06345923 0.06959604 -0.051229283 -0.05955805 -0.015978629
-0.035685115 0.04257766 0.0556235 0.083275646 -0.035307184 -0.02550681 -0.011049902 -0.0032025282
-0.0029419553 0.060823455 -0.078490846 -0.06717608 -0.03774029 0.04194582 -0.031385724 0.0070452355
0.013074963 0.055899218 -0.07332753 -0.02420307 0.031200964 -0.027035369 -0.06120779 0.032583937
0.07506269 -0.029122144 0.031148417 -0.020122444 0.012740455 0.0031189825 -0.0519739 0.070325896
0.01645513 -0.035440695 0.028290808 0.08518627 0.075815015 -0.0065904497 -0.018651929 0.06689754
0.052708752 0.008561405 -0.06978351 0.01366895 0.056417685 -0.0074757338 -0.030965194 0.050651617
0.048662633 0.042778797 0.079793096 0.06878766 -0.085768774 0.03150104 0.041599855 -0.046945676
-0.08813399 -0.08011654 -0.0075569297 0.03055617 -0.022281364 -0.053870782 0.08494483 0.08007546
-0.007727846 0.005044704 0.0024541055 -0.050228275 -0.06800201 0.065452546 -0.05165804 -0.060406044
00000000: 8f30 a13c ec02 303d 5c7a 693e dc80 4fbd
00000010: a52f 83be 04c1 08bd 9cf0 34bc 644e f63c
00000020: 85aa 6cbd 5468 a1bd 232d d33c 4983 37bd
00000030: 459a 783d b9b5 af3d c2ab 3ebd 5576 dfbc
00000040: d3ad 2f3d 602d a43e c3a9 08bd 3eef 0b3d
00000050: 2263 863e 883c 193d deb5 093c f8c7 98bd
00000060: 4cb7 bcbe a69f d7bc fa7e 96bd 9a64 5cbb
00000070: 6ed6 debd 34a8 9c3c 2b9c 363d 3656 d1bd
00000080: 64d5 32be c3eb f1bc ddfd 2b3d 4e3c 693c
00000090: 3bca 043d 814a 723d d584 073d 1430 cdbc
000000a0: 1990 8ebb 2450 df3b b1d7 89be 8f9d 16be
000000b0: 3cc3 e1bc 91f0 203d fe68 29be 3fe9 c93d
000000c0: b7ea dfbd 67bc a03d 8c14 66bd fe39 253f
000000d0: 865e 983d e715 613d 5ad6 2bbc c3fa cd3d
000000e0: 7a0b 013e 194f 483b 228b 34bd d2a3 8ebd
000000f0: 73c9 a13d 068c ae3c ed9e a83d 3f8c a5bd
00000100: 419e 1a3d aab7 e5bb ba95 00be fc2d 40bd
00000110: 6a07 463d e0ae 85bd 0e02 39bd 9286 a1bc
00000120: fc25 a2bd 30dc b83d 0b8c 14bd 5f77 f73c
00000130: e666 133e 20db 453d 562b bc3d 3792 463d
00000140: 5b25 bfbb a9ee 90bd 50a0 aebd c7e3 febd
00000150: f939 4dbd dfca 06bc 0825 e93c 5d1f 8ebd
00000160: f395 8f3d 077d b03b 7d9a dd3c cb19 433a
00000170: 690a 893c 3cd1 093d 9678 ff3c 2504 ca3c
00000180: 5d7b 163e df6f 01bd 40bc 6f3d 10dd 7d3d
00000190: c0e6 a0bb 77a0 01bd b96a 413d 4f9f d43d
000001a0: 4554 4abd 2034 c4bd b292 b5bd 970a 59bd
000001b0: d315 1cbd dd2e 1b3e 2190 6cbc 77f1 1fbd
000001c0: 9292 a83d 2ece 2f3d b628 94bd b286 683d
000001d0: 6ce5 7dbe 43f1 ef3c aa76 67bb e161 7e3d
000001e0: 0a00 e43d 0c2a 01bd da3a 41bd f00a 76bd
000001f0: 7a95 b9bc a043 94bd b50e 53bd 49d9 3fbb
00000200: 310c 99bc c31c 84bd 5a8d 3e3b 7220 51bd
00000210: 8ba0 96bd 9f2d 04bd 5685 e7ba 7e1f 413a
00000220: 5c9d 81bc 23c8 a23d f9bf 083d c44b 803d
00000230: 7283 9fbd 2107 173d 8587 293d cabe 063c
00000240: 73f5 0abd c605 a7bc ef07 4c3d 6f22 8cbd
00000250: 0993 20bd e71e a6bd 3b6c b53c 95ad 2bbd
00000260: e747 a1bd 3d46 6bbd 4a64 a63b 0d27 4b3d
00000270: d0e6 c43c c2bc 30bb 70bf d9bb b87f 40bd
00000280: 2d9d 1cbc 1fa1 3dbd 317d 2a3d 771b 53bb
00000290: dfac 713d 4221 543d e20b 793c ee05 6a3d
000002a0: 1197 c8bc fbe5 0abd 69bd a4bd 6afa 313d
000002b0: eb0d 3a3c ef29 8a3d 68b4 aa3d 5445 9ebc
000002c0: ccd0 06bd 0f76 473d 412a 993d eaf6 813d
000002d0: 5e88 8e3d ccd5 51bd 24f3 73bd 9de5 82bc
000002e0: 8e2a 12bd ea65 2e3d 78d5 633d 6c8c aa3d
000002f0: 449e 10bd a8f3 d0bc a60a 35bc 82e1 51bb
00000300: d2cd 40bb 0422 793d cfbf a0bd 9d93 89bd
00000310: 9095 1abd 61cf 2b3d 518e 00bd b8db e63b
00000320: 5f38 563c 94f6 643d be2c 96bd 8445 c6bc
00000330: 2a99 ff3c 4779 ddbc 05b5 7abd bc76 053d
00000340: 78ba 993d 9091 eebc f72a ff3c d3d7 a4bc
00000350: 57bd 503c d867 4c3b 96e2 54bd 0607 903d
00000360: e9cc 863c 432a 11bd 20c2 e73c 2476 ae3d
00000370: e744 9b3d b3f4 d7bb eecb 98bc 9401 893d
00000380: 22e5 573d 2345 0c3c a8ea 8ebd bbf3 5f3c
00000390: 3b16 673d 00f7 f4bb b8aa fdbc 1278 4f3d
000003a0: 7852 473d d238 2f3d 906a a33d 8be0 8c3d
000003b0: 8aa7 afbd 3c07 013d 9c64 2a3d 1c4a 40bd
000003c0: 987f b4bd 2414 a4bd 1fa0 f7bb ef50 fa3c
000003d0: 6887 b6bc 9ca7 5cbd 8ef7 ad3d 9afe a33d
000003e0: df39 fdbb 0b4e a53b 0fd5 203b 2abc 4dbd
000003f0: a344 8bbd fc0b 863d 6297 53bd 546c 77bd

layers.1.bias f4 [128]
-0.11061887 -0.024196684 -0.03302883 0.008926987 -0.0567518 -0.05896323 -0.014929884 -0.01108663
-0.029703379 -0.07709684 -0.0013989719 -0.08577691 0.0069417055 -0.16295837 -0.045682978 -0.0031504496
-0.09311152 0.014943892 0.0060019786 -0.019893033 0.05252675 -0.038591634 -0.026826188 -0.075878404
0.018103037 0.076395705 -0.079273686 0.06539458 -0.080793865 -0.02449193 -0.013028229 0.014467646
-0.118769586 -0.06278789 -0.07675991 -0.09682905 0.008401917 -0.009658827 0.0016042038 -0.028784761
-0.03539204 -0.030542606 -0.09655662 -0.14217392 -0.06213135 0.014284093 -0.0035385299 -0.03782518
-0.10701966 0.0118434075 -0.03355708 -0.040836744 0.03859053 -0.079507485 0.018650139 -0.073043086
0.024163114 -0.03376772 -0.13311617 -0.056453533 -0.08816407 0.06365413 -0.09611905 -0.023286216
-0.07674594 0.0013906292 -0.0049828854 -0.08097844 0.00983548 -0.11886853 0.06794913 -0.119390085
-0.026425058 -0.0038403522 -0.020074405 -0.04726969 -0.01740664 0.035139732 -0.01302393 -0.08235467
-0.115677565 0.057696816 -0.057148732 0.015526529 -0.0124976775 -0.008891554 -0.01306477 -0.027706511
-0.04291451 -0.05875499 -0.051308893 0.060002327 0.0047986396 0.010988608 -0.019522 -0.03666195
0.030307515 -0.13818914 0.08672978 0.10624632 0.025760878 -0.052743375 -0.005604266 -0.0682329
0.066123374 -0.0103510795 -0.13907486 0.061512083 0.018848268 -0.035333354 -0.13653205 0.011677105
-0.0004350084 0.0044520777 -0.006161542 -0.01355082 -0.02514647 0.025811376 0.043552008 0.062331636
-0.089490384 -0.01582182 0.07178127 -0.044600125 -0.110315956 -0.07776757 0.04583808 0.0319508
00000000: 258c e2bd 2038 c6bc 3d49 07bd 7f42 123c
00000010: 9374 68bd 6e83 71bd 799c 74bc b2a4 35bc
00000020: 8054 f3bc f3e4 9dbd b55d b7ba ceab afbd
00000030: 3f77 e33b 8fde 26be 131e 3bbd c677 4ebb
00000040: 41b1 bebd 3ad7 743c 3fac c43b b7f6 a2bc
00000050: 4a26 573d 4312 1ebd 98c2 dbbc 2366 9bbd
00000060: d24c 943c 5a75 9c3d 3e5a a2bd 98ed 853d
00000070: 4177 a5bd 4da3 c8bc 5a74 55bc b509 6d3c
00000080: 783d f3bd f096 80bd 4d34 9dbd 4f4e c6bd
00000090: 32a8 093c 0f40 1ebc 2644 d23a 05ce ebbc
000000a0: 3ef7 10bd 7d34 fabc 7abf c5bd 0a96 11be
000000b0: 717d 7ebd d407 6a3c aee6 67bb 93ee 1abd
000000c0: 202d dbbd da0a 423c 2673 09bd 6e44 27bd
000000d0: 1b11 1e3d d2d4 a2bd 2dc8 983c 9d97 95bd
000000e0: b9f1 c53c 0550 0abd 9b4f 08be d23b 67bd
000000f0: 5d8f b4bd 195d 823d 11da c4bd bcc2 bebc
00000100: fa2c 9dbd c645 b63a 7947 a3bb 06d8 a5bd
00000110: fe24 213c 5871 f3bd ea28 8b3d ca82 f4bd
00000120: 5d79 d8bc 6bae 7bbb 1473 a4bc dd9d 41bd
00000130: 5f98 8ebc aeee 0f3d 5262 55bc 91a9 a8bd
00000140: 5ce8 ecbd 7f53 6c3d ca14 6abd fc62 7e3c
00000150: 0fc3 4cbc e1ad 11bc 9e0d 56bc c4f8 e2bc
00000160: 20c7 2fbd 13a9 70bd 4629 52bd 00c5 753d
00000170: e83d 9d3b 9009 343c 9aec 9fbc d72a 16bd
00000180: 7747 f83c 7481 0dbe 629f b13d ac97 d93d
00000190: 7a08 d33c 7009 58bd fea3 b7bb b1bd 8bbd
000001a0: b16b 873d 9397 29bc a469 0ebe 18f4 7b3d
000001b0: af67 9a3c b5b9 10bd 0fcf 0bbe 5451 3f3c
000001c0: d711 e4b9 bce2 913b c3e6 c9bb 4204 5ebc
000001d0: f8ff cdbc 6172 d33c 9763 323d 754f 7f3d
000001e0: bc46 b7bd c39c 81bc 0f02 933d 9fae 36bd
000001f0: 55ed e1bd 9b44 9fbd b6c0 3b3d d8de 023d

layers.3.weight f4 [128, 128]
-0.093962975 0.057672545 0.018008877 -0.36370474 -0.05189379 0.03266835 0.072163194 -0.07285772
-0.036080644 0.11005232 0.11196187 -0.08621954 0.12887378 -0.14577816 0.0620945 -0.0037909362
-0.05672525 -0.04190481 0.0593393 0.038093526 -0.0822648 0.04855812 0.07304854 0.13997003
0.009997084 0.31080842 -0.048980787 -0.059955828 0.09470617 -0.04433255 0.086120054 -0.06138847
-1.0889435 -0.14234145 -0.04052868 -0.04075635 0.032856196 -0.10601143 0.008075511 0.049346637
-0.067615986 0.06344033 0.0665613 0.16508788 -0.03809358 0.002304752 0.04425383 -0.02768623
-0.04090941 0.10186257 0.16296707 0.015620092 -0.064671315 -0.4994252 0.06543351 0.036923073
-0.049268022 -0.0021939157 0.17767978 -0.08465011 0.08486463 -0.07274949 -0.0713046 0.009880973
-0.123825245 0.04189995 0.21649553 0.052382883 0.06978756 -0.06517361 0.038295776 0.067016594
0.09190908 -0.06045181 -0.02975258 -0.05708236 0.06798194 -0.08014789 0.016404757 -0.0018085063
0.008031183 0.018341368 -0.035949804 0.061225727 -0.07220144 0.090556584 0.109801956 0.06307914
0.09621562 0.022003531 -0.023071207 0.050875913 0.015257547 -0.05722604 -0.018718872 0.14062604
0.103944115 -0.2579739 0.16492315 -0.02760789 -0.07894257 0.055026513 -0.004923043 0.026403535
0.106241345 0.118408896 0.028084163 -0.07171235 0.04474044 -0.12949237 0.032029774 -0.09360944
0.028137276 -0.09128191 -0.112799406 -0.085407585 -0.0011215239 -0.022362147 0.1337049 0.106515385
0.075237855 -0.073837124 0.033667672 0.050036445 -0.019548785 -0.04196935 0.081346646 0.09627705
-0.0277112 0.020339172 0.0390392 0.026844243 -0.078281924 0.023140263 0.044279635 -0.01936024
0.043853994 0.037756357 0.01591122 -0.03288315 -0.081636295 0.16861255 -0.05804602 0.008640535
-0.014240974 0.08504996 -0.09805834 0.0050126608 0.07738868 -0.045360364 -0.023269612 -0.61074406
0.06265743 0.045433845 0.041702252 -0.4769868 0.07598144 -0.080256164 -0.06508608 -0.072124094
0.32408077 -0.054459017 -0.07010626 0.06447868 -0.07293617 -0.15185677 -0.057367977 -0.022353625
0.07086244 0.06375516 -0.015703363 -0.055793922 -0.019094668 -0.08104277 -0.05212936 0.08074756
0.076668955 0.07163958 0.023087574 0.07030458 0.07038716 0.19427918 -0.053588063 0.0028444866
0.051809926 0.019818733 0.06981804 0.07132638 -0.008177384 0.008602228 0.021864394 -0.020783277
-0.05261441 0.0062451996 0.04263622 0.07087024 0.05550939 -0.06980851 -0.08306296 -0.0037113607
-0.006017695 0.0341808 0.07964161 0.025462028 0.034548763 0.005722799 -0.05797558 0.07962671
0.03614641 0.0735257 0.009533521 0.0056402367 -0.024531553 -0.06921672 0.025628287 -0.06441799
-0.15419 -0.04618598 0.039386638 -0.028772105 0.058512595 0.004461711 -0.025321783 0.018450685
-0.061637927 0.30668214 0.0065369643 -0.15756132 0.11598929 0.04683679 0.035120256 0.03493848
-0.027843203 0.011083348 -0.040587567 0.0033776932 -0.06208616 -0.06797736 -0.052997623 0.049808197
-0.064602725 0.08095292 -0.027387032 -0.17514233 2.229797e-05 0.030784437 -0.027833011 -0.056810234
-0.09353587 0.090703696 -0.029024784 0.12279134 -0.0817667 0.037953213 -0.017283421 -0.041915946
00000000: a96f c0bd 0c3a 6c3d 5a87 933c 8237 babe
00000010: 958e 54bd 3fcf 053d 4cca 933d 6e36 95bd
00000020: 4cc9 13bd 1c63 e13d 444c e53d df93 b0bd
00000030: 7df7 033e df46 15be cd56 7e3d 5b71 78bb
00000040: bc58 68bd 61a4 2bbd c40d 733d f507 1c3d
00000050: 737a a8bd e1e4 463d 799a 953d 4e54 0f3e
00000060: cfca 233c 4822 9f3e 14a0 48bd 3e94 75bd
00000070: 4ff5 c13d 0c96 35bd b65f b03d 7a72 7bbd
00000080: 8062 8bbf f5c1 11be 6701 26bd 21f0 26bd
00000090: 3894 063d 851c d9bd 264f 043c b31f 4a3d
000000a0: 407a 8abd 01ed 813d 4a51 883d cc0c 293e
000000b0: 0408 1cbd 520b 173b 8143 353d 3cce e2bc
000000c0: a090 27bd 539d d03d d7e0 263e 6aeb 7f3c
000000d0: 6572 84bd a9b4 ffbe 0102 863d a63c 173d
000000e0: 44cd 49bd ccc7 0fbb b0f1 353e 095d adbd
000000f0: 82cd ad3d affd 94bd 2508 92bd cee3 213c
00000100: 1798 fdbd 489f 2b3d 01b1 5d3e 6f8f 563d
00000110: c8ec 8e3d be79 85bd 08dc 1c3d ff3f 893d
00000120: d43a bc3d 519c 77bd afbb f3bc 31cf 69bd
00000130: 1e3a 8b3d 9424 a4bd 4563 863c 670b edba
00000140: 3995 033c a340 963c 1a40 13bd d4c7 7a3d
00000150: 59de 93bd bb75 b93d d9df e03d a32f 813d
00000160: b20c c53d c040 b43c d4ff bcbc 4363 503d
00000170: cafa 793c da65 6abd 5258 99bc 4600 103e
00000180: a7e0 d43d 2815 84be 9de1 283e f129 e2bc
00000190: a4ac a1bd 7b63 613d 7a51 a1bb 3a4c d83c
000001a0: 1095 d93d 5d80 f23d c210 e63c eddd 92bd
000001b0: c041 373d a699 04be a731 033d 4eb6 bfbd
000001c0: 2580 e63c 03f2 babd 6003 e7bd 2cea aebd
000001d0: 1900 93ba d230 b7bc f0e9 083e bd24 da3d
000001e0: 4e16 9a3d eb37 97bd 1de7 093d 04f3 4c3d
000001f0: c624 a0bc 0ee8 2bbd 1299 a63d e72c c53d
00000200: 9902 e3bc 569e a63c 91e7 1f3d 75e8 db3c
00000210: 4652 a0bd a690 bd3c 905e 353d 5e99 9ebc
00000220: 3fa0 333d 69a6 1a3d 3f58 823c 7bb0 06bd
00000230: ee30 a7bd c5a8 2c3e aac1 6dbd 0891 0d3c
00000240: f952 69bc ac2e ae3d d0d2 c8bd 3f41 a43b
00000250: f57d 9e3d cacb 39bd ea9f bebc b959 1cbf
00000260: 8a52 803d d718 3a3d fbcf 2a3d 9d37 f4be
00000270: 289c 9b3d 585d a4bd da4b 85bd ccb5 93bd
00000280: eaed a53e 6b10 5fbd df93 8fbd 660d 843d
00000290: 8f5f 95bd 5780 1bbe affa 6abd f31e b7bc
000002a0: 5420 913d 1192 823d 57a4 80bc 2b88 64bd
000002b0: 6c6c 9cbc c0f9 a5bd 9985 55bd fa5e a53d
000002c0: 9d04 9d3d c6b7 923d 2722 bd3c d9fb 8f3d
000002d0: 2527 903d 1ff1 463e 287f 5bbd 916a 3a3b
000002e0: a536 543d e55a a23c c3fc 8e3d 9113 923d
000002f0: 6ffa 05bc 5cf0 0c3c f51c b33c b141 aabc
00000300: 3582 57bd 88a4 cc3b 51a3 2e3d 6b24 913d
00000310: d05d 633d c4f7 8ebd ea1c aabd 4d3a 73bb
00000320: 1630 c5bb 2b01 0c3d 241b a33d be95 d03c
00000330: 0183 0d3d 5186 bb3b cd77 6dbd 5413 a33d
00000340: 420e 143d a494 963d 7c32 1c3c bcd1 b83b
00000350: 65f6 c8bc 7fc1 8dbd 6af2 d13c 94ed 83bd
00000360: fce3 1dbe 832d 3dbd e253 213d 7ab3 ebbc
00000370: e7aa 6f3d 8b33 923b a16f cfbc e425 973c
00000380: 0d78 7cbd 7105 9d3e 0834 d63b c157 21be
00000390: cb8b ed3d efd7 3f3d 42da 0f3d a71b 0f3d
000003a0: 6e17 e4bc ee96 353c 263f 26bd 4a5c 5d3b
000003b0: 0f4e 7ebd b737 8bbd 0914 59bd ae03 4c3d
000003c0: 6f4e 84bd a5ca a53d c55a e0bc 8358 33be
000003d0: 870c bb37 a52f fc3c 0e02 e4bc d9b1 68bd
000003e0: bc8f bfbd dcc2 b93d 62c5 edbc 077a fb3d
000003f0: 4d75 a7bd d474 1b3d f695 8dbc 0eb0 2bbd

layers.3.bias f4 [128]
-0.012909453 -0.18649344 0.02726504 0.020940915 0.133425 0.09641507 0.002257865 0.053830516
-0.05589277 -0.10752832 0.0061702784 0.007970674 0.10423974 0.15435994 0.14395934 -0.079675235
0.089556254 0.024507217 0.23164698 -0.022037864 -0.47183046 -0.071377 0.13197428 -0.09705584
-0.03289187 0.024607737 -0.22130951 0.16770963 -0.028599456 -0.07048566 -0.08278827 0.17714536
-0.021328444 0.02031054 -0.041186966 0.11863471 0.1347578 -0.09064438 -0.0107430555 0.08605024
-0.026539054 -0.075019255 0.14083898 -0.0072755986 0.10761706 -0.01889076 -0.013789191 -0.0070382296
0.022752179 -0.018384995 0.11308244 -0.0027826594 0.09307837 -0.06952796 -0.0858111 -0.117747106
0.1759411 0.13512054 0.038380906 -0.015022598 0.16616338 0.11929436 -0.2654004 0.11059051
0.10520445 0.085833766 -0.01965226 0.0048838127 -0.015095698 0.1155069 -0.18776128 0.104897834
0.072311126 0.0019352087 -0.036740888 -0.019171776 0.013400597 -0.022977151 -0.04741947 -0.046754897
-0.05463079 0.023783384 -0.0739819 0.14358519 0.1107818 0.08903201 -0.019973824 -0.092381425
0.0117002195 -0.10815057 -0.088271685 0.06415419 -0.09422315 0.12446369 0.2713936 0.17731231
-0.05357271 -0.30542296 -0.11143507 -0.10557022 -0.08739309 -0.011531243 0.16516887 0.01445076
0.01748599 0.32324356 -0.013725923 0.08690811 0.17214666 -0.08545284 0.006572988 -0.052165885
-0.1117055 -0.10656606 0.11853979 -0.019224828 0.08595751 -0.011341516 -0.113035485 0.12295149
-0.11418258 -0.1349933 -0.0351435 -0.07859839 0.05971525 0.14136204 -0.09973725 -0.015718527
00000000: 2c82 53bc 23f8 3ebe ef5a df3c 488c ab3c
00000010: 90a0 083e 4475 c53d b0f8 133b 637d 5c3d
00000020: d1ef 64bd cf37 dcbd 0c30 ca3b 6e97 023c
00000030: a57b d53d 8810 1e3e 146a 133e c52c a3bd
00000040: 4569 b73d 5cc3 c83c de34 6d3e c088 b4bc
00000050: c393 f1be 1b2e 92bd 4424 073e 36c5 c6bd
00000060: a0b9 06bd 2a96 c93c f69e 62be 13bc 2b3e
00000070: 6849 eabc c95a 90bd e68c a9bd 9865 353e
00000080: fdb8 aebc 4a62 a63c aab3 28bd c1f6 f23d
00000090: f3fd 093e c3a3 b9bd a403 30bc 1c3b b03d
000000a0: 6e68 d9bc b2a3 99bd 1838 103e 2568 eebb
000000b0: 5566 dc3d ccc0 9abc 0fec 61bc f3a0 e6bb
000000c0: c762 ba3c 219c 96bc c497 e73d 475d 36bb
000000d0: df9f be3d ad64 8ebd bbbd afbd 6525 f1bd
000000e0: e729 343e 0a5d 0a3e 4c35 1d3d 5821 76bc
000000f0: bc26 2a3e 9a50 f43d 90e2 87be 477d e23d
00000100: 6e75 d73d 9dc9 af3d c7fd a0bc 6408 a03b
00000110: f253 77bc e28e ec3d 7e44 40be add4 d63d
00000120: db17 943d d4a6 fd3a 9d7d 16bd 210e 9dbc
00000130: 2d8e 5b3c 943a bcbc eb3a 42bd 1082 3fbd
00000140: 89c4 5fbd 5fd5 c23c d383 97bd ff07 133e
00000150: 91e1 e23d 6a56 b63d 25a0 a3bc 7932 bdbd
00000160: 47b2 3f3c 0c7e ddbd c9c7 b4bd 4663 833d
00000170: 11f8 c0bd d2e6 fe3d 1af4 8a3e 5c91 353e
00000180: 0f6f 5bbd 6660 9cbe 1238 e4bd 3335 d8bd
00000190: 26fb b2bd 8aed 3cbc 0722 293e e1c2 6c3c
000001a0: c73e 8f3c 2e80 a53e b2e2 60bc e1fc b13d
000001b0: 3747 303e e601 afbd 3862 d73b e5ab 55bd
000001c0: dac5 e4bd 4e3f dabd fdc4 f23d 637d 9dbc
000001d0: 7e0a b03d c4d1 39bc 267f e7bd fecd fb3d
000001e0: 8ed8 e9bd af3b 0abe a1f2 0fbd 31f8 a0bd
000001f0: fa97 743d 36c1 103e 0b43 ccbd 24c4 80bc

layers.5.weight f4 [1, 128]
0.21001919 0.07615711 0.15463938 -4.1819425 -0.51834434 2.1381984 0.17786238 -0.55316705
-0.05120222 -0.3788963 -0.36843386 0.19411461 1.8092402 -1.1324424 -0.59515953 0.12143402
0.11039007 -1.775992 0.1586049 0.2151902 -2.0622125 -0.00685698 -1.0220166 -0.0012158487
0.20025806 0.2718282 -0.4479166 0.4501152 0.21788444 -0.06858142 -0.046304416 0.22088827
0.13887939 0.15454002 3.3284857 0.07230407 0.010240839 -3.0589616 0.29398727 2.1432245
0.012566824 -0.041092508 -0.7001448 0.2291182 0.14701478 0.2180452 4.244505 0.15824348
0.11749886 0.19079731 -0.6307331 0.093869776 0.1482595 -0.0019090408 0.11710919 0.000113479764
0.76044476 -0.630273 -1.63562 0.29802507 -1.7245181 -0.44491073 -0.37880844 -0.43494853
-0.50228703 -0.5980008 -0.019057045 0.15333077 0.26058805 0.22882608 -3.483234 -0.5226933
-0.4949991 0.17353573 -0.40656623 -0.5059201 0.26198837 -0.057166 -0.3067351 -0.4621737
-0.14346232 0.14346223 -0.44602612 -0.49914157 0.13189743 3.7534177 0.1267051 -0.00038636185
0.2694548 0.020800522 -0.0014594409 -0.20476322 -0.61331064 -0.5749489 1.0762149 0.75238764
-0.022644438 2.7560072 -0.31554607 -0.2315374 0.018000029 0.17301768 -0.6287064 0.17808488
-0.24943596 -2.0114274 -2.422129 -0.4893071 0.2754885 0.0012817901 0.124415785 0.11182971
-0.0017383826 -0.23508613 -0.6131459 0.25321767 -0.93791455 0.13446042 0.14224394 -0.7044551
-0.03884481 -0.40760887 0.21037903 0.059233747 -0.45812538 -0.48622674 -0.4265817 0.16992904
00000000: 450f 573e 42f8 9b3d c959 1e3e 79d2 85c0
00000010: 37b2 04bf 3ed8 0840 8e21 363e 5b9c 0dbf
00000020: 6bb9 51bd b2fe c1be 5da3 bcbe fbc5 463e
00000030: 2f95 e73f dff3 90bf 605c 18bf 66b2 f83d
00000040: 3014 e23d b553 e3bf 5369 223e d25a 5c3e
00000050: 4afb 03c0 84b0 e0bb 71d1 82bf 1d5d 9fba
00000060: 7310 4d3e 112d 8b3e 5355 e5be 8075 e63e
00000070: 191d 5f3e 6a74 8cbd b3a9 3dbd 8930 623e
00000080: 6636 0e3e bd3f 1e3e e905 5540 2814 943d
00000090: 31c9 273c 07c6 43c0 8085 963e 972a 0940
000000a0: 15e5 4d3c 9e50 28bd b13c 33bf f69d 6a3e
000000b0: 0b8b 163e 3e47 5f3e fcd2 8740 940a 223e
000000c0: 3ea3 f03d 5f60 433e b977 21bf cc3e c03d
000000d0: 57d1 173e c838 faba f1d6 ef3d fcfb ed38
000000e0: 82ac 423f 9259 21bf ff5b d1bf be96 983e
000000f0: 02bd dcbf 57cb e3be 2ef3 c1be 93b1 debe
00000100: e295 00bf 9516 19bf 851d 9cbc be02 1d3e
00000110: cc6b 853e 6251 6a3e 4eed 5ec0 3acf 05bf
00000120: 8670 fdbe 5ab3 313e 7329 d0be fb83 01bf
00000130: 5723 863e e526 6abd 620c 9dbe 08a2 ecbe
00000140: c9e7 12be c3e7 123e 895d e4be 7c8f ffbe
00000150: 1f10 073e ff37 7040 fbbe 013e 9c90 cab9
00000160: fbf5 893e db65 aa3c b64a bfba 73ad 51be
00000170: ed01 1dbf da2f 13bf 69c1 893f 7a9c 403f
00000180: d480 b9bc 6c62 3040 418f a1be 2418 6dbe
00000190: cc74 933c 8c2b 313e e7f2 20bf e25b 363e
000001a0: 246c 7fbe 3abb 00c0 2904 1bc0 7686 fabe
000001b0: d40c 8d3e bd01 a83a b4cd fe3d fa06 e53d
000001c0: 71da e3ba 6bba 70be 21f7 1cbf bfa5 813e
000001d0: 2b1b 70bf feaf 093e 65a8 113e 2b57 34bf
000001e0: bc1b 1fbd 1cb2 d0be 9a6d 573e 169f 723d
000001f0: 698f eabe b6f2 f8be eb68 dabe e101 2e3e
