model_zoo/BC/CartPole-v0/net_9704080.pth (torch, 138697 bytes, 8 tensors)

layers.0.weight f4 [128, 4]
00000000: 4a45 413e a4f1 dfbe daec 83c1 2b7b 85c0
00000010: 6d43 423e 667a 15bf 2f3a ea40 60ad 4841
00000020: c180 61bd 959e bcbd 0654 7641 fd0f a840
00000030: ec54 8ebe 2058 553e 35aa 8741 dc60 9340
00000040: 2843 683e 2083 34bf d796 77c1 d469 b0c0
00000050: 1542 0cbe 8090 1bbe dc8c 5fc1 1b0b d3c0
00000060: 5fcd 803d c869 283f 5876 7841 1835 b040
00000070: 0186 853e 6eb6 17bf f976 7fc1 d1ab a0c0
00000080: 1603 a23e 8514 35bf 3dec 7441 c1f4 bb40
00000090: e606 e23d eee6 93be 615f 9bc1 d7da 23bf
000000a0: b72f 053d 5a8d f53e d749 7041 216f c040
000000b0: 49e1 1d3e 29c5 cabe 7005 55c1 cef9 8ac0
000000c0: 3818 a63d fb34 56be d13a 8c41 1a60 1c40
000000d0: db78 44be e151 833e 2588 44c1 2255 e6c0
000000e0: 4526 663c c2db d13d f79f 7241 5bb6 bf40
000000f0: eff9 b0bd a6e0 68be 5104 7c41 6165 aa40
00000100: 2dad 9dbd d81a f3be bbe8 67c1 bb62 cbc0
00000110: b99f 843e 988a 0fbe 4277 63c1 0835 d6c0
00000120: e5b0 0f3e ee9d eabe 381b 7c41 b0d8 b440
00000130: 5ee9 4b3e 6af2 cebe eb79 8b41 e50b 843e
00000140: b0ae 5f3e 19a5 3cbe c827 70c1 65fd c0c0
00000150: a34d 363e d90e 06bf 440a 53c1 dd30 f9c0
00000160: 1d11 193d 6ddf 8d3e bd59 7b41 f5fc b040
00000170: c080 babe 91f4 1d3f b459 7b41 ee17 c040
00000180: 12dc aa3e bfb0 f4be 7862 4841 f97d b240
00000190: 5eec a73e 192e 9abe c61b 5e41 7d39 db40
000001a0: 20b2 9a3d 4764 0a3f ccff 7a41 658c b740
000001b0: 180d a3be 5563 043f 25ab 8241 0226 a640
000001c0: bb46 a23d 39a3 103c 984b 46c1 c7d6 04c1
000001d0: 92e0 1d3d 04c0 b2be de1b 7e41 27c7 aa40
000001e0: 9892 60be 5d5d 9e3e a98d 6e41 ce79 b640
000001f0: d882 0dbe 1839 ee3e 3e86 6a41 18c8 bc40
00000200: c3ad 583e 0bd8 723e ad7e 7c41 e92a 9640
00000210: bc5b 17be 3d32 703e 2a77 72c1 dba1 bdc0
00000220: 72f7 bf3d 5a81 01bd 77f2 7941 14b8 bc40
00000230: 6775 343d 14ba f8be c464 7941 6580 ae40
00000240: c10f b9bd b746 20bf 9e36 32c1 aadf 05c1
00000250: 03c6 453e 4552 e8be a7b7 58c1 127e ecc0
00000260: ee3e a83e e399 093e e16e 8041 3b73 b140
00000270: 6f32 4b3d 3c36 38bb 23a2 7541 31d5 ba40
00000280: 0e45 983e e8dc 2fbf 0833 7cc1 ebda a8c0
00000290: 0b22 57be 79a3 5a3e 892c 80c1 2ed3 9dc0
000002a0: 508c e1bd d2b7 af3e 7d8a 47c1 a5f9 10c1
000002b0: 8f80 c2bb 9c49 8e3e 58d8 7f41 b40f a040
000002c0: b79b 213e ec1d 23be b4c3 7ec1 6a2e b3c0
000002d0: 3f00 c73d 0c85 0ebe 2441 a1c1 feb9 b23f
000002e0: d662 3b3e 883a 0cbf 64c8 6241 29e0 dc40
000002f0: 3d3e fabd 8ff9 983e da3b 6ec1 56fe c3c0
00000300: c101 d0bc 8618 853e b9a9 73c1 4616 cec0
00000310: 0bb4 b6bd c961 803e 9bd3 9141 c894 2940
00000320: 233b e53d 5af7 70bd 4523 7ec1 a8a9 aec0
00000330: bf82 993d 2c83 42be 98d9 8141 2009 9f40
00000340: 83e9 4b3d 92f8 72be 9357 4341 8129 1141
00000350: e6cc 373d fc0a 0dbe 65bc 7ec1 5d9e 9dc0
00000360: 0be4 dcbd 04ba 8b3e 4837 fc40 5036 1141
00000370: cbee 283e 8244 933e 928a 79c1 df59 bac0
00000380: 5e2f 053e 2ae4 48be a08c 7041 a780 a240
00000390: 4816 bfbd 96bb a93c 94ae 8241 9841 a840
000003a0: 8e5f 47be 4e82 a03e 2b96 8641 f0c7 8d40
000003b0: 491b 91be 85fe 273f 8153 8ec1 f69a c1bf
000003c0: b674 663e bc68 12bf 45c7 8441 5402 7c40
000003d0: 8449 0abe 90f0 463e c162 7c41 5cb7 ac40
000003e0: b3a9 41be 3bbd 013f 8165 7cc1 0087 acc0
000003f0: 9710 5fbe eebf 953d fbf4 7341 324b b540
0.18874088 -0.43739045 -16.49065 -4.171285 0.18971033 -0.5838989 7.3196025 12.542328
-0.05505443 -0.092099346 15.395514 5.2519517 -0.27799165 0.20834398 16.958109 4.6055737
0.22681868 -0.7051258 -15.474326 -5.5129185 -0.13697083 -0.15191841 -13.9718895 -6.5951056
0.062891714 0.6578641 15.5288925 5.506481 0.260788 -0.5926274 -15.966546 -5.0209737
0.3164298 -0.70734435 15.307675 5.873627 0.11036472 -0.28887123 -19.421572 -0.640058
0.032516208 0.47959405 15.018027 6.0135655 0.1541797 -0.39603546 -13.3138275 -4.3429937
0.08110088 -0.20918648 17.528719 2.4433656 -0.19186728 0.25648406 -12.283238 -7.197892
0.01404721 0.102469936 15.164054 5.99101 -0.08641421 -0.22741947 15.751054 5.3248754
-0.07699046 -0.47481418 -14.494319 -6.355802 0.2590311 -0.14017713 -14.216616 -6.6939735
0.14032324 -0.45823616 15.756645 5.651451 0.19913241 -0.40419322 17.43453 0.25790325
0.21843982 -0.18422355 -15.009712 -6.030932 0.17803054 -0.52366406 -13.190006 -7.7872148
0.037369836 0.27709523 15.709409 5.5308785 -0.36426353 0.61701304 15.7094 6.002921
0.33371025 -0.47791097 12.52404 5.5778775 0.3279752 -0.30113295 13.881781 6.8507676
0.07553506 0.5405926 15.68745 5.735888 -0.31845927 0.5171407 16.333567 5.1921396
0.07923647 0.008827978 -12.3934555 -8.302436 0.038544245 -0.3491212 15.8818035 5.3368106
-0.21930921 0.30930606 14.909585 5.7023687 -0.13819444 0.46527934 14.657774 5.8994255
0.21160035 0.23715226 15.780927 4.692738 -0.14781088 0.23456664 -15.154093 -5.9260077
0.09373368 -0.0316175 15.6216955 5.8974705 0.044057276 -0.48579466 15.587101 5.453173
-0.09036208 -0.626079 -11.138334 -8.3671055 0.19313817 -0.45375267 -13.544837 -7.3903894
0.32860512 0.1343761 16.05414 5.545316 0.049608644 -0.0028108498 15.352084 5.8385243
0.29740185 -0.6869645 -15.762459 -5.2767234 -0.2100908 0.21351422 -16.021746 -4.932029
-0.110130906 0.3431993 -12.471311 -9.060948 -0.0059357355 0.27790534 15.990318 5.001917
0.15782057 -0.15929383 -15.922779 -5.599416 0.09716844 -0.13917941 -20.156807 1.396301
0.18299422 -0.5477681 14.1739235 6.9023633 -0.12218902 0.29877898 -14.889612 -6.124797
-0.025391461 0.25995272 -15.228936 -6.440219 -0.08921059 0.25074604 18.228323 2.649706
0.1119292 -0.058829643 -15.883611 -5.45821 0.07495641 -0.1899535 16.231247 4.969864
0.04978324 -0.23727635 12.20888 9.072633 0.04487314 -0.13773721 -15.920995 -4.9255815
-0.10785683 0.27290356 7.881748 9.07576 0.16497342 0.28763205 -15.596331 -5.8234706
0.1300635 -0.19618288 15.034332 5.0782046 -0.09330422 0.02071933 16.335243 5.258007
-0.19470045 0.31349415 16.823324 4.4306564 -0.2834113 0.6562274 -17.790773 -1.5125415
0.22505459 -0.5719106 16.5973 3.937642 -0.13504606 0.19427705 15.77411 5.3973827
-0.18912391 0.5067937 -15.774781 -5.3914795 -0.21783672 0.07311998 15.24731 5.665429

layers.0.bias f4 [128]
00000000: 90d0 b03c 4cff 35bd 92d7 033c 6938 523c
00000010: fef3 18bd a3ca 903b c569 88bc 1035 0a3d
00000020: c1a2 373d 4332 253d 8e73 67bd be0f a5bb
00000030: f315 52bc c4c5 813e 6167 bf3d b7a4 133c
00000040: 2bd7 6d3d 6bbb 883d 9397 803a 76c0 d0bc
00000050: 89b7 033d ab30 aa3b a6af 2cbd e099 4bbd
00000060: 51b8 98bc c2fc 05bd ae68 d4bc f2dd aa3b
00000070: d2f4 4cbc b7e1 2f39 07d6 1ebd c8d9 9bbd
00000080: ddf3 833d 8dd3 b238 dc1f 9fbc 386a 3e3c
00000090: 670c ddba 20e6 d53a be10 023c 2692 fbbb
000000a0: 1d15 693d 73f9 a73b 2769 903c e4a3 1fbd
000000b0: 1a8e 783c dbf0 0dbd 9e88 e2bc 98ec e2b8
000000c0: 682c 18bc f1ce 363c 57cd 2f3c 0cbb 233c
000000d0: 422b 003c c34e 9bbd 36ab b7bc 020d da39
000000e0: 540e 7e3c c1fa 09bc e023 28bd d192 03bd
000000f0: 8eb3 d43c ce77 7abc 4a13 b93c 7ccf efbc
00000100: d418 65bc 1291 313d 28d9 563c 1a19 5e3b
00000110: e383 6bbe ebf9 1ebc 9d59 4dbc a7b3 5c3b
00000120: d412 b3bc be71 223c 7fc0 6fbb d779 153d
00000130: e403 aa3c 1051 423c e9a0 17be aa29 853b
00000140: 2401 0bbc 14c8 cebb dbad 62bc 902f 87bc
00000150: 96a6 2bbd 0adf 32bc 6ca1 f1bb 9627 973d
00000160: 3802 6fbb 8ec4 97bc 1274 eb3b 4aee 9b3d
00000170: 7b44 e33b 7f15 3f3d bfce 13bd 1f41 b73e
00000180: cc8c 96bb 363e 6d3c 3e8c cebc 23ea f2bc
00000190: d9aa b33e 34c3 b33b 05ce 8c3b c354 83bc
000001a0: 38c3 0f3c a6c8 6abc 6a2b a13c 1c4d c23c
000001b0: 130b 9cbc 3190 fbbc 1e10 2c3d 1e5a 493d
000001c0: aa51 143d 9993 603c 27b9 3abc 768b 40bc
000001d0: 7563 d63c da42 0e3d 3621 e73d 160b 163b
000001e0: a71c dbbd 23f2 cabc daa6 b5bc c72a a53b
000001f0: f9f8 603d f0b2 bd3d 4f04 323d 7ab4 adbd
0.021583825 -0.044432923 0.008047001 0.012830832 -0.037342064 0.0044186874 -0.016651997 0.03374201
0.04483295 0.040331136 -0.056506686 -0.005037277 -0.012822616 0.25346196 0.0934589 0.009011439
0.05806653 0.06676372 0.0009810798 -0.025482398 0.032157455 0.00519379 -0.0421597 -0.049707294
-0.018642576 -0.03271175 -0.025928821 0.005214446 -0.012509542 0.00016773386 -0.03877833 -0.07609898
0.064429976 8.527106e-05 -0.019424371 0.011622004 -0.0016864658 0.0016319193 0.007938562 -0.0076773344
0.0569049 0.005126172 0.017628266 -0.038974658 0.015170598 -0.034653526 -0.027653035 -0.00010820589
-0.009287931 0.011157737 0.010730109 0.009993326 0.0078228135 -0.07583382 -0.022420507 0.00041589892
0.015506346 -0.008421601 -0.041049838 -0.032122437 0.025964525 -0.015287353 0.022592206 -0.029273741
-0.01398297 0.04335124 0.0131132975 0.0033889473 -0.2299953 -0.00970314 -0.0125335725 0.0033676417
-0.021859564 0.009914814 -0.0036583242 0.03649315 0.020753808 0.011860147 -0.14807476 0.0040638046
-0.008484159 -0.0063104723 -0.013835396 -0.016502172 -0.041906916 -0.0109174345 -0.0073739793 0.07380597
-0.0036469828 -0.018526342 0.0071854675 0.076138094 0.0069356537 0.04665136 -0.03608584 0.3579187
-0.004594421 0.014480164 -0.025213357 -0.02965266 0.35091284 0.0054859165 0.0042970204 -0.016031628
0.008774571 -0.014330065 0.019674022 0.02371841 -0.01904825 -0.030708404 0.042007558 0.049158208
0.036210693 0.013707065 -0.011396683 -0.011752 0.026170472 0.034731723 0.11285631 0.0022894791
-0.106988244 -0.024773663 -0.022174288 0.0050405 0.05492494 0.09262645 0.04346114 -0.08481689

layers.1.weight f4 [128, 128]
00000000: dc90 98bf 5523 26bf 0b58 133e a545 3d3d
00000010: 2da4 50bf 51ec d3be b717 633f 0916 a9bf
00000020: e326 5fbe 85b8 babf 3d55 2e3f 2617 b7be
00000030: e99a bc3d 730d 4d3e 0731 073f b47a 8d3c
00000040: e309 11bf ac85 4ebe 29d6 0fbe 6a1f 1dbd
00000050: b119 a2be 2220 b5bd 6287 2a3f 12fb b03e
00000060: e675 2ebe c05c 9fbd 6124 8c3f d0d3 4b3f
00000070: 4d9e 193f 8b49 403f fe06 ee3e ef50 063d
00000080: 6f76 733e d8c6 96be cab2 093e 7ff4 f9bc
00000090: 1bce 49be 457f 3abc 2a40 163f d937 df3e
000000a0: 31a1 81bf 0764 bbbe d7ce 163f 973b 003f
000000b0: b5e7 e2be 27c4 adbf 9b2a f5be 076d b43e
000000c0: 8476 a73e 8cd9 8a3f fee6 bd3d ecbb 823e
000000d0: 7321 bfbf aff9 0ebf e329 69be 4338 b83c
000000e0: b20c 0cbe b3cb 533f b96c 343f 6803 5fbd
000000f0: 8d7d 8abe d98a b13e 6629 c6bc afa5 243e
00000100: d7dc 98bf d491 ed3e b59b 53bf 306b bebe
00000110: cd79 0d3e 8ff2 2e3f b732 6fbf 0211 dc3e
00000120: fcfd 80be ad8d 833d 9246 19bf 4de0 25be
00000130: 0019 f73c 682d 79bf 40ac 033e c89e d83e
00000140: 38d8 033e aa51 223f a148 b63e 8ba4 5e3e
00000150: 9d0c 053e 90bc 2fbf e934 c93e 647b 883c
00000160: b5cc 893d 063c 663d 1bb9 38bf 5d6b e73d
00000170: c552 fa3e 359d 6bbe 094c 1c3f 4765 5b3c
00000180: d00b 04bf 0507 0d3f e505 d23f b4bb 723d
00000190: 8ac5 e03d e628 3c3c b2c1 71bd 96aa a33f
000001a0: f0f1 4c3a 6b8f 19bf 784f a03d a677 e23d
000001b0: 34a4 f5be 00d7 e63e c122 67be d1bb 0ebf
000001c0: 7785 c2be 9637 8cbe fcf9 503f 19b7 0e3f
000001d0: 53f6 7ebf f56a dfbe c8c3 8e3c 219c 123d
000001e0: f852 e73e ddf6 693f 807e 32bf 983c 00be
000001f0: 4949 f1be f17c 333f 6b97 4fbf 6a2a b0be
00000200: 59a6 a13d 684e a13d 794f 973d 61f8 4f3d
00000210: bac0 eb3c 27c6 c4bc be09 293d c774 d1bc
00000220: 05dc 873b bdca 2bbc 5981 a2bc 006f d13c
00000230: 2529 613d 05cf d83c 8ba8 993c eb6d 9a3d
00000240: 5f3f 9b3b e21b aabd dd05 8bbd 7a70 9bbb
00000250: 1b8e 963c e3c0 d33c 5568 233c 3e40 c83b
00000260: 3410 35bd 863a 89bd 5031 2abd 077a 49bd
00000270: ab15 3e3d f15e 603d 29d2 29bd 92e9 963d
00000280: b1cb 8bbb 53e3 8cbd 8a4b aabd 3089 993d
00000290: c86f 58bd 0df1 433d fe20 f43a 7dba a43d
000002a0: 1d6f 0c3c 0466 bdbc 7c4d 973d bbea 963d
000002b0: 9687 4a3d f408 02bd f505 8ebd d8c9 64bd
000002c0: 4d16 923d 054b 52b7 9d12 2b3d 798e c2bc
000002d0: b1e3 9dbd 02f9 c23d 6231 513d 9f86 2f3d
000002e0: c25e f5bc 1f25 8dbd 5d09 803d 8676 883d
000002f0: 62d7 59bd 055f a33d 4702 3fbd 91e0 0ebd
00000300: c1ba 2e3c 2929 76bd 9398 19bc 7343 88bb
00000310: 245c 37bd 0032 243d b561 d33d eea7 77bd
00000320: 0d4e bcbc 73a1 43bd a8db 043d a4b7 543d
00000330: f2eb 25bd 43c7 443d 7069 bb3d 94ff b63c
00000340: 39af b4bd 3c9c 173d a133 9e3d 48b9 893d
00000350: 1dac 093d 1040 b13d 9059 bbbc 5e40 b1bd
00000360: dbe9 3dbd 9e9a bc3d 9f3e 8a3c c7c4 8fbd
00000370: 270b 6fbd f66d 523d 4eae c5bc 99a4 b33a
00000380: 6e6a 153d 820e 8e3d d863 823c 0115 783d
00000390: f134 90bc d9b7 a8bd 6866 b23d 117d 983d
000003a0: 5b8d b33d 5df3 a4bc 9c1e 223d 127d 58bd
000003b0: 3d34 4e3d 38cf de3c d611 fabc dedf c6bc
000003c0: 0103 af3c ad60 74bc 0108 433d a79e 033c
000003d0: 32b3 25bb 89a6 f7bc 681d 4dbd fe32 93bd
000003e0: 73be 42bd faf0 99bd cc0d 0cbb d028 88bd
000003f0: 1f93 80bd b875 10bd f123 8d3c fd7b 8a3d
-1.1919208 -0.6489766 0.14389054 0.046208996 -0.8150051 -0.41391233 0.8870806 -1.320985
-0.21792178 -1.4587561 0.68098813 -0.35759848 0.09209234 0.20024662 0.52809185 0.017270423
-0.5665571 -0.2016818 -0.1404654 -0.038360037 -0.31660226 -0.088440195 0.6661283 0.3456655
-0.17037162 -0.077813625 1.0948602 0.79620075 0.6000717 0.7511222 0.4648971 0.032792028
0.23775648 -0.2944858 0.13447109 -0.030512093 -0.19707529 -0.0113828825 0.58691657 0.43597296
-1.0127317 -0.36599752 0.5890936 0.50090927 -0.44317403 -1.3575486 -0.47884068 0.3523943
0.32707608 1.084764 0.09272574 0.25533998 -1.4932083 -0.55849737 -0.22769885 0.022487765
-0.13676718 0.82732695 0.704784 -0.054446608 -0.27048913 0.34676245 -0.024189662 0.16078828
-1.1942395 0.4640032 -0.82659465 -0.37191153 0.13815995 0.68338865 -0.9343676 0.42981726
-0.25193775 0.06423507 -0.59873307 -0.16198845 0.030163288 -0.9733491 0.12858677 0.4230864
0.1287545 0.6340586 0.35602286 0.21742456 0.12993093 -0.686471 0.3929818 0.0166604
0.06728498 0.056209587 -0.7215745 0.11299775 0.48891273 -0.23009188 0.6105352 0.013390846
-0.51580524 0.55088836 1.6408049 0.05926104 0.109751776 0.01148436 -0.059022613 1.2786434
0.0007818034 -0.59984463 0.078276575 0.110579774 -0.4797684 0.45085907 -0.22571851 -0.55755335
-0.3799245 -0.2738616 0.81631446 0.55748135 -0.9959461 -0.4363629 0.01742734 0.035793427
0.45180488 0.9139231 -0.69724274 -0.12523115 -0.47126225 0.7011252 -0.8109042 -0.3440736
0.078930564 0.07876283 0.07388205 0.050773982 0.028778423 -0.024020268 0.041269056 -0.02556838
0.0041461014 -0.010485348 -0.019837068 0.025565624 0.05497088 0.026465902 0.018757125 0.075404964
0.004737779 -0.083060995 -0.06788228 -0.004743633 0.018378308 0.025848811 0.009973605 0.006111174
-0.044204906 -0.067006156 -0.041550934 -0.04918864 0.046407383 0.054778043 -0.04146019 0.07368769
-0.0042662253 -0.06879296 -0.08315189 0.074968696 -0.052840978 0.047837306 0.0018625555 0.08043382
0.008571413 -0.023119934 0.07387826 0.0736899 0.04944571 -0.03174682 -0.0693473 -0.055856556
0.0713316 -1.2534442e-05 0.041765798 -0.023749577 -0.07709444 0.09520151 0.051072486 0.042852994
-0.02995241 -0.06891846 0.06251786 0.066632316 -0.05318392 0.07977108 -0.04663303 -0.034882132
0.010664643 -0.060097847 -0.009374755 -0.004158431 -0.044765607 0.040086746 0.103213705 -0.060462885
-0.022986436 -0.04776139 0.032436043 0.051932946 -0.040508218 0.048041593 0.0915097 0.022338666
-0.088224836 0.03701423 0.07724691 0.06724793 0.033611406 0.08654797 -0.022869855 -0.08654855
-0.0463656 0.092091784 0.016875563 -0.07019954 -0.058360245 0.0513744 -0.024130967 0.001370567
0.036478452 0.06936361 0.01591675 0.060566906 -0.01760337 -0.08238191 0.08710939 0.074457295
0.08767196 -0.020135576 0.039579973 -0.05285365 0.050342787 0.027198419 -0.030526083 -0.02427667
0.021363737 -0.014915627 0.047615055 0.008033431 -0.002528381 -0.030230777 -0.050076872 -0.0718746
-0.047544908 -0.07516666 -0.0021370528 -0.06648409 -0.06278061 -0.035268515 0.017229052 0.0676193

layers.1.bias f4 [128]
00000000: 02d3 523e b419 273c d331 883c 8dff 99be
00000010: 3348 69be 33d9 453e b2d1 283e 3a0b 40be
00000020: ba44 503f 1433 d0bd 0eeb 423d 5bff 16bd
00000030: 66bf 123e 4f40 023e 5ffe 683e 99f4 263d
00000040: 2da1 1fbe 5d71 22be 2df7 da3c d9d0 0fbe
00000050: 4f0d d3bd c133 9dbd bf64 153e 907b 1abd
00000060: 27e6 4e3c bd88 abbd 2a21 d8bc 43ad 553d
00000070: 07fb 68be eda1 9ebd 91db b4bd c039 223c
00000080: f816 23bb 24c6 cb3d 9518 77be b917 5fbc
00000090: 5c5d 16be adbb f8bc c6ed f6bd 9b99 73bc
000000a0: 78a0 393e bb65 5fbc e141 5cbe b65f 573d
000000b0: 4eb3 85bc b12b babd 5a9f b33d 6268 cebd
000000c0: 2fe7 803e bec9 e3bc 3b21 60be 1b47 883e
000000d0: e5c3 ccbc 8d5c 84be 8181 fb3c 5b54 aabd
000000e0: b3f1 a1bd 2dc6 173c 232b f53c 1ea7 bcbc
000000f0: fecd 0dbe 3b53 3d3e 9610 86bd 9f1b 8cbd
00000100: 1def 37bd 8c2a 6cbd 168d 0fbe ed26 5fbe
00000110: 19fa 85be d769 a5be 3b25 a23b caf7 a5bd
00000120: a654 30bd fc25 5dbd d15b 753d cfd4 543e
00000130: 0fc6 013f 3d1a 83be 5322 7bbd 90ab 0a3f
00000140: 616c a73e 6a13 173e 301f 99bd 6e8a 77bb
00000150: b174 3ebd cdee ff3d 27fa b13c 1348 68be
00000160: a38b 1abd 6a0c 79bd 893b 8dbd 42da bfbe
00000170: edf9 fe3c 309a 84bd 4979 b6bc 75ad bcbd
00000180: 9130 31bf 7255 07be 0e18 683c 9b2c a73c
00000190: 4462 15be d6f8 babd 698d 0bbc 75ea 3e3e
000001a0: 8479 42be 29d9 81bd c18e edbd 6b1d 57be
000001b0: 20b3 8f3e 3810 473f ceee 153e 5aff 2f3d
000001c0: 67aa adbd d5db a3bd 1d9a bb3e 665e 73bd
000001d0: d44e d2be 3b74 cabd 125b ffbc 490e 81bd
000001e0: d7b0 0fbe 1557 34be e2c8 23be 6626 b3bd
000001f0: 49b7 80bd 12d7 b03e a650 f5bc 017f 953f
0.20588306 0.010198999 0.01662532 -0.30077782 -0.22781448 0.19321136 0.16486242 -0.18754283
0.8135487 -0.101659924 0.047587447 -0.03686462 0.14330825 0.12719844 0.22753285 0.04076061
-0.15588827 -0.15863557 0.02672919 -0.14044513 -0.10305273 -0.07675887 0.14589213 -0.037715495
0.012628115 -0.0837569 -0.026383001 0.05216719 -0.2275201 -0.07745729 -0.088309415 0.009901464
-0.0024885517 0.09949902 -0.24130471 -0.013616496 -0.14684051 -0.030362928 -0.120570704 -0.014868165
0.1812762 -0.013635094 -0.21509506 0.05258151 -0.01632085 -0.09090365 0.08770628 -0.10078503
0.2517638 -0.02780616 -0.21887676 0.2661675 -0.024995754 -0.2585186 0.0307014 -0.08316871
-0.079074286 0.009263557 0.029927796 -0.023028906 -0.13848111 0.18488781 -0.06546132 -0.06841206
-0.04490577 -0.057657763 -0.14018664 -0.21792193 -0.26167372 -0.32307312 0.004948286 -0.08103903
-0.043049477 -0.053991303 0.059902016 0.20784305 0.5069284 -0.25605956 -0.06131203 0.54168034
0.32699874 0.147535 -0.07476652 -0.003777172 -0.046498004 0.124967195 0.021725727 -0.22683744
-0.037730824 -0.060802855 -0.06896121 -0.37471205 0.031125033 -0.064747214 -0.02227463 -0.09212772
-0.6921473 -0.13216189 0.014165891 0.020407012 -0.14588267 -0.09129493 -0.0085176015 0.18644126
-0.18991667 -0.06340248 -0.11599494 -0.21007316 0.2806635 0.7775912 0.14641878 0.04296813
-0.08479767 -0.08000914 0.36641017 -0.059416197 -0.41075766 -0.098854505 -0.031171355 -0.06301553
-0.14032303 -0.17611344 -0.159946 -0.08747558 -0.06284959 0.34539086 -0.029945683 1.1679384

layers.3.weight f4 [128, 128]
00000000: 4d0d 923d 36a9 663d 5c14 f03d c370 7e3f
00000010: 84a6 0bbf 5a19 c43e bca2 0fbb 5f99 5e3e
00000020: 484f 79be 4152 173f 52d3 08bf f56a 133c
00000030: ddec 51be e6cf 503e 9c80 ba3e 9349 613d
00000040: 3837 403e 7666 5fbc 165a 203d 1331 3b3f
00000050: 2c87 213e 2f1a 653e 02d9 813e c6b1 3c3e
00000060: e8db 623d 72f9 cc3e cac0 673d c70f 25c0
00000070: 28af 853e 30de 67bd f7bf 81bd d798 ce3c
00000080: 254d fd3d 02c3 813d cf37 b53e 26cf ccbd
00000090: 197a acbc e106 9abd 8adc bebd bf58 703e
000000a0: 5e52 c73d 7c9a 703e b2a7 293f 84bd f53d
000000b0: f049 31bd 5cd3 613d 9dad 2abd fbe5 f13e
000000c0: d28c fc3c f70e a53e 41b5 ed3d be8a e53e
000000d0: d64f 69bf 0c80 513f b213 b4bf 279c c73d
000000e0: 6b8a f43d 5271 90bd bce9 873c 7bb9 523d
000000f0: e3e0 0f3e 59df 11be df6a 423f 8096 843c
00000100: 8c4b 84be 7d2a 193e e755 2b3f 1249 13be
00000110: 13c1 173e 6192 95be 5a3c 4abe 2e96 fb3e
00000120: 2c6c e83e 6697 8a3f 9779 703e ada0 08bf
00000130: 00f4 183e 685a 673f 36fe 8f3b 83de 8ebd
00000140: 6ed2 8bbc e475 e1be 26fc 153f 71a9 dc3d
00000150: 6565 243d a373 51bc a381 35bd 3268 4dbf
00000160: 041a d9bc 10c4 e53c 982e 9b3c 82cc 9f3f
00000170: f74b 183e fe13 36bc 3a7a 5c3d c609 b93e
00000180: 17bb 853f a85b f03e 57e6 a3bd 3f0f 8cbe
00000190: bf06 203f 7aba 103f 972b 053f acf2 513e
000001a0: 7824 4a3f fdea d4bd a6cb 8abd c4e5 fa3d
000001b0: 7cc4 9c3d 7741 98bd 87e3 993c f859 f23d
000001c0: 6727 2abe c83f 813f 3c60 80bf 1fc5 30bd
000001d0: 8542 533f f1a0 c93e cc5f 93bd 1d3d a3bc
000001e0: 59c2 d53d 5d3b fa3e d973 cf3d 6c4e 8d3e
000001f0: 940e 5b3d 537a 9d3c e544 053d d55a aebe
00000200: cdff 8f3e 9a00 d73d 0770 3b3e 2e7a f8be
00000210: 4706 5d3f dbab 1f3d 44f0 cc3e adf3 dcbe
00000220: 537f 7fbe 7710 5f3e b793 9f3e d3db 0cba
00000230: e8d7 9d3d ebe2 25bd 4ceb d83e 4bda 28bd
00000240: f0ba 94be d6c9 353f a8ba 59bd 193d b0be
00000250: ae10 a83e c9cc 0b3f 2582 273f a6c3 2fbe
00000260: 4c49 943d 3bf2 b6be dfbe 2bbc 1813 443f
00000270: 9f39 883f 7b60 7aba 80a8 a3bc bae9 a53d
00000280: b2c6 b03e bf5c e43e c039 3ebf 3890 b7bc
00000290: 8d6a 8abc 6a27 8c3d 16a3 24bd b830 a73e
000002a0: be1c 243e 9ad3 e0bd 1a26 b5be 353a 9c3e
000002b0: 594d 25bd d60a a73d 3a7f b33e 1862 0cbf
000002c0: 1699 113d 6813 15bf a90e cd3e 0392 983e
000002d0: 85d0 193f f909 d43e c303 d73e 05c9 2d3d
000002e0: b5ac 933b 1901 a9bc cac9 103c 8e87 913c
000002f0: 9dd0 1abf 21e1 1b3e 7f60 853e 70ec 2cbd
00000300: ccdf 17bd e626 153f b3b6 abbe cbea 8bbe
00000310: 5ab0 6d3f 2154 c0be c85a da3e 88d7 18bf
00000320: e7b5 44bf 638d 3dbf 5fc9 c9bd 6573 1d3f
00000330: 49fb 1ebf 95eb 33be cd51 8f3d 3081 35bd
00000340: 12fc 76bd 42c0 223f 3222 04bf fd96 27be
00000350: 1c5a 91bd a64d e23e ea2c abbd 91fa 9fbc
00000360: 9fb7 e8bb 3263 af3d ce75 e8bd d283 57bf
00000370: dc7e 713e 2642 7c3d f905 92be a8b0 adbb
00000380: 4c2a b6bd 6f6b 9ebe a50a 8e3d 9f05 33be
00000390: 1e85 e83e 1597 6fbf bbc5 c9be 304a 543e
000003a0: 9ec5 b83e ece7 1abd a884 75bd b2e0 f8be
000003b0: 94ce 1bbf a33b abbe 585f 213d 881b 9fbb
000003c0: 843b 023e a9df 12bf dd54 eb3e 6175 2dbe
000003d0: 1c47 923d 827c a83f ff7c 0cbe 04a7 9f3d
000003e0: 561b 81bc 2b66 0f3d 6a00 85be b94a 683e
000003f0: 4284 14be e3b0 ae3d 501a b93d c77d 96be
0.07131443 0.056313716 0.11722633 0.9939081 -0.5455096 0.38300592 -0.0021917066 0.21738194
-0.2434665 0.59109885 -0.5344745 0.0089976685 -0.20500512 0.20391807 0.36426246 0.055001806
0.18771064 -0.013635268 0.039148413 0.73121756 0.1577422 0.2237327 0.25360876 0.1842719
0.0553855 0.40034062 0.056580342 -2.579088 0.26110196 -0.05660838 -0.063354425 0.025219364
0.1236823 0.06336023 0.3539414 -0.10000448 -0.021054314 -0.07520843 -0.09319408 0.23471354
0.09732507 0.23496431 0.6627151 0.11999038 -0.043283403 0.05513321 -0.041669477 0.47245774
0.030828867 0.3223798 0.11606837 0.44832414 -0.91137445 0.8183601 -1.406851 0.097465806
0.11940464 -0.07052864 0.016590945 0.05144642 0.14050631 -0.14245357 0.7594432 0.016185045
-0.25838888 0.14957614 0.6692795 -0.14383343 0.14819746 -0.2921324 -0.19749585 0.49138016
0.4539503 1.0827453 0.23483883 -0.5337017 0.14936829 0.90372324 0.004394318 -0.069760345
-0.017068114 -0.44035256 0.58587873 0.10774506 0.04013576 -0.012783918 -0.044313084 -0.80237114
-0.026501663 0.028047591 0.018943116 1.2484286 0.14872728 -0.011113165 0.0538275 0.3614027
1.044772 0.46944928 -0.08002918 -0.27355382 0.62510294 0.5653454 0.5201964 0.20502728
0.78961897 -0.10396383 -0.06777124 0.122508556 0.07654664 -0.074343614 0.018785251 0.118335664
-0.16616593 1.009759 -1.0029368 -0.04315674 0.82523376 0.393806 -0.07196006 -0.019926602
0.104374595 0.48873416 0.10129518 0.27598894 0.0534807 0.019223368 0.032536406 -0.34053674
0.28124848 0.104981616 0.18304454 -0.48530716 0.86337703 0.038982254 0.40027058 -0.4315466
-0.24950914 0.21783625 0.31167385 -0.00053733325 0.077071965 -0.04049961 0.42367017 -0.041223805
-0.29048872 0.710111 -0.053156525 -0.34421614 0.32825226 0.5460935 0.6543296 -0.17164478
0.07240543 -0.35731682 -0.010482519 0.76591635 1.0642585 -0.000955112 -0.019977808 0.081012204
0.34526592 0.4460201 -0.7430687 -0.022407636 -0.01689651 0.06843455 -0.040194593 0.32654357
0.1602659 -0.1097786 -0.35380632 0.30513158 -0.040356968 0.08156364 0.35058004 -0.5483718
0.035546385 -0.58232737 0.40050247 0.29798898 0.600838 0.4141386 0.41995057 0.042428035
0.0045066723 -0.020630406 0.008837173 0.017764833 -0.6047457 0.15222599 0.26050183 -0.042217672
-0.037078664 0.5826248 -0.33537826 -0.2732757 0.92847216 -0.37564185 0.42647386 -0.59703875
-0.7684006 -0.74043864 -0.098528616 0.61504203 -0.6210218 -0.17570336 0.06998024 -0.044312656
-0.060298987 0.6357461 -0.5161468 -0.16366191 -0.07097265 0.44199866 -0.08358176 -0.019528659
-0.0071019675 0.08563842 -0.113505945 -0.84185517 0.2358355 0.06158652 -0.28520182 -0.0053006
-0.08894786 -0.3094134 0.06935624 -0.17482613 0.4541406 -0.9358991 -0.3940867 0.20731425
0.3608827 -0.037818834 -0.059940964 -0.4860893 -0.6086209 -0.33443937 0.039397568 -0.004855577
0.12718016 -0.5737253 0.45963183 -0.16939308 0.07142469 1.3162997 -0.13719557 0.077955276
-0.015760105 0.035009544 -0.25976878 0.22684754 -0.14503577 0.08529832 0.09038222 -0.29392835

layers.3.bias f4 [128]
00000000: b087 83bd 79c5 27bf 2c8d 7fbb 2977 0a3e
00000010: 0436 6fbe e1be a1bd dfad 94bc 09ee 2d3c
00000020: 2c61 8cbe fa61 04be 0231 bdbe d1e0 a3bd
00000030: 38ae 0bbf 005d eabc f482 d9bd 1223 36bd
00000040: e53e 8a3d 8360 bebc 23c0 1ebd 1f5b 893e
00000050: bdd0 5abe 5dbf 9fbd e2f8 39be 9f85 afbe
00000060: aa56 003e 516c 8b3d 36ee 93bd 3fcc 01bf
00000070: e8ed 85bd d1e1 fcbd cbd6 7f3e 7183 d4bd
00000080: 19f1 83bc f797 5ebd 4457 0ebe f7dc 4dbe
00000090: b65f e2bc f9ff e03d 75e1 5bbd 1fc9 db3b
000000a0: ef8e 803d 6e5d d13d f50d eabd 14ee f4bd
000000b0: 3014 303e aff8 1ebe d41d 3cbe fb50 e6be
000000c0: fcfb 8bbd bb20 a2bd 3dd2 5bbd 8f20 50be
000000d0: e390 bf3d 5a79 aabd f973 8bbe b25f 743c
000000e0: 99d0 c4bd f06f b7bd b24d f1bd 143e bcbd
000000f0: 8053 25be 8a0c c4bb bf05 12bf 18f8 a9be
00000100: bfd5 90bc 69f6 a0be 27f2 04be 155a aabc
00000110: 74b5 e6bd 164a bebd 3751 82be 77f9 bdbd
00000120: 9cdb a5bd 4ced 21bd f3f6 e3be 79b8 8dbd
00000130: 050a 7dbe 760f 9cbd 6eec e3be dcaa 9dbd
00000140: e70d c5be d78a b2bc cc71 52be 4ec6 e83d
00000150: 9141 0abd 2bad 31bf da46 103e a9ac a9be
00000160: 19d5 b03d 57b1 85bd 685f 4eba f06c 463e
00000170: 5eb2 74be 4ff1 8dbd 644d bd3c 5e3d 36bd
00000180: 5906 a5bc 8ea9 78bc 10a5 debe f114 3ebd
00000190: 76e8 3dbe 0e65 61bd 1815 b9bc 1bf3 c4bd
000001a0: d36e cc3d ed0e a1be 3803 28bd e0b5 dabe
000001b0: 5668 a9bd b501 f5bb 8592 dfbc 6f6a 4ebe
000001c0: b86c 8abe 3cc2 76bd 65e1 66bd 5044 0bbd
000001d0: e7fd d8bd a2f0 fdbd 3917 0dbf 89de 5fbe
000001e0: b49e d8bd c509 943d 731b 83bd f865 b7be
000001f0: 903d 0b3e 20a6 9ebd 76c9 ecbe c7f2 85bd
-0.06422365 -0.65535694 -0.0038994057 0.13522018 -0.23360449 -0.078977354 -0.018149314 0.010615834
-0.27417886 -0.12928 -0.36951452 -0.08001865 -0.5456271 -0.028608799 -0.106206805 -0.04446704
0.067502774 -0.02323938 -0.038757455 0.26827332 -0.2136869 -0.078001715 -0.18161348 -0.34281632
0.1253306 0.06807769 -0.072231695 -0.5070228 -0.06539518 -0.123477586 0.24984281 -0.10376633
-0.016106175 -0.054344144 -0.13900477 -0.20103823 -0.02763353 0.10986323 -0.05368181 0.006707325
0.062772624 0.102228984 -0.11428443 -0.11959472 0.17195201 -0.15524553 -0.18370754 -0.44983658
-0.068351716 -0.07916399 -0.053667296 -0.2032492 0.09353807 -0.08323927 -0.27236918 0.014915394
-0.09610099 -0.08956897 -0.11782397 -0.09191528 -0.16145134 -0.00598294 -0.5704002 -0.33197093
-0.017680047 -0.31437996 -0.12982999 -0.020794908 -0.11265078 -0.092914745 -0.25452587 -0.09276097
-0.08098528 -0.039532945 -0.44524345 -0.06919951 -0.24710853 -0.076201364 -0.4451632 -0.076986045
-0.3848717 -0.02179472 -0.20551223 0.113659486 -0.033753935 -0.6940486 0.14089528 -0.33139542
0.08634395 -0.065279655 -0.0007872493 0.19377494 -0.23896167 -0.069307916 0.023108192 -0.044492118
-0.020144628 -0.015177144 -0.43485308 -0.04640669 -0.18545708 -0.055028014 -0.022593066 -0.09616681
0.099820755 -0.314567 -0.041018695 -0.42716885 -0.082718536 -0.00747701 -0.027291546 -0.20157789
-0.2703607 -0.06024383 -0.056367297 -0.034000695 -0.10595303 -0.12399413 -0.5511356 -0.21862234
-0.10577145 0.07228426 -0.0640172 -0.35819983 0.13597703 -0.077465296 -0.46247452 -0.06540447

layers.5.weight f4 [2, 128]
00000000: 0bf3 3740 208b babf 8b63 b43c 3f17 ae3f
00000010: d84f f4be 132c 8ebd ce26 af3f c050 a93f
00000020: 9d1b cf3f 0523 96bf aa62 753f ccfe 753c
00000030: cc82 b83f c5e1 dcbf 9683 2bbf 3564 6ebf
00000040: c371 ca3e 8a66 563b 1295 ccbf 5b1a a53e
00000050: 2408 823f 178d 163d 876b 52bf 2925 2140
00000060: 0155 e7bf 4dd9 65be a663 74bc d107 89c0
00000070: af7f ca3e 615c 66bf 969c 813e d083 21bf
00000080: 3487 14bd e250 5140 6ba4 e73f e78d 4f3f
00000090: b06c 693d ff51 943e 006d 8e3d e05f b8bf
000000a0: e248 e43e e497 0d40 44e9 d4bf facd acbe
000000b0: 34b4 afbf 1224 7ac0 9237 2340 41b1 cc3f
000000c0: fe19 8a3f 25b1 9ebf b36b babc 20fd 6abf
000000d0: d095 7b3f 6968 473d 054e a4bf 782d 0440
000000e0: c2e2 623b 624a 94bb 78af f73d 81a2 06bd
000000f0: da14 43bf d382 9cbd 74cb 99bf 5f45 2840
00000100: 1cb4 79bd 648f f33f 51bb 1cbc f19a 623f
00000110: 429a 3a3f 8963 27bf 40c4 91bf ecd0 943d
00000120: 228e e4bf a161 ecbf 9447 0ec0 647d 56bd
00000130: 274e 5f40 da09 adbf a9c6 6abf c3c7 27bf
00000140: 3911 ea3f b6ed e1be e3d2 473e 4379 5440
00000150: bb77 0ec0 808e a1bf ed16 0a40 d350 f0bf
00000160: 30b3 e23e 02ba 46be 14ef ab3c 1be6 923e
00000170: 78ee 1040 222b 2940 8251 003f 29a5 443d
00000180: 4826 b6bf cf25 1f3b e9a4 7340 73c9 9dbd
00000190: 41dc 043e 95f6 a8bf c3c9 11bd e89a 293d
000001a0: 3dcb 253f 7dbd 81bf 197f 4c3c 03d9 e83f
000001b0: 58f6 9e3c f6bf 59bd fc27 54bd ae26 8940
000001c0: 17fb 1b40 1c6e dfbc 6bd0 26c0 4701 ce3c
000001d0: 63b7 8d3f b2c1 1440 e6b8 55c0 bf0a 453f
000001e0: 3771 ef3e 2ddd 153f 2ad4 293b 5ebd 2040
000001f0: 837a 0c3f a131 5a40 e08d 18c0 376c 553d
00000200: fe26 32c0 9952 b33f 8752 e43c 6b44 b5bf
00000210: a395 d23e dbdc babc d4f4 a4bf ae1a a4bf
00000220: 00b6 cabf 1041 9e3f 7437 79bf 747f ae3d
00000230: 6a93 b6bf 5b72 e93f f0a1 213f beac 773f
00000240: 14bb d8be 0efb bcb9 4226 d53f 483b a5be
00000250: d5c0 71bf 602a f3bc 88fc 463f 1252 24c0
00000260: 7a20 ef3f 47d2 b43e da05 2cbc 8119 8540
00000270: b9a0 d9be e677 833f 7f57 ccbe 320f 3f3f
00000280: 166a 09bd 3928 54c0 2e6f ecbf 4b41 4abf
00000290: ad34 723d 486e c5be 40be ebb9 ce75 be3f
000002a0: 9302 dfbe 203f 0ec0 fbd2 e43f f6b8 c23e
000002b0: 82a9 bf3f eb9d 7340 03bc 25c0 82f1 c3bf
000002c0: 61b3 88bf fdb7 973f 2554 9d3d 83d0 543f
000002d0: 5c69 77bf ca5e b0bb afcb a73f 9b88 06c0
000002e0: 0590 073d 7ffd e3bb c887 00bd 3a2f 8fbc
000002f0: 9d7b 223f f119 053c c125 9f3f b5c1 29c0
00000300: f08d 74bd d23b f5bf 1ec6 33bc 9613 70bf
00000310: 1b95 53bf 14db 253f 5ab5 9a3f 793d 57bd
00000320: 6b66 ef3f 5497 f43f 8a47 0e40 fb13 60bd
00000330: 1ce5 64c0 2d05 af3f ab80 773f 540a 0b3f
00000340: 7b5f f2bf 64f3 b13e 7b1e 45be c895 5cc0
00000350: 96f7 1540 0a5a ab3f dd92 0fc0 fb50 f33f
00000360: c52e f3be 298d 723e 02e9 b13c 7de8 49be
00000370: db92 10c0 0955 26c0 e771 cdbe e339 9f3d
00000380: edbe b43f cd67 2c3b 9278 70c0 92c6 873d
00000390: f8ca f1bd d8fa aa3f 6141 d9bc c7cb 793d
000003a0: f6cc 1cbf 2d2e 5d3f c30a 943d 9b2f dbbf
000003b0: 7608 633d 0786 50bd 4113 b739 6511 87c0
000003c0: 2fc0 17c0 52ae b4bb 5590 2a40 44c3 59bc
000003d0: 6da4 88bf 2664 15c0 f92a 5840 dcc9 44bf
000003e0: 8699 05bf 2ab2 25bf be47 753b 7eb9 18c0
000003f0: 6b4e f1be 26ec 59c0 99ba 1740 a681 3fbd
2.8742092 -1.4573708 0.022020122 1.3600844 -0.47717166 -0.06942 1.3683717 1.3227768
1.6180302 -1.1729437 0.95853674 0.015014362 1.4414916 -1.7256399 -0.6699766 -0.93121654
0.39539918 0.0032714927 -1.5982993 0.3224667 1.0158734 0.036755648 -0.82195324 2.517893
-1.8072816 -0.22446175 -0.014916336 -4.282204 0.3955054 -0.8998471 0.25314778 -0.63091755
-0.036261752 3.2705617 1.8097051 0.810759 0.056988418 0.28968808 0.06954384 -1.4404259
0.44586855 2.2123957 -1.6633687 -0.33750898 -1.3726869 -3.9084516 2.5502667 1.5991594
1.0789182 -1.239781 -0.022756433 -0.9179249 0.9827547 0.048683558 -1.283631 2.0652752
0.0034620021 -0.0045254687 0.12094015 -0.03286982 -0.7620369 -0.0764214 -1.2015214 2.629234
-0.06096278 1.9028134 -0.009566144 0.8851767 0.7289163 -0.65386254 -1.1388016 0.07266411
-1.7855875 -1.8467294 -2.2231188 -0.052365676 3.489145 -1.3518631 -0.9170938 -0.6553919
1.8286506 -0.44126672 0.1951404 3.3199012 -2.2260578 -1.2621613 2.1576493 -1.8774666
0.44277334 -0.19406894 0.020988025 0.28691182 2.264555 2.6432576 0.5012437 0.04800907
-1.4230433 0.002428401 3.8069403 -0.07704439 0.12974645 -1.3200251 -0.035592806 0.041407496
0.6476324 -1.0135952 0.012481474 1.8191227 0.019404575 -0.053161584 -0.051795945 4.2859716
2.4372003 -0.027274184 -2.6064708 0.025147093 1.107159 2.3243222 -3.3394103 0.7696952
0.46766064 0.5854061 0.0025913813 2.511558 0.5487444 3.409279 -2.3836594 0.052105155
-2.78363 1.4009582 0.027871383 -1.4161505 0.4112979 -0.02281039 -1.2887216 -1.2820642
-1.5836792 1.2363605 -0.9735024 0.085204035 -1.4263737 1.8238024 0.6313772 0.9674796
-0.4233023 -0.00036045205 1.66523 -0.3227179 -0.94434863 -0.029683292 0.7772908 -2.5675092
1.8681786 0.3531668 -0.010499442 4.1593633 -0.42505434 1.0270965 -0.39910504 0.7463256
-0.033548437 -3.314955 -1.8471429 -0.7900588 0.059132267 -0.385607 -0.0004496444 1.4879701
-0.4355665 -2.2226028 1.7876886 0.3803174 1.4973605 3.8065135 -2.5896003 -1.5308077
-1.0679742 1.1853024 0.07682065 0.83130664 -0.9664514 -0.0053823935 1.3109034 -2.1020877
0.033096332 -0.0069577093 -0.03137949 -0.017478574 0.6346987 0.008123861 1.2433397 -2.652448
-0.059705675 -1.9158881 -0.010972528 -0.93779886 -0.8264939 0.6478741 1.2086594 -0.05254886
1.870313 1.9108682 2.2231164 -0.054706555 -3.5764837 1.3673455 0.96680707 0.54312634
-1.8935388 0.34756005 -0.19249909 -3.446642 2.3432364 1.3386853 -2.2433388 1.9009088
-0.4749662 0.23686661 0.021717552 -0.19717593 -2.2589633 -2.5989401 -0.40125963 0.07774713
1.4120766 0.0026306987 -3.757359 0.06629671 -0.11806291 1.3357801 -0.026520433 0.060985353
-0.61250246 0.86398584 0.07228615 -1.7123903 0.05542799 -0.05090907 0.00034918825 -4.2208734
-2.371105 -0.0055139447 2.6650593 -0.013291184 -1.0675179 -2.3342376 3.3776228 -0.7687051
-0.52187383 -0.6472498 0.0037426795 -2.3863215 -0.4713014 -3.4050384 2.370764 -0.0467545

layers.5.bias f4 [2]
00000000: 56b8 b63e f67b ccbe
0.35687512 -0.39938325
