model_zoo/Apprentice/MountainCar-v0/target_1470976.pth (torch, 138295 bytes, 8 tensors)

layers.0.weight f4 [128, 2]
000000 67 9c 91 be 19 66 db be 77 83 8c be 6f fc 62 be
       -0.28439638 -0.42851332 -0.2744405 -0.22166608
000010 2f 3f b1 bd d3 a6 36 be a8 0d 95 3e f7 0b 41 bf
       -0.086546294 -0.17837076 0.2911198 -0.7540888
000020 15 80 0b bf dd 28 6f 3f f2 0e 0c bf 2d 48 52 3f
       -0.5449231 0.9342173 -0.54710305 0.8214138
000030 50 f5 ab 3e bb a5 14 3f 37 b6 2a 3f f5 be e3 3d
       0.33585596 0.58065385 0.6668429 0.111204065
000040 e4 da ed be ac 07 38 bd a9 03 15 be dc 83 4e 3f
       -0.46456063 -0.04492919 -0.14552177 0.8066995
000050 65 00 b9 be b6 c6 bf 3e 6f e4 b9 be dd c2 14 bc
       -0.36133114 0.37456292 -0.36307094 -0.009079662
000060 c5 d9 a5 be a6 cd c2 be f3 2f 28 3e ad 13 ce bd
       -0.32392707 -0.38047522 0.16424541 -0.100623466
000070 24 9a cd be 64 3f bc 3e cf 4e ec be 8c cc 0c 3d
       -0.40156662 0.36767113 -0.46153876 0.03437476
000080 d7 26 2f be d4 6c 4f bf 5e f8 3f 3e a7 e1 c7 be
       -0.1710466 -0.81025434 0.18747088 -0.39039347
000090 b3 a5 e1 3e 09 56 f4 be 46 22 45 be b4 31 b2 3e
       0.4407173 -0.4772189 -0.19251356 0.34803545
0000a0 3e 94 28 bf 1f db 6d bf 8c 41 ee 3e f0 fc 01 bf
       -0.658512 -0.9291248 0.46534383 -0.50776577
0000b0 82 cc 0c bf 5b 86 4c 3e af a5 d8 3e a8 c1 7e be
       -0.54999554 0.19973128 0.42313907 -0.24878561
0000c0 98 4a 1f bf 6e 0c ac be 90 43 2f be 2f 62 3b 3f
       -0.62223196 -0.33603233 -0.17115617 0.7319669
0000d0 a7 31 73 3e 77 85 14 bf 0a ff 6c be 93 cf 50 3e
       0.2374941 -0.5801615 -0.23144165 0.20391683
0000e0 f4 96 1c bf 2b 5b 94 3d f0 9a 32 bf 02 d2 2b 3e
       -0.61167836 0.072439514 -0.69767666 0.1677933
0000f0 56 07 bf be f7 a6 57 bf 8f 50 31 3f a2 3c 46 3c
       -0.37310284 -0.84239143 0.6926355 0.012099417
000100 47 34 71 be ff 8d 63 3f 0f 65 bd bd 52 f9 92 be
       -0.23555098 0.88888544 -0.09247791 -0.2870584
000110 5b 18 83 be 09 2a 09 3f 02 b5 ea be d7 66 2e 3f
       -0.2560452 0.53579766 -0.45841223 0.6812567
000120 db b1 12 3e 6c b1 27 3e 6c dd 09 3f d8 d5 26 bf
       0.14325659 0.16376275 0.5385349 -0.6517005
000130 86 07 2f 3e 8b 02 4d 3f 42 c8 20 bf 6e 53 b4 be
       0.17092714 0.80082005 -0.6280557 -0.35219902
000140 2e 80 01 3f fe e3 fb be b3 d6 87 be b1 41 09 bf
       0.5058621 -0.49197382 -0.2653099 -0.5361586
000150 d9 8c 0c 3e aa 35 aa 3b cd 3b 20 3e d0 a8 51 3e
       0.13725604 0.0051943855 0.15647812 0.20474553
000160 06 70 3a be a8 57 f0 3e 39 db 00 bf c2 b4 9d be
       -0.18206796 0.46941876 -0.5033451 -0.3080197
000170 91 0d a0 3e 7a 71 26 3f c8 ce 09 bd 08 3f ce 3e
       0.3126035 0.650169 -0.033644468 0.40282464
000180 8c 09 a7 be ff a2 d6 3e 84 a1 d3 be 67 c9 3e bf
       -0.3262447 0.4192123 -0.41334164 -0.74526066
000190 c6 9e c0 3e 16 ef ae 3e be 34 de be 3a f0 87 be
       0.37621135 0.34166783 -0.43399614 -0.26550466
0001a0 5b a2 35 3e 41 2e 23 bf f7 a3 34 3e 12 7e dd 3e
       0.17737715 -0.6374245 0.17640673 0.43260247
0001b0 4f ea 37 bb b6 b3 53 bd e0 dc a1 be 89 7c 40 be
       -0.0028063243 -0.051685058 -0.31613827 -0.18797506
0001c0 c6 66 f7 3e 9c 19 2b bf f3 63 98 be 37 7f 77 be
       0.48320597 -0.6683595 -0.29763755 -0.24169622
0001d0 2b c9 e1 3e 68 b0 88 be c9 ae 90 3e 18 f6 d7 be
       0.4409879 -0.26697087 0.2825835 -0.42179942
0001e0 a2 4d 00 bf d8 ec d6 3d 05 e6 13 3d 46 47 50 be
       -0.5011846 0.10494393 0.036108036 -0.20339689
0001f0 1e d0 67 be 5a 47 c0 bd cd 5b 53 3e 6c 1f 23 bf
       -0.22637984 -0.09388609 0.20640488 -0.6371982
000200 6f b8 1a 3f a7 31 be be 2c 3c 01 3e 6b 8c 8c be
       0.60437673 -0.37147257 0.1262061 -0.2745088
000210 cc 41 11 3f 2f 76 b7 3e 4c e3 d4 be 66 67 d1 be
       0.56741023 0.35832354 -0.41579664 -0.408992
000220 40 08 58 3e 1d bb f9 3e 2b 76 25 3e 19 a2 9e 3c
       0.21096897 0.4877557 0.16158359 0.019364404
000230 16 27 a0 3e 69 ed b4 3e 05 c2 ef 3c 2a e3 63 3f
       0.3127982 0.3533738 0.02926732 0.890185
000240 38 71 f7 be 09 db 02 be b1 20 d8 be 41 4c 56 be
       -0.48328567 -0.12778868 -0.42212442 -0.20927526
000250 70 9e d7 3e b4 48 f9 3e 9a d0 b8 be d1 67 6a bf
       0.42113066 0.4868828 -0.3609665 -0.9156466
000260 da 05 2f 3e 6d 0c c5 be 04 95 1c bf 1e 8e 36 3e
       0.17092076 -0.38486043 -0.6116488 0.17827651
000270 b8 44 19 3f d9 ad f4 be 1d c7 b6 bd 0c d3 a2 3e
       0.5987048 -0.47788885 -0.089246966 0.3180164
000280 d4 23 33 bf 94 c9 b1 3d aa 04 7b be 88 7e 1f bf
       -0.69976544 0.08681026 -0.24513498 -0.62302446
000290 8f 2a 12 3f 7b 7a 12 bd d3 6f 32 3f 35 87 d0 be
       0.5709619 -0.035761338 0.6970188 -0.40728155
0002a0 89 d2 d1 3e 59 90 0a 3e 43 48 b7 bb 10 07 06 3f
       0.40980938 0.13531627 -0.005593331 0.52354527
0002b0 29 fb dd be 6a 30 25 be 4b 80 a8 3e 40 25 23 bd
       -0.43355682 -0.1613175 0.3291038 -0.039830446
0002c0 eb 0c 2d 3f 09 8d 2a be 25 cf 88 be f8 4c e5 be
       0.67597836 -0.16655363 -0.2672054 -0.44785285
0002d0 ef 1b 35 bf 8f 35 02 be 71 37 28 bf 39 eb fc 3e
       -0.7074575 -0.12715743 -0.65709597 0.4939821
0002e0 de e4 a0 3d 0a 02 42 3e d1 47 21 3f a2 17 e1 bd
       0.07856153 0.1894609 0.6300021 -0.10990836
0002f0 04 31 1f 3f 5e e1 3a bf 73 fc 59 3c 2b c8 b9 3d
       0.62184167 -0.73000133 0.0133048175 0.09071382
000300 7a 11 0f bf 52 ff 0f 3f ce a3 44 3d 65 21 3c be
       -0.5588604 0.5624896 0.04800778 -0.18372114
000310 b8 95 b9 be ec 08 4f 3f b8 14 b4 be 7f 78 2f be
       -0.3624704 0.8087299 -0.35172057 -0.1713581
000320 33 5e ad 3e e0 a5 0a bf 47 92 27 bf 9f b1 2a 3e
       0.3386093 -0.54159355 -0.65457577 0.1666932
000330 cf 1c 32 3f 28 41 85 3f 51 5a 2b bf e9 c3 32 bf
       0.6957521 1.0410509 -0.66934687 -0.69830185
000340 6a 04 0e bf 41 0d b3 be 4b 5e 58 3e 9b f4 53 be
       -0.55475485 -0.3497105 0.2112972 -0.20698778
000350 a4 df 09 3f 4d 17 3e bc 16 ee 71 3e d3 85 c7 3e
       0.53856874 -0.011602235 0.23625979 0.38969287
000360 ba 71 fe 3e 13 0f c7 3e fc e0 24 3f 25 5f 5c 3f
       0.4969614 0.38878688 0.644058 0.8608268
000370 f3 40 13 3f 5b c6 88 3e f3 75 04 be 79 ef 3a bf
       0.5752098 0.26713833 -0.12935619 -0.73021656
000380 8b ca e4 3e a0 fa 85 3e 97 43 30 be 5c 7a d5 3d
       0.44685778 0.26167774 -0.17213283 0.10423729
000390 bf df 27 3f f7 a2 4c 3f 54 47 24 3f 13 1b 31 be
       0.65575784 0.79936165 0.6417134 -0.17295484
0003a0 34 6d fc 3e 5c 20 47 3e f2 cb 30 bf 88 a1 2d 3d
       0.49302065 0.19445938 -0.69061196 0.042390376
0003b0 14 a2 d8 be d7 3d e3 bd 04 d9 da 3e e0 48 0d 3f
       -0.42311156 -0.110957794 0.42743695 0.55189323
0003c0 01 cd 0c 3f fa a8 13 be c5 58 07 3f 4e bf 53 3f
       0.5500031 -0.14419928 0.52869827 0.8271378
0003d0 d9 31 e9 be 82 fb 2d 3f de c6 ce be 5d 34 52 bf
       -0.45545843 0.67961895 -0.403861 -0.8211115
0003e0 36 fb b2 be f9 9e 4b bf e5 18 2a 3f f5 e1 d2 3e
       -0.34957284 -0.7953945 0.66444236 0.41188017
0003f0 6f 42 41 be d0 3d d6 be ca 53 0b bd a4 37 0b 3f
       -0.18872999 -0.41844034 -0.034015454 0.54381776

layers.0.bias f4 [128]
000000 4f b3 08 bf 22 91 cf be b7 66 43 3e 52 ca 85 3c
       -0.53398603 -0.40540415 0.19082151 0.016331825
000010 23 45 a8 be c9 e2 3a be 51 fa da 3e 88 4a 0a 3f
       -0.32865247 -0.18250574 0.427691 0.54019976
000020 95 8a 88 bd de 50 2c bf a9 30 cf 3e d6 bd 05 3f
       -0.066670574 -0.67310894 0.40466812 0.5224279
000030 af 5d d2 be c6 ca d8 3e 3f e7 ab 3e 39 a0 19 3f
       -0.410871 0.42342204 0.33574864 0.60010105
000040 c2 e0 d0 bc ba 1e a8 3e 74 54 b8 3e 74 18 25 bf
       -0.025497798 0.32835943 0.36001933 -0.6449044
000050 79 c3 04 3f 95 b8 5f be 0b 5a d0 be 10 85 9a 3e
       0.5186077 -0.21847756 -0.40693697 0.30179644
000060 6b fd 22 3d e6 19 ff be 87 60 12 bf 3d 79 cc 3d
       0.03979246 -0.49824446 -0.5717854 0.09984062
000070 26 17 55 3e 36 d2 3a be e4 8d 2c be 89 cb aa be
       0.20809612 -0.18244252 -0.16851002 -0.3335841
000080 b6 36 aa be 2f a0 f5 3e cd 13 e5 3d cd bc 2d bf
       -0.33244866 0.47973773 0.11185417 -0.6786621
000090 30 3e 92 be 95 9b c6 be f6 79 70 3e 34 93 b5 3b
       -0.2856307 -0.38790575 0.23484024 0.0055412296
0000a0 b1 4a 09 3f 26 35 ed be b8 cc 7b 3e 2e 2a 05 3f
       0.53629595 -0.46329612 0.24589813 0.52017486
0000b0 e3 a7 27 bf 8e db e7 be 57 fc 2b bd 9a 7f 03 3f
       -0.6549055 -0.45284694 -0.041988697 0.5136658
0000c0 75 30 27 3e c6 58 83 3d 8a 60 ce 3e 4b f8 96 be
       0.16327079 0.064134166 0.40308028 -0.29486308
0000d0 62 78 17 3f ba a7 18 3e 30 2d f3 3e 15 b9 86 3e
       0.59168065 0.14907733 0.47495413 0.2631308
0000e0 58 f2 7d 3d df e5 ce 3e 94 6a 09 3e 45 f1 e4 3b
       0.061998695 0.40409753 0.13419563 0.0069867694
0000f0 e1 ab b2 be 38 71 cc 3c ef 7d 9f 3e c4 e0 67 be
       -0.34896758 0.02495633 0.31150767 -0.22644335
000100 95 cc 33 bf 96 97 02 bd 44 e2 ba 3c 22 02 d9 bc
       -0.7023404 -0.031882845 0.02281297 -0.026490275
000110 33 7d 21 bd 23 46 59 be 9e de a6 3e 52 e9 84 be
       -0.03942604 -0.21218161 0.32591718 -0.2595926
000120 93 c2 79 3e 1b 6c e3 3e 8c b4 8e 3e 41 84 16 bf
       0.2439063 0.44418415 0.2787212 -0.58795553
000130 7f 09 cb be cc 0c 0c bf 4a 28 ab be 4b 7b 2b bf
       -0.39655682 -0.54707026 -0.33429176 -0.66985005
000140 dd ec 31 bf a2 73 82 3d 72 29 3e be 81 dd 13 bf
       -0.6950205 0.063697115 -0.18570498 -0.57759863
000150 77 ba ba 3d 5b fa 15 3e 3b bd a5 3e 4a bf cb 3e
       0.091175966 0.14646284 0.32370934 0.3979438
000160 b4 43 ab 3d e9 ac 8c bd 90 d1 c7 be 43 cc 2b 3e
       0.08362523 -0.068689175 -0.3902707 0.16777138
000170 e9 e3 10 bf 05 3d eb be cd 6c d2 3e 3b 25 27 3f
       -0.56597763 -0.45944992 0.41098633 0.65291184
000180 f8 8a 96 3d 66 ab 8a 3e 8f 9c 4a be c2 a5 03 3f
       0.07350725 0.27083892 -0.19786285 0.514248
000190 c6 64 dd 3e a4 a2 9f be dc 17 10 bf f5 6e 33 be
       0.43240947 -0.31178772 -0.56286407 -0.17522795
0001a0 2a 14 0a 3e f6 15 21 bf eb f0 6c bd 40 1a 55 3e
       0.13484254 -0.62924135 -0.057846945 0.20810795
0001b0 c7 9a 36 bd a1 38 da 3e 07 5b 96 be d5 81 4b 3e
       -0.0445812 0.4262133 -0.29366323 0.19873746
0001c0 3c 31 2b bf e5 d1 fc 3e 24 6e b7 3c 28 a8 19 3f
       -0.66872 0.49378887 0.022391386 0.6002221
0001d0 31 21 3a be 16 67 de be b0 d3 ee 3e 62 aa 97 be
       -0.18176724 -0.43438023 0.4664588 -0.2962218
0001e0 38 40 aa be 55 44 91 3e 0b 55 35 3f cf 0f 34 bf
       -0.3325212 0.28372446 0.7083289 -0.7033662
0001f0 ea 92 1b bf d4 0b 2f 3f 60 77 a6 3d 7b 92 87 be
       -0.6077105 0.68377423 0.08128238 -0.26478943

layers.1.weight f4 [128, 128]
000000 49 93 ab 3d b4 68 ab bd 22 d7 f7 bb 25 20 a2 3b
       0.08377702 -0.0836958 -0.0075634876 0.0049476796
000010 15 1e a0 bd 65 14 25 bd 77 f0 96 3d 17 be 08 3b
       -0.07818238 -0.040302653 0.07370084 0.0020865256
000020 8f 11 95 3c 31 9c 7f bd 64 c4 50 bd c8 f7 ed 3b
       0.01819685 -0.062404815 -0.050968543 0.007262204
000030 c3 79 85 3d 41 08 a8 bd d5 b5 27 bd bd ea 63 bd
       0.06517365 -0.08204699 -0.040944893 -0.055643786
000040 b1 38 a8 bd c6 66 4f 3d 96 ec fa 3c bc 5c 51 3d
       -0.08213938 0.05063512 0.030630391 0.05111383
000050 9d 67 70 3d 2e 13 4f bc eb 2e cf bc a5 10 af 3d
       0.058692563 -0.01263885 -0.025290927 0.085480966
000060 48 de 52 bc e1 be 61 3d ea 37 41 bc c8 50 1b bd
       -0.012870379 0.055113677 -0.011793116 -0.037918836
000070 e5 41 ac bd 05 b5 aa bc d9 d6 20 bd 46 9d 88 bd
       -0.08411006 -0.02083827 -0.039267395 -0.066706225
000080 a3 49 c0 3b d4 74 9d bd bf 31 46 bd fa fd 4c bd
       0.005868153 -0.07688299 -0.048387285 -0.0500469
000090 34 6a 98 3c 97 a3 1b bd a5 56 34 3d 3e a5 79 bd
       0.01860533 -0.03799781 0.044027943 -0.060948603
0000a0 ad af 37 bb 5a c3 0f bd 66 7b 4a 3d 65 0e a6 bd
       -0.0028028295 -0.03509841 0.04943409 -0.08108214
0000b0 24 58 a1 bd 6a d0 4b 3d e0 bb ae bd 9e ac 31 bc
       -0.078781396 0.049759306 -0.08531928 -0.010844378
0000c0 a3 b1 90 3d a1 6d 61 bd de 3c b4 3d fc f0 a3 3d
       0.070651315 -0.05503619 0.08800672 0.080049485
0000d0 d6 36 78 bd 11 1b fb bc 50 23 6a 3d 4d d5 6b bd
       -0.06059917 -0.030652555 0.057162583 -0.057576466
0000e0 4b 9a 07 3d bb ff d3 3c a9 4a a8 3c ac 80 11 3c
       0.03310613 0.025878778 0.020543413 0.008880775
0000f0 b8 57 64 3d 0d 50 63 3d 2a b6 06 3d dc 2e d5 3c
       0.055747718 0.055496264 0.03288857 0.02602332
000100 4f 87 91 bd 7b 48 cb 3c a0 b8 61 bc 79 d1 30 3d
       -0.07105886 0.024814835 -0.013776928 0.04316852
000110 64 6e 96 3d a3 08 8f 3d 00 5b ae bd b3 64 82 3d
       0.07345274 0.06984069 -0.085134506 0.06366863
000120 59 e0 6d bd da 8a 0e 3d ca c5 06 bc ba eb 35 3d
       -0.058075283 0.034800388 -0.0082258675 0.04441426
000130 0e 3a 6f 3d a0 2d 5b bd 6c 0f 27 bd d5 4e f4 bc
       0.058404975 -0.05351031 -0.04078619 -0.029822746
000140 fb 69 54 3d dd e7 64 bd 40 0e 67 bd c9 d2 6f 3d
       0.051858883 -0.055885185 -0.056410074 0.05855063
000150 2b a6 91 bd f5 5f a1 bd 8b ce 90 3d e8 a8 6a 3d
       -0.07111772 -0.078796305 0.07070645 0.057289988
000160 31 db 68 3c 54 af 66 3d e5 4b 7b 3d 33 90 5a 3d
       0.014212416 0.05631955 0.061351676 0.053360175
000170 87 64 1f bd 60 0c 53 3d 9a cc 82 bd 1c 0f 6c 3d
       -0.03891423 0.051525474 -0.06386681 0.057631597
000180 07 c8 44 bd d1 b8 68 bd c1 f4 a4 bc 84 36 64 3d
       -0.048042323 -0.05681688 -0.020136239 0.055716053
000190 8e c8 83 3d 12 d4 0a 3d f7 05 c9 3c 08 33 a1 3c
       0.06434737 0.033893652 0.024538977 0.019677654
0001a0 7e 40 8f 3d d3 75 08 3d 8c d4 28 bd 5e 34 04 bd
       0.06994723 0.03331549 -0.041218325 -0.032276504
0001b0 53 2f 1a bd 93 d2 84 3c a4 cc 98 3d c2 af fc ba
       -0.03764279 0.01621369 0.07460907 -0.0019278454
0001c0 ac a5 a8 ba c3 e4 c8 bb 4d 84 2c 3d c8 08 67 bd
       -0.0012866757 -0.006130786 0.04211836 -0.05640486
0001d0 ba dc 84 bd cd 2d b0 3d f8 e3 16 ba 9b 39 8e 3d
       -0.06487413 0.08602486 -0.0005756016 0.06944581
0001e0 c0 3a d1 3c af b0 14 bd cf f4 c5 bc a6 81 f1 3c
       0.02554071 -0.03630131 -0.024164585 0.029480767
0001f0 70 0c a6 bd c1 a6 b1 bc 98 ff 94 bd b2 b2 0e bb
       -0.08107841 -0.02168596 -0.07275313 -0.0021773991
000200 5c fd 97 3d 3c 83 92 bc 9b de 9d 3d af 10 93 3c
       0.07421371 -0.017884843 0.07708474 0.017952291
000210 0e 1d 01 3c 62 e8 c9 3c cf 42 d3 bb b5 74 39 3d
       0.007880462 0.024646942 -0.006447173 0.045277316
000220 9c aa a0 3d f1 cc 60 bc ba 80 d1 bc 6b 7d 64 3d
       0.07845041 -0.013720737 -0.025574077 0.05578367
000230 0c 02 7e bd fe f9 9b bd 4e 7f 37 bd e9 bc 49 3c
       -0.06201367 -0.076160416 -0.04479914 0.012313106
000240 4b 4b 89 bc bd 83 52 3d 04 14 ce 3d d8 ac 8f bc
       -0.016759535 0.051395167 0.100624114 -0.017538473
000250 cd 30 19 bc 76 1b ab 3d 50 09 be bd 48 8a 35 3c
       -0.009350014 0.08354847 -0.0927912 0.011080332
000260 66 9e 8e 3d 33 2c ad bd 19 7a fb bc 52 6d 93 3d
       0.06963806 -0.08455696 -0.03069787 0.071985856
000270 9a ba 76 3d a0 d6 1e 39 e0 a5 42 3d 6d cd 15 bd
       0.06023655 0.00015148008 0.047521472 -0.036572862
000280 54 79 2d 3d 63 b1 fe 3c 0e 16 cf bc 22 47 a7 bd
       0.042352036 0.031090444 -0.025279071 -0.081678644
000290 c7 ad ab bc 21 be 9d 3d 91 0f ee bd de 82 73 3d
       -0.020956887 0.0770228 -0.11624063 0.059450977
0002a0 bc 66 26 bd 69 b8 cd bb 73 13 b1 bc af 9b 65 bc
       -0.04062532 -0.006278087 -0.02161572 -0.014014169
0002b0 b4 ac 0c 3a 88 36 81 3d 15 94 56 bb f7 7d bb bd
       0.0005366311 0.06309229 -0.0032742072 -0.09154885
0002c0 f7 8f 13 bd e3 7f 85 3c e1 97 0f bd 50 90 3d bc
       -0.036025967 0.016296333 -0.035056952 -0.011570051
0002d0 65 2e 99 3c d3 0e 92 bd 8c 4a 02 3d 7b b4 01 3d
       0.01869888 -0.07131734 0.031809375 0.03166626
0002e0 75 6a 75 bc 42 3a 8b 3c 3e 57 ba bc eb c8 15 3b
       -0.014978995 0.016995553 -0.022746678 0.0022855352
0002f0 1d fc 87 3d 39 fc 19 3e 5b b2 a5 3c 4f 8c b7 3d
       0.06639884 0.15037622 0.020226648 0.089623086
000300 84 02 52 3d 67 7e 4a bd 69 0d 04 3d cc 56 9c 3d
       0.05127193 -0.049436953 0.03223935 0.07633743
000310 af 99 9c 3d c4 c3 c5 39 c9 25 c6 bd 45 61 aa 3b
       0.076465 0.00037720625 -0.09675176 0.0051995837
000320 14 cb 70 3c 7f da 3b bd 95 1f 72 bd 98 e2 0e 3d
       0.014696855 -0.04586267 -0.05911215 0.034884065
000330 8d 1a 10 bd 25 42 c7 bd 7f 22 3d 3d 3b 67 58 3d
       -0.03518157 -0.09729413 0.046175476 0.052832823
000340 6b 5a 2f 3d a3 51 0d bd 9d ed d6 3c f2 67 b0 bc
       0.04281084 -0.034501683 0.02623635 -0.02153394
000350 ac e4 6b 3c 19 ea e0 3a e0 e1 9b bd 15 4a c1 3c
       0.014397781 0.001715961 -0.076114416 0.023594895
000360 5e d8 3b 3d 08 82 4c 3c ec be 16 3d c1 b2 90 3d
       0.04586064 0.012482174 0.03680317 0.070653446
000370 b8 ce 5a bd 33 2b 79 bd 1c b8 3e 3d 2c a1 45 3d
       -0.0534198 -0.060832214 0.0465623 0.04824941
000380 8c 1e 97 3d 69 2f 87 3d eb 2a d3 3c 5d c3 d5 bc
       0.07378873 0.0660084 0.0257773 -0.026094133
000390 bd bd 90 3d 70 20 01 bd 37 5f b7 bd 96 b5 eb bc
       0.0706744 -0.031525075 -0.08953708 -0.02877311
0003a0 8a 6c f3 3b 7e 30 a2 3d c5 3d 15 bd e1 d4 1e be
       0.0074287103 0.079194054 -0.03643586 -0.15510894
0003b0 ff df 96 3c a5 77 9e bd f3 1c 01 3d fc bd ce bc
       0.018417357 -0.07737664 0.03152175 -0.025237076
0003c0 67 ba f5 3c b2 e2 42 bc e1 e4 e6 3c c0 80 0a bd
       0.02999611 -0.011894869 0.02818531 -0.03381419
0003d0 c7 70 b6 bc 57 a2 14 3d d2 f4 8b bb 7c 4a 5f bd
       -0.022270573 0.03628763 -0.004271128 -0.054514393
0003e0 fe fc 9f 3d 00 6a 15 bd 20 e2 6c bd 23 41 db 3c
       0.07811926 -0.036478043 -0.057832837 0.026764458
0003f0 1f 4d 72 3c 99 4a a6 bd 6f 86 d0 bc ba 09 69 bd
       0.014788895 -0.08119697 -0.025454728 -0.05689404

layers.1.bias f4 [128]
000000 65 aa 7e 3d 10 89 85 3d 03 68 8b 3d f4 59 73 3d
       0.06217422 0.06520283 0.06806948 0.059411958
000010 41 d7 ab 3c f2 ad 07 bd 7d 07 88 bb f7 eb 44 bd
       0.020976664 -0.03312487 -0.0041512833 -0.048076596
000020 94 b1 af 3d 26 1a 82 bd 0f 63 a2 bc d0 44 8b bd
       0.08578792 -0.06352644 -0.019822625 -0.06800234
000030 f5 a1 a5 3d a2 68 3f bd 70 dc ec 3a cc d9 ad 3d
       0.080875315 -0.046730645 0.0018071067 0.08488807
000040 6f a8 dd ba b1 37 b3 3d 4d c4 58 3c ee 90 a4 3d
       -0.0016911159 0.08750857 0.0132303955 0.08035456
000050 f5 f4 9c 3d 7c 2d 56 3b 07 70 83 bd 35 be fc 3c
       0.07663909 0.003268092 -0.06417852 0.030852417
000060 f8 57 35 3d 35 8f ab 3d a1 e6 99 bd 19 d1 92 3c
       0.044273347 0.08376924 -0.07514692 0.017921971
000070 a2 72 cf 3c ed d3 9f 3d e2 f7 76 3d 2a c4 bf bc
       0.025323216 0.078040935 0.060294993 -0.023408968
000080 8b 07 a3 3d 12 fc aa bd 0c 3f 6d 3d 87 c4 ab 3d
       0.07960423 -0.0834886 0.057921454 0.08387094
000090 41 21 7e 3d 3e 3f 19 bd c3 88 a6 3d 0a 4c 18 bd
       0.062043432 -0.037413828 0.08131554 -0.03718189
0000a0 d4 c9 b0 bd d1 3a 3a 3d e4 c0 d6 bc 1d f8 4c 3d
       -0.08632246 0.045466248 -0.026215024 0.050041307
0000b0 c2 d3 6b 3c f3 f7 6a bd 64 84 af bc 1a f6 2f 3d
       0.014393749 -0.05736537 -0.021425433 0.04295931
0000c0 60 39 d4 3b 91 38 59 3d 5e 12 4b 3d 9d 68 95 3d
       0.006476566 0.05303246 0.049578063 0.07295344
0000d0 73 06 7a 3d 18 cb e6 3c f6 e3 c8 3b 82 a7 4a bd
       0.061041307 0.028173015 0.0061306907 -0.049476154
0000e0 ee 94 18 3b 4c 95 65 3b e7 87 24 bd c4 62 1f 3d
       0.0023282128 0.0035031615 -0.04016867 0.03891255
0000f0 9c c6 79 3d 0c 3e 59 3d e5 79 3a 3d 8d 9b ee bc
       0.060980424 0.053037688 0.045526404 -0.029126907
000100 8e b9 a4 3d 6e 0f 25 3d e6 93 48 3d 1c 79 2b 3c
       0.08043204 0.040297918 0.048969172 0.010465886
000110 d9 4b ab 3d 4d c2 90 bd 3f 81 b2 bd e2 92 a8 bd
       0.08364076 -0.0706831 -0.08716058 -0.08231141
000120 3c 70 1a bd a3 ba a5 3c 56 4f 38 bc b5 d9 6a 3c
       -0.03770469 0.020230597 -0.011249384 0.014334132
000130 f0 45 8b 3d d2 a9 b7 bd be 7c 02 3c 86 fd 0c bd
       0.06800449 -0.089679375 0.007964311 -0.034421466
000140 4b 02 55 bc e2 1b 95 bd 8a c4 9e bd c6 5e 08 3d
       -0.013001035 -0.07280709 -0.077523306 0.033293508
000150 01 60 75 3d 08 80 a9 3d e6 03 2d bc 29 b0 84 3c
       0.05990601 0.08276373 -0.0105600115 0.016197281
000160 b9 be 22 3d 7c b9 a9 bd 76 4d 9b bd d9 c5 84 bd
       0.03973267 -0.082873315 -0.07583134 -0.06483049
000170 16 e6 93 bd b1 df fc bb d7 c9 a3 bd a9 66 ad 3b
       -0.0722162 -0.007717096 -0.07997482 0.005291779
000180 8b fa 0d bc 66 aa 88 3d 95 2f 8a 3c c3 4c b7 3d
       -0.008665691 0.06673126 0.016868392 0.08950188
000190 8b 0e 5a ba 5c 5a 48 bd 4d 23 94 bd 35 fe 15 bd
       -0.0008318207 -0.0489143 -0.072332956 -0.036619384
0001a0 03 2b 01 3d e0 bb a1 3d 6e 2e 4f bc 49 dd 6d bd
       0.03153516 0.078971624 -0.012645347 -0.058072362
0001b0 90 5a 9d bd 48 cb 69 3d 64 ca 84 bd 98 ff 2d 3c
       -0.07683289 0.05707863 -0.064839154 0.01062002
0001c0 54 93 8c bc ae d9 2c 3c 3b ea 48 bd 47 bf 19 3d
       -0.017160095 0.010549946 -0.049051505 0.037535932
0001d0 b0 91 55 bd 78 d4 26 3d d1 8a 6e 3c e5 da 54 3d
       -0.05214089 0.04072997 0.014559464 0.051966567
0001e0 2c 27 22 3d 11 39 a8 bd 6d 91 7e bd 7e 34 51 3d
       0.03958814 -0.082140096 -0.062150408 0.05107545
0001f0 43 ed d1 3b be 39 25 3d 3b b1 f0 bc df 14 78 3d
       0.0064064576 0.04033827 -0.029381385 0.06056678

layers.3.weight f4 [128, 128]
000000 68 84 9e bd 7a 3a 9f 3d 03 11 d4 3c 08 7b aa 3d
       -0.07740098 0.077748254 0.025887018 0.083242476
000010 52 57 b4 bd f6 7f 6b b9 0a af 26 bd a4 77 62 3c
       -0.088057175 -0.00022459016 -0.040694274 0.01382247
000020 ee 26 3a 3d c2 f2 50 3d 0d 21 8a 3c a7 80 e4 3c
       0.045447282 0.051012762 0.016861463 0.027893377
000030 3a 85 3c bd 25 d3 f2 3c 01 64 8a 3d d8 df 57 3d
       -0.046025492 0.029641697 0.067573555 0.05270371
000040 fd e2 ff 3c 44 58 b6 3c f0 36 94 3d cb 69 9b 3d
       0.031236166 0.022258885 0.07237041 0.07588538
000050 7d 4e af bd 02 d3 92 3d 80 75 5e 3a 48 bf ac bd
       -0.08559892 0.07169153 0.0008486137 -0.084349215
000060 87 73 7a 3d 75 96 54 3c 71 1c 6a 3d dd 2b b3 3d
       0.06114533 0.012975325 0.05715603 0.08748601
000070 24 c4 6c 3d 4f c5 93 bd 89 50 f1 bb 60 f4 ac 3d
       0.05780424 -0.07215368 -0.007364337 0.08445048
000080 1e aa 04 bd ae ad ad bc 67 32 24 3d d6 ec cb 3a
       -0.0323888 -0.021200981 0.04008713 0.0015558254
000090 ad e1 76 3d b2 3a 65 3d 5f af b3 bb cb 2c 63 3c
       0.060273815 0.05596418 -0.0054835523 0.01386566
0000a0 da 8a 06 bd 61 f0 81 3b d7 9d 7b bd a5 83 92 bd
       -0.032847263 0.003965423 -0.061429825 -0.071540155
0000b0 2c 87 53 bd bf fb 69 3d d0 ff b4 bc d0 c9 56 3d
       -0.05164258 0.05712485 -0.022094637 0.052438557
0000c0 c4 d7 78 bd cb 23 48 bd a0 40 18 bd c7 4c a6 bc
       -0.060752645 -0.04886226 -0.037171006 -0.020300282
0000d0 0e 6c 62 bd f7 2b 0e ba 66 91 be 3d 4b 84 7c 3d
       -0.05527883 -0.00054234214 0.09305076 0.061649602
0000e0 ec 0c fe 3c 6c c3 a2 3d 66 4c 9b bd fa 4f 85 3b
       0.031012021 0.0794743 -0.07582931 0.004068372
0000f0 24 ef 03 3e 1b be d6 3b ea a4 6c 3d 3c 28 22 bd
       0.12884194 0.006553424 0.05777446 -0.03958915
000100 de e7 0e bd c1 fd 41 bd 25 35 ab 3d 9a 2c b3 bd
       -0.034889095 -0.04736114 0.08359746 -0.087487414
000110 ae ef b2 bd b3 77 47 bd b0 ec df 3c b4 f3 a3 bc
       -0.087371215 -0.04869814 0.027334541 -0.020013668
000120 fb 9e ae bc 42 47 89 3c da ea 02 3d f9 bc 28 bd
       -0.021316042 0.016757611 0.031962253 -0.041195843
000130 6b 38 20 bd e3 5f 8e bc 88 69 b1 bd 1e 30 c0 bc
       -0.039116304 -0.017379707 -0.086627066 -0.023460444
000140 db 48 11 bd 60 e2 51 bd a7 82 47 bd 09 a1 f0 3c
       -0.03546987 -0.05124128 -0.048708584 0.029373663
000150 7a 13 6b bd ed 79 06 bd 51 d5 84 bd e0 b4 ab bc
       -0.05739162 -0.03283112 -0.064859994 -0.020960271
000160 92 b1 9f 3d 68 20 fc bc f8 e3 58 bc 1f f8 27 bd
       0.07797541 -0.030777171 -0.013237946 -0.04100811
000170 ae 51 11 3d f9 1e 9f bd 12 c6 37 bd d0 e9 3e bd
       0.035478286 -0.077695794 -0.04486663 -0.0466097
000180 d7 e7 3c bc a2 fd 49 3d 8e fa 8a bc 72 41 74 bd
       -0.011529884 0.04931415 -0.016965177 -0.059632726
000190 c7 1b 19 3d c9 cf 9d bc 73 b6 fe 3b ee 81 ae bd
       0.037380006 -0.019264119 0.0077732145 -0.08520876
0001a0 96 d8 33 bd 35 ed a0 3d f9 d8 81 3d 97 fb 3c 3d
       -0.043907724 0.07857744 0.063402124 0.046138372
0001b0 80 c9 05 3d fc 57 5d bd b8 38 25 3d ba ac 4c 3d
       0.03266287 -0.054038987 0.040337294 0.049969412
0001c0 de 17 96 3d a8 b5 34 bd 05 56 65 bd 14 92 02 3c
       0.07328771 -0.044118553 -0.055990238 0.007969398
0001d0 87 b6 49 3c 23 e0 02 bd 40 5e 8a bd ff f3 63 3d
       0.012311584 -0.031952035 -0.06756258 0.055652615
0001e0 4f d1 b4 3c 0d b0 7a 3d 02 26 81 3d fb 99 a9 3d
       0.022072462 0.06120305 0.063060775 0.082813226
0001f0 12 8f 00 3d 4d cc aa bb 2d cb a8 bd 2a 24 87 b9
       0.031386442 -0.005212343 -0.08241878 -0.0002577615
000200 e2 0e 76 bd 39 83 06 bb f7 b6 e5 3c 6c 85 8b 3d
       -0.060072787 -0.0020524992 0.028041346 0.068125576
000210 6b c3 49 3d 43 bb 03 3d 4e 66 82 3d df 1a 42 3d
       0.04925863 0.03216101 0.06367169 0.047388908
000220 94 26 90 bd 40 27 06 bd 68 7e d7 bc d2 c3 3e 3c
       -0.07038608 -0.032752275 -0.026305392 0.011643367
000230 90 64 91 bd 63 57 05 bc 59 ed e5 bb 35 6c a7 3d
       -0.07099259 -0.00813851 -0.0070168194 0.08174936
000240 c4 21 2c 3d c3 99 2f bb 7a 26 f4 bc 66 de 80 bd
       0.04202439 -0.002679453 -0.029803503 -0.06292419
000250 7f a2 a2 3c 6d 2d ca 3c 0c 03 a6 3d 0b 16 9c bd
       0.019852875 0.024679864 0.0810605 -0.07621392
000260 7b b7 9e 3d 33 80 a0 bd 97 fb 28 bd 9e 00 4a bd
       0.0774984 -0.07836952 -0.04125556 -0.049316995
000270 9e 09 83 3d 06 89 22 3d 04 9f af 3c 1b ec cf 3c
       0.06398319 0.039681457 0.02143813 0.025381139
000280 f6 98 81 3d 41 ad 81 3d 8d 64 44 3d 6f ba 14 3d
       0.06328003 0.06331874 0.047947455 0.03631061
000290 42 ea 89 3d 9a f1 28 3d 4d fd 2c 3c ca 93 b0 3d
       0.06734134 0.041246034 0.0105584385 0.086219385
0002a0 a6 1e 33 bd 40 4f 70 3d 07 5e aa bd f2 50 99 bd
       -0.0437304 0.05866933 -0.083187155 -0.07486142
0002b0 9a 22 83 3c fe 4a 1f 3d 1f 7d 77 bc 26 a9 6d bb
       0.01600771 0.038889877 -0.015105515 -0.003626415
0002c0 c2 9e 22 3d 92 31 b1 3d 0e c4 90 bd c3 26 86 ba
       0.039702184 0.08652033 -0.070686445 -0.001023494
0002d0 00 e2 33 bd c4 8c 67 3d 37 d5 e4 bc d2 fa 8e 3d
       -0.043916702 0.05653073 -0.0279337 0.06981434
0002e0 97 cf 76 3d 47 1f 04 bd b2 73 8e 3c d6 9a 90 3d
       0.060256567 -0.03225639 0.017389152 0.070607826
0002f0 35 b2 49 3e 9e 52 12 3d 3d 55 a5 3c 15 70 21 bd
       0.19696887 0.03572332 0.020182246 -0.03941353
000300 8b 02 24 3e f8 b9 31 3c b3 f2 94 bc 1f 5e 55 bd
       0.16016595 0.010847561 -0.018182134 -0.052091714
000310 00 94 82 bd 12 7a e5 3c 81 75 b7 3c b1 2b 30 bd
       -0.06375885 0.02801231 0.022394897 -0.043010417
000320 7c 20 80 3d 66 25 a0 bd 04 80 9a bb 49 c3 7d 3d
       0.06256196 -0.07819633 -0.0047149677 0.061953817
000330 12 12 05 3c a6 c4 83 bd 63 6f 4b bc 42 3e e4 3c
       0.008121984 -0.06433992 -0.012416693 0.027861718
000340 5a d4 31 bc 97 33 aa bd 2f 91 9e bd 58 ed 96 3d
       -0.010853851 -0.08310621 -0.07742535 0.073694885
000350 19 dd 27 3d cf c0 96 3d a0 69 07 bd d3 50 84 bb
       0.04098234 0.07360994 -0.033059716 -0.0040379553
000360 f5 ef 42 3e 91 ac b7 bd 63 a7 c0 3c 4f 7c 92 3d
       0.19036849 -0.08968461 0.023517316 0.07152616
000370 be 3d e9 bc 99 8b 8f bd 6b 3c 1c 3d 11 25 59 3d
       -0.028471824 -0.07009048 0.038143557 0.053013865
000380 d4 35 a2 3d bb 70 22 3b 7e 6d b9 3a c7 82 a4 3b
       0.07920423 0.002478643 0.0014147011 0.0050204727
000390 fd 4f ad bd ff c0 57 3d 73 60 95 3d 6b ff d1 bc
       -0.08462522 0.05267429 0.07293787 -0.025634488
0003a0 1f 48 81 bd 2f bd 4a 3d 9d 62 3d bc 66 d7 f4 3d
       -0.06312584 0.049496826 -0.011559156 0.119551465
0003b0 e7 62 f9 bb 31 e4 ae bd 96 c2 07 bd 53 dc 52 3d
       -0.007610667 -0.08539618 -0.033144556 0.05147965
0003c0 71 54 a6 3d 52 d6 85 3d a4 5f a6 3d 65 c0 b5 3c
       0.08121575 0.06535019 0.08123711 0.022186467
0003d0 7f c5 16 bd 01 c8 25 3d 31 36 f0 3c 22 10 d6 bc
       -0.03680944 0.04047394 0.029322715 -0.02613074
0003e0 ab f7 92 bd be e2 da bc f3 a6 36 3c ae b4 44 bd
       -0.07176145 -0.026719447 0.011148202 -0.048023872
0003f0 ea 8b 73 3d 13 de f7 3c 06 6e 94 3d 2f 11 22 3c
       0.059459604 0.03025726 0.07247548 0.009891792

layers.3.bias f4 [128]
000000 06 f9 e8 bb 89 fe 85 3d c3 82 3c bd 0c db f7 3b
       -0.007109764 0.06542689 -0.04602314 0.007563954
000010 b6 77 87 bd 57 58 81 bd 0c 14 22 bd 08 ae 59 bb
       -0.0661463 -0.063156776 -0.0395699 -0.0033215303
000020 bf 6c 51 3c 62 ad c0 bc 86 6a 6e 3c 7d 92 01 3d
       0.012782275 -0.023520175 0.014551764 0.031633843
000030 b9 88 8b 3b ab f8 4b bd 13 22 57 3a 81 a3 4f bd
       0.004258242 -0.049797695 0.00082066766 -0.05069304
000040 25 ad a8 bd ac 53 7e 3d 2c f3 87 bd bc fc 82 3d
       -0.0823615 0.062091514 -0.06638178 0.063958615
000050 75 85 a1 bd f0 01 27 bd 1d d6 7c bd 8b de 25 bd
       -0.07886783 -0.040773332 -0.06172763 -0.040495437
000060 85 60 9c bd 88 69 90 3d 29 08 1e 3d 57 08 04 3d
       -0.07635597 0.070513785 0.038582 0.032234516
000070 0f f7 ec bc 0c 03 77 3d ab d0 70 3d e8 48 a1 3d
       -0.0289264 0.06030564 0.05879275 0.07875234
000080 da 31 18 3b ce 95 9e bd c7 9a f5 3c 7d 41 4b bd
       0.0023223073 -0.07743417 0.02998103 -0.049623
000090 d0 5b 25 bd e9 59 7a bd 9f f0 a2 3c 93 b5 fa 3b
       -0.040370762 -0.0611209 0.019890128 0.00765104
0000a0 e1 af 3c 3b 8a 23 87 3c 93 6c 80 3a d5 ee 73 3d
       0.0028791355 0.016496439 0.0009797983 0.05955394
0000b0 7e f4 93 bc be 6a 30 3b b6 84 e8 ba a5 74 77 bd
       -0.018060919 0.0026919092 -0.0017739746 -0.060413975
0000c0 09 52 af bd 36 7d 53 3d ab 8f 9b 3d 9b e4 0a bd
       -0.08560569 0.051633082 0.07595762 -0.03390942
0000d0 46 98 8f 3d 7c bf 00 bb 78 63 53 3b b2 d8 70 bd
       0.07011466 -0.0019645384 0.0032255333 -0.058800407
0000e0 f6 83 85 3d 7c eb 7e 39 51 ac dc bc d8 b9 10 bd
       0.0651931 0.00024311052 -0.026937636 -0.035333484
0000f0 eb 8f 9d 3d 13 24 61 bd 30 cb d3 bc 38 cf 65 bd
       0.07693466 -0.054966044 -0.025853723 -0.056105822
000100 46 67 3f 3c 13 26 01 3d cf 56 6b ba 9d 56 08 bd
       0.011682337 0.03153045 -0.0008977474 -0.033285726
000110 9f d3 89 bd ad 43 24 3d 64 11 86 bd a0 b2 93 bd
       -0.06729817 0.040103603 -0.06546286 -0.072118044
000120 d9 b3 e8 3c 6b 24 99 bd 5d be 75 bc 74 32 74 bc
       0.02840607 -0.07477649 -0.014998999 -0.014904607
000130 58 31 f6 bc 9d 6c 5d 3b de 54 cd bc fc e4 53 bd
       -0.030052826 0.0033786662 -0.025064882 -0.05173205
000140 48 e9 d2 3c bc 92 a1 3c 52 d2 a5 bd 15 6e b7 3d
       0.025746003 0.019723289 -0.08096756 0.08956543
000150 3e 04 d3 bc b5 32 6f 3d b9 29 83 3c 78 f8 31 bd
       -0.025758859 0.058397967 0.016011106 -0.04344985
000160 72 20 90 3d ae 72 c5 3c 57 c6 6d bd 25 5e b9 3b
       0.070374385 0.024102535 -0.05805048 0.005656975
000170 07 e6 aa 3d b8 35 9a 3d 25 7f 94 3d d7 db 5e 3d
       0.083446555 0.07529777 0.072508134 0.054408874
000180 c2 a4 9a bd 71 49 a0 bd db 7d 65 bd ba f8 b7 bc
       -0.07550956 -0.07826508 -0.05602823 -0.02245747
000190 fe f3 50 bd db 6e c2 bc 3a 9d 79 bd f6 89 14 3d
       -0.05101394 -0.0237345 -0.06094096 0.036264382
0001a0 0d 68 8c 3d c8 d1 ad bd 6d 87 2a 3d c2 21 78 3d
       0.068557836 -0.08487278 0.04163306 0.06057907
0001b0 8d 35 84 3d a0 88 56 3d 3b 55 ac 3c 3c d2 75 bd
       0.064555265 0.05237639 0.021036735 -0.06001495
0001c0 e1 32 6b 3d df 8b 66 3d ff d2 5c 3c f7 c9 7b 3d
       0.05742157 0.056285735 0.01347804 0.061471906
0001d0 78 e1 ab 3d 3e 4a 8c 3d aa 59 68 3d 05 19 4d bc
       0.08392614 0.06850098 0.056726135 -0.012518172
0001e0 45 fa 65 3c d3 17 af 3c a6 62 85 bd 28 dd 95 3d
       0.01403672 0.021373665 -0.06512956 0.07317573
0001f0 e0 91 9c 3d dc b7 76 3d 02 4e a8 3d 22 22 6e 3d
       0.07645011 0.060233936 0.08218004 0.05813802

layers.5.weight f4 [3, 128]
000000 a8 e5 4a 3d 7c d1 e5 bb bc 62 49 3d eb ec 80 3c
       0.049535424 -0.007013498 0.049166426 0.015737971
000010 2a a1 3a 3d 09 d4 74 3d 2d 44 c9 bc cf 19 1d bc
       0.045563854 0.059772525 -0.024568642 -0.009588673
000020 54 ce e5 3c 0a 40 41 bd b1 d0 42 3e 53 be d8 3d
       0.028052486 -0.047180213 0.19024922 0.105831765
000030 8b 2b 42 3e d5 13 b3 bc c7 06 9f 3d 24 4c 8a 3c
       0.18961923 -0.021860043 0.077649646 0.01688201
000040 3f c0 99 bd 08 a3 85 bd 49 78 29 bd d3 70 87 bd
       -0.07507371 -0.06525236 -0.04137448 -0.066133164
000050 26 35 9f 3c c1 94 cc 3c dc 2d 2d 3e 60 09 81 be
       0.019434523 0.024973275 0.16912025 -0.25202465
000060 6d 08 a3 3c 22 eb 85 b9 56 f3 18 3d c9 0f 7d bd
       0.019901479 -0.00025542924 0.03734144 -0.061782632
000070 88 ab 18 3d c2 cf 9c 3c 7d 15 72 bd 65 73 47 3d
       0.03727296 0.019142035 -0.059102524 0.048694033
000080 d6 79 57 be 12 bc 38 bd 06 05 54 bd 28 88 82 bc
       -0.2104257 -0.045101233 -0.051762603 -0.015934065
000090 d6 f2 ec bd 99 59 9d 3d 2f e4 0d bd d9 a1 7a 3d
       -0.11569755 0.07683105 -0.03464144 0.061189506
0000a0 f7 c4 4e bd 66 80 85 3d 0e a1 8a bd 6e b5 52 bb
       -0.05048081 0.06518631 -0.06769 -0.0032151598
0000b0 ca 94 62 be 6a c2 06 3d 58 5e 95 3d c0 17 1b bd
       -0.22127071 0.03290025 0.07293385 -0.037864447
0000c0 30 7d 15 3d 71 ac a9 3d 3e bf 80 bd 16 10 f4 3c
       0.03649634 0.08284844 -0.062864766 0.029792827
0000d0 21 d8 70 bd 98 45 6d 3d fc b2 03 3e 8d fc ac 3c
       -0.058799867 0.057927698 0.12861246 0.02111652
0000e0 1f b8 86 bd fc 60 b0 bc 56 37 8a bc a0 12 4f 3d
       -0.06578087 -0.02153062 -0.01687209 0.05055487
0000f0 c7 11 53 bd 37 f7 24 3c 47 00 d2 3d df 7e a2 bd
       -0.051530626 0.010068706 0.10253959 -0.07934355
000100 2a 1d 6d bd f4 fd 0c 3d 92 0e 33 3d ad c8 3b 3d
       -0.05788914 0.034421876 0.043715067 0.045845676
000110 de 42 4f 3c 55 cc bd 3d ac 25 ca bd 42 5c 7a bd
       0.01265022 0.09267489 -0.098704666 -0.06112314
000120 b4 3f 6a bd 6c cd 4b be c9 5d 51 bd 59 f3 d8 bd
       -0.05718966 -0.19902581 -0.05111483 -0.1059329
000130 3a 15 87 be 4e a0 a2 3d 74 3f 26 bd 83 dd 5f 3e
       -0.26383382 0.07940732 -0.040587857 0.21861844
000140 c7 2e a6 3c b7 75 86 bd 3e cb 33 bd e5 37 9a bc
       0.020285977 -0.06565421 -0.043895 -0.01882548
000150 bd 2f 51 3d 27 cc 14 bd 76 e8 44 bd 7f 4c 04 bd
       0.051070917 -0.036327507 -0.048073255 -0.032299515
000160 4c 91 1f 3d d2 2a 8c bd 26 d1 7e bd 27 e7 50 bd
       0.038956925 -0.06844105 -0.06221118 -0.051001694
000170 74 f1 a6 bd 60 32 39 bd ec 18 5e bd 45 7d 62 3c
       -0.08151522 -0.045214057 -0.054222986 0.013823812
000180 97 bd 80 3c 3f cf 8b 3d 07 6b 87 bd e0 77 3b bd
       0.015715403 0.068266384 -0.06612211 -0.04576862
000190 b6 c2 d6 3d d3 f1 1d 3c 55 5a f2 bc f3 27 5e bd
       0.10486357 0.009640175 -0.02958409 -0.054237317
0001a0 8f f6 35 bd d5 c8 95 bd c1 52 79 3d 0f 04 08 bd
       -0.04442459 -0.07313696 0.060869936 -0.033206996
0001b0 24 4a 28 bd fd 79 bf 3c ec 46 57 3d 46 b5 18 3e
       -0.04108633 0.023373598 0.05255787 0.149129
0001c0 07 a8 76 3d d8 e2 32 3e 6c 0e bd bd 39 4a 2c bd
       0.060218837 0.17469347 -0.092312664 -0.04206297
0001d0 a1 47 f5 bc 99 5c a8 3c fc e6 f8 3b a0 5f a1 3d
       -0.029941382 0.020551967 0.007595895 0.07879567
0001e0 74 3b a2 3c 63 4e 50 bd 06 98 51 3d 87 60 a0 3d
       0.01980374 -0.050856005 0.05117037 0.07830911
0001f0 3a c6 75 bd 52 75 c4 bd ef 23 5d 3d 67 18 b4 bd
       -0.060003497 -0.095926896 0.053989347 -0.08793717
000200 fc 49 aa 3d 71 d1 97 3d 39 ce 23 3d 82 bc 3d 3d
       0.08314893 0.07412995 0.03999159 0.046322353
000210 3f 50 9c bc 2e b9 84 bd a6 a3 64 bc 76 d9 45 bd
       -0.019081233 -0.06480633 -0.013955032 -0.04830309
000220 02 b8 84 3b dd 8e f1 bd d9 7d d9 3d 7d e3 90 3d
       0.0040502558 -0.11794827 0.10619707 0.0707464
000230 98 65 22 3e f5 52 a3 3c 59 06 70 bd 54 e3 5a 3c
       0.15859067 0.019937018 -0.058599804 0.013359863
000240 1f d1 b4 bd b6 e8 85 3d 99 22 4b bd 2a eb 11 bd
       -0.08828949 0.06538527 -0.04959354 -0.03562466
000250 47 be 93 bd 75 7e a8 bc 2f cc 85 3e 91 0a 37 bc
       -0.07214027 -0.020568112 0.26132342 -0.011171953
000260 e9 4c 56 3d cf e9 fb bb fa 02 46 3c 1f df 91 bc
       0.05231944 -0.0076877843 0.012085671 -0.017806588
000270 f5 21 1d 3e 14 4d 84 bd 07 79 42 3d bf 51 04 bd
       0.15344985 -0.06460014 0.047478702 -0.03230452
000280 36 57 ac be 64 1e d3 bd a4 22 9f 3d 56 c1 81 3d
       -0.33660287 -0.10308531 0.07770279 0.06335704
000290 40 51 9f bc 07 dd 3b 3c df 0f af 3d c2 79 ae bd
       -0.019447923 0.011466271 0.08547949 -0.08519317
0002a0 db fc 07 3c 82 7d 3b 3b 11 21 2b bb 31 13 6c 3d
       0.008300032 0.0028608744 -0.0026112238 0.05763549
0002b0 b2 b9 28 be 5c 83 b7 bd 58 99 24 bd e0 dd a0 3d
       -0.16477087 -0.08960602 -0.040185302 0.07854819
0002c0 ac 9a 04 3d d9 5d 67 bc dc ca b3 3c dd b4 87 3d
       0.03237407 -0.014121496 0.021947317 0.06626294
0002d0 a2 f0 84 3d 36 2c 9c 3d bd c5 0f 3e bf d9 93 bb
       0.064912096 0.0762562 0.14040275 -0.0045120413
0002e0 45 65 ec 3c 90 ee 5f bd f4 ef f4 3c 6b 80 67 3d
       0.028856883 -0.05467087 0.029899575 0.056518953
0002f0 9e df 90 bc 9a 43 63 3b ee c8 99 3d e1 82 b4 bd
       -0.017684754 0.0034677745 0.075090274 -0.08814026
000300 fe 8c 28 3d 1b 3e cf 3b 51 58 3c 3c 14 05 08 3d
       0.041150086 0.006324542 0.011495666 0.033207968
000310 9e c2 4e 3d 94 4a 0f bd 6a 2a 55 bd 27 fb 73 bd
       0.05047857 -0.034983233 -0.052042402 -0.05956569
000320 28 dc ac bd a3 b2 90 be a2 55 5c 3d 63 6f f0 bd
       -0.08440429 -0.2826129 0.053792603 -0.11739995
000330 08 36 86 be 29 13 3d bb d1 d9 6b 3d 0f a6 22 3e
       -0.26213098 -0.0028850532 0.057580773 0.15883659
000340 b9 52 3f bd 06 9d c7 3c 12 c7 05 3d 03 2a c4 bd
       -0.04670975 0.024366867 0.03266055 -0.095783256
000350 5b 0b dd 3c 13 b4 0f 3d 66 62 a2 bd 9c db 35 be
       0.026982954 0.03508384 -0.07928924 -0.17759556
000360 58 55 82 3d 38 44 a4 bd 85 83 ab bd 5e cb 88 bc
       0.06363934 -0.08020824 -0.08374695 -0.016698536
000370 4a eb 05 3d aa 2f 9e 3a 36 09 4b bc 23 96 cd bc
       0.032695092 0.0012068648 -0.012392333 -0.025096005
000380 02 0b ef 3c b6 4a 16 bd d5 05 55 bc 8b 0d 34 bd
       0.029180054 -0.036692344 -0.013001879 -0.043958228
000390 e4 b3 07 3d 0e 6d 8c 3d ac f0 46 bd a6 d5 a2 bd
       0.03313054 0.06856738 -0.048569366 -0.079509065
0003a0 f7 88 35 3d 5d 41 a9 3d a3 ca ad 3d 16 0d 46 bc
       0.044320073 0.0826442 0.084859155 -0.012088081
0003b0 ab 92 c7 3a 60 e8 3a bd 17 eb 32 3d 0b 5c 1f 3d
       0.0015226206 -0.045631766 0.04368123 0.03890614
0003c0 98 61 80 3d cd d9 9c 3d d5 72 03 bd 5f 62 ce bc
       0.062686145 0.0765873 -0.032091934 -0.025193391
0003d0 4e 1f aa 3c 82 9b 4b 3c 62 1c 5d 3d 59 74 a7 3a
       0.02076688 0.012427213 0.053982146 0.0012775763
0003e0 15 4f 04 bd bc 87 ca bb 57 99 2b bd f8 86 35 bd
       -0.03230198 -0.0061807316 -0.041894283 -0.04431817
0003f0 cc 1f b1 bd 8e 3b 8a bd fb a9 6b bd d8 49 92 3d
       -0.08648643 -0.067496404 -0.057535153 0.07142991

layers.5.bias f4 [3]
000000 ae 4d a6 3d 2a bb 03 3b 54 32 9e 3c
       0.08120285 0.0020100572 0.019311108
