model_zoo/PPO/LunarLander-v2/actor_2171584.pth (torch, 141767 bytes, 8 tensors)

layers.0.weight f4 [128, 8]
0.15617211 -0.039323486 -0.5956368 -0.073410764 0.90951085 0.05226271 -0.09268895 0.30148774
-0.002662165 -0.20695473 0.25373766 0.017859174 -0.82508624 -0.2864477 0.32109657 -0.08925409
0.37326905 -0.21352984 0.071677595 -0.23609594 -0.8508235 -0.415867 0.29876506 -0.17879453
0.06514394 0.61011225 -0.14900804 0.29642865 0.37752196 -0.33328134 0.043965105 0.03107078
0.23659304 -0.34024954 -0.019426545 0.4430529 0.5785178 0.34350428 0.104782864 -0.03687992
0.11837683 0.54110223 -0.10923317 0.5343288 0.04329654 -0.3877291 -0.17397876 0.15989241
0.02878606 -0.26287088 0.33512685 -0.3459587 -0.5198948 -0.015749622 0.055658046 -0.17460817
-0.089733616 0.044519983 -0.06907929 0.42100978 -0.12564299 -0.32395223 -0.009013404 -0.005345801
-0.22952865 -0.45234627 0.105149746 -0.50186175 0.67262906 0.41561148 0.3111751 -0.2987371
0.062384386 -0.43082115 0.10043528 0.4120332 -0.15425383 -0.306943 -0.10351604 0.004533017
0.2670468 0.29708663 0.31026506 -0.28697506 -0.24875514 -0.34695557 0.12527397 -0.03659064
0.15811342 0.21733092 0.2957484 0.35659605 -0.8212397 -0.041558318 0.1702694 0.31792194
0.10054117 -0.46874154 0.31850973 -0.034014862 -0.29212192 -0.4201689 -0.1162473 0.23458405
0.10116689 0.32126436 0.30256835 0.44129676 -0.803139 -0.040852137 0.24732271 0.090537466
0.16803938 0.23465401 0.49112973 -0.27762383 -0.47892952 -0.48939928 0.09694468 -0.0211085
-0.1202934 -0.0001065415 -0.040085576 0.19609664 -0.18289949 -0.083235234 -0.28172716 0.18830171
0.2992528 0.22891824 0.54863 0.005924287 -0.81549895 -0.13491447 -0.103930645 -0.20519866
0.17616548 0.17537479 0.32289585 0.50900656 -0.25611737 -0.5083727 0.04420869 0.123709716
0.050250143 -0.48216107 0.26907256 -0.5206437 0.30227244 0.12015578 0.2873173 -0.3005417
0.2537614 0.3085339 0.17125912 0.3501525 0.40221888 0.11098528 -0.23680256 0.19793412
0.32274204 -0.3372458 0.12538075 -0.31577736 -0.6976296 -0.058696702 -0.08446876 0.04932654
-0.12129537 0.25046778 -0.06360945 -0.36448756 0.5824228 0.4708466 -0.0076383194 -0.012670502
0.07466153 -0.07195611 -0.56666297 -0.19083741 0.74765193 0.4214546 0.2000225 0.0061184126
0.31481716 -0.30321202 0.14329636 0.15927465 -0.7645523 0.10384759 0.0029779105 -0.16373822
0.0060741687 0.30896345 0.33005083 -0.14799112 -0.07915204 0.3756322 0.10981549 -0.24048994
0.21060707 0.34792247 -0.2990475 -0.08810099 0.8000967 0.3027675 0.15311933 0.024749465
0.10229935 -0.04809259 -0.42279187 0.41741198 0.62895447 0.32890904 0.11757828 -0.16671629
0.058655053 0.51528186 0.12840605 0.07939045 0.52759504 0.52827096 0.028988276 -0.17066178
0.32519558 0.08071287 0.1589535 0.16418315 -0.7137075 -0.3516204 0.16660006 0.1928713
-0.2276085 -0.12077268 0.51658595 -0.08180291 -0.8115578 -0.024652142 -0.20574789 -0.00405822
0.19159025 -0.44572008 0.11747423 -0.032132644 -0.7279245 -0.22621833 0.110879116 0.14030868
-0.14338383 0.5390975 -0.26971126 -0.025902484 -0.23446026 -0.4466154 0.00915018 0.17225845
00000000: 95eb 1f3e aa11 21bd a77b 18bf 6258 96bd
00000010: b4d5 683f 6c11 563d b4d3 bdbd 9a5c 9a3e
00000020: b877 2ebb f1eb 53be e7e9 813e 674d 923c
00000030: da38 53bf 46a9 92be c566 a43e d9ca b6bd
00000040: 1f1d bf3e 91a7 5abe b4cb 923d 22c3 71be
00000050: 92cf 59bf 85ec d4be bcf7 983e ea15 37be
00000060: 306a 853d 5130 1c3f 9095 18be 7fc5 973e
00000070: 8f4a c13e daa3 aabe c114 343d 2688 fe3c
00000080: 7245 723e 3035 aebe 6b24 9fbc d4d7 e23e
00000090: be19 143f cbdf af3e 6698 d63d 660f 17bd
000000a0: 8d6f f23d ad85 0a3f a4b5 dfbd c6c9 083f
000000b0: b657 313d 6e84 c6be 7d27 32be d6ba 233e
000000c0: bed0 eb3c 0397 86be bf95 ab3e 8021 b1be
000000d0: d317 05bf 5a05 81bc b1f9 633d 7ccc 32be
000000e0: 42c6 b7bd 965a 363d 7179 8dbd 988e d73e
000000f0: 8ea8 00be 11dd a5be f5ac 13bc d42b afbb
00000100: 8f09 6bbe ee99 e7be c058 d73d 037a 00bf
00000110: 6b31 2c3f 07cb d43e 5852 9f3e 12f4 98be
00000120: c586 7f3d 9794 dcbe 03b1 cd3d 04f6 d23e
00000130: b7f4 1dbe a227 9dbe 3800 d4bd b489 943b
00000140: 5cba 883e bd1b 983e 10db 9e3e 65ee 92be
00000150: abb9 7ebe 29a4 b1be d247 003e 11e0 15bd
00000160: 7ce8 213e ff8b 5e3e 566c 973e c293 b63e
00000170: c43c 52bf 0e39 2abd 1a5b 2e3e aac6 a23e
00000180: 87e8 cd3d e4fe efbe b513 a33e 2b53 0bbd
00000190: 0191 95be 6120 d7be 1013 eebd cd36 703e
000001a0: 9630 cf3d c37c a43e 3dea 9a3e a6f1 e13e
000001b0: 849a 4dbf 9254 27bd 2a42 7d3e b56b b93d
000001c0: 8412 2c3e 2449 703e 5b75 fb3e b624 8ebe
000001d0: 4036 f5be 8b92 fabe ef8a c63d bceb acbc
000001e0: 635c f6bd 086f dfb8 c630 24bd 8fcd 483e
000001f0: 014a 3bbe 3c77 aabd 8b3e 90be 2ad2 403e
00000200: aa37 993e 8b69 6a3e 0473 0c3f 8520 c23b
00000210: 8ac4 50bf 0527 0abe 97d9 d4bd 991f 52be
00000220: b964 343e 7395 333e 9b52 a53e 414e 023f
00000230: d121 83be b724 02bf 2c14 353d 855b fd3d
00000240: 18d3 4d3d d1dd f6be e1c3 893e e848 05bf
00000250: 74c3 9a3e 3c14 f63d 411b 933e 9ae0 99be
00000260: 04ed 813e 28f8 9d3e 8d5e 2f3e 3047 b33e
00000270: a2ef cd3e 404c e33d 5f7c 72be 3eaf 4a3e
00000280: 723e a53e 7bab acbe d063 003e 92ad a1be
00000290: da97 32bf f46b 70bd f5fd acbd a00a 4a3d
000002a0: b569 f8bd 503d 803e ac45 82bd 1d9e babe
000002b0: a919 153f ce12 f13e de4a fabb f097 4fbc
000002c0: 25e8 983d ba5d 93bd d310 11bf e26a 43be
000002d0: 1e66 3f3f e6c8 d73e b3d2 4c3e f77c c83b
000002e0: b72f a13e 9b3e 9bbe 48bc 123e e518 233e
000002f0: b3b9 43bf 0cae d43d 0c29 433b feaa 27be
00000300: d209 c73b 7530 9e3e 6cfc a83e fc8a 17be
00000310: 771a a2bd dd52 c03e f2e6 e03d ff42 76be
00000320: 61a9 573e e522 b23e c11c 99be 4b6e b4bd
00000330: 23d3 4c3f 5704 9b3e 50cb 1c3e 64bf ca3c
00000340: 5282 d13d bcfc 44bd 2d78 d8be 06b7 d53e
00000350: 2903 213f c466 a83e e2cc f03d adb7 2abe
00000360: 4840 703d 83e9 033f e07c 033e 7697 a23d
00000370: 7810 073f c43c 073f d278 ed3c f6c1 2ebe
00000380: 0980 a63e ca4c a53d b5c4 223e a11f 283e
00000390: 89b5 36bf 9707 b4be 3599 2a3e 0e80 453e
000003a0: 3412 69be ab57 f7bd fa3e 043f 4988 a7bd
000003b0: 41c2 4fbf 4af3 c9bc 93af 52be d1fa 84bb
000003c0: 3c30 443e 6c35 e4be 5496 f03d 859d 03bd
000003d0: 4359 3abf c7a5 67be 9714 e33d 14ad 0f3e
000003e0: 36d3 12be 4b02 0a3f 9817 8abe 7231 d4bc
000003f0: 5a16 70be c6aa e4be a3ea 153c 8564 303e

layers.0.bias f4 [128]
-0.17145796 -0.034375217 -0.22318554 -0.18618935 -0.0046043317 -0.04791613 -0.09088974 0.011703117
-0.05342438 0.08373519 -0.102049895 -0.17630908 0.098383464 0.25739825 0.033446588 0.03456179
0.1068303 0.087182365 0.01786637 0.06325459 -0.12492097 0.09918534 0.18604365 0.24351187
0.07983514 -0.13407771 0.10568035 -0.027451208 0.12912571 -0.137874 -0.10744233 -0.16155271
-0.22367807 0.12714867 -0.057490364 0.1689824 0.04941039 -0.17725058 0.11599029 -0.078089066
-0.00057494757 -0.07323155 0.16450511 0.1625648 -0.0013431055 0.1974044 0.051332854 0.24202256
-0.08339835 -0.259346 0.13031708 0.08953307 0.18282382 -0.06973675 0.18344542 0.21702228
0.16276197 0.11313418 0.15111993 0.07153746 -0.06416383 -0.04372996 0.23208313 -0.027889054
-0.09116989 0.18118465 -0.08156123 0.03939686 -0.038648836 0.072921224 0.06891288 -0.018592983
-0.011004523 0.114769645 0.07837308 0.011960492 -0.24023914 -0.0014909395 -0.088920444 -0.09515378
0.08737139 -0.058027163 0.10705377 0.06721988 0.094245 -0.22008453 0.005677171 0.21092816
-0.21172714 0.052743036 -0.10964114 0.13864806 -0.14014222 0.15464343 0.10347882 0.12760969
-0.16484779 0.19376545 -0.2640247 0.094199084 0.20775412 -0.000551531 0.17127123 0.040462606
-0.118742935 0.08281593 0.04590925 -0.13976027 0.16200937 0.017740067 0.19099315 0.21368207
0.15190671 0.053513713 0.16311437 0.0383021 -0.20677662 -0.1495731 -0.06115613 0.22159047
-0.08858151 0.2620417 0.045318015 -0.016144294 -0.17788123 -0.23807181 -0.24383557 0.12689681
00000000: ad92 2fbe 07cd 0cbd c08a 64be 6ca8 3ebe
00000010: efdf 96bb b443 44bd 6624 babd 6ebe 3f3c
00000020: 86d3 5abd 5b7d ab3d 89ff d0bd 5e8a 34be
00000030: 457d c93d b4c9 833e 4aff 083d aa90 0d3d
00000040: d8c9 da3d ab8c b23d 7e5c 923c 9f8b 813d
00000050: 91d6 ffbd af21 cb3d 3a82 3e3e 2d5b 793e
00000060: 9b80 a33d ab4b 09be f06e d83d 5be1 e0bc
00000070: 8839 043e d82e 0dbe b90a dcbd 136e 25be
00000080: dd0b 65be 4333 023e 047b 6bbd b909 2d3e
00000090: 8d62 4a3d 2d81 35be 518c ed3d 29ed 9fbd
000000a0: 14b8 16ba 6cfa 95bd 0774 283e 6377 263e
000000b0: 240b b0ba 6124 4a3e 6642 523d c3d4 773e
000000c0: c1cc aabd 00c9 84be d771 053e 1d5d b73d
000000d0: 2b36 3b3e 24d2 8ebd 1ed9 3b3e 173b 5e3e
000000e0: 13ab 263e e5b2 e73d 2fbf 1a3e 3b82 923d
000000f0: 5368 83bd 301e 33bd 33a7 6d3e 9677 e4bc
00000100: 47b7 babd 7888 393e 9309 a7bd 9a5e 213d
00000110: 3e4e 1ebd b957 953d 3222 8d3d 5050 98bc
00000120: 514c 34bc 590c eb3d 1182 a03d f0f5 433c
00000130: 4001 76be a16b c3ba ec1b b6bd fcdf c2bd
00000140: c5ef b23d e4ad 6dbd 023f db3d 94aa 893d
00000150: 8603 c13d d75d 61be 9007 ba3b 8dfd 573e
00000160: 00cf 58be 1509 583d 898b e0bd c2f9 0d3e
00000170: 7181 0fbe d95a 1e3e b4ec d33d 1dac 023e
00000180: dccd 28be 736a 463e 3f2e 87be 73eb c03d
00000190: 7fbd 543e 9e94 10ba ba61 2f3e 1ebc 253d
000001a0: 7f2f f3bd 669b a93d 560b 3c3d 511d 0fbe
000001b0: c9e5 253e 9e53 913c b593 433e 79cf 5a3e
000001c0: 6f8d 1b3e 3231 5b3d 7407 273e aae2 1c3d
000001d0: 40bd 53be b129 19be da7e 7abd 9de8 623e
000001e0: 396a b5bd 542a 863e 629f 393d 0a41 84bc
000001f0: 7f26 36be 19c9 73be 08b0 79be 3df1 013e

layers.1.weight f4 [128, 128]
0.2526802 -0.06752001 -0.022982236 0.01826011 0.17220673 -0.06991346 0.039630383 0.052410897
0.3015385 0.15521498 0.0005600287 -0.056732286 -0.101565555 -0.1953143 -0.16924499 0.050198045
-0.19304807 -0.24186574 0.124191165 0.07658546 0.059767034 -0.007521133 0.10009123 -0.123469524
-0.059489787 0.16760631 0.056447156 -0.03291289 -0.1266114 -0.053316016 0.064848945 -0.048484724
0.11515534 -0.227968 -0.049551584 0.08312165 0.018756833 0.18723969 0.16415043 -0.065681614
-0.012765771 -0.00040352513 -0.13381116 0.09193053 -0.032402325 -0.0033137596 0.052853134 -0.0021904884
-0.09755381 0.11193808 0.11197054 -0.13968873 0.10217728 0.039486468 0.11397209 0.100319766
-0.055875268 -0.014430992 -0.09205433 -0.060653854 -0.12929802 0.009629309 -0.16096039 0.12992701
-0.00018392484 -0.22418603 -0.06382181 0.004034584 0.22420388 0.13877875 -0.1301057 -0.22845152
-0.012931655 0.14686488 0.044241957 0.08223556 0.20148298 -0.3516773 0.026265115 -0.06953853
0.06524165 -0.10347004 0.06415013 -0.04418772 0.268448 0.14647879 0.056600384 -0.060834803
0.1714509 -0.10940829 -0.013656748 0.08888756 -0.04059005 -0.03655603 -0.08533592 0.076429166
-0.1142142 0.04001358 0.20195948 0.17298204 0.053155877 0.06938497 -0.13318162 0.016077187
0.09984511 -0.0918834 -0.11498605 -0.003612016 -0.1959916 -0.006028602 -0.05263708 -0.06833522
-0.07023627 0.19841662 0.14996669 0.010096468 0.17843702 0.17130227 0.1804794 0.011357479
0.06801556 0.0040011653 0.07837882 0.05477685 0.18720779 0.18620294 -0.14713769 -0.04012051
0.16692594 0.028009899 0.1457228 -0.091332205 0.07442057 -0.18848673 0.071260676 -0.07408067
0.23793606 0.036270853 0.09504366 0.04274114 0.12521783 -0.07050221 0.012999975 -0.07713215
-0.0148125505 -0.107760325 0.23691642 0.067770295 0.16444415 0.09515704 0.036626372 -0.06070873
0.026740178 0.040319644 -0.03582404 -0.08726207 0.052966468 -0.08830844 0.10419956 -0.013149487
-0.002042492 -0.0622235 -0.12916172 0.08417341 0.0681133 -0.07096017 0.064793594 0.04005194
0.11991017 -0.020030728 -0.3151355 0.052936483 0.029524587 -0.06458367 -0.45377734 -0.25107333
-0.051775973 0.06290454 -0.26562038 -0.2739386 -0.043449696 -0.19662842 0.025597516 -0.005926151
0.053490125 -0.09429443 -0.027280089 -0.02697188 -0.0865282 0.117564596 -0.14786048 0.20684984
0.16197033 -0.25497288 0.087292984 -0.19186339 0.20500687 0.07903075 -0.34768698 -0.33599526
0.03603265 0.045145053 0.010520756 0.0017598539 0.02926154 -0.13381666 0.10847776 -0.022957949
-0.02963897 -0.023598602 0.060334485 -0.18650904 0.028142354 -0.112329975 -0.011599943 -0.10141232
0.04653911 0.02193861 -0.11351974 -0.10819024 -0.15527721 -0.09304484 -0.057680395 -0.08462273
-0.03177545 0.026543174 0.19271976 0.113902174 0.063387975 -0.20587038 0.030613326 -0.19541223
0.1106914 0.0461589 -0.3658701 -0.039454542 -0.09272283 0.096798144 -0.05556089 0.15332721
-0.026516011 0.17129615 0.18633655 0.07737591 0.025470344 0.050620086 0.2318815 -0.08930008
0.04519275 -0.2077479 0.12017928 -0.0850828 0.019299893 0.054029237 0.023517419 0.01620605
00000000: 4d5f 813e ee47 8abd 3e45 bcbc 3a96 953c
00000010: f656 303e ca2e 8fbd 7853 223d cfac 563d
00000020: 4163 9a3e adf0 1e3e e4ce 123a 1d60 68bd
00000030: 9a01 d0bd 7900 48be 8f4e 2dbe 779c 4d3d
00000040: 65ae 45be a7ab 77be f057 fe3d d6d8 9c3d
00000050: 47ce 743d d673 f6bb a1fc cc3d 97dd fcbd
00000060: 90ab 73bd fda0 2b3e 2235 673d abcf 06bd
00000070: 6ba6 01be e561 5abd 86cf 843d eb97 46bd
00000080: 90d6 eb3d 7270 69be 9af6 4abd af3b aa3d
00000090: eea7 993c c3bb 3f3e 0d17 283e 1584 86bd
000000a0: 8627 51bc 3a90 d3b9 cb05 09be 1346 bc3d
000000b0: 4db8 04bd a92b 59bb 877c 583d 4c8e 0fbb
000000c0: 4bca c7bd cb3f e53d cf50 e53d 900a 0fbe
000000d0: 5242 d13d 90bc 213d 336a e93d 7374 cd3d
000000e0: 77dd 64bd f86f 6cbc fb86 bcbd 2d70 78bd
000000f0: b366 04be 40c4 1d3c cdd2 24be 960b 053e
00000100: f3db 40b9 0691 65be 02b5 82bd 8b34 843b
00000110: b495 653e 041c 0e3e 6e3a 05be 32ef 69be
00000120: 4bdf 53bc bf63 163e 0e37 353d 1e6b a83d
00000130: 8e51 4e3e 0c0f b4be f029 d73c 386a 8ebd
00000140: 6a9d 853d 1ae8 d3bd 2561 833d 2ffe 34bd
00000150: 0472 893e 89fe 153e ced5 673d ea2d 79bd
00000160: d390 2f3e 7411 e0bd 8ec0 5fbc ae0a b63d
00000170: c141 26bd c7bb 15bd 99c4 aebd e586 9c3d
00000180: 22e9 e9bd 48e5 233d 77ce 4e3e 3422 313e
00000190: fab9 593d b519 8e3d c360 08be 4eb4 833c
000001a0: 987b cc3d 5d2d bcbd ce7d ebbd 93b7 6cbb
000001b0: 06b2 48be 948b c5bb fb99 57bd 56f3 8bbd
000001c0: 09d8 8fbd ba2d 4b3e de90 193e a86b 253c
000001d0: 32b8 363e dd69 2f3e 98cf 383e b814 3a3c
000001e0: be4b 8b3d 351c 833b 1385 a03d b15d 603d
000001f0: 66b3 3f3e fcab 3e3e 43ab 16be 6755 24bd
00000200: a2ee 2a3e 0475 e53c 5c38 153e 610c bbbd
00000210: d069 983d aa02 41be 1ef1 913d 9bb7 97bd
00000220: 83a5 733e bf90 143d 40a6 c23d 5511 2f3d
00000230: 1a39 003e 7663 90bd d9fd 543c 76f7 9dbd
00000240: 57b0 72bc 72b1 dcbd 389a 723e 27cb 8a3d
00000250: 0c64 283e b2e1 c23d 8905 163d b8a9 78bd
00000260: 380e db3c 3626 253d 3bbc 12bd 75b6 b2bd
00000270: 5ef3 583d 0edb b4bd 9466 d53d f270 57bc
00000280: 54db 05bb 12de 7ebd f842 04be 1c63 ac3d
00000290: fc7e 8b3d 9153 91bd 81b2 843d 810d 243d
000002a0: 7793 f53d 7b17 a4bc 7159 a1be edd3 583d
000002b0: 8cdd f13c 7144 84bd 8155 e8be af8c 80be
000002c0: 0b13 54bd 18d4 803d 65ff 87be ae41 8cbe
000002d0: 4ff8 31bd f658 49be e2b1 d13c 2830 c2bb
000002e0: 7618 5b3d 701d c1bd 7e7a dfbc 22f4 dcbc
000002f0: b235 b1bd b5c5 f03d bd68 17be 72d0 533e
00000300: 8ddb 253e ce8b 82be aac6 b23d d677 44be
00000310: 52ed 513e e0da a13d 0704 b2be 9207 acbe
00000320: f996 133d 05ea 383d 405f 2c3c e6aa e63a
00000330: e6b5 ef3c 3c07 09be 9629 de3d 4f12 bcbc
00000340: 6dcd f2bc db51 c1bc 4b21 773d 3afc 3ebe
00000350: cb8a e63c 420d e6bd b00d 3ebc 43b1 cfbd
00000360: cb9f 3e3d 9ab8 b33c 0a7d e8bd d892 ddbd
00000370: fd00 1fbe 4b8e bebd 4742 6cbd af4e adbd
00000380: f926 02bd 1271 d93c 5458 453e 8b45 e93d
00000390: 8ed1 813d afcf 52be ccc8 fa3c 251a 48be
000003a0: 2cb2 e23d 1d11 3d3d 5353 bbbe 169b 21bd
000003b0: 78e5 bdbd 1b3e c63d d193 63bd cf01 1d3e
000003c0: 1b38 d9bc 4268 2f3e 02cf 3e3e 4377 9e3d
000003d0: 2fa7 d03c 0257 4f3d 5872 6d3e f6e2 b6bd
000003e0: 081c 393d debb 54be 8e20 f63d e43f aebd
000003f0: cf1a 9e3c c34d 5d3d 9aa7 c03c 8dc2 843c

layers.1.bias f4 [128]
-0.035003282 -0.058131523 0.044100303 0.018088233 0.025586573 -0.07528381 -0.003717279 -0.020909373
-0.02229683 -0.067694314 -0.09933268 0.017503431 0.01661807 -0.019067671 -0.09452567 0.038106423
0.06781804 -0.11218911 0.0149286585 -0.02004767 0.0027328364 0.021520419 0.01521631 -0.0059134113
0.0753869 -0.00072943995 0.017307943 -0.04061371 0.1197354 -0.008398964 0.0051272893 -0.11225276
-0.06804249 0.052530028 0.003831995 -0.05586153 -0.026477821 0.014968224 -0.07144736 -0.013052513
-0.0882099 0.074823685 0.11670207 0.09299708 -0.08705867 -0.117869735 -0.12970334 -0.14788486
0.0054474063 -0.027600659 -0.011104007 0.04361465 -0.0019561155 0.068425104 -0.031044468 -0.0012622816
0.04934016 0.008697212 -0.025702639 -0.04540352 -0.1335743 0.044409093 0.012768136 -0.055646967
-0.0022511475 -0.07053285 -0.1407234 0.041750982 -0.085814856 0.07997355 0.0075530233 -0.13538249
0.043526612 -0.033094976 0.1377638 -0.06590993 -0.04950079 -0.028902452 0.07530532 -0.03383192
0.124144636 0.04058218 0.054638863 0.005914382 -0.016577607 0.0723257 0.006242494 -0.10889877
0.111615695 -0.056501642 0.06255988 -0.008302685 0.019610548 0.03035822 -0.06045589 0.06509602
-0.044829864 0.059134703 0.052331664 0.08934966 -0.016156666 0.02947094 -0.031740014 0.09144235
-0.13702871 0.05594188 -0.01878941 -0.044209287 0.01936835 0.035146464 0.03864995 0.074996285
-0.07084341 -0.027419988 -0.0005862031 0.003007122 -0.024768742 0.012823579 -0.10322816 0.03135229
0.033804245 0.036367636 0.08858167 -0.030754518 -0.06441534 0.105894394 -0.0019565255 0.0041475063
00000000: 9a5f 0fbd 521b 6ebd 85a2 343d c62d 943c
00000010: ef9a d13c 662e 9abd 989d 73bb 224a abbc
00000020: d7a7 b6bc 51a3 8abd ef6e cbbd 5b63 8f3c
00000030: 9e22 883c ce33 9cbc ad96 c1bd 7b15 1c3d
00000040: 2fe4 8a3d 67c3 e5bd 5597 743c 033b a4bc
00000050: 6319 333b 974b b03c d44d 793c 4ac5 c1bb
00000060: 7264 9a3d e337 3fba 63c9 8d3c 905a 26bd
00000070: d537 f53d cf9b 09bc d202 a83b c6e4 e5bd
00000080: dc59 8bbd ba29 573d 3522 7b3b 0fcf 64bd
00000090: 04e8 d8bc 483d 753c fe52 92bd 35da 55bc
000000a0: 64a7 b4bd 293d 993d 7f01 ef3d 4175 be3d
000000b0: d14b b2bd b065 f1bd f4d0 04be 216f 17be
000000c0: 2880 b23b c71a e2bc 95ed 35bc 46a5 323d
000000d0: 2c32 00bb 7622 8c3d f850 febc 2473 a5ba
000000e0: e818 4a3d c07e 0e3c 578e d2bc 0bf9 39bd
000000f0: b4c7 08be 4fe6 353d 7231 513c 13ee 63bd
00000100: fd87 13bb 8773 90bd cc19 10be 1403 2b3d
00000110: b3bf afbd 2cc9 a33d 5a7f f73b b5a1 0abe
00000120: f648 323d 998e 07bd f411 0d3e c9fb 86bd
00000130: 57c1 4abd d6c4 ecbc ad39 9a3d 5793 0abd
00000140: 8b3f fe3d 8039 263d 00cd 5f3d 6fcd c13b
00000150: c3cd 87bc 7f1f 943d d68d cc3b 5106 dfbd
00000160: c596 e43d 446e 67bd 651f 803d fc07 08bc
00000170: 4da6 a03c cdb1 f83c 98a0 77bd 1051 853d
00000180: 859f 37bd 3b37 723d ba59 563d f4fc b63d
00000190: fc5a 84bc 0a6d f13c d101 02bd 2046 bb3d
000001a0: 4151 0cbe 5023 653d 40ec 99bc cc14 35bd
000001b0: 60aa 9e3c bdf5 0f3d 694f 1e3d a797 993d
000001c0: 5a16 91bd e29f e0bc 6dab 19ba 2313 453b
000001d0: d1e7 cabc fd19 523c 4969 d3bd 426b 003d
000001e0: 5276 0a3d 3bf6 143d 4e6a b53d e6f0 fbbc
000001f0: 31ec 83bd 29df d83d 0d39 00bb cee7 873b

layers.3.weight f4 [128, 128]
0.09056924 0.50446755 0.12852491 -0.111245394 0.14015193 -0.11170785 0.12883805 0.037252642
0.0003123516 -0.038913988 -0.22992659 -0.010754848 -0.048428044 0.0818086 -0.11009515 0.041761745
-0.17581092 0.03711386 -0.065751635 0.03197547 -0.16129072 -0.1321577 0.052571245 0.054737724
-0.28875017 0.04608285 -0.3273542 0.077921264 -0.11260416 0.0039781877 0.060245976 0.22333531
-0.036085505 0.11351138 0.09398171 -0.06463383 -0.18144569 -0.087277666 -0.109370194 0.11332539
-0.005851064 -0.054227374 0.14125732 0.0040063644 -0.33069217 -0.0105963675 -0.215439 -0.013986165
-0.107822195 0.103785925 0.06465242 0.06611944 -0.048057158 0.010607354 -0.01487402 0.27287966
0.06399222 0.25645548 0.07806951 0.1700727 0.0046114167 -0.06331815 0.07617552 0.013136382
-0.056688562 -0.014295199 0.0078041577 -0.15197188 -0.032016844 0.12913041 -0.0005805585 0.0895048
-0.0028033769 0.14648685 -0.05623523 0.17574741 0.06325356 0.089144416 0.09931438 -0.16183476
-0.06665426 0.11092888 0.31068793 0.018354265 0.12518825 -0.015015884 -0.22609894 0.15572752
0.024264516 0.044735063 -0.027077332 -0.12715277 0.09635049 0.04970736 0.2063695 0.101501286
-0.3457669 0.076070346 0.05423222 -0.11782532 -0.004540276 -0.44104797 0.088345416 0.047109336
0.22778238 0.16929282 -0.1141905 -0.13664135 0.09233458 0.055023495 -0.08824522 0.13181439
0.014993176 0.11216263 0.018691683 -0.11304255 0.115773454 0.080472074 0.35269728 -0.03745612
-0.039733335 0.17699842 0.032839153 -0.07709835 0.06357347 -0.073011324 0.030188857 0.018238092
-0.33467206 0.034225095 0.011720389 0.13470522 0.27955258 -0.028739603 0.028832464 0.10441887
-0.22989449 -0.430711 -0.17146242 -0.33876035 -0.18103968 0.0029482734 -0.39081752 0.029497819
0.033704862 -0.0075405426 -0.055840712 0.10910653 -0.22546466 0.04790176 -0.004721046 0.117431775
0.053265993 -0.07704669 -0.15435375 0.01833891 0.19761293 0.0140908 0.002995174 -0.1129827
-0.71886337 0.034585536 0.18960556 -0.30382976 -0.2345173 -0.2787951 -0.68704134 -0.07906799
-0.0099110035 0.120167255 0.2688239 -0.003134963 -0.155888 0.10490006 -0.18452105 -0.10177587
0.22138052 -0.028684601 0.15668207 -0.09300664 -0.12309283 0.5269407 0.117903255 0.13292477
0.9154833 0.06649381 -0.25578776 -0.04318826 0.089811526 -0.20675077 -0.055457022 0.054140534
-0.12820677 -0.07561182 -0.5609714 -0.11165053 -0.85434777 0.43812743 -0.11161463 -0.33469707
0.18062307 -0.01482534 -0.16530764 0.011098752 -0.07495524 0.10245876 0.77853554 -0.00061200553
0.13301466 0.028136624 -0.001530371 0.038671587 -0.0026439284 0.33618522 -0.07628158 -0.13756837
0.101110496 -0.32764813 0.19174042 -1.1117003 0.27510583 0.2246816 0.07491307 0.08546771
-0.09915017 0.9548868 0.45108682 -0.12123698 -0.023553133 -0.19115135 0.04722072 -0.023054536
0.028032342 0.18492791 -0.14533529 -0.44876623 0.12652695 0.115629606 0.028348638 0.636424
0.16616447 0.111086465 0.060902853 0.078736536 0.073982514 0.02927039 -0.049018543 0.6467517
0.054001343 0.6548892 -0.06728811 0.064642645 -0.36415797 0.30702078 -0.14000943 -0.017493581
00000000: 5e7c b93d c924 013f 099c 033e a0d4 e3bd
00000010: fd83 0f3e 16c7 e4bd 1fee 033e 3a96 183d
00000020: 1fc3 a339 4664 1fbd e071 6bbe 1a35 30bc
00000030: 7c5c 46bd 448b a73d 9179 e1bd 5d0e 2b3d
00000040: c707 34be b404 183d cba8 86bd b6f8 023d
00000050: 6529 25be 5954 07be f254 573d aa34 603d
00000060: 10d7 93be 5fc1 3c3d f89a a7be 2f95 9f3d
00000070: 039d e6bd 755b 823b 7cc4 763d 03b2 643e
00000080: 65ce 13bd a878 e83d 7c79 c03d be5e 84bd
00000090: e6cc 39be a2be b2bd 7bfd dfbd 2417 e83d
000000a0: 48ba bfbb 861d 5ebd c2a5 103e d247 833b
000000b0: 7c50 a9be 639c 2dbc 0b9c 5cbe 3a26 65bc
000000c0: e2d1 dcbd b78d d43d 7d68 843d a169 873d
000000d0: 95d7 44bd 78ca 2d3c 29b2 73bc e2b6 8b3e
000000e0: 5a0e 833d 224e 833e e8e2 9f3d 8a27 2e3e
000000f0: 5e1b 973b f2ac 81bd e901 9c3d fb39 573c
00000100: 4432 68bd 6936 6abc 05ba ff3b 849e 1bbe
00000110: 1824 03bd c33a 043e 9f30 18ba 4b4e b73d
00000120: dcb8 37bb a600 163e ea56 66bd 21f7 333e
00000130: 158b 813d 5991 b63d 5665 cb3d 03b8 25be
00000140: 0782 88bd ae2e e33d 7d12 9f3e af5b 963c
00000150: 5931 003e 2f05 76bc 7b86 67be 0977 1f3e
00000160: 61c6 c63c 1d3c 373d 48d1 ddbc 5634 02be
00000170: 6853 c53d f299 4b3d 8752 533e e8df cf3d
00000180: 5c08 b1be c5ca 9b3d 9b22 5e3d 674e f1bd
00000190: 98c6 94bb 0ad1 e1be 71ee b43d b8f5 403d
000001a0: c93f 693e 195b 2d3e b5dc e9bd b6eb 0bbe
000001b0: ea19 bd3d 5160 613d e9b9 b4bd 5afa 063e
000001c0: f0a5 753c 85b5 e53d 4d1f 993c da82 e7bd
000001d0: a21a ed3d 8bce a43d bd94 b43e 976b 19bd
000001e0: 6cbf 22bd 133f 353e 5982 063d bde5 9dbd
000001f0: cf32 823d f686 95bd 9f4e f73c 0d68 953c
00000200: 235a abbe 9d2f 0c3d e006 403c 2af0 093e
00000210: 8421 8f3e 516f ebbc 0f32 ec3c 8fd9 d53d
00000220: 7669 6bbe 2786 dcbe d893 2fbe ff71 adbe
00000230: 7762 39be d237 413b 3c19 c8be 69a5 f13c
00000240: 1c0e 0a3d a816 f7bb 3bb9 64bd 3f73 df3d
00000250: 35e0 66be a334 443d 01b3 9abb 1280 f03d
00000260: 712d 5a3d a8ca 9dbd e90e 1ebe 7b3b 963c
00000270: 0b5b 4a3e 19dd 663c ae4a 443b 7963 e7bd
00000280: 6e07 38bf 90a9 0d3d f627 423e 938f 9bbe
00000290: 4e25 70be 3bbe 8ebe f1e1 2fbf 66ee a1bd
000002a0: c361 22bc 401a f63d 49a3 893e f473 4dbb
000002b0: 1ba1 1fbe d8d5 d63d 16f3 3cbe de6f d0bd
000002c0: 93b1 623e f8fb eabc 4471 203e 447a bebd
000002d0: 1818 fcbd 96e5 063f 4377 f13d 6e1d 083e
000002e0: 1d5d 6a3f e82d 883d 9df6 82be 2ce6 30bd
000002f0: 1bef b73d 79b6 53be e726 63bd 77c2 5d3d
00000300: a348 03be 5fda 9abd d29b 0fbf 08a9 e4bd
00000310: 89b6 5abf 3d52 e03e 3696 e4bd 6a5d abbe
00000320: 41f5 383e fce5 72bc 6846 29be 8ad7 353c
00000330: 2282 99bd e6d5 d13d 1b4e 473f ff6e 20ba
00000340: ff34 083e c77e e63c bb96 c8ba 1966 1e3d
00000350: c245 2dbb 7820 ac3e 8439 9cbd b9de 0cbe
00000360: 0513 cf3d 7fc1 a7be 9a57 443e 324c 8ebf
00000370: acda 8c3e ef12 663e 066c 993d b209 af3d
00000380: 3f0f cbbd 7673 743f daf4 e63e 184b f8bd
00000390: 80f2 c0bc 2ebd 43be 846a 413d dedc bcbc
000003a0: 15a4 e53c be5d 3d3e c6d2 14be b0c4 e5be
000003b0: 4890 013e 37cf ec3d 673b e83c afec 223f
000003c0: 0527 2a3e 4d81 e33d 4575 793d 9f40 a13d
000003d0: 2584 973d 75c8 ef3c abc7 48bd 8591 253f
000003e0: 8330 5d3d d2a6 273f 59ce 89bd 5d63 843d
000003f0: ea72 babe d431 9d3e a25e 0fbe b34e 8fbc

layers.3.bias f4 [128]
-0.07940708 0.051610623 -0.033932168 0.0773007 -0.09059732 0.16479938 -0.03750473 0.0580303
-3.9809765e-05 -0.015430768 -0.022528365 -0.0154539505 0.02573647 -0.14300424 -0.045584228 0.019224139
-0.040681284 -0.13374107 0.01364384 -0.114157274 -0.10963492 0.06953986 0.08599517 -0.21045206
-0.10611268 -0.0062047453 0.015095064 0.012637555 -0.018385574 0.092714414 -0.09919403 0.052081335
0.0032475227 -0.12319164 0.06599532 -0.018688468 0.1748285 0.027617918 -0.09336823 -0.016363524
-0.13338844 0.08356479 -0.06846808 0.09223651 0.090250805 0.010973989 -0.12307306 -0.1274683
0.12054314 -0.12604664 -0.0044662994 0.006120292 -0.09172777 -0.11688824 0.051799428 0.095455356
0.019240914 -0.04319398 0.054897603 0.13027182 -0.034481306 -0.12672895 0.13758501 -0.03623585
0.008254919 -0.04514656 -0.064304784 -0.10738443 0.05985413 -0.008691722 0.17303331 -0.13145861
0.05967831 0.107451096 -0.07448443 -0.047708787 0.034141395 0.07138834 0.13941917 -0.15072946
-0.10089614 0.12370777 0.0972203 0.022758579 0.022163188 0.022729294 0.016611468 0.117019705
0.08356352 -0.029090019 -0.025382267 0.004974563 0.007952988 0.11133063 -0.019619578 0.042478703
-0.096242905 -0.14831892 0.1138373 -0.023824252 -0.038585257 -0.023709388 -0.073311344 -0.21539108
0.028132772 0.06739088 0.062945224 0.04509499 -0.05479115 -0.011194657 0.0050939447 0.13686529
0.025819682 -0.051734373 -0.05093464 -0.052891694 -0.15811394 -0.12464192 0.04388837 -0.10815657
-0.16562755 -0.12362211 0.05782574 -0.14831507 -0.07542801 -0.0187395 0.008961574 -0.07388096
00000000: 2ea0 a2bd a965 533d 75fc 0abd d44f 9e3d
00000010: 168b b9bd 2bc1 283e 8f9e 19bd 2eb1 6d3d
00000020: 69f9 26b8 55d1 7cbc 688d b8bc 9132 7dbc
00000030: 4ad5 d23c b46f 12be 87b6 3abd f17b 9d3c
00000040: 6ba1 26bd 6bf3 08be 6a8a 5f3c 4acb e9bd
00000050: 4688 e0bd ea6a 8e3d 3c1e b03d bf80 57be
00000060: 9b51 d9bd 2d51 cbbb 4a51 773c bf0d 4f3c
00000070: 589d 96bc 0ee1 bd3d 3d26 cbbd 3d53 553d
00000080: 64d4 543b e64b fcbd 8e28 873d 8f18 99bc
00000090: 3e06 333e f93e e23c d837 bfbd cc0c 86bc
000000a0: fb96 08be 0424 ab3d fe38 8cbd 7fe6 bc3d
000000b0: 6ad5 b83d 3fcc 333c ba0d fcbd 0d87 02be
000000c0: 52df f63d 5f12 01be 095a 92bb bb8c c83b
000000d0: c5db bbbd 1a63 efbd a32b 543d 197e c33d
000000e0: 1f9f 9d3c 2cec 30bd 4fdc 603d fa65 053e
000000f0: 453c 0dbd 3cc5 01be 16e3 0c3e 0b6c 14bd
00000100: a43f 073c 99eb 38bd 3ab2 83bd 5eec dbbd
00000110: 9b29 753d b967 0ebc a52f 313e 169d 06be
00000120: 3e71 743d 520f dc3d 4b8b 98bd 4a6a 43bd
00000130: d9d7 0b3d 0d34 923d e6c3 0e3e d358 1abe
00000140: a3a2 cebd 805a fd3d 701b c73d 3370 ba3c
00000150: 938f b53c c932 ba3c c614 883c 07a8 ef3d
00000160: 5a23 ab3d 314e eebc 79ee cfbc a901 a33b
00000170: 404d 023c 5001 e43d 3db9 a0bc 26fe 2d3d
00000180: 001b c5bd eae0 17be 8823 e93d 142b c3bc
00000190: 930b 1ebd 313a c2bc 4224 96bd 7b8f 5cbe
000001a0: b376 e63c 3b04 8a3d 6de9 803d 86b5 383d
000001b0: af6c 60bd cb69 37bc 1beb a63b 6a26 0c3e
000001c0: cc83 d33c 6ce7 53bd d7a0 50bd f6a4 58bd
000001d0: 9fe8 21be 4344 ffbd 4bc4 333d 3181 ddbd
000001e0: 459a 29be 972d fdbd afda 6c3d e8df 17be
000001f0: 007a 9abd 9483 99bc 91d3 123c e74e 97bd

layers.5.weight f4 [4, 128]
-0.13361236 0.21607228 -0.107853726 0.121621765 -0.057430863 -0.049022917 -0.11064607 0.088503644
0.048295554 -0.16567177 -0.16462933 0.033160657 0.10275592 -0.16819027 -0.13814004 -0.07158128
-0.13545059 -0.14459293 0.24365607 -0.29820824 0.110781826 -0.08939151 0.20772201 -0.3635079
0.04126459 0.13562077 -0.17928874 -0.22317119 0.08911045 0.27655792 0.018995496 0.33036235
0.023734562 0.07096311 0.025938392 0.24371248 0.16913365 -0.13568111 -0.1420166 -0.25183868
0.050108492 0.13544327 -0.2195451 -0.09782771 0.10453331 0.23703521 -0.24360126 0.09336417
-0.13962461 -0.088353544 -0.23908186 -0.24429473 -0.21170512 -0.09970858 0.19401574 0.06002827
0.07907965 0.16718525 0.24332337 0.09567554 -0.20777433 -0.12246852 0.41781348 0.088853896
0.15918696 -0.25486577 -0.23197952 0.0633102 0.12077036 -0.264174 0.26239562 0.11853054
0.20187162 0.04123203 0.106959604 -0.14489229 0.10349331 0.09976683 0.10479619 0.06875022
0.085499614 0.16571589 0.25065458 -0.19309576 -0.08989427 0.11442381 -0.12749046 -0.1803883
-0.11990637 0.13902381 -0.13472845 -0.028005037 0.022254946 0.3229058 -0.06497998 -0.20698896
-0.14513461 -0.17514986 0.08181912 -0.12596032 0.13309556 -0.1238384 0.1281182 -0.37398165
0.043441456 0.018369656 0.24999242 0.055521045 -0.08315508 0.03453386 0.08245602 -0.1325054
0.0216561 -0.03427924 -0.13787067 -0.27978784 -0.15804562 0.07791274 -0.054629218 -0.20145088
-0.04841136 0.10842342 0.09943671 -0.25743392 -0.2551885 -0.07366874 -0.080554135 -0.37914068
-0.1453604 -0.00045046615 -0.1872532 0.053992555 -0.034586426 0.06469508 -0.055532366 0.15247065
0.08040089 0.09115903 0.14976309 -0.09127724 0.10700037 0.03695405 -0.028592013 -0.08864493
-0.1033196 0.016300377 -0.055305798 0.32039064 0.06440243 -0.11182038 -0.21135765 0.25907165
0.19688167 0.0549465 0.25382513 -0.015243562 -0.046105694 -0.14512832 0.234004 0.013816326
-0.15353712 0.089109726 -0.026879033 0.081173144 -0.1643535 -0.20016292 0.12951845 0.13410296
0.27962208 -0.27162275 -0.08105724 0.08865749 0.10738843 0.044260923 -0.06671864 0.045424454
-0.16181171 -0.1774665 0.26013878 0.021710655 0.17017582 -0.12774064 -0.027617844 -0.0025634002
0.086920574 0.019606354 0.08433002 0.09867968 0.0838333 0.27942362 -0.19389603 -0.19370276
-0.0655833 0.20727575 0.08827688 0.18061519 0.10167074 -0.051715713 0.115396366 -0.079494335
0.01739473 0.16579193 0.21461053 -0.14562035 -0.16152266 -0.14326173 0.20108703 -0.0078274775
-0.07126855 0.007896167 -0.20244095 0.25587347 -0.052394398 -0.27263334 0.14924519 -0.088164285
-0.0081459 0.081985556 0.27313688 -0.02711943 0.08655814 -0.14595893 -0.09018163 0.25336227
-0.049656007 -0.03988343 -0.24749178 -0.18695575 0.15718895 0.0010241728 0.019268846 0.2383823
-0.14364216 -0.14626378 0.035789263 -0.12556267 0.18000524 0.16839162 0.028741784 -0.09143853
-0.16951735 -0.17902935 -0.089137204 0.22135939 -0.066601396 0.07677402 -0.16877607 -0.108820535
-0.071577705 0.15663812 0.12100651 0.007106809 -0.09410023 0.122302786 -0.0886538 0.19794771
00000000: aed1 08be 0d42 5d3e 6ae2 dcbd d514 f93d
00000010: a03c 6bbd 41cc 48bd 689a e2bd 6641 b53d
00000020: 8fd1 453d dca5 29be 9794 28be 78d3 073d
00000030: b271 d23d 123a 2cbe 9574 0dbe 3599 92bd
00000040: 8fb3 0abe 2b10 14be fa80 793e c0ae 98be
00000050: 95e1 e23d e512 b7bd 14b5 543e b51d babe
00000060: 0f05 293d 2ce0 0a3e 7897 37be fd86 64be
00000070: 8a7f b63d 0099 8d3e 719c 9b3c 4125 a93e
00000080: fc6e c23c 1b55 913d c07c d43c c48f 793e
00000090: 5f31 2d3e fdef 0abe cd6c 11be 00f1 80be
000000a0: 903e 4d3d a4b1 0a3e 6ed0 60be e559 c8bd
000000b0: 8f15 d63d 5cb9 723e 9c72 79be b735 bf3d
000000c0: c1f9 0ebe b4f2 b4bd e0d1 74be 6628 7abe
000000d0: 3ac9 58be 0334 ccbd 10ac 463e 34e0 753d
000000e0: 83f4 a13d 9c32 2b3e c329 793e 8af1 c33d
000000f0: cbc2 54be c7d0 fabd a6eb d53e 08f9 b53d
00000100: e801 233e c47d 82be 0a8c 6dbe c7a8 813d
00000110: 7356 f73d d141 87be b858 863e 24c0 f23d
00000120: 6fb7 4e3e ebe2 283d a30d db3d a55e 14be
00000130: 4df4 d33d 8d52 cc3d 639f d63d eacc 8c3d
00000140: 6c1a af3d 6db1 293e cc55 803e e5ba 45be
00000150: 7d1a b8bd 0857 ea3d dc8c 02be b6b7 38be
00000160: 7991 f5bd 425c 0e3e 41f6 09be d26a e5bc
00000170: 0150 b63c e953 a53e 3914 85bd eaf4 53be
00000180: 2b9e 14be 7c5a 33be c890 a73d befb 00be
00000190: 344a 083e fd9e fdbd 6b31 033e 867a bfbe
000001a0: abef 313d f67b 963c 03fe 7f3e 096a 633d
000001b0: 364d aabd 6073 0d3d b4de a83d 7faf 07be
000001c0: 2268 b13c 6368 0cbd f82d 0dbe 5a40 8fbe
000001d0: b6d6 21be b790 9f3d e3c2 5fbd 2449 4ebe
000001e0: fd4a 46bd 190d de3d 79a5 cb3d 61ce 83be
000001f0: 11a8 82be a3df 96bd 91f9 a4bd ba1e c2be
00000200: 5bd9 14be 8b2c ecb9 4ebf 3fbe 4c27 5d3d
00000210: 7faa 0dbd db7e 843d e875 63bd 4421 1c3e
00000220: 39a9 a43d 96b1 ba3d 7f5b 193e 90ef babd
00000230: 0323 db3d 215d 173d cc39 eabc 798b b5bd
00000240: 3a99 d3bd 5e88 853c 5588 62bd 3e0a a43e
00000250: 6ce5 833d 1502 e5bd 246e 58be 0aa5 843e
00000260: 599b 493e 950f 613d 5ef5 813e 22c0 79bc
00000270: 53d9 3cbd 859c 14be bf9e 6f3e df5d 623c
00000280: d638 1dbe 297f b63d 6b31 dcbc 1b3e a63d
00000290: 494c 28be 82f7 4cbe 7ca0 043e 4952 093e
000002a0: a02a 8f3e 2312 8bbe 5701 a6bd 0f92 b53d
000002b0: 77ee db3d f14a 353d c8a3 88bd fe0e 3a3d
000002c0: f8b1 25be c7b9 35be e930 853e 8bda b13c
000002d0: 9242 2e3e 71ce 02be d13e e2bc b8fe 27bb
000002e0: 6a03 b23d 819d a03c 38b5 ac3d 9218 ca3d
000002f0: cbb0 ab3d 9d10 8f3e ae8c 46be 045a 46be
00000300: 8a50 86bd 1840 543e 82ca b43d 30f3 383e
00000310: c038 d03d dbd3 53bd ee54 ec3d edcd a2bd
00000320: 657f 8e3c 5cc5 293e ddc2 5b3e 801d 15be
00000330: 3266 25be 34b3 12be c2e9 4d3e d23e 00bc
00000340: 3ff5 91bd ed5e 013c ae4c 4fbe d901 833e
00000350: 829b 56bd 9996 8bbe bbd3 183e 7a8f b4bd
00000360: 6276 05bc 0be8 a73d 99d8 8b3e 9129 debc
00000370: 6545 b13d 4276 15be 25b1 b8bd b3b8 813e
00000380: 1964 4bbd cf5c 23bd 7c6e 7dbe 5471 3fbe
00000390: 24f6 203e 893d 863a b3d9 9d3c 7d1a 743e
000003a0: ee16 13be 2cc6 15be c397 123d 8093 00be
000003b0: 4b53 383e da6e 2c3e e473 eb3c 2044 bbbd
000003c0: f595 2dbe 7853 37be 918d b6bd 09ac 623e
000003d0: 5066 88bd b33b 9d3d a2d3 2cbe 4ddd debd
000003e0: 5597 92bd be65 203e 43d2 f73d 3ce0 e83b
000003f0: 9fb7 c0bd e279 fa3d 2090 b5bd ceb2 4a3e

layers.5.bias f4 [4]
-0.07401219 -0.0440825 0.16299777 -0.08058302
00000000: b493 97bd da8f 34bd e3e8 263e b608 a5bd
