model_zoo/PPO/LunarLander-v2/critic_2171584.pth (torch, 140231 bytes, 7 tensors)

layers.0.weight f4 [128, 8]
-0.61657387 -0.22505052 0.3717931 -0.15240838 0.02051323 -0.4890052 -0.098051436 0.21254006
0.3770801 0.097644426 -0.16377026 0.472594 -0.053935066 -0.097666 -0.12369808 0.31055257
-0.36191353 -0.19679977 0.23932666 0.47380763 -0.18050447 -0.42850932 -0.07705477 0.18988867
0.10513794 -0.19552927 -0.27918324 -0.17373008 -0.8175027 0.18239598 -0.12024598 0.098345205
-0.58852655 -0.32109603 -0.27879298 0.14152458 0.21776178 -0.055316083 0.21144687 -0.21432105
-0.4360618 -0.3492501 -0.29594454 -0.16783862 0.16963734 -0.22128455 -0.26712963 -0.06931473
0.14665757 -0.09509597 0.28863508 0.48718238 -0.21972759 -0.15910374 -0.23110756 0.25092438
0.19719642 -0.30054116 -0.11965195 -0.385534 0.5902601 -0.003987416 0.12999403 0.30361363
-0.67790717 -0.10741586 -0.50308734 0.13937347 -0.49769935 -0.14080659 0.4132714 0.117599145
-0.10686854 -0.25423083 -0.41854885 -0.010024041 0.2276435 0.67135274 0.109500885 0.16268551
-0.42817304 -0.08976805 0.08716035 0.23762883 0.5364392 -0.18378347 -0.31006098 -0.30831334
-0.40718603 -0.31693292 -0.2621751 0.018152893 -0.47304523 -0.17542945 0.28320166 0.12532055
-0.46229455 0.18920793 -0.06823728 0.12282429 0.802168 0.3779829 0.020498257 0.06487791
-1.0426043 0.23156461 -0.23627578 0.31425917 0.7183186 -0.00982116 -0.10004633 -0.02517278
-0.33523464 -0.28037575 0.44433993 -0.22814658 0.029984957 0.025145736 0.15498473 0.40319276
0.26791632 0.20250605 0.030718744 -0.36155626 -0.20896392 -0.031570844 0.037813734 -0.009818624
0.9014478 -0.07026298 0.37286657 -0.31041136 -0.377421 -0.20128684 -0.027760973 -0.23434412
0.5783873 0.38012367 -0.019114615 0.06340454 0.09348451 -0.27747115 0.031218618 0.37940133
-0.26274487 0.39330834 0.09301133 -0.10381238 0.21069019 0.19119833 -0.05848879 0.2295872
0.17145598 -0.14825904 -0.6672281 0.08114272 -0.7451599 -0.41702422 -0.2027065 0.15973563
-0.30922553 0.6544318 -0.050255273 0.32059363 -0.048017927 0.09967834 0.007994653 0.12230144
-0.17204681 -0.22504531 -0.21970539 -0.02694407 0.5705963 0.39672276 -0.07149742 -0.18666835
-0.56429255 -0.12757452 -0.18944447 -0.50216264 0.29526666 0.19123319 -0.18577659 -0.18270487
0.5113762 0.5655215 -0.67867786 0.30554268 -0.42524293 -0.35033014 0.33771905 -0.0034918787
0.53060687 0.1415452 0.4300176 -0.4670594 -0.105566524 -0.20036651 -0.08576533 -0.12052421
-0.56516415 -0.32704276 -0.36511266 -0.29927617 0.7924911 -0.14044659 -0.25085756 0.22886154
0.94192207 0.06361183 -0.29710346 0.10193638 -0.1436175 0.09542165 -0.18730867 -0.23392124
0.7035186 0.18736206 0.20290928 0.051466506 -0.54671234 -0.09623685 -0.35140878 0.034034137
-0.0986202 -0.100950435 0.58720106 0.4061726 -0.59352773 -0.14373353 0.07979094 -0.016953519
-0.9458937 -0.11094744 -0.22050464 -0.0814197 -0.41163805 -0.15371212 0.23379086 0.07836625
0.5176783 0.12890211 0.1574922 -0.11485159 -0.8504301 0.0058283256 0.08065454 -0.15861171
-0.8339699 -0.37396622 -0.33586264 -0.18219438 -0.41451666 -0.23782797 -0.22954245 -0.027348822
00000000: c9d7 1dbf a573 66be aa5b be3e f110 1cbe
00000010: 5c0b a83c e45e fabe 31cf c8bd 1aa4 593e
00000020: a510 c13e cdf9 c73d 64b3 27be d7f7 f13e
00000030: 04eb 5cbd 1d05 c8bd 6b55 fdbd bf00 9f3e
00000040: bb4c b9be e185 49be 0c12 753e ea96 f23e
00000050: 2ad6 38be 9365 dbbe e4ce 9dbd 2d72 423e
00000060: 8f52 d73d d338 48be 1bf1 8ebe 4ce6 31be
00000070: db47 51bf 03c6 3a3e 8643 f6bd 3669 c93d
00000080: ada9 16bf b366 a4be f4bd 8ebe d2eb 103e
00000090: f2fc 5e3e 1e93 62bd 8785 583e fa76 5bbe
000000a0: 7e43 dfbe e9d0 b2be 0b86 97be e3dd 2bbe
000000b0: 69b5 2d3e 6b98 62be 37c5 88be e2f4 8dbd
000000c0: 672d 163e adc1 c2bd fac7 933e f86f f93e
000000d0: 4500 61be 17ec 22be 76a7 6cbe 2979 803e
000000e0: dced 493e 88e0 99be 150c f5bd b664 c5be
000000f0: 491b 173f dfa8 82bb 281d 053e 3f73 9b3e
00000100: 538b 2dbf d9fc dbbd 55ca 00bf ebb7 0e3e
00000110: 73d2 febe 9a2f 10be 4f98 d33e d2d7 f03d
00000120: e5dd dabd 8b2a 82be 094c d6be e03b 24bc
00000130: 611b 693e c6dd 2b3f 0042 e03d 0897 263e
00000140: 7f39 dbbe 50d8 b7bd 2081 b23d f954 733e
00000150: 1454 093f bc31 3cbe 50c0 9ebe 3fdb 9dbe
00000160: b07a d0be 0845 a2be d13b 86be 60b5 943c
00000170: fc32 f2be c7a3 33be cfff 903e 0854 003e
00000180: dfb1 ecbe b9bf 413e fdbf 8bbd 4d8b fb3d
00000190: e25a 4d3f fa86 c13e f6eb a73c b6de 843d
000001a0: 0f74 85bf 461f 6d3e 47f2 71be 94e6 a03e
000001b0: bae3 373f eee8 20bc 17e5 ccbd 2537 cebc
000001c0: e0a3 abbe 698d 8fbe 8680 e33e 429f 69be
000001d0: 03a3 f53c 6efe cd3c 51b4 1e3e 486f ce3e
000001e0: 542c 893e bf5d 4f3e e0a5 fb3c e71d b9be
000001f0: a3fa 55be 6e50 01bd 93e2 1a3d 4bde 20bc
00000200: 48c5 663f 0ae6 8fbd 5ee8 be3e 3dee 9ebe
00000210: 533d c1be 231e 4ebe fb6a e3bc e8f7 6fbe
00000220: 3111 143f 929f c23e 4196 9cbc 3dda 813d
00000230: cf74 bf3d b310 8ebe 30be ff3c e440 c23e
00000240: 7f86 86be b65f c93e b97c be3d 969b d4bd
00000250: 2bbf 573e 7fc9 433e f191 6fbd e818 6b3e
00000260: 2892 2f3e 38d1 17be 76cf 2abf 282e a63d
00000270: cdc2 3ebf 3384 d5be 4b92 4fbe bd91 233e
00000280: cf52 9ebe d888 273f 79d8 4dbd d924 a43e
00000290: 72ae 44bd 2824 cc3d 01fc 023c 2d79 fa3d
000002a0: 0a2d 30be 4772 66be 73fa 60be cfb9 dcbc
000002b0: 9912 123f 3f1f cb3e 3d6d 92bd fd25 3fbe
000002c0: 7a75 10bf e5a2 02be bbfd 41be bb8d 00bf
000002d0: 312d 973e a2d2 433e 383c 3ebe fc16 3bbe
000002e0: 8de9 023f 04c6 103f d5bd 2dbf 1770 9c3e
000002f0: 71b9 d9be 795e b3be 83e9 ac3e 01d8 64bb
00000300: dad5 073f 3af1 103e 442b dc3e 6922 efbe
00000310: 4333 d8bd e12c 4dbe bca5 afbd 66d5 f6bd
00000320: 99ae 10bf 2672 a7be 0cf0 babe ba3a 99be
00000330: b2e0 4a3f 3bd1 0fbe 6770 80be ae5a 6a3e
00000340: ce21 713f eb46 823d f21d 98be 05c4 d03d
00000350: 7710 13be 6d6c c33d d8cd 3fbe 0d89 6fbe
00000360: cc19 343f d7db 3f3e 73c7 4f3e 8bce 523d
00000370: 57f5 0bbf d317 c5bd daeb b3be 6167 0b3d
00000380: 63f9 c9bd 1abf cebd cf52 163f dbf5 cf3e
00000390: 6ff1 17bf e22e 13be 6f69 a33d 1be2 8abc
000003a0: 1726 72bf 6938 e3bd f8cb 61be 5fbf a6bd
000003b0: 39c2 d2be b666 1dbe df66 6f3e 7c7e a03d
000003c0: 9186 043f eafe 033e a345 213e 4f37 ebbd
000003d0: c9b5 59bf 8afb be3b 352e a53d 1c6b 22be
000003e0: 0d7f 55bf 8078 bfbe 30f6 abbe 2a91 3abe
000003f0: 873b d4be 2d89 73be 2d0d 6bbe a30a e0bc

layers.0.bias f4 [128]
-0.14018498 0.34659192 0.39673847 0.27945027 -0.04976517 -0.21248259 0.11700947 -0.30583206
0.23820041 0.27669132 -0.31431985 0.409776 -0.20348217 -0.119681165 0.23372647 -0.26307216
-0.05942292 -0.30283895 -0.3351923 -0.2434394 -0.14890209 0.22747071 0.025863925 -0.3831258
0.33896944 0.27903742 0.16584437 0.28802148 -0.15676075 0.3617116 -0.3704834 -0.23372404
-0.26607162 -0.050393887 -0.065061085 0.10390648 -0.24001214 0.26350656 0.058549497 -0.28720906
0.32981586 -0.27838925 -0.22076078 -0.36936644 -0.1738288 -0.2095427 -0.26762012 -0.08753005
0.33196732 0.28843838 -0.29849058 -0.30096146 -0.29648086 -0.2227436 0.33703366 0.3545113
0.014797517 -0.14513697 -0.17048259 0.24120434 0.36566773 -0.3470702 -0.1704479 0.20574823
-0.38235256 0.20521346 0.14455314 -0.0550278 0.2891412 -0.3488216 0.37641004 0.32856464
-0.09937231 -0.20760675 0.08121953 0.104601204 0.07634276 -0.35503748 -0.34570864 0.3478231
0.35798588 -0.29464918 0.37830806 0.20384245 0.077219374 -0.32979858 0.0718929 0.2409467
-0.118392795 -0.055188872 -0.29159117 -0.36062688 0.17496765 -0.10901282 -0.2565516 0.15422638
-0.17358564 -0.3990511 0.33912358 -0.085080154 0.2653929 -0.17288916 -0.3054082 -0.08207756
-0.090107076 0.123677075 0.27533987 0.31696254 -0.3258427 0.048739538 0.22001429 0.24718001
-0.05031288 0.328243 -0.100952074 0.06705645 -0.14677128 -0.04219465 -0.04344101 0.20664671
0.20850202 0.26518178 0.21372655 0.18019342 -0.19824529 0.15165745 -0.111393705 0.06943608
00000000: a78c 0fbe 7f74 b13e 4e21 cb3e 1b14 8f3e
00000010: 90d6 4bbd 0995 59be a9a2 ef3d 0596 9cbe
00000020: cfea 733e 7caa 8d3e 88ee a0be 29ce d13e
00000030: a15d 50be 661b f5bd fe55 6f3e 65b1 86be
00000040: 7365 73bd b50d 9bbe 539e abbe 2e48 79be
00000050: ca79 18be 15ee 683e 95e0 d33c 1129 c4be
00000060: 678d ad3e fedd 8e3e 1bd3 293e 8d77 933e
00000070: e485 20be 4332 b93e 00b0 bdbe 5b55 6fbe
00000080: 8a3a 88be d269 4ebd bf3e 85bd eccc d43d
00000090: bec5 75be 55ea 863e 99d1 6f3d 110d 93be
000000a0: a0dd a83e 0989 8ebe 1d0f 62be 991d bdbe
000000b0: 2d00 32be 5d92 56be 8105 89be f442 b3bd
000000c0: 9ff7 a93e 32ae 933e c2d3 98be 9f17 9abe
000000d0: 57cc 97be e616 64be ad8f ac3e 8182 b53e
000000e0: 4971 723c c99e 14be fd92 2ebe 45fe 763e
000000f0: cd38 bb3e 2fb3 b1be e589 2ebe aaaf 523e
00000100: b7c3 c3be 7a23 523e bd05 143e d564 61bd
00000110: 510a 943e bf98 b2be d1b8 c03e a039 a83e
00000120: b683 cbbd dd96 54be 6d56 a63d 2839 d63d
00000130: 9859 9c3d 79c7 b5be b900 b1be df15 b23e
00000140: ed49 b73e 42dc 96be 98b1 c13e 13bc 503e
00000150: 3125 9e3d 5cdb a8be 963c 933d bbba 763e
00000160: ec77 f2bd ba0d 62bd 704b 95be 16a4 b8be
00000170: b82a 333e 1d42 dfbd bb5a 83be 85ed 1d3e
00000180: 6fc0 31be 6d50 ccbe 9ba1 ad3e 813e aebd
00000190: 94e1 873e db09 31be 775e 9cbe 4818 a8bd
000001a0: 0f8a b8bd 684a fd3d 59f9 8c3e ea48 a23e
000001b0: dbd4 a6be 1ca3 473d 6d4b 613e c21c 7d3e
000001c0: e114 4ebd 770f a83e f6bf cebd e454 893d
000001d0: 364b 16be 4cd4 2cbd 33ef 31bd 329b 533e
000001e0: 8e81 553e e8c5 873e 22db 5a3e a084 383e
000001f0: d000 4bbe 174c 1b3e 6222 e4bd 8134 8e3d

layers.1.weight f4 [128, 128]
-0.120973155 0.18455735 0.27969015 0.052910473 0.07850045 -0.018794438 0.052291557 -0.07529864
0.13534033 0.22410272 0.0059669544 0.18946755 -0.18995523 -0.101119645 0.01160478 -0.28854132
-0.041969556 -0.17348735 -0.15918422 0.012601409 0.04322184 0.05735524 -0.09004607 -0.17149754
-0.0060981233 0.074945465 0.06083708 0.023792133 0.012726692 0.15888964 -0.07288242 -0.093706794
-0.028421571 0.06167671 -0.016557602 0.18637058 -0.1634469 0.16272978 0.21681988 -0.07798238
0.15646757 -0.12073644 -0.08367422 -0.15681252 -0.029620523 -0.06851012 -0.048244428 -0.06395914
0.15983899 0.21702667 -0.10971686 -0.046648234 -0.14139108 0.03022756 0.0909906 0.03499829
0.033460338 0.022110153 -0.032488782 0.057399068 0.11332483 -0.14677742 -0.06734948 0.053515594
-0.2555432 0.04081551 -0.045163594 -0.053518586 0.24551377 -0.14131524 0.045653496 -0.0015325323
0.006011526 0.07385427 0.034695115 0.05369257 -0.12184472 -0.106501155 -0.25482535 0.052299954
0.017058376 0.0027510347 0.34704927 0.15946192 0.017981533 -0.1070375 0.023388404 0.13732329
0.019134047 -0.07595264 -0.2176139 -0.19511284 0.18562977 -0.011211813 -0.0632237 0.10365864
-0.09633503 -0.20505807 0.14629558 -0.1193025 0.05505072 -0.13593166 0.066982694 -0.12142448
-0.03317199 0.12425999 0.08150076 0.017710797 -0.04298537 0.10959171 0.11210318 -0.0113631245
0.07449483 0.08727993 -0.17377645 -0.0011875248 -0.08747925 0.114364065 0.11685309 0.11719005
0.16542223 0.06301689 -0.049150735 0.084142685 -0.14180987 0.038182773 -0.11223736 -0.022145007
0.22065696 0.010397376 0.26029143 0.04009747 0.13381466 0.14971958 0.007807433 -0.09188582
0.3265443 0.043211147 -0.038122434 0.17938748 0.169044 0.31830022 0.14043547 -0.1753454
-0.3849825 -0.24578837 0.08154989 -0.10416108 0.052229434 0.15074989 0.16665614 -0.30352455
0.031133657 0.23531735 -0.35813844 -0.06449879 -0.047578573 0.37418362 -0.27894065 0.15061729
-0.30551845 0.1778919 -0.43221736 -0.0069498164 0.04946941 0.16530322 0.14030549 -0.33500278
0.034675375 -0.1704235 0.02993004 0.0714395 -0.074277714 0.21309124 -0.00425578 0.3355493
-0.1655505 -0.07042927 -0.45199287 0.01872955 -0.0880418 0.054347873 -0.064792804 -0.12120795
0.2728901 -0.37936634 -0.2430104 0.1717423 -0.045425817 -0.27433008 0.14028889 -0.19358213
-0.24882372 0.4271875 -0.14725779 0.27073303 -0.1146804 -0.18110868 0.010849291 0.11183151
-0.26154462 0.15546007 0.3803922 0.25094306 -0.00833497 -0.1970645 -0.044750158 0.13817485
-0.095442995 -0.22279343 -0.010439703 -0.019967793 -0.028028052 -0.14488575 0.40507483 0.21387605
0.10535533 0.13604425 0.07712001 -0.17915238 -0.23019418 0.12359834 0.1280824 0.00014770663
-0.074924886 -0.077273756 0.006054684 -0.32949975 -0.04985459 0.03006408 0.12505254 0.3117319
-0.569475 0.036035 -0.15501264 -0.15496376 -0.3211005 0.3108542 -0.36542127 0.31768498
-0.13943064 0.13116135 -0.38790247 -0.2772104 0.13305345 -0.18860495 0.057252318 0.41245535
-0.0364478 -0.038882244 -0.060892895 0.13948525 0.11197813 -0.023073094 -0.33348516 -0.25378668
00000000: c6c0 f7bd 9afc 3c3e 8c33 8f3e a7b8 583d
00000010: d8c4 a03d cbf6 99bc ac2f 563d 2c36 9abd
00000020: a896 0a3e 2f7b 653e 7186 c33b c803 423e
00000030: a083 42be d117 cfbd fa21 3e3c b0bb 93be
00000040: 45e8 2bbd aba6 31be 3001 23be 2476 4e3c
00000050: 6209 313d 54ed 6a3d 136a b8bd 0d9d 2fbe
00000060: c4d2 c7bb 027d 993d 4d30 793d b8e7 c23c
00000070: 9d83 503c f7b3 223e 6143 95bd 59e9 bfbd
00000080: 5bd4 e8bc b8a0 7c3d cfa3 87bc eed7 3e3e
00000090: a05e 27be a3a2 263e 0806 5e3e 3ab5 9fbd
000000a0: 0939 203e ab44 f7bd 645d abbd 7693 20be
000000b0: bda6 f2bc 094f 8cbd f39b 45bd 02fd 82bd
000000c0: d5ac 233e 3d3c 5e3e 3cb3 e0bd 3812 3fbd
000000d0: d3c8 10be ca9f f73c 4859 ba3d 5e5a 0f3d
000000e0: b50d 093d 5a20 b53c f512 05bd 491b 6b3d
000000f0: d916 e83d d24c 16be 86ee 89bd 2b33 5b3d
00000100: 8fd6 82be 2a2e 273d 76fd 38bd 4e36 5bbd
00000110: f667 7b3e f1b4 10be 29ff 3a3d 40df c8ba
00000120: 56fc c43b e840 973d 771c 0e3d beec 5b3d
00000130: b989 f9bd 471d dabd 7878 82be 7a38 563d
00000140: 02be 8b3c b44a 343b 71b0 b13e fc49 233e
00000150: 024e 933c 7a36 dbbd 0a99 bf3c 7a9e 0c3e
00000160: 01bf 9c3c 0f8d 9bbd 2ed6 5ebe a9cb 47be
00000170: bb15 3e3e c1b1 37bc 6d7b 81bd fb4a d43d
00000180: 4d4b c5bd befa 51be 82ce 153e de54 f4bd
00000190: dd7c 613d ab31 0bbe 392e 893d 66ad f8bd
000001a0: 5adf 07bd 067c fe3d dfe9 a63d 3c16 913c
000001b0: 6d11 30bd 9e71 e03d 5a96 e53d 662c 3abc
000001c0: bf90 983d d2bf b23d 74f2 31be b8a6 9bba
000001d0: 5228 b3bd b537 ea3d ac50 ef3d 5601 f03d
000001e0: 7264 293e 000f 813d 4852 49bd 0053 ac3d
000001f0: 9b36 11be 8a65 1c3d b3dc e5bd 7269 b5bc
00000200: e6f3 613e c159 2a3c eb44 853e 3f3d 243d
00000210: b606 093e 1750 193e 7fd5 ff3b a22e bcbd
00000220: d130 a73e 2cfe 303d 4526 1cbd 5ab1 373e
00000230: df19 2d3e 3ff8 a23e 51ce 0f3e bf8d 33be
00000240: 6d1c c5be f2af 7bbe a103 a73d 6852 d5bd
00000250: 88ee 553d 2e5e 1a3e e8a7 2a3e 9267 9bbe
00000260: 030c ff3c 08f7 703e ec5d b7be f117 84bd
00000270: c0e1 42bd ff94 bf3e 4fd1 8ebe 6b3b 1a3e
00000280: ea6c 9cbe 4b29 363e 984b ddbe 49bb e3bb
00000290: 70a0 4a3d 3f45 293e 3eac 0f3e 7c85 abbe
000002a0: c407 0e3d 7f83 2ebe d82f f53c df4e 923d
000002b0: ea1e 98bd 9734 5a3e 1274 8bbb 1ecd ab3e
000002c0: 1286 29be 393d 90bd 9c6b e7be b76e 993c
000002d0: 424f b4bd e09b 5e3d 17b2 84bd e03b f8bd
000002e0: 40b8 8b3e 4e3c c2be b8d7 78be 37dd 2f3e
000002f0: 6c10 3abd fe74 8cbe e4a7 0f3e 653a 46be
00000300: a5cb 7ebe 52b8 da3e bfca 16be 859d 8a3e
00000310: 8fdd eabd 8e74 39be 3ac1 313c eb07 e53d
00000320: 2de9 85be ed30 1f3e c4c2 c23e 9c7b 803e
00000330: 668f 08bc 47cb 49be f14b 37bd b57d 0d3e
00000340: 9e77 c3bd f623 64be 4a0b 2bbc 7f93 a3bc
00000350: 169b e5bc ee5c 14be f865 cf3e 5302 5b3e
00000360: 89c4 d73d 2f4f 0b3e 19f1 9d3d b973 37be
00000370: 06b8 6bbe 2021 fd3d 0828 033e b2e1 1a39
00000380: 3872 99bd b441 9ebd 5f66 c63b 31b4 a8be
00000390: 5434 4cbd f248 f63c c60d 003e 539b 9f3e
000003a0: 1dc9 11bf 7099 133d a2bb 1ebe d2ae 1ebe
000003b0: 4967 a4be 4828 9f3e 7f18 bbbe 9ba7 a23e
000003c0: e8c6 0ebe 294f 063e 279b c6be 86ee 8dbe
000003d0: 2a3f 083e a821 41be 6881 6a3d 592d d33e
000003e0: 4a4a 15bd fd42 1fbd d46a 79bd 39d5 0e3e
000003f0: ca54 e53d c903 bdbc 91be aabe 54f0 81be

layers.1.bias f4 [128]
0.1531701 0.038355667 -0.11233192 0.036748867 0.023819193 0.042421747 0.09728512 -0.07279684
0.015385998 -0.019886881 0.16483815 0.107399486 -0.002093577 -0.023890343 -0.07023093 -0.09662613
-0.101066835 -0.164375 -0.0692819 -0.02683699 -0.05693271 -0.031380072 0.1121124 0.11232304
-0.15409182 0.117019236 0.07935942 0.030397508 -0.033753682 0.025829094 -0.07643477 -0.09899798
-0.07377107 -0.039724275 -0.12407227 -0.05430062 0.070555724 -0.096716 0.19943401 -0.10381615
-0.088916555 -0.03492795 0.06377941 -0.14175794 -0.07702502 0.03275974 0.07245055 0.118218355
0.018610371 -0.07121102 -0.012885621 0.0042578066 -0.015224847 -0.004369925 0.038389493 -0.15688246
-0.100243114 -0.0625235 0.062861755 -0.16992407 0.07128547 -0.019983608 -0.015428579 0.03716377
-0.12108069 -0.09455412 0.1667685 -0.1450715 0.038693063 -0.001273651 0.016698206 -0.059413306
-0.06106562 0.028627804 -0.09895825 -0.11326265 0.015306644 0.1685833 -0.047157466 0.12272707
0.04662139 0.0056241956 -0.017589273 0.1619914 0.12334486 0.015388964 -0.13421178 -0.028580075
-0.111961514 0.04234138 -0.012186151 0.09552997 0.012372562 -0.008602917 -0.15876092 -0.044132743
-0.015447261 -0.11859858 0.10294219 -0.14226618 0.07111269 -0.028780594 -0.09039455 0.1510747
-0.16008319 -0.045072284 -0.11953301 -0.036216617 -0.21516193 -0.10547151 0.04201298 -0.008210017
0.0025218835 0.030181024 -0.019543832 0.021048747 -0.04600857 0.10816391 0.1521221 0.19540673
0.050104093 0.13945372 0.03630511 -0.11711118 -0.12955451 0.05626688 -0.09621189 0.013668213
00000000: 9fd8 1c3e d51a 1d3d 470e e6bd fb85 163d
00000010: 7820 c33c 6dc2 2d3d 6c3d c73d 8216 95bd
00000020: 8e15 7c3c d0e9 a2bc 55cb 283e 43f4 db3d
00000030: 6534 09bb aeb5 c3bc 3cd5 8fbd ece3 c5bd
00000040: 21fc cebd ec51 28be abe3 8dbd 3fd9 dbbc
00000050: 4632 69bd 6488 00bd 309b e53d 9f09 e63d
00000060: 3fca 1dbe c8a7 ef3d 3187 a23d 3204 f93c
00000070: 4d41 0abd 8997 d33c d589 9cbd 74bf cabd
00000080: 4915 97bd ecb5 22bd 9a19 febd 546a 5ebd
00000090: 857f 903d 0a13 c6bd 6e38 4c3e 909d d4bd
000000a0: e219 b6bd 9c10 0fbd c89e 823d fe28 11be
000000b0: 4bbf 9dbd 142f 063d f460 943d 771c f23d
000000c0: c774 983c 15d7 91bd 361e 53bc 1285 8b3b
000000d0: a371 79bc 9631 8fbb 4d3e 1d3d cca5 20be
000000e0: 434c cdbd 520c 80bd aabd 803d 9300 2ebe
000000f0: 1efe 913d aab4 a3bc 27c8 7cbc 0a39 183d
00000100: 27f9 f7bd 97a5 c1bd 5dc5 2a3e a08d 14be
00000110: 9e7c 1e3d a3f0 a6ba adca 883c 5e5b 73bd
00000120: f21f 7abd db84 ea3c 9faa cabd 40f6 e7bd
00000130: b8c8 7a3c 1aa1 2c3e 3028 41bd 5458 fb3d
00000140: 12f6 3e3d 2c4b b83b 6117 90bc 13e1 253e
00000150: 3b9c fc3d fe21 7c3c d06e 09be c320 eabc
00000160: 144c e5bd 286e 2d3d 6ca8 47bc 38a5 c33d
00000170: 49b6 4a3c 40f3 0cbc 3992 22be 89c4 34bd
00000180: 8216 7dbc d0e3 f2bd 5bd3 d23d 3aae 11be
00000190: 88a3 913d 48c5 ebbc c720 b9bd 53b3 1a3e
000001a0: d9ec 23be b79d 38bd b9cd f4bd e057 14bd
000001b0: 6953 5cbe 7201 d8bd cd15 2c3d 4f83 06bc
000001c0: 2f46 253b 323e f73c 631a a0bc 6c6e ac3c
000001d0: 7b73 3cbd 0a85 dd3d e5c5 1b3e b418 483e
000001e0: f339 4d3d f5cc 0e3e abb4 143d fdd7 efbd
000001f0: f0a9 04be 1a78 663d bd0a c5bd a4f0 5f3c

layers.3.weight f4 [128, 128]
-0.21474738 -0.11511696 -0.100313105 -0.13889779 0.0963497 -0.07959538 -0.052677922 -0.12405079
-0.12612292 0.043536335 -0.0062440746 -0.082918905 -0.08593398 -0.11223004 0.060511142 0.16355243
0.18475002 0.18632333 0.12781125 -0.2720984 0.22589183 0.17238894 -0.034297775 -0.17901999
0.12250356 0.1469702 0.05158129 0.14565465 0.026319286 -0.1841479 -0.005949997 0.18222526
0.033526566 0.093653984 0.19979821 -0.0020071846 -0.106158465 -0.0115294205 -0.18907054 0.20703323
-0.13127713 -0.22246313 -0.13152176 0.310085 0.16595086 0.007088048 -0.008615382 -0.19091694
0.12695028 0.27011493 0.19770478 -0.17461142 -0.006952275 0.049708907 -0.17211716 -0.053734537
0.08308834 0.26775512 -0.17171663 0.032911487 -0.013967135 0.21593162 -0.12692529 -0.023979018
-0.046317935 -0.080763295 -0.012670149 0.35867694 0.12487434 -0.1973178 0.30993295 0.17944574
-0.06868773 -0.09266055 -0.1200928 0.1492662 0.22607557 -0.13726494 0.015232182 -0.10325508
0.057814162 -0.23602904 0.0240836 -0.027142493 0.12150983 0.05517388 -0.08288046 -0.018063053
0.003310365 -0.14104949 -0.04575948 -0.101277195 -0.37570125 0.13410501 0.21058358 0.04087948
0.011715275 0.0985298 -0.14581838 0.014474947 0.0033373649 0.016156001 0.16766654 0.030812478
0.030954245 -0.0059472634 0.173794 -0.033675816 0.070619695 -0.0384952 -0.149902 0.10741189
0.026772708 -0.19397071 -0.046717774 0.0063770046 0.11103023 0.112051606 -0.11442136 0.03335976
-0.024612699 0.120896995 0.011710404 0.026519988 -0.07279253 -0.07916843 0.021268317 -0.0141726155
-0.054272253 0.2192442 -0.11538671 -0.27732295 0.05458634 0.18863678 -0.142072 0.0028029615
0.054673042 0.30389553 0.1332869 0.04259834 0.10738205 0.11905371 -0.05723521 0.11034984
0.015638048 -0.0103 -0.03132726 -0.0031666516 0.15795621 -0.07079045 0.056362584 0.029846536
0.007296372 0.08136648 -0.036120497 0.117095165 0.03114383 0.013527664 -0.14263141 0.14861096
-0.12319339 -0.009932118 0.05066974 -0.10462747 -0.04852158 -0.09194899 -0.121696584 0.096226014
0.1902172 -0.35813662 -0.06997199 -0.008157701 0.16338499 -0.43470034 -0.12830469 -0.11836986
-0.08416893 -0.030208033 0.1820742 0.075578816 -0.05630644 0.072501116 -0.010513724 0.030268438
0.04081703 0.060048334 -0.07120998 -0.046528 0.13694254 -0.073106594 -0.09811869 -0.0061955336
0.020042835 -0.05798877 -0.028230509 0.010510002 -0.27141643 -0.17967585 -0.097430505 -0.06380979
-0.07704949 -0.014140758 -0.06542082 -0.08664074 0.12508714 0.23442954 0.18595047 0.07148674
0.069848865 -0.47367796 -0.051283058 -0.012684804 -0.042680312 -0.03401276 -0.013984306 0.13834694
-0.08409576 0.00013032286 0.029251002 0.06451519 -0.088654704 -0.024131183 0.10939415 -0.21215129
0.06569215 0.024947098 -0.03232117 -0.118468426 0.124591775 -0.02222406 0.058735725 0.051552717
-0.0074983444 -0.05792418 0.10869205 -0.15147255 -0.11914741 -0.005702629 0.0085020615 0.121602714
-0.035500955 -0.1863872 -0.0867147 0.09597829 0.014733687 -0.052606247 -0.009225795 0.059970614
0.18058927 -0.24384615 -0.04700461 0.14698571 -0.1305136 -0.046991274 0.105778925 -0.023317711
00000000: bde6 5bbe 71c2 ebbd f570 cdbd 393b 0ebe
00000010: fe52 c53d e702 a3bd cec4 57bd 570e febd
00000020: 5e26 01be 2853 323d 189b ccbb 63d1 a9bd
00000030: 28fe afbd ddd8 e5bd 88da 773d 4a7a 273e
00000040: 1c2f 3d3e 8bcb 3e3e f4e0 023e 7b50 8bbe
00000050: 3050 673e ba86 303e d37b 0cbd 0451 37be
00000060: 25e3 fa3d 5b7f 163e e746 533d 7e26 153e
00000070: 8b9b d73c 4491 3cbe 31f8 c2bb 4299 3a3e
00000080: 2753 093d a9cd bf3d e797 4c3e f88a 03bb
00000090: 9c69 d9bd e5e5 3cbc b59b 41be 8500 543e
000000a0: 836d 06be 60cd 63be a4ad 06be 76c3 9e3e
000000b0: 06ef 293e db42 e83b 8827 0dbc bb7f 43be
000000c0: 41ff 013e 814c 8a3e 1f73 4a3e 56cd 32be
000000d0: e9cf e3bb 919b 4b3d 7b3f 30be bf18 5cbd
000000e0: 382a aa3d 3317 893e 7cd6 2fbe 32ce 063d
000000f0: 69d6 64bc 2e1d 5d3e b4f8 01be a56f c4bc
00000100: e0b7 3dbd 3a67 a5bd 7596 4fbc 81a4 b73e
00000110: 1ebe ff3d ad0d 4abe 88af 9e3e a0c0 373e
00000120: 27ac 8cbd d0c4 bdbd 37f3 f5bd 3dd9 183e
00000130: 5b80 673e 2e8f 0cbe 6790 793c 6677 d3bd
00000140: 8bce 6c3d 99b1 71be f84a c53c ef59 debc
00000150: 25da f83d 02fe 613d 3bbd a9bd f8f8 93bc
00000160: b5f2 583b 476f 10be 4b6e 3bbd 6b6a cfbd
00000170: ea5b c0be d352 093e 39a3 573e 3e71 273d
00000180: 6df1 3f3c fec9 c93d 6a51 15be 5428 6d3c
00000190: b1b7 5a3b 9759 843c c7b0 2b3e 736a fc3c
000001a0: c293 fd3c 43e1 c2bb 0ef7 313e a7ef 09bd
000001b0: 0fa1 903d 25ad 1dbd e97f 19be c4fa db3d
000001c0: 7052 db3c 42a0 46be 235b 3fbd 31f6 d03b
000001d0: d163 e33d 507b e53d bf55 eabd 3ea4 083d
000001e0: 92a0 c9bc d898 f73d ffdc 3f3c 7240 d93c
000001f0: 4014 95bd 0f23 a2bd e53a ae3c 4234 68bc
00000200: 954c 5ebd 8d81 603e de4f ecbd 46fd 8dbe
00000210: ed95 5f3d 002a 413e 537b 11be e4b1 373b
00000220: d7f0 5f3d 3298 9b3e 5c7c 083e 997b 2e3d
00000230: 1feb db3d 6ed2 f33d 786f 6abd 19ff e13d
00000240: 5d1b 803c 55c1 28bc 0351 00bd 9987 4fbb
00000250: 46bf 213e 95fa 90bd 74dc 663d b980 f43c
00000260: 6816 ef3b 78a3 a63d 16f3 13bd 97cf ef3d
00000270: 5821 ff3c 23a3 5d3c f80d 12be 792d 183e
00000280: d14c fcbd 52ba 22bc 138b 4f3d ed46 d6bd
00000290: 90be 46bd c14f bcbd 0f3c f9bd 2512 c53d
000002a0: 4cc8 423e af5d b7be 7a4d 8fbd e1a7 05bc
000002b0: 654e 273e 0b91 debe 4e62 03be e66b f2bd
000002c0: c360 acbd d676 f7bc a971 3a3e 11c9 9a3d
000002d0: 95a1 66bd 777b 943d c141 2cbc 84f5 f73c
000002e0: c22f 273d 3ef5 753d 8ad6 91bd 2594 3ebd
000002f0: aa3a 0c3e e9b8 95bd 74f2 c8bd e703 cbbb
00000300: df30 a43c a285 6dbd ab43 e7bc 2532 2c3c
00000310: 18f7 8abe f2fc 37be a589 c7bd b5ae 82bd
00000320: 1fcc 9dbd a3ae 67bc 5afb 85bd b370 b1bd
00000330: d816 003e 4c0e 703e cd69 3e3e a467 923d
00000340: ec0c 8f3d eb85 f2be 2f0e 52bd edd3 4fbc
00000350: 8dd1 2ebd f750 0bbd 6e1e 65bc d2aa 0d3e
00000360: 663a acbd 47a7 0839 cc9f ef3c 8a20 843d
00000370: 9990 b5bd c2ae c5bc 0a0a e03d 303e 59be
00000380: 9b89 863d db5d cc3c 3463 04bd 939f f2bd
00000390: f929 ff3d 3b0f b6bc df94 703d f128 533d
000003a0: acb4 f5bb e841 6dbd f099 de3d 9f1b 1bbe
000003b0: 8f03 f4bd 1fdd babb 3b4c 0b3c d80a f93d
000003c0: 7369 11bd 49dc 3ebe 7a97 b1bd 4490 c43d
000003d0: 9065 713c a679 57bd ca27 17bc bfa3 753d
000003e0: 65ec 383e ceb2 79be e887 40bd 6c83 163e
000003f0: 5ba5 05be ec79 40bd 9fa2 d83d c904 bfbc

layers.3.bias f4 [128]
-0.05407674 -0.024892624 0.08895901 -0.19187842 -0.09576138 0.14454816 -0.04941962 0.07489853
0.22124954 0.096226454 -0.07613465 -0.08060803 -0.08841948 0.014598357 0.05694917 -0.05279478
0.020863242 -0.0988225 -0.14646308 -0.065632716 -0.028974254 0.053187665 -0.0014944229 0.13910542
0.064763114 0.100880176 0.07332467 -0.07551031 0.07667405 0.09622016 -0.15789784 0.039881177
0.006560207 -0.03987259 -0.05299707 -0.024948888 -0.0814276 -0.087636404 0.13562045 0.12602615
0.04953702 -0.122847356 0.1288886 0.040343773 0.07677974 0.037788834 -0.11200554 -0.12338654
0.13556945 -0.13488866 -0.06085461 0.077449135 -0.051842213 0.11866863 -0.041534908 0.05161879
0.07256339 -0.09001495 0.04773931 0.15171017 0.07665384 0.15496276 -0.11803553 0.02579176
0.017182706 -0.118568964 -0.008417148 -0.07599666 -0.00046130645 -0.09710418 -0.00286884 -0.029463418
0.06910041 -0.040434282 -0.105128124 0.07174692 0.054340627 0.056973476 -0.03485338 0.019340437
0.11167011 0.14812881 -0.0016283122 0.0044524358 0.0010417872 0.06917934 0.12656517 -0.26241496
0.08144723 -0.044403728 0.011753454 -0.025791097 0.2358089 -0.08542162 0.058150988 0.115350336
-0.06838083 -0.013067032 -0.05740354 -0.036503933 0.04318007 -0.087554544 0.07674841 0.07248442
0.06789004 0.06296329 0.010786627 0.06013193 -0.23836517 0.024385849 -0.07716017 0.12801334
-0.1051822 -0.028081572 -0.21877998 0.058392607 -0.022950923 -0.11012621 0.11923749 0.10417848
0.09086636 -0.035576537 -0.0035460358 -0.10044384 0.09314848 -0.076947324 0.01911942 -0.016593896
00000000: 927f 5dbd 9eeb cbbc 2430 b63d c77b 44be
00000010: 8b1e c4bd 6f04 143e 3a6c 4abd 6764 993d
00000020: 3d8f 623e 6012 c53d 7cec 9bbd d315 a5bd
00000030: 4615 b5bd f22d 6f3c 8843 693d 573f 58bd
00000040: 64e9 aa3c 7363 cabd 6bfa 15be 726a 86bd
00000050: 6a5b edbc 4fdb 593d 83e0 c3ba a771 0e3e
00000060: 86a2 843d 449a ce3d 3f2b 963d 26a5 9abd
00000070: 4907 9d3d 130f c53d f9af 21be 725a 233d
00000080: 01f7 d63b 7151 23bd 7513 59bd 9c61 ccbc
00000090: 83c3 a6bd b77a b3bd 16e0 0a3e 000d 013e
000000a0: 55e7 4a3d 6597 fbbd 60fb 033e 833f 253d
000000b0: b23e 9d3d 77c8 1a3d 2963 e5bd 15b2 fcbd
000000c0: b8d2 0a3e 4120 0abe af42 79bd a79d 9e3d
000000d0: 8058 54bd 8a08 f33d 8220 2abd 396e 533d
000000e0: 1d9c 943d c259 b8bd 4b8a 433d e959 1b3e
000000f0: b0fc 9c3d 8fae 1e3e 9dbc f1bd 3e49 d33c
00000100: bfc2 8c3c 49d4 f2bd 14e8 09bc 23a4 9bbd
00000110: 81db f1b9 8ede c6bd 2603 3cbb 445d f1bc
00000120: 8484 8d3d 6b9e 25bd 6a4d d7bd 0df0 923d
00000130: 4794 5e3d 055d 693d 6bc2 0ebd d66f 9e3c
00000140: 4cb3 e43d 14af 173e 176d d5ba bde5 913b
00000150: 948c 883a e6ad 8d3d 4d9a 013e 415b 86be
00000160: cecd a63d afe0 35bd 8f91 403c da47 d3bc
00000170: e377 713e 88f1 aebd bb2f 6e3d cc3c ec3d
00000180: 400b 8cbd 1b17 56bc f91f 6bbd 2685 15bd
00000190: 96dd 303d cc4f b3bd 452e 9d3d b672 943d
000001a0: ef09 8b3d e6f2 803d 65ba 303c e64c 763d
000001b0: 0016 74be d5c4 c73c 2706 9ebd ee15 033e
000001c0: c469 d7bd 530b e6bc dc07 60be 162d 6f3d
000001d0: 9303 bcbc da89 e1bd c932 f43d 875b d53d
000001e0: 2418 ba3d b4b8 11bd 9c64 68bb 80b5 cdbd
000001f0: a1c4 be3d 8f96 9dbd 54a0 9c3c ecef 87bc

layers.5.weight f4 [1, 128]
1.3338075 1.5974255 1.2745923 1.1871574 1.2167343 1.5030074 1.5762681 1.491658
-1.2299211 1.478376 -1.4672045 1.5733132 -1.4930967 -1.5072298 1.5072026 -1.3337524
-1.2765949 -1.4539096 -1.4204575 -1.4944317 -1.5930759 1.615808 1.5021771 1.4215835
1.4360065 -1.1865634 -1.5207455 1.3047376 1.4917575 1.5084713 -1.48396 1.4142808
-1.4108553 -1.4069282 -1.5653727 -1.4755708 -1.3242778 -1.6119773 1.4323056 1.4212621
1.591939 -1.4809971 1.4500903 1.5151855 1.5899233 1.4776176 -1.4581501 -1.4697986
1.4927837 -1.4136516 -1.4040605 1.5590733 -1.6174016 -1.2167609 -1.4046023 -1.4846113
1.2575309 -1.4264975 -1.6244926 1.4448676 1.5722355 -1.5966305 -1.4478763 -1.6643007
-1.5290532 -1.4644153 -1.5787282 -1.513442 -1.5178492 -1.533474 -1.4453084 1.5111066
1.4524962 1.535539 -1.3753656 -1.5416133 1.5396309 -1.4287674 -1.4761086 1.4571995
1.6157327 1.4373007 -1.594221 -1.246081 1.4367677 -1.2823639 -1.2179779 1.2129599
1.4977435 -1.4456478 -1.2931088 -1.4234936 -1.1913631 -1.427271 1.59021 1.4549146
-1.3671016 1.4802744 1.548362 -1.4661562 1.4550036 -1.5016681 1.4629128 1.434901
-1.1933666 1.564674 1.2683305 1.5840148 1.2248232 1.4324548 -1.445465 1.4269936
-1.4045242 1.1943843 1.2137091 1.5832837 -1.4035451 -1.4422246 1.4716684 1.500997
1.4644343 -1.4922987 -1.313674 -1.4657356 1.3193471 -1.4010292 1.4557408 -1.4861262
00000000: 34ba aa3f 7078 cc3f d725 a33f c6f4 973f
00000010: f3bd 9b3f 8c62 c03f 27c3 c93f a6ee be3f
00000020: 0e6e 9dbf 6d3b bd3f 5bcd bbbf 5462 c93f
00000030: cb1d bfbf e8ec c0bf 04ec c03f 66b8 aabf
00000040: 7667 a3bf b619 babf 8dd1 b5bf 8a49 bfbf
00000050: e9e9 cbbf ccd2 ce3f 5747 c03f 73f6 b53f
00000060: 10cf b73f 4fe1 97bf caa7 c2bf a401 a73f
00000070: e9f1 be3f 9615 c13f 67f2 bdbf 2707 b53f
00000080: e896 b4bf 3916 b4bf 225e c8bf 81df bcbf
00000090: ef81 a9bf 4655 cebf ca55 b73f ebeb b53f
000000a0: a8c4 cb3f 5091 bdbf 8f9c b93f 99f1 c13f
000000b0: 9b82 cb3f 9322 bd3f aaa4 babf 5c22 bcbf
000000c0: 8913 bf3f 89f2 b4bf 41b8 b3bf b78f c73f
000000d0: 0407 cfbf d2be 9bbf 02ca b3bf be07 bebf
000000e0: c6f6 a03f 7897 b6bf 60ef cfbf 6cf1 b83f
000000f0: 033f c93f 635e ccbf 0354 b9bf ce07 d5bf
00000100: 04b8 c3bf f671 bbbf c413 cabf 78b8 c1bf
00000110: e248 c2bf e048 c4bf deff b8bf f16b c13f
00000120: 65eb b93f 8b8c c43f fb0b b0bf 9653 c5bf
00000130: a012 c53f dae1 b6bf 20f1 bcbf 8385 ba3f
00000140: 54d0 ce3f 78f9 b73f 6f0f ccbf 957f 9fbf
00000150: 01e8 b73f 8024 a4bf b3e6 9bbf 4542 9b3f
00000160: 0fb6 bf3f fd0a b9bf 9784 a5bf 0a35 b6bf
00000170: 967e 98bf d1b0 b6bf 008c cb3f a43a ba3f
00000180: 2ffd aebf a279 bd3f ba30 c63f 02ab bbbf
00000190: 8f3d ba3f a936 c0bf ba40 bb3f d6aa b73f
000001a0: 3dc0 98bf 3d47 c83f a758 a23f ffc0 ca3f
000001b0: 02c7 9c3f ae5a b73f ff04 b9bf baa7 b63f
000001c0: 73c7 b3bf 96e1 983f d25a 9b3f 0aa9 ca3f
000001d0: 5ea7 b3bf d19a b8bf a15f bc3f ab20 c03f
000001e0: 9572 bb3f a503 bfbf 7826 a8bf 399d bbbf
000001f0: 5ee0 a83f ed54 b3bf b755 ba3f 6239 bebf
