model_zoo/A2C/LunarLander-v2/actor_3760320.pth (torch, 141767 bytes, 8 tensors)

layers.0.weight f4 [128, 8]
0.16746973 -0.088966444 -0.37499171 0.020444274 0.5612665 -0.09582907 -0.11585838 0.27024293
-0.026249547 -0.13251178 0.00839062 0.07425437 -0.5010751 -0.19367675 0.35406953 -0.052934334
0.35917675 -0.15623623 -0.067725465 -0.13084175 -0.5066399 -0.31866 0.22180943 -0.2517216
0.14900954 0.39590126 -0.025986396 0.21885967 0.15850472 -0.29110914 -0.14911509 -0.13373497
0.33667123 -0.3187015 0.16208853 0.40515548 0.4796347 0.20699225 0.16313307 -0.017677242
0.17506897 0.38736218 -0.10804435 0.4219685 0.08786837 -0.23871885 -0.27725205 0.110478915
-0.028018313 -0.20119639 0.23775564 -0.21577568 -0.33400416 0.008484495 -0.059519928 -0.30160618
-0.10454446 -0.04587261 -0.07540848 0.3874816 -0.15180548 -0.2552166 0.1062037 0.10114477
-0.29329416 -0.40300056 0.22245133 -0.34758872 0.45956415 0.26353914 0.28190368 -0.3505068
0.15595303 -0.32453838 0.21271704 0.24718419 -0.1271818 -0.22837164 -0.12765309 -0.00016654363
0.40471566 0.17305873 0.25046533 -0.22975686 0.034961995 -0.2603976 -0.049811095 -0.18398817
0.16291565 0.22179788 0.13290419 0.35728833 -0.548569 0.08236753 0.1804712 0.32328168
0.1357664 -0.3548176 0.3300602 -0.009056855 -0.04757091 -0.3404048 0.001800773 0.3452641
0.14740463 0.32829913 0.16017531 0.33113417 -0.48271218 0.07486911 0.3419039 0.19029394
0.2635618 0.26475167 0.3825296 -0.3007666 -0.06352925 -0.3618525 0.20735393 0.13991529
-0.25196177 0.04991792 -0.1857038 0.13191621 -0.26428795 0.115882546 -0.33220333 0.11951013
0.35653296 0.22157373 0.36876237 -0.08928094 -0.4177546 -0.009889232 -0.14776957 -0.2414997
0.23201326 0.11092883 0.24805641 0.4271511 -0.058454476 -0.39481658 0.1010833 0.19675012
-0.0038947912 -0.38041204 0.2923256 -0.40901732 0.3080951 0.02069045 0.27797604 -0.3182156
0.3424963 0.21390168 0.29511836 0.24938892 0.36605707 0.12333365 -0.102096416 0.32708696
0.30042675 -0.31209952 -0.0043039587 -0.1700998 -0.3715036 0.006128391 -0.21460418 -0.108858205
-0.16116555 0.3073199 0.07445238 -0.36524856 0.30845833 0.3109703 0.1418191 0.13989493
0.09842757 0.00088439294 -0.41761076 -0.17389429 0.44973132 0.23680957 0.29571918 0.088369474
0.40425462 -0.18469721 -0.10089779 0.083604485 -0.31623927 0.08151874 0.04369145 -0.12824917
0.114689745 0.34246865 0.2382095 -0.38394123 -0.015697835 0.17113003 0.2503355 -0.080074795
0.2693007 0.30831945 -0.07562726 -0.08585041 0.4941632 0.12305707 0.16750307 0.041937545
0.13586044 -0.11182628 -0.29166964 0.36519256 0.37051722 0.20045686 0.14993669 -0.14844984
0.14652684 0.33760035 0.16326788 -0.008714803 0.3632818 0.4270113 -0.0580487 -0.2720339
0.36404693 0.16916129 -0.04893408 0.12177476 -0.333594 -0.24378185 0.24384171 0.28976414
-0.3008908 -0.104748316 0.3443838 -0.0379362 -0.54552925 0.13587801 -0.30099776 -0.09990299
0.1572668 -0.3352459 -0.027473154 0.08563006 -0.37690574 -0.16237943 0.08177106 0.11311271
-0.19767277 0.3882502 -0.26072237 -0.023391737 -0.30227712 -0.17983143 -0.08024896 0.12643486
00000000: 2f7d 2b3e 0a34 b6bd eafe bfbe c07a a73c
00000010: 29af 0f3f 0842 c4bd 2947 edbd 485d 8a3e
00000020: 4a09 d7bc 2bb1 07be d078 093c ad12 983d
00000030: 7546 00bf 3353 46be 9a48 b53e acd1 58bd
00000040: 04e6 b73e 64fc 1fbe a6b3 8abd 61fb 05be
00000050: 27b3 01bf 6727 a3be 0322 633e a7e1 80be
00000060: f595 183e 92b3 ca3e 6ce1 d4bc c01c 603e
00000070: 104f 223e 420c 95be a0b1 18be d2f1 08be
00000080: 2c60 ac3e d82c a3be 89fa 253e 8a70 cf3e
00000090: ae92 f53e c7f5 533e 5b0c 273e ddcf 90bc
000000a0: 4845 333e 5654 c63e 5b46 ddbd 410c d83e
000000b0: 55f4 b33d b772 74be fbf3 8dbe c542 e23d
000000c0: a986 e5bc 6d06 4ebe 3776 733e 4df4 5cbe
000000d0: 9802 abbe 8d02 0b3c 2bcb 73bd 206c 9abe
000000e0: 681b d6bd ebe4 3bbd c36f 9abd fd63 c63e
000000f0: e572 1bbe c0ab 82be 5381 d93d fd24 cf3d
00000100: a72a 96be 1756 cebe 48ca 633e 26f7 b1be
00000110: fe4b eb3e 9aee 863e ae55 903e a175 b3be
00000120: 27b2 1f3e e529 a6be 7fd2 593e da1d 7d3e
00000130: f23b 02be 41da 69be 7eb7 02be 37a2 2eb9
00000140: e436 cf3e 4f36 313e fe3c 803e 6245 6bbe
00000150: 4f34 0f3d d652 85be b806 4cbd 6567 3cbe
00000160: 5cd3 263e fc1e 633e 0918 083e 7fee b63e
00000170: 056f 0cbf 4fb0 a83d 71cd 383e 2d85 a53e
00000180: 5906 0b3e a7aa b5be a7fd a83e 3463 14bc
00000190: b7d9 42bd 8a49 aebe ea07 ec3a 75c6 b03e
000001a0: 3df1 163e d316 a83e ff04 243e 6b8a a93e
000001b0: 0d26 f7be fa54 993d 070e af3e 6adc 423e
000001c0: 92f1 863e 888d 873e ebda c33e 14fe 99be
000001d0: a01b 82bd bb44 b9be 9754 543e f445 0f3e
000001e0: 2201 81be bc76 4c3d 2329 3ebe 0b15 073e
000001f0: c050 87be d453 ed3d 8e16 aabe bac1 f43d
00000200: 7d8b b63e 39e4 623e 6cce bc3e edd8 b6bd
00000210: eee3 d5be 7206 22bc e850 17be b34b 77be
00000220: e294 6d3e a82e e33d 8002 7e3e 8db3 da3e
00000230: f66d 6fbd 6625 cabe c304 cf3d dd78 493e
00000240: c13f 7fbb 5ec5 c2be b3ab 953e b86a d1be
00000250: a4be 9d3e 057f a93c e052 8e3e 28ed a2be
00000260: ad5b af3e 0b09 5b3e c119 973e cf5f 7f3e
00000270: d56b bb3e 5a96 fc3d ed17 d1bd f177 a73e
00000280: 89d1 993e 82cb 9fbe 3908 8dbb a42e 2ebe
00000290: b835 bebe abd0 c83b 33c1 5bbe 0df1 debd
000002a0: 9508 25be 0959 9d3e 7d7a 983d dc01 bbbe
000002b0: 40ee 9d3e 8037 9f3e 0739 113e 9e40 0f3e
000002c0: 6594 c93d 9bd6 673a 14d1 d5be 5811 32be
000002d0: 2f43 e63e 357e 723e 8168 973e 0efb b43d
000002e0: 76fa ce3e 4421 3dbe 80a3 cebd d438 ab3d
000002f0: 1dea a1be 4cf3 a63d cef5 323d c053 03be
00000300: 75e2 ea3d 0d58 af3e 31ed 733e f293 c4be
00000310: bf98 80bc b63c 2f3e fa2b 803e 41fe a3bd
00000320: c8e1 893e 0cdc 9d3e 77e2 9abd 57d2 afbd
00000330: f502 fd3e 5805 fc3d ed85 2b3e b4c6 2b3d
00000340: 001f 0b3e 2d05 e5bd b955 95be 85fa ba3e
00000350: 6fb4 bd3e 9044 4d3e 0189 193e 3c03 18be
00000360: 220b 163e f4d9 ac3e b22f 273e 88c8 0ebc
00000370: 1200 ba3e 3aa1 da3e 79c4 6dbd 0748 8bbe
00000380: 5c64 ba3e 9e38 2d3e 1a6f 48bd 0c65 f93d
00000390: d5cc aabe f3a1 79be a4b1 793e f75b 943e
000003a0: 5c0e 9abe 4986 d6bd 1353 b03e fd62 1bbd
000003b0: cea7 0bbf 9b23 0b3e 611c 9abe f099 ccbd
000003c0: 8c0a 213e 5aa5 abbe 610f e1bc d05e af3d
000003d0: caf9 c0be cb46 26be 9677 a73d a3a7 e73d
000003e0: bb6a 4abe bbc8 c63e 677d 85be 07a0 bfbc
000003f0: 11c4 9abe bb25 38be 9159 a4bd 2478 013e

layers.0.bias f4 [128]
-0.23270941 -0.06562926 -0.29348707 -0.33419117 -0.024985168 -0.1492357 -0.13805892 -0.01673764
-0.04050887 0.14663042 -0.21139687 -0.24921566 0.19064455 0.30670258 0.19988503 -0.029057302
0.12788205 0.06518434 0.08885416 0.08954646 -0.22444423 0.2821477 0.29224858 0.34489676
0.3254703 -0.11202703 0.10143055 -0.079299405 0.2012926 -0.21936668 -0.18695654 -0.2967043
-0.32573164 0.11392888 -0.29193115 0.2450495 -0.010726844 -0.2519974 0.22580585 -0.18193294
0.015125347 -0.17736413 0.15814325 0.22187756 0.05819805 0.31119153 0.034288745 0.32617944
-0.12091053 -0.34353027 0.19084303 0.13695095 0.23045497 -0.10978928 0.30903453 0.30050302
0.2406887 0.16983598 0.19589917 0.24781054 -0.12418859 -0.07318625 0.32276824 0.01642644
-0.12764576 0.19233093 -0.06418857 -0.01907489 -0.05211164 0.105552875 0.05653749 -0.073752
0.005264844 0.22140037 0.32613397 -0.0497939 -0.33079326 -0.042030714 -0.107712105 -0.1211808
0.2748092 0.03318465 0.31487903 0.10640233 0.073470324 -0.3526047 -0.04668652 0.33451337
-0.20673068 0.16322255 -0.26843926 0.1753608 -0.2392026 0.2911296 0.2129256 0.2527683
-0.23855454 0.3054325 -0.33263725 0.13837326 0.27121195 -0.11799247 0.2583468 -0.14599314
-0.2136669 0.1208533 0.016649807 -0.18310525 0.19690117 0.033166725 0.29505467 0.30849975
0.14616041 0.12472646 0.19468601 0.13664687 -0.29688132 -0.23403324 -0.027189592 0.31424025
-0.13204172 0.32745782 0.18943496 0.08916439 -0.22638069 -0.28874207 -0.30593988 0.22649512
00000000: 604b 6ebe a268 86bd f043 96be 1b1b abbe
00000010: b2ad ccbc 3ed1 18be 515f 0dbe 601d 89bc
00000020: a1ec 25bd 4926 163e 6c78 58be 6432 7fbe
00000030: 5338 433e 1f08 9d3e a9ae 4c3e 9409 eebc
00000040: 83f3 023e 5e7f 853d 2bf9 b53d 2264 b73d
00000050: b5d4 65be aa75 903e 9ba1 953e 4f96 b03e
00000060: 0ba4 a63e 6d6e e5bd d2ba cf3d ba67 a2bd
00000070: a61f 4e3e a9a1 60be 8971 3fbe a0e9 97be
00000080: 4cc6 a6be 8b53 e93d 0078 95be 42ee 7a3e
00000090: a5bf 2fbc ce05 81be a639 673e a14c 3abe
000000a0: 4ed0 773c f19e 35be 4ef0 213e df33 633e
000000b0: 1461 6e3d 7f54 9f3e 5b72 0c3d fe00 a73e
000000c0: f19f f7bd 33e3 afbe 5b6c 433e df3c 0c3e
000000d0: 63fc 6b3e 34d9 e0bd c639 9e3e 88db 993e
000000e0: 1977 763e 7ce9 2d3e cb99 483e 0cc2 7d3e
000000f0: 9656 febd ace2 95bd e141 a53e be90 863c
00000100: 92b5 02be 66f2 443e 4c75 83bd f242 9cbc
00000110: 0473 55bd 1b2c d83d db93 673d 4a0b 97bd
00000120: b684 ac3b c7b6 623e 08fb a63e b0f4 4bbd
00000130: bc5d a9be 6628 2cbd 2a98 dcbd a42d f8bd
00000140: cbb3 8c3e a1ec 073d d337 a13e 77e9 d93d
00000150: 9c77 963d 9a88 b4be 5d3a 3fbd 5645 ab3e
00000160: 35b1 53be d023 273e df70 89be c891 333e
00000170: 87f1 74be f00e 953e 2b09 5a3e d96a 813e
00000180: a447 74be a661 9c3e 6e4f aabe b8b1 0d3e
00000190: 4bdc 8a3e 09a6 f1bd 0846 843e 3a7f 15be
000001a0: 7fcb 5abe ef81 f73d 2d65 883c f17f 3bbe
000001b0: 76a0 493e d5d9 073d 6811 973e aef3 9d3e
000001c0: 13ab 153e 9670 ff3d c55b 473e 28ed 0b3e
000001d0: d400 98be 69a6 6fbe b5bc debc 19e4 a03e
000001e0: f235 07be 8da8 a73e 3dfb 413e d29b b63d
000001f0: 57d0 67be 00d6 93be 27a4 9cbe 56ee 673e

layers.1.weight f4 [128, 128]
0.05271024 0.014705993 -0.06332309 0.0007063088 0.097056426 -0.013646974 0.005503011 0.053305212
0.08790973 0.02511563 0.008743297 0.030216238 -0.115476884 -0.04880735 -0.06859586 0.045347206
-0.092608586 -0.117870614 0.024086304 0.09137994 0.0014623522 0.043242697 0.07597493 -0.079123095
0.034909625 0.08978737 0.010332877 0.023671528 -0.033728585 -0.046631284 -0.0018137224 -0.0023124607
0.037603833 -0.12533912 0.023951061 0.008897301 -0.06743871 0.13080369 0.08661927 -0.04531943
-0.04905995 0.0058155702 -0.019427663 0.067209326 -0.028926883 0.048086043 0.103413045 0.08558129
0.005909165 0.026311725 0.09398833 -0.020806674 0.059592847 -0.013351969 0.096494414 0.062476914
-0.039892267 0.041108314 -0.08698109 -0.06668153 -0.02707302 -0.083121166 -0.012890834 0.003014758
-0.024670007 0.011490046 -0.022976037 -0.019983621 0.1324612 0.093575746 0.0082499655 0.004284949
-0.032163557 0.10178345 -0.018653033 0.032195497 0.044078168 -0.084319584 0.007927261 -0.11171046
0.03389521 0.012267049 0.088664845 0.025321541 0.12832947 0.12719135 0.012788945 0.07250355
0.12013473 0.0034646578 0.06543225 0.0861728 0.010060948 0.048429254 -0.058390606 0.10040735
-0.060750857 0.05962801 0.010259675 -0.010108009 0.06405869 0.04361263 -0.03434378 0.032741744
0.059554167 -0.03268353 -0.030361706 0.06304283 -0.075462975 -0.09397371 0.0018077045 -0.036159076
-0.029228695 0.049527925 0.005401977 -0.028765993 0.077846676 0.052694358 0.14503829 -0.017875755
0.0424899 0.062183727 0.059288915 -0.04993219 0.11269176 0.050706137 -0.1350464 0.058899567
0.037480023 -0.03714562 0.07988473 -0.005027817 0.017971978 -0.014288895 0.06957341 -0.028312095
0.052421484 0.0017720582 0.080510974 0.065533936 -0.049094956 0.00058494275 -0.029513266 0.02715419
0.087154105 -0.061776984 0.023240976 0.06165566 0.057718474 0.08249222 -0.07165419 -0.080137484
0.082424864 -0.01857431 0.017980048 0.06585329 -0.03054607 0.01828283 -0.008766085 0.060588554
0.022048542 0.074324034 -0.027513813 0.024945442 0.078800544 -0.06338918 -0.06210503 0.0398272
-0.057053603 -0.05766429 -0.078337476 0.047394298 0.060112737 0.051977932 -0.06574107 -0.06319012
-0.022943422 0.08191714 -0.058140945 0.042576976 -0.07390857 -0.06617496 0.0006970213 -0.048432782
0.04902767 -0.051637217 0.008666541 -0.076987214 -0.05048347 0.084586315 -0.06983802 0.061032977
-0.0014453533 -0.06481512 0.007899147 -0.08248634 0.04108607 0.06044753 0.067811355 -0.08642039
0.023270722 0.022141155 -0.08161755 -0.03488594 -0.033307772 0.036790613 0.01456544 0.020698534
-0.016330576 -0.008776216 0.03876594 -0.0098075485 0.052724868 -0.05809299 -0.0852347 -0.012610132
-0.010231533 -0.008226649 0.07045092 -0.03117188 -0.07000598 -0.062138338 0.011934031 -0.051204644
0.027932374 -0.016254168 0.08546688 -0.036225434 0.0067443387 -0.08662455 -0.035135817 -0.09012093
0.011948887 0.061548542 -0.059319053 0.026689798 -0.06298354 -0.018450653 0.04286846 0.037517603
0.06951938 -0.062692545 0.024898527 0.049484447 0.07989142 -0.08609723 0.01962072 -0.07222668
-0.03276374 -0.05371351 0.03192649 -0.08914606 0.06521851 -0.008561432 0.027844466 0.049477037
00000000: b1e6 573d 68f1 703c 89af 81bd 9527 393a
00000010: 85c5 c63d 8f97 5fbc 9a52 b43b 9156 5a3d
00000020: 040a b43d 4bbf cd3c 0c40 0f3c 0b88 f73c
00000030: 257f ecbd 37ea 47bd fc7b 8cbd febd 393d
00000040: 92a9 bdbd 2666 f1bd a450 c53c 6825 bb3d
00000050: 66ac bf3a 411f 313d be98 9b3d 4a0b a2bd
00000060: 65fd 0e3d 71e2 b73d 3a4b 293c cbea c13c
00000070: fc26 0abd 7200 3fbd 6dba edba a78c 17bb
00000080: 7a06 1a3d e658 00be 0435 c43c fcc5 113c
00000090: 4e1d 8abd 67f1 053e 7265 b13d dea0 39bd
000000a0: 16f3 48bd 8a90 be3b c326 9fbc 0ba5 893d
000000b0: 12f8 ecbc dff5 443d 38ca d33d 3e45 af3d
000000c0: aba1 c13b b08b d73c f47c c03d c272 aabc
000000d0: a117 743d 38c2 5abc dd9e c53d cbe7 7f3d
000000e0: 1366 23bd 3161 283d 2423 b2bd 5390 88bd
000000f0: 3dc8 ddbc 6e3b aabd 1434 53bc 3f93 453b
00000100: c118 cabc bf40 3c3c 3e38 bcbc b1b4 a3bc
00000110: e9a3 073e a4a4 bf3d dd2a 073c c268 8c3b
00000120: efbd 03bd d773 d03d 3fce 98bc 6ddf 033d
00000130: 4f8b 343d bfaf acbd 58e1 013c 74c8 e4bd
00000140: b4d5 0a3d bcfb 483c ea95 b53d 1f6f cf3c
00000150: cd68 033e 733e 023e b988 513c be7c 943d
00000160: 3309 f63d 500f 633b 5801 863d 5d7b b03d
00000170: add6 243c c15d 463d fd2a 6fbd 5ea2 cd3d
00000180: e4d5 78bd 803c 743d 3218 283c 109c 25bc
00000190: 3431 833d 28a3 323d 10ac 0cbd 351c 063d
000001a0: 12ef 733d 2adf 05bd 1db9 f8bc 991c 813d
000001b0: 558c 9abd 4a75 c0bd 7ff0 ec3a 8a1b 14bd
000001c0: 0471 efbc cbdd 4a3d 1103 b13b a9a6 ebbc
000001d0: 146e 9f3d 0ad6 573d eb84 143e 2d70 92bc
000001e0: e409 2e3d 5db4 7e3d efd8 723d b285 4cbd
000001f0: f0ca e63d 3db1 4f3d 9a49 0abe ac40 713d
00000200: a784 193d 0126 18bd 9b9a a33d 63c0 a4bb
00000210: f839 933c f81b 6abc 817c 8e3d c4ee e7bc
00000220: e9b7 563d 6844 e83a f0e2 a43d a836 863d
00000230: cb17 49bd d856 193a cec5 f1bc 7772 de3c
00000240: da7d b23d dd09 7dbd dc63 be3c a58a 7c3d
00000250: 356a 6c3d aef1 a83d 6fbf 92bd 1f1f a4bd
00000260: 5ece a83d 2729 98bc e54a 933c 17de 863d
00000270: c03b fabc e0c5 953c a09f 0fbc b42b 783d
00000280: 259f b43c 3337 983d a664 e1bc 625a cc3c
00000290: 2e62 a13d 30d2 81bd d861 7ebd d921 233d
000002a0: 0ab1 69bd 6431 6cbd 666f a0bd 8620 423d
000002b0: c638 763d d0e6 543d 41a3 86bd d269 81bd
000002c0: d8f3 bbbc 2cc4 a73d 3325 6ebd 3265 2e3d
000002d0: 605d 97bd bd86 87bd 4fb8 363a 7461 46bd
000002e0: 3dd1 483d 8c81 53bd 1cfe 0d3c 79ab 9dbd
000002f0: c1c7 4ebd 973b ad3d 3c07 8fbd b7fd 793d
00000300: 0272 bdba cabd 84bd 6d6b 013c 99ee a8bd
00000310: de49 283d d497 773d aee0 8a3d 2cfd b0bd
00000320: 3ea2 be3c 5e61 b53c 1a27 a7bd 8fe4 0ebd
00000330: bb6d 08bd c1b1 163d e2a3 6e3c f98f a93c
00000340: b3c7 85bc 1eca 0fbc 09c9 1e3d d7af 20bc
00000350: 08f6 573d eaf2 6dbd 888f aebd ba9a 4ebc
00000360: 29a2 27bc 11c9 06bc 9248 903d 2c5c ffbc
00000370: 4c5f 8fbd c584 7ebd f486 433c f6bb 51bd
00000380: 6fd2 e43c 7627 85bc 4209 af3d 1f61 14bd
00000390: 9dff dc3b 3668 b1bd 93ea 0fbd 5291 b8bd
000003a0: 44c5 433c 531a 7c3d 89f8 72bd 90a4 da3c
000003b0: 84fd 80bd d325 97bc d796 2f3d 0fac 193d
000003c0: 2d60 8e3d f364 80bd fff7 cb3c 34b0 4a3d
000003d0: 1d9e a33d bf53 b0bd a2bb a03c 95eb 93bd
000003e0: 4533 06bd b302 5cbd 5ac5 023d 3692 b6bd
000003f0: 4891 853d 4045 0cbc 141a e43c 6fa8 4a3d

layers.1.bias f4 [128]
0.033914834 -0.06028814 0.016278477 -0.020172544 -0.008823384 0.008282316 -0.013328093 0.05788095
0.013833054 0.025032138 -0.09401169 0.06043808 -0.034951545 0.015376352 -0.06789616 0.033412036
0.08385581 0.036284253 0.074359834 -0.016979974 0.04984694 0.052160192 0.04292744 -0.015594755
0.07361231 -0.02817112 0.05964602 0.017537193 0.055687916 0.03719903 -0.034883324 -0.057255063
-0.013078206 0.031900045 0.07493 -0.017411523 0.015949704 0.059042882 0.0012446115 0.09987715
-0.03315045 0.018050727 0.075174026 0.0943254 -0.050137598 -0.054256044 -0.07504452 -0.07185812
-0.042458367 -0.033791263 -0.010378527 0.0036967508 -0.00061711273 0.02864176 -0.0044346657 0.0426592
0.014060692 0.028556926 0.068228275 0.03897774 -0.06883554 0.05031101 0.019291215 0.032712724
0.036270883 -0.012684639 -0.08178548 0.083697505 -0.047435038 0.08770979 0.068320476 -0.06673714
-0.040721696 -0.022181854 0.03715936 -0.00233355 -0.04851954 0.04463993 0.05894037 -0.023227712
0.061817802 0.043452002 0.024569076 -0.05028192 -0.005840557 0.01738364 0.025455903 -0.100004666
0.08219068 0.004411199 0.021325741 0.03125757 -0.0140969865 -0.0032334158 -0.032968324 0.012826678
-0.03304923 0.025511727 0.0377804 0.030315239 -0.00926329 0.08518309 0.07067805 0.09411646
-0.056351185 0.036008053 -0.051649835 -0.0056201904 0.07127208 0.06962009 0.05514721 0.054874334
-0.019210363 -0.035062067 -0.02313201 0.0038091128 0.0240411 0.10324403 -0.063855425 -0.023117619
0.006260716 0.023530835 0.06919049 -0.062895946 0.0068565006 0.05767851 0.0020956248 -0.06580065
00000000: 48ea 0a3d b2f0 76bd 715a 853c e440 a5bc
00000010: f48f 10bc 8db2 073c 135e 5abc 9314 6d3d
00000020: 09a4 623c 3310 cd3c 3389 c0bd ec8d 773d
00000030: 5a29 0fbd 18ed 7b3c 240d 8bbd 0fdb 083d
00000040: 98bc ab3d cc9e 143d f849 983d 9619 8bbc
00000050: 4e2c 4c3d eda5 553d afd4 2f3d 2581 7fbc
00000060: 0dc2 963d 1fc7 e6bc 634f 743d 29aa 8f3c
00000070: 0319 643d 035e 183d d1e1 0ebd 4984 6abd
00000080: f945 56bc 9fa9 023d e674 993d 9ca2 8ebc
00000090: f4a8 823c f3d6 713d 3b22 a33a 648c cc3d
000000a0: c4c8 07bd 1edf 933c d7f4 993d ad2d c13d
000000b0: 155d 4dbd 963b 5ebd f1b0 99bd 5a2a 93bd
000000c0: d3e8 2dbd b568 0abd b30a 2abc 3045 723b
000000d0: bcc5 21ba 20a2 ea3c ac50 91bb 6abb 2e3d
000000e0: d15e 663c 37f0 e93c 44bb 8b3d 1fa7 1f3d
000000f0: a6f9 8cbd eb12 4e3d 9c08 9e3c c7fd 053d
00000100: c790 143d 3bd3 4fbc 257f a7bd 9969 ab3d
00000110: 3e4b 42bd 31a1 b33d 9beb 8b3d 7bad 88bd
00000120: cbcb 26bd b8b6 b5bc 6a34 183d 79ee 18bb
00000130: 6dbc 46bd 5cd8 363d 756b 713d 0b48 bebc
00000140: aa34 7d3d bafa 313d 1645 c93c 6af4 4dbd
00000150: 2562 bfbb 2368 8e3c e688 d03c 3fcf ccbd
00000160: 9653 a83d d28b 903b 52b3 ae3c f007 003d
00000170: 0cf7 66bc b7e7 53bb cb09 07bd fd26 523c
00000180: a15e 07bd f8fd d03c 9fbf 1a3d aa57 f83c
00000190: 0ec5 17bc 7974 ae3d a7bf 903d 21c0 c03d
000001a0: 80d0 66bd 2e7d 133d c78e 53bd 9329 b8bb
000001b0: 19f7 913d fa94 8e3d 0ae2 613d e9c3 603d
000001c0: 0d5f 9dbc 3e9d 0fbd 577f bdbc 4fa2 793b
000001d0: d7f1 c43c 9b71 d33d a2c6 82bd 2961 bdbc
000001e0: b126 cd3b bdc3 c03c beb3 8d3d 97cf 80bd
000001f0: 7fac e03b 4d40 6c3d c056 093b 7ec2 86bd

layers.3.weight f4 [128, 128]
0.056428533 0.060572255 0.02436799 -0.0889356 0.056334116 0.09170326 0.08794248 0.05947046
0.0039600604 -0.043254804 -0.021831881 0.051524796 0.041373223 0.09784017 -0.033344295 0.08179898
-0.008681364 -0.033603456 -0.13295247 0.06247137 -0.057738483 -0.062465042 0.016197404 -0.043063518
-0.11552002 -0.02125548 0.06336785 0.067125395 0.0232046 -0.05622085 0.019681355 0.18764688
0.037429366 0.09021424 0.06373514 -0.0017101855 -0.07723068 -0.050334264 -0.061236132 0.09916795
0.08339961 0.07275851 0.09211107 -0.022152362 -0.002157294 0.05153964 0.036202952 -0.04915435
-0.022504468 0.04000255 -0.04270436 0.019542042 0.110003985 0.0047163144 -0.09203513 0.08085315
0.036638886 -0.0075318213 0.04801044 0.096865 0.039321035 -0.031405028 0.06502075 0.0038210435
-0.04231857 -0.04062695 0.03259843 0.033140413 0.060961254 0.09333211 0.065119475 0.0928474
0.019854402 0.15167457 0.08063519 0.081255406 0.16236092 -0.0046101282 0.024673762 -0.09111168
-0.010333359 0.061330117 0.05867828 0.061828252 -0.03137518 0.04644611 -0.03421858 0.07892994
0.08153917 0.027815068 -0.030515088 -0.026899358 -0.10136088 0.04254719 0.0530656 0.016491573
-0.04590885 0.05184087 -0.06064272 -0.060899317 0.026073452 -0.059404485 0.086365655 0.026776202
-0.018828504 0.016505165 -0.067034476 -0.06565726 0.12143895 0.089273155 -0.04620702 0.052281145
-0.015338083 0.024287695 0.10279929 0.064207576 -0.030642914 0.039856218 0.17021923 -0.01812691
-0.13294077 0.07033762 0.07239288 0.012615038 0.062624075 -0.070344664 -0.04442591 0.028503615
-0.15299436 0.0007507032 -0.032857426 0.049413294 -0.016572377 0.006842652 0.011395988 0.09597105
-0.056264948 -0.10904801 -0.035770252 -0.01883584 -0.079676196 0.08445456 -0.08530299 -0.0071186665
0.2417939 -0.005979669 -0.07250605 0.17350388 -0.063829824 0.1504985 -0.0264255 0.070872106
0.003136284 -0.07388629 -0.012995353 -0.07585812 0.11425833 -0.071880765 0.050282527 0.028342694
-0.04967791 -0.06030296 0.16788955 -0.067988925 -0.107965 -0.11683011 0.0057438193 0.0021535018
0.11883879 0.024984106 0.08637799 0.016679144 -0.038697187 0.23961972 -0.073777474 -0.021757042
0.07862515 -0.08055132 0.012538783 -0.056177564 -0.039964546 0.031085337 0.07914961 0.2257093
0.19665046 0.013976003 0.050452475 0.058509376 0.16781287 -0.06357849 -0.00958955 0.10884722
-0.032466847 -0.01841635 -0.10889808 0.003646488 -0.124965034 0.13627079 -0.024402147 -0.10860352
0.0883078 0.09375184 -0.013728759 0.10390834 0.07001505 0.09309445 0.14612414 -0.059841383
0.050028928 -0.072079144 -0.06963736 0.035050675 -0.059214722 0.14307417 0.038869113 -0.012055896
0.09482187 -0.13212882 -0.02201235 -0.20793495 0.10723358 0.09313359 0.0453311 -0.06522618
0.05032659 0.188932 0.077323146 -0.06408024 0.012937081 -0.03959811 0.03986041 -0.03323972
0.02968634 0.061319992 0.06854477 -0.120337956 0.21317314 0.21650113 0.13194415 0.09750019
0.13592133 0.058292415 0.140335 0.2215235 0.054900974 0.04052604 -0.010728693 0.15161306
-0.06886373 0.20825574 -0.05550367 0.11444295 -0.14992942 0.061686687 -0.10401475 -0.08259248
00000000: 9b21 673d 9d1a 783d 619f c73c de23 b6bd
00000010: 9abe 663d ebce bb3d 301b b43d 4c97 733d
00000020: 65c3 813b f32b 31bd c6d8 b2bc aa0b 533d
00000030: f876 293d 6d60 c83d 0794 08bd 3986 a73d
00000040: 483c 0ebc c7a3 09bd b124 08be fbe1 7f3d
00000050: 307f 6cbd 58db 7fbd 6bb0 843c 5f63 30bd
00000060: c395 ecbd f91f aebc 01c7 813d 0a79 893d
00000070: 9317 be3c d647 66bd cb3a a13c 8126 403e
00000080: 894f 193d 3ec2 b83d 9287 823d 4e28 e0ba
00000090: 1e2b 9ebd 4d2b 4ebd bdd2 7abd 9118 cb3d
000000a0: 6acd aa3d 6a02 953d bba4 bc3d df78 b5bc
000000b0: 6361 0dbb 3b1b 533d 8c49 143d 1256 49bd
000000c0: 4a5b b8bc b7d9 233d c4ea 2ebd a216 a03c
000000d0: c549 e13d 508b 9a3b ea7c bcbd 5696 a53d
000000e0: a812 163d 7fcd f6bb 98a6 443d 2861 c63d
000000f0: 180f 213d 8fa2 00bd 9929 853d 796a 7a3b
00000100: 3d56 2dbd 7268 26bd ee85 053d 3ebe 073d
00000110: 82b2 793d e824 bf3d 5c5d 853d c726 be3d
00000120: b3a5 a23c 9450 1b3e 1024 a53d 3c69 a63d
00000130: f141 263e 8f10 97bb a120 ca3c c398 babd
00000140: 404d 29bc 4a35 7b3d a358 703d 9f3f 7d3d
00000150: 4383 00bd 473e 3e3d c828 0cbd 05a6 a13d
00000160: 02fe a63d 6ddc e33c c7fa f9bc 0b5c dcbc
00000170: 4b96 cfbd f645 2e3d 515b 593d 5619 873c
00000180: eb0a 3cbd 1857 543d 8064 78bd 9071 79bd
00000190: fe97 d53c 1e52 73bd 7ae0 b03d c459 db3c
000001a0: 3c3e 9abc d735 873c 5f49 89bd 5077 86bd
000001b0: fcb4 f83d d8d4 b63d 9243 3dbd c124 563d
000001c0: 954c 7bbc fdf6 c63c 6f88 d23d 437f 833d
000001d0: d906 fbbc 4640 233d f34d 2e3e e37e 94bc
000001e0: a021 08be 2c0d 903d b842 943d 4eaf 4e3c
000001f0: 0d41 803d dd10 90bd f1f7 35bd 6a80 e93c
00000200: 8eaa 1cbe d7ca 443a 8295 06bd 9865 4a3d
00000210: cbc2 87bc 5338 e03b 3db6 3a3c 788c c43d
00000220: 1376 66bd 9054 dfbd d483 12bd 9f4d 9abc
00000230: 462d a3bd 83f6 ac3d 56b3 aebd b443 e9bb
00000240: d298 773e 19f1 c3bb 0d7e 94bd 00ab 313e
00000250: 36b9 82bd 471c 1a3e 4a7a d8bc 6525 913d
00000260: 1d8a 4d3b b251 97bd 76ea 54bc 815b 9bbd
00000270: 4500 ea3d 3936 93bd 0df5 4d3d f02e e83c
00000280: 107b 4bbd 3d00 77bd 3deb 2b3e c73d 8bbd
00000290: c11c ddbd a044 efbd a636 bc3b c421 0d3b
000002a0: c061 f33d 78ab cc3c f2e6 b03d b3a2 883c
000002b0: f180 1ebd df5e 753e a518 97bd d33b b2bc
000002c0: 3906 a13d 17f8 a4bd 786f 4d3c 721a 66bd
000002d0: ddb1 23bd ada6 fe3c 3119 a23d 5720 673e
000002e0: bd5e 493e 9bfb 643c 41a7 4e3d 87a7 6f3d
000002f0: 23d7 2b3e 7035 82bd 7d1d 1dbc 4beb de3d
00000300: f5fb 04bd e3dd 96bc f505 dfbd ebf9 6e3b
00000310: abed ffbd 928a 0b3e 03e7 c7bc 866b debd
00000320: b8da b43d f700 c03d 97ee 60bc e5cd d43d
00000330: 0d64 8f3d 4ea8 be3d 91a1 153e 3d1c 75bd
00000340: 22eb 4c3d 3b9e 93bd 089e 8ebd 4c91 0f3d
00000350: 238b 72bd 0982 123e 3835 1f3d 1886 45bc
00000360: f831 c23d c74c 07be 3e53 b4bc e6ec 54be
00000370: 479d db3d d3bc be3d 1aad 393d 4e95 85bd
00000380: 4123 4e3d 6477 413e 995b 9e3d 803c 83bd
00000390: 0df6 533c a131 22bd ab44 233d 5f26 08bd
000003a0: c430 f33c ac2a 7b3d 3361 8c3d bf73 f6bd
000003b0: 0f4a 5a3e 79b2 5d3e 5e1c 073e 2eae c73d
000003c0: f62e 0b3e 07c4 6e3d fab3 0f3e 0ed7 623e
000003d0: d8df 603d a2fe 253d 66c7 2fbc 7440 1b3e
000003e0: 6d08 8dbd fe40 553e d157 63bd 1161 ea3d
000003f0: 1987 19be 2eab 7c3d af05 d5bd 3f26 a9bd

layers.3.bias f4 [128]
-0.083302654 0.025713095 -0.016916182 0.054464266 -0.052112382 0.08006128 0.0104363095 0.06785814
-0.07408254 -0.002461069 0.0065026223 -0.044051457 0.045333967 -0.084152564 -0.010142825 -0.018299269
-0.07220055 -0.017663842 -0.064411364 -0.059074525 0.014363457 0.020054547 -0.059701543 -0.041772235
0.007101264 -0.03591994 0.070937015 0.06440722 -0.05766229 0.024457913 -0.023871638 -0.04518441
-0.023224788 -0.04020641 0.09904936 -0.07322165 0.054924067 0.025274508 -0.0473396 0.098808706
-0.05390794 0.045043726 0.037675504 0.015855767 0.048536155 -0.03175869 -0.026061017 -0.071946725
0.08944472 -0.05884708 0.066913344 0.051176168 -0.030104892 -0.012012721 0.0894611 -0.029617546
0.08581404 -0.074556544 -0.03136514 0.0809009 -0.026351755 -0.067486 0.0058770077 -0.088363186
0.037286278 0.024978524 0.032358386 -0.02455874 -0.023124842 0.042727716 0.06621518 -0.043643765
0.0076971077 0.07008725 0.014102298 -0.06287274 -0.011616212 0.023523742 0.09186457 -0.025342906
-0.036067758 0.07953713 -0.02877155 0.10833209 0.07954633 -0.0027950865 0.059329957 0.07004012
0.017430918 0.04552963 0.026259456 0.002151987 0.04000506 0.05169947 -0.046318457 0.09092577
-0.01589818 -0.067345075 0.08250191 -0.012051175 0.06788821 0.026663631 -0.08361014 -0.033132493
0.007375904 0.09120025 0.035802018 0.0037635826 -0.026184084 0.07840687 -0.018983323 0.09055178
0.033331294 -0.049666066 0.008368707 0.07659944 -0.074697174 -0.0030028713 -0.006465944 -0.024246998
-0.04662888 -0.05742633 0.0737431 -0.06773517 -0.01132254 -0.03073456 -0.05574437 0.068977125
00000000: 959a aabd 45a4 d23c ce93 8abc ec15 5f3d
00000010: cb73 55bd 2bf7 a33d 0efd 2a3c 35f9 8a3d
00000020: 96b8 97bd e349 21bb f313 d53b 4d6f 34bd
00000030: 1cb0 393d 2e58 acbd 172e 26bc 59e8 95bc
00000040: e2dd 93bd c3b3 90bc 1bea 83bd 21f8 71bd
00000050: b554 6b3c 6f49 a43c 9b89 74bd 5d19 2bbd
00000060: b8b1 e83b c920 13bd 6d47 913d efe7 833d
00000070: 4b2f 6cbd f65b c83c 748e c3bc 4a13 39bd
00000080: e941 bebc 7aaf 24bd 64da ca3d 3cf5 95bd
00000090: 0ff8 603d 7c0c cf3c 2be7 41bd 385c ca3d
000000a0: 92ce 5cbd c57f 383d a151 1a3d f4e3 813c
000000b0: d9cd 463d 6615 02bd ea7d d5bc ce58 93bd
000000c0: cb2e b73d a309 71bd dd09 893d 1a9e 513d
000000d0: 899e f6bc 01d1 44bc 6237 b73d 7fa0 f2bc
000000e0: 45bf af3d 1ab1 98bd bc78 00bd 5faf a53d
000000f0: a3df d7bc 1a36 8abd ea93 c03b c2f7 b4bd
00000100: 7fb9 183d c39f cc3c 3a8a 043d 692f c9bc
00000110: 4f70 bdbc 4203 2f3d d39b 873d cec3 32bd
00000120: 0538 fc3b e789 8f3d 530d 673c 6cc3 80bd
00000130: ed51 3ebc ddb4 c03c 7e23 bc3d ed9b cfbc
00000140: c9bb 13bd 5de4 a23d 50b2 ebbc 37dd dd3d
00000150: 30e9 a23d c52d 37bb f803 733d 3271 8f3d
00000160: 49cb 8e3c 477d 3a3d 121e d73c 5a08 0d3b
00000170: 59dc 233d d3c2 533d 6cb8 3dbd 4a37 ba3d
00000180: e63c 82bc 37ec 89bd c3f6 a83d 4b72 45bc
00000190: f908 8b3d b06d da3c cb3b abbd f0b5 07bd
000001a0: 91b1 f13b 32c7 ba3d 23a5 123d 70a6 763b
000001b0: 0180 d6bc c893 a03d ea82 9bbc 3673 b93d
000001c0: 6586 083d a56e 4bbd e71c 093c 2be0 9c3d
000001d0: d5fa 98bd d2cb 44bb 45e0 d3bb a4a1 c6bc
000001e0: edfd 3ebd df37 6bbd 9f06 973d bdb8 8abd
000001f0: 2d82 39bc 0bc7 fbbc 3554 64bd e143 8d3d

layers.5.weight f4 [4, 128]
-0.0067169433 -0.010451443 0.0024344241 0.040314086 0.033369392 0.03588635 0.03378328 -0.060635008
0.06360101 -0.06732131 -0.09069331 -0.025137324 -0.10282132 0.0029052475 0.007400952 -0.051687293
0.062407475 0.014402571 0.05356706 -0.10010506 0.0566828 -0.060771096 -0.054902274 -0.11031141
-0.03739398 0.047362365 -0.0335373 -0.042450454 0.02284198 0.06955713 -0.037358563 -0.0060289763
-0.082194805 -0.022314792 -0.088408835 -0.013193041 -0.07018072 -0.011932404 0.015383402 -0.0899724
-0.015665576 -0.04908206 -0.034606576 -0.043963265 -0.053033907 0.0029469477 -0.07030244 -0.00506772
-0.07672038 0.02299593 -0.10559518 -0.09127337 -0.12126873 -0.006930106 0.054817524 -0.00087163516
-0.068232685 0.051825628 -0.02700238 0.004036593 -0.025989616 -0.016568685 0.010073051 0.014742114
0.018506818 -0.10145843 -0.08024941 -0.05296591 0.028744569 -0.10938955 0.0046537695 0.07246392
0.010670654 -0.08440321 0.020051155 0.037259538 -0.03730397 0.028405316 -0.04859329 -0.050300505
-0.009853158 0.08492467 -0.014259413 -0.06770751 -0.06450392 -0.028899163 -0.08014046 -0.117123395
-0.07211471 0.018458122 0.030612823 -0.08053646 0.05720472 0.054613438 -0.011061986 -0.08279825
-0.010904028 -0.09642279 -0.08327862 -0.0074248295 0.054205265 -0.10183687 0.036787428 -0.1018512
-0.10858796 -0.09964949 0.040131934 -0.047432292 0.00542637 -0.07196903 -0.10834312 -0.11893013
-0.10612031 0.021737073 -0.027193986 -0.049287327 -0.096263185 0.011704673 -0.012597297 -0.09075993
-0.020437779 -0.053927943 -0.09909561 -0.08444932 -0.049649592 -0.023768792 0.0053826883 -0.115805104
-0.114370294 0.097552486 -0.1825594 0.005177282 -0.10486659 0.0019443211 -0.13220204 0.041285563
0.029751375 0.04490695 0.06409828 -0.06535238 0.09053236 0.035245635 -0.04234943 0.04883462
-0.09857022 -0.21265233 0.034187987 0.13607495 -0.028167086 -0.18169881 -0.21633184 0.115886256
0.103698485 0.17745566 0.10295894 -0.21199666 -0.36583906 -0.086527176 0.1270278 0.15536028
-0.008842295 0.19979419 0.06137148 0.18974417 -0.05925706 -0.22186999 0.0039846688 0.07317908
0.09088982 -0.27531445 -0.23106441 0.022002818 0.14677748 0.11534731 -0.1943137 -0.016058154
-0.1453449 -0.2558963 0.03569431 -0.19298388 0.08312087 -0.2682233 0.0028202576 0.055591326
0.05115901 0.04555026 0.16412126 0.106725514 -0.020785585 0.15612537 -0.28072745 -0.049947105
-0.035499256 0.044426575 0.05665194 0.11345765 0.101128906 -0.19373007 0.2228695 -0.07513284
0.1475423 0.18854225 0.08730415 -0.08720689 -0.2475851 -0.08627761 0.16404681 0.035773624
-0.04261588 0.0031979617 -0.05420683 0.0879605 -0.11016315 -0.34781346 0.023666874 -0.09365873
-0.016978972 0.086260535 0.063292086 0.019758714 0.050478857 -0.03940956 -0.102364704 0.12874725
-0.2233027 0.04055243 -0.22777091 -0.25205058 0.09325311 -0.062453464 0.028035495 0.05660303
-0.028690103 -0.16702123 0.113664955 -0.013344362 -0.047537785 0.12952021 0.035543878 -0.012111247
-0.14025468 -0.14742184 -0.17578955 0.06873088 -0.1403296 -0.030134192 -0.11222291 -0.24905217
-0.23271883 0.15608627 0.13034065 -0.05221738 -0.08326281 0.057083324 -0.11052883 0.099378146
00000000: ce19 dcbb 873c 2bbc dc8a 1f3b 6220 253d
00000010: 58ae 083d 91fd 123d 5660 0a3d 6a5c 78bd
00000020: 3f41 823d c1df 89bd 6abd b9bd caec cdbc
00000030: fc93 d2bd f765 3e3b af83 f23b 0eb6 53bd
00000040: fb9e 7f3d c3f8 6b3c 2269 5b3d e203 cdbd
00000050: 392c 683d 1deb 78bd 35e1 60bd f3ea e1bd
00000060: 6e2a 19bd 0aff 413d 685e 09bd 87e0 2dbd
00000070: 1b1f bb3c f873 8e3d 4b05 19bd b88e c5bb
00000080: c055 a8bd 83cd b6bc b10f b5bd a027 58bc
00000090: e9ba 8fbd 2180 43bc aa0a 7c3c 7343 b8bd
000000a0: 1855 80bc 450a 49bd a0bf 0dbd d312 34bd
000000b0: 153a 59bd 9421 413b bafa 8fbd 1e0f a6bb
000000c0: 931f 9dbd f661 bc3c 4942 d8bd 88ed babd
000000d0: bd5b f8bd f115 e3bb 5788 603d 727e 64ba
000000e0: 94bd 8bbd 1c47 543d 1834 ddbc 6545 843b
000000f0: 2de8 d4bc 0dbb 87bc 7009 253c e888 713c
00000100: 9c9b 973c 70c9 cfbd cd59 a4bd c8f2 58bd
00000110: bb79 eb3c a107 e0bd a67e 983b f767 943d
00000120: f7d3 2e3c 97db acbd 5242 a43c 759d 183d
00000130: 0ccc 18bd 44b2 e83c c209 47bd e707 4ebd
00000140: 246f 21bc fcec ad3d 50a0 69bc 3caa 8abd
00000150: a21a 84bd f0bd ecbc ae20 a4bd 64de efbd
00000160: e1b0 93bd 7d35 973c bec7 fa3c 4df0 a4bd
00000170: 7f4f 6a3d 57b2 5f3d 553d 35bc 2192 a9bd
00000180: cfa6 32bc 5079 c5bd fb8d aabd fc4b f3bb
00000190: 5706 5e3d d98f d0bd 6aae 163d 5d97 d0bd
000001a0: 5d63 debd 0815 ccbd 6261 243d 5d48 42bd
000001b0: b1cf b13b 8064 93bd ffe2 ddbd a491 f3bd
000001c0: 9b55 d9bd f211 b23c ecc5 debc 82e1 49bd
000001d0: a225 c5bd f5c4 3f3c e564 4ebc 58e0 b9bd
000001e0: 216d a7bc 8ce3 5cbd a4f2 cabd c4f3 acbd
000001f0: 5f5d 4bbd c5b6 c2bc 4361 b03b 3a2b edbd
00000200: f93a eabd 99c9 c73d daf0 3abe 30a6 a93b
00000210: 4bc4 d6bd 97d8 fe3a f95f 07be 0d1b 293d
00000220: 28b9 f33c 5af0 373d f645 833d 78d7 85bd
00000230: 0869 b93d ba5d 103d 9976 2dbd cf06 483d
00000240: 2fdf c9bd 88c1 59be b408 0c3d 3b57 0b3e
00000250: a9be e6bc 410f 3abe 1886 5dbe c655 ed3d
00000260: df5f d43d f0b6 353e 23dc d23d a715 59be
00000270: 424f bbbe 2935 b1bd 9313 023e c416 1f3e
00000280: 46df 10bc d996 4c3e a960 7b3d 4c4c 423e
00000290: 88b7 72bd e331 63be d391 823b eade 953d
000002a0: 7124 ba3d 04f6 8cbe 269c 6cbe 413f b43c
000002b0: d64c 163e 363b ec3d 2cfa 46be 648c 83bc
000002c0: 4bd5 14be d704 83be 3234 123d 919d 45be
000002d0: 463b aa3d 9054 89be 12d4 383b bbb3 633d
000002e0: 1c8c 513d e992 3a3d 670f 283e e892 da3d
000002f0: 8846 aabc 54df 1f3e 82bb 8fbe 5695 4cbd
00000300: ab67 11bd a4f8 353d dd0b 683d 7c5c e83d
00000310: ac1c cf3d 2d61 46be e737 643e 3fdf 99bd
00000320: 5415 173e 3811 413e 85cc b23d 8799 b2bd
00000330: f386 7dbe 51b2 b0bd e3fb 273e 5d87 123d
00000340: fd8d 2ebd e594 513b fb07 5ebd a224 b43d
00000350: 389d e1bd 9b14 b2be 08e1 c13c 26d0 bfbd
00000360: 7c17 8bbc 5da9 b03d 489f 813d 07dd a13c
00000370: ebc2 4e3d eb6b 21bd 96a4 d1bd 52d6 033e
00000380: 77a9 64be 4e1a 263d c73c 69be c60c 81be
00000390: 7dfb be3d 34cf 7fbd b2aa e53c 94d8 673d
000003a0: 8207 ebbc 9d07 2bbe 2cc9 e83d 50a2 5abc
000003b0: fbb6 42bd f2a0 043e 7596 113d 406e 46bc
000003c0: ec9e 0fbe c0f5 16be 2d02 34be c7c2 8c3d
000003d0: 90b2 0fbe fbdb f6bc 20d5 e5bd 8807 7fbe
000003e0: d84d 6ebe 14d5 1f3e 0578 053e e4e1 55bd
000003f0: b185 aabd 34d0 693d f05c e2bd c586 cb3d

layers.5.bias f4 [4]
-0.05749299 -0.033765074 0.073543824 -0.00532753
00000000: c57d 6bbd 3f4d 0abd 259e 963d 9092 aebb
