model_zoo/DAgger/LunarLanderContinuous-v2/net_99.pth (torch, 141120 bytes, 9 tensors)

log_std f4 [2]
00000000: 7f3d bdc0 945b c7c0
-5.913757 -6.229929

layers.0.weight f4 [128, 8]
00000000: 1f2a a03e fd81 dfbc 5081 c5be e888 20bd
00000010: 9c6a 273e 6f83 b5be bebe fabc eacf ae3e
00000020: a59b 58bd c52f f7bd cdfa 9abd 0c07 b53b
00000030: 42e2 cfbe 0eef d1be 6c10 9c3e 1ef5 c5bd
00000040: 9d22 243f 5bc0 d1bd fcb0 68be 916c 73be
00000050: 2e48 c2be 8f2a f8bd 7272 8e3e 9b97 3fbe
00000060: 26db 393e fa1f c13e 6263 80bc 3302 593e
00000070: 173a 103e 21a9 bebe 752d ffbd ef11 e3bd
00000080: 84b3 253f c5ec 6dbe 7e12 6c3e 9cce a93e
00000090: df8a 6b3e 64a2 8d3e 6238 fd3d 0c90 9dbc
000000a0: b388 b23e aa91 b93e cb42 01be 751c cf3e
000000b0: 6872 343d 3b27 78be 0410 73be 6c67 093e
000000c0: 7308 07bd b943 38be 965d 723e b56d 99be
000000d0: ea42 a4bd 25d8 253e 4479 ffbc 912e 80be
000000e0: 38f9 d3bd f696 c1bc c9e5 19be 1a49 8e3e
000000f0: 58af b03d 59c5 c93c e0c6 003e c320 6f3d
00000100: 7ab1 80be 2762 bcbe 1da1 973e 6943 cbbe
00000110: 154d f23e 3a8d ab3e 6586 aa3e a74c 77be
00000120: add8 603e fc53 8bbe 02bd e53c d484 1a3e
00000130: 9676 893d 5989 c33d a6bd 11be 3b79 4bbd
00000140: 6b35 ca3e 2ac8 573e 9538 a03e d307 edbd
00000150: bf1f 06be c6e3 02bf 618b cc3c 90b5 cdbc
00000160: 8f19 743d 248b 793e 66e1 923d 6e46 9c3e
00000170: 3f24 e7be b249 2a3c ceef 4e3e 5a00 b13e
00000180: 1f49 033e 86eb acbe 0d3a 973e 0611 5bbd
00000190: 24a9 34bd 9fc4 f6be 2c25 b5bd 4b22 b53e
000001a0: c462 e93d 5221 8a3e fb19 a93d e41d cb3e
000001b0: 4090 74be b856 7d3e f83b 953e 3cfa 9d3d
000001c0: e551 133f 10d8 533e f16f f83e 6b72 52be
000001d0: 4bc2 bfbd d327 41be 062a fa3d 36e0 163e
000001e0: b384 d6be 1a7b 4ebc 3136 babe 1908 9a3d
000001f0: 51f9 aabc 36f7 bf3e c8e2 8abe 6c31 2d3d
00000200: 5035 e93e 2cd4 5f3e e016 043f 2fbf b63c
00000210: d5b4 c8be 8b80 2cbe 3e03 1ebe 47d2 d4bd
00000220: da47 6f3e 94c7 7a3d 20ab 413e 566d b13e
00000230: 2b0e f4bd 2f20 25bf a943 c63d 7b8f 293e
00000240: 3967 833d c299 b0be 0d6c d13e 9369 cdbe
00000250: de07 753e 6ac3 74bd 11d3 763e 44bf 8cbe
00000260: bb79 273f 9f78 193e 3db2 d13e 66b4 8b3e
00000270: de02 933d 9088 f43d 204f 28be 69fb aa3e
00000280: 3d0c 2a3d 0b16 37be 04cf 13be 614b 85be
00000290: e0fd b7be c802 6e3d 84f3 1bbe 90fe 9cbc
000002a0: cef4 e7bd 1194 343e 5efe f23d 9f04 36be
000002b0: 5fa1 b53d 3b03 893c 0eee d43d f4cb 68bc
000002c0: c856 d93c f2c5 98bc 8bba e9be cac8 e2bd
000002d0: 3283 dc3e c847 be3e 3481 8c3d 4598 01be
000002e0: d8af d63e 9da8 2cbe e99b 32be f36d 073e
000002f0: 7d6a 11bd 1f79 d93e 6f22 c3bd 9cea 81be
00000300: ce16 c7bd cf90 833e aafe bebd 2665 52be
00000310: faee 913d fb1b 283e 82c3 063e 7eae 19be
00000320: fd52 ed3e eb4e 893e aaa5 bbbb 1db1 97bc
00000330: 85f4 9a3e 42e5 6d3e 8b2a 033e a913 1f3d
00000340: 54c4 1b3e 6c32 bbbd 5f54 9abe c18f a03e
00000350: e221 ad3e f7c7 c33e 90b6 dc3d ea0f 7cbe
00000360: 3305 563e c949 b83e d73a 8e3e 93ec c83d
00000370: d7ac 8d3e db24 133f d05e 84bd b750 4fbe
00000380: d728 ee3e c681 863d b6d5 2bbe 4536 d73d
00000390: 3e52 74be b171 c1be d045 453e ddb4 393e
000003a0: 9110 05bf 4d78 5ebc 83c2 8e3e b8e6 80bd
000003b0: dfa7 80be d889 a23e 9e30 3bbe ddb4 b83c
000003c0: 467a 4d3e a552 7dbe 91cf 13be f823 e8bc
000003d0: 28bf f6bd 6f87 d53d 2255 453d dd12 0d3e
000003e0: ab9d 9bbe 3638 ad3e 5b14 d8be 66de 22bd
000003f0: 685b 01be c564 06be ee28 c93d 2373 023e
0.31282136 -0.027283663 -0.3857522 -0.039193064 0.16349262 -0.35451838 -0.030608531 0.34143
-0.05288281 -0.12069658 -0.07567368 0.0055245217 -0.4060231 -0.41002697 0.3048128 -0.09665893
0.64115316 -0.10241767 -0.22723764 -0.23771884 -0.37945694 -0.121174924 0.2782169 -0.18710177
0.18150005 0.3771971 -0.01567239 0.21192245 0.1408466 -0.3723841 -0.12459842 -0.11087405
0.64727044 -0.23234852 0.23053929 0.33165443 0.23002194 0.27662957 0.1236427 -0.019233726
0.34869918 0.36243945 -0.12623136 0.40451398 0.04405442 -0.24233715 -0.23736578 0.13418359
-0.032967042 -0.17994584 0.23668513 -0.29966512 -0.08020575 0.16195734 -0.031185754 -0.25035527
-0.10350269 -0.023631554 -0.15029062 0.27790147 0.08627194 0.024630236 0.12575865 0.058380853
-0.25135404 -0.36793634 0.29615107 -0.39699867 0.47324434 0.33506185 0.3330566 -0.24150334
0.21957655 -0.27212512 0.028044228 0.15089732 0.067120716 0.09547681 -0.14232501 -0.04967616
0.3949388 0.2107245 0.3129317 -0.11573758 -0.13098048 -0.51128805 0.024968805 -0.02511099
0.059594687 0.24369484 0.071718976 0.30522484 -0.4514484 0.010393547 0.20208666 0.3457058
0.12820862 -0.3377344 0.29536477 -0.05348303 -0.044106618 -0.48196885 -0.088449806 0.35377726
0.11395791 0.26978546 0.082569085 0.39671242 -0.23883152 0.24740112 0.29147315 0.07713744
0.57546836 0.2068789 0.48522905 -0.2055146 -0.0936323 -0.18862848 0.122150466 0.14733967
-0.41898116 -0.012602592 -0.3636947 0.07521076 -0.020870836 0.37493294 -0.27126145 0.04228346
0.45548487 0.21858281 0.51597404 0.02230796 -0.39200464 -0.1684591 -0.15430924 -0.1039167
0.23367253 0.06122549 0.18912935 0.3465373 -0.11916765 -0.64502233 0.09680874 0.1655864
0.064161725 -0.34492308 0.4090275 -0.4011961 0.23928782 -0.059756674 0.24103953 -0.27489674
0.6542012 0.1498742 0.40956298 0.2728607 0.07178281 0.1194011 -0.16436434 0.33394936
0.041515578 -0.17879502 -0.14434439 -0.26034072 -0.3593588 0.05810812 -0.15229613 -0.019164354
-0.1132599 0.17634608 0.11864923 -0.177752 0.0886867 0.016725173 0.10396968 -0.014208782
0.026530638 -0.018649075 -0.45650133 -0.11073454 0.43068844 0.3716414 0.06860581 -0.12655742
0.41931033 -0.16861196 -0.17442288 0.13225536 -0.035501946 0.4247522 -0.09528052 -0.25374305
-0.097211465 0.25696418 -0.09325917 -0.20546398 0.07125659 0.16416924 0.13160518 -0.1500797
0.46352378 0.26818022 -0.005726536 -0.018517071 0.3026468 0.23231986 0.12809198 0.03883711
0.15211612 -0.091404766 -0.30142495 0.31359676 0.33814913 0.382385 0.107770085 -0.24615446
0.20900421 0.35993794 0.27779266 0.09810748 0.2767093 0.5747811 -0.064633965 -0.20245634
0.46515533 0.06567721 -0.16780743 0.10508398 -0.23859498 -0.37782052 0.19264913 0.181354
-0.51978403 -0.013578487 0.27882776 -0.06294006 -0.25128075 0.3174579 -0.18280265 0.02254718
0.20066175 -0.24738558 -0.14434649 -0.028337464 -0.12048179 0.104262225 0.048176892 0.13776727
-0.3039373 0.33831948 -0.4220303 -0.039762877 -0.12632525 -0.13124378 0.0982226 0.12739234

layers.0.bias f4 [128]
00000000: 5b26 4cbe d374 73bd 256b 79be 6f0c 9cbe
00000010: 52af 0d3d 32bd cdbd cfb3 f8bd 5ca4 c93b
00000020: b44c b3bc ee35 263e ec0b 4dbe 60e9 55be
00000030: 8eb8 493e b7b1 8d3e 3561 1a3e fb15 f5bc
00000040: 3c74 f83d 4962 8f3d 3995 c03d eebf 993d
00000050: 9c20 14be 5676 a63d e86c 623e e948 ab3e
00000060: 607d 5b3e f43b 09be 4ef3 fb3d f956 7bbd
00000070: 353a 013e 622b 18be 481d d9bd fcd6 95be
00000080: 14a5 96be 0129 ef3d 0920 82be b066 513e
00000090: 4b56 fd3b fb9a 81be 13ea 763e 5a5f 8cbd
000000a0: b514 103c 73b7 fdbd 4bcf 023e 567d 6b3e
000000b0: acfb 7c3d c8b1 8d3e 12c7 023d e9dd 893e
000000c0: 0bbd d6bd e3fd 7bbe 13b1 313e 9957 ca3d
000000d0: 5340 773e 5e11 e3bd 9822 8f3e bb50 833e
000000e0: 082c 653e 9d66 083e 509e 3b3e b9ec 293e
000000f0: ad75 e3bd 4884 2fbd e0fd 793e 2843 e6bc
00000100: 9e0f ccbd 21e4 423e 0f7b 9bbd 7777 a93d
00000110: 8a88 28bd da04 cd3d e424 433d 0699 0dbd
00000120: b259 fcbc 4768 103e ce11 9d3e a2f0 dd3b
00000130: 5fa9 8ebe 6127 f6bb 77f7 9abc 0339 04be
00000140: 9b5e 673e 6227 5bba 0d3a 8a3e a71d 983d
00000150: 6af0 a03d 8a90 a8be 1637 80bd 51d6 923e
00000160: 1c10 78be 3484 ce3d fae6 56be 9713 103e
00000170: 2562 5ebe 47be 873e 6502 413e f451 413e
00000180: 031c 5cbe 4f50 783e 5992 94be fa7a f43d
00000190: 70c5 883e 871f 3abd 3ad5 6c3e 94fa 32bd
000001a0: f5aa 2dbe 914e 123e 1138 e33c 146b 58be
000001b0: 2e36 2e3e 82a3 3e3d 1d91 8f3e 9610 913e
000001c0: c910 2f3e 0abb be3d 90aa 543e adda 8b3d
000001d0: 90e2 85be 78b2 5abe 4a44 03bd c1cb 823e
000001e0: 2b1a a3bd 87d4 8e3e 0394 373e a4fc 0b3e
000001f0: 431b 5cbe 3754 8fbe 1859 9ebe 25fb 323e
-0.19936506 -0.059437584 -0.24357279 -0.30478236 0.034591027 -0.10045852 -0.12143671 0.0061536264
-0.02188716 0.1623151 -0.20024079 -0.20889807 0.19699308 0.27674648 0.15076144 -0.029917708
0.12131545 0.07001168 0.09403462 0.07507311 -0.14465564 0.081280395 0.22111857 0.33454064
0.21434546 -0.13401777 0.12302266 -0.06136224 0.1261986 -0.14860299 -0.10601288 -0.29265583
-0.2942282 0.11677743 -0.25415066 0.20449328 0.007731234 -0.25313553 0.2411273 -0.06854124
0.008793999 -0.12388506 0.12774388 0.2299703 0.06176345 0.276747 0.03192813 0.26927117
-0.10485276 -0.24608569 0.17352705 0.09879989 0.24145631 -0.11087297 0.2795608 0.2564753
0.22380078 0.13320394 0.1832211 0.16594209 -0.11106429 -0.042850763 0.24413252 -0.028108194
-0.09963916 0.19032337 -0.07591831 0.08274739 -0.04114584 0.10010691 0.047642604 -0.034569763
-0.030804489 0.14102279 0.30677646 0.0067730704 -0.27863595 -0.0075120186 -0.018916829 -0.12912373
0.22594683 -0.00083600555 0.26997414 0.07427531 0.07858355 -0.32922775 -0.06260507 0.28679135
-0.24224895 0.100838095 -0.20986548 0.14069973 -0.21717127 0.26512358 0.1884857 0.18878919
-0.2149506 0.24249385 -0.29017904 0.119375184 0.26713133 -0.045440223 0.23128214 -0.043696
-0.16959746 0.14287783 0.027736695 -0.21134597 0.17012855 0.046542652 0.280404 0.28332967
0.17096247 0.093130186 0.2076819 0.068288185 -0.26149416 -0.21357143 -0.032047547 0.25546077
-0.079639755 0.2789652 0.17927556 0.13670594 -0.21494775 -0.27993938 -0.30927348 0.17478617

layers.1.weight f4 [128, 128]
00000000: ed21 c0bc 8ae6 833d 52d0 7bbc 57a7 bb3c
00000010: 4e39 a83d 6a47 313d 3854 173a 471a 8b3d
00000020: b26a 9fbd af8b b23d c679 893d 3013 de3d
00000030: 5402 a7bd 8507 483d 0490 9abc 81fe 573c
00000040: 8461 f03c f40b 063b f3e7 12bd b5ab 173e
00000050: a677 1a3d c694 f53c 3515 423d 82e0 cd3c
00000060: 1f29 3d3d 0ded 3a3d 4c0a 20bd f35f 573c
00000070: ee4d b23d 6577 4cbd 41db d63c e0a3 76bc
00000080: 112b 6ebb f734 b33d 0ed7 d139 49be e2bc
00000090: cff1 02bd b80c 8d3d d00f 843d 731c eabc
000000a0: 2049 75bb 7b8d 593d b06d 9e3c c9c4 78bd
000000b0: 083f fdbc 18b1 d23d b2ad f23d bbe6 873d
000000c0: 3cda d9bc ba5c 49bd 2670 263d 123e 9c3c
000000d0: 89e4 f8bc da7d b0bd 1074 553d b59a 4ebc
000000e0: 2c76 d3bc 1c17 953c 0d47 39bd c047 85bd
000000f0: 6ef8 473d 04aa e9bd eb19 a63d 9d36 dd3a
00000100: 403b 2cbb a03d d03d 8d4e 5dbc 6cda debd
00000110: adf2 f33c 8ebf c13c 6873 4e3b 8ec8 c13d
00000120: b920 4dbd 0746 e63d 6bfb 053d 2c4c 5bbc
00000130: 2393 8ebc 6598 c23d 69b3 a7bc 6497 0ebe
00000140: 2407 143d 6566 dc3c 1ca0 a23d 7e86 3fbc
00000150: 2eb6 753d b3a9 4c3d 956c 51bd 8247 d43d
00000160: e0bd 2a3b cb1b 463d 3444 ab3d 1b2e 073e
00000170: 3769 6c3d 2f95 963d 9111 45bd 16b2 bd3d
00000180: 1904 6a3c e15e 5d3d da94 5dbd e115 22be
00000190: fb6e ad3d 7cfb d33c c513 3e3d 13d0 e73c
000001a0: 8567 6f3d 1643 c13b 2d1a 88bd af90 893d
000001b0: 3ea9 a43c 2a1b a1bd e413 e43d 0baf abbc
000001c0: 60c2 943c 7a3d e7bc 4fa1 3dbd 67f1 c1bd
000001d0: 4cea 1fbc b125 8b3c c766 b7bc f599 fbbb
000001e0: 2126 46bd 71a1 2f3d 790a 44bc 7938 4abd
000001f0: f268 6f3d f7f0 f1bc 169b b5bd e931 853d
00000200: 78fd 173d 9aea 1abd 7ff6 963d 9e19 f3bb
00000210: 44cf ba3c 50e5 8dbc dcf6 8f3d c133 f8bc
00000220: 48c6 713d 616d 4a3b e65c a43d 5bd4 853d
00000230: cd5b 46bd bbbe 22b9 23b7 ecbc 5c83 d43c
00000240: 6c8d b23d 5773 82bd 025c d33c 6191 823d
00000250: 03ef 683d 1e09 ae3d e21f 90bd e0b3 a1bd
00000260: c498 ac3d e8a7 95bc e9ea 903c e536 8c3d
00000270: 986b 00bd e0f4 943c 0369 b8bb 82e9 6a3d
00000280: fd88 af3c 96d6 933d 439e c1bc 4972 df3c
00000290: 1202 a53d f71e 82bd fa43 71bd ad15 243d
000002a0: d0db 63bd fb5d 74bd a36e acbd ad59 473d
000002b0: b6a7 713d 257d 553d 5044 88bd 2c1a 7fbd
000002c0: 6a5e b6bc 07ea a83d fde8 6abd fe8c 283d
000002d0: 0900 95bd 7333 86bd 9cb2 393b ef75 43bd
000002e0: 6e6b 383d 8f45 53bd 27e8 a03b 1ba5 95bd
000002f0: c3e2 4cbd f4a4 af3d 45b0 91bd c432 6c3d
00000300: ca35 cdba b5e3 86bd 79a4 023c 3256 aabd
00000310: 2be2 413d d62b 793d 44b9 8e3d bcba b1bd
00000320: b2f4 aa3c bca4 a43c cea4 a4bd a711 14bd
00000330: efb4 0abd 1c38 103d 706a 533c 6248 b63c
00000340: 845f 80bc c59e ebbb 3e96 173d 1af4 29bc
00000350: d8cc 583d ac14 72bd c058 b1bd 8d51 3bbc
00000360: 21f0 39bc 5ce3 f8bb bdd5 8b3d 5c15 e9bc
00000370: 6ec2 98bd f0ac 79bd c011 5e3c dff2 56bd
00000380: 353e da3c 555d 71bc ee3e af3d d80d 0bbd
00000390: 4175 403c 1744 acbd c21f 0cbd 1d47 b2bd
000003a0: 1ab3 343c 09e0 843d c404 60bd 2ad9 e03c
000003b0: 40e2 85bd 4375 88bc b4a1 2f3d bcd3 1e3d
000003c0: d24a 933d 01a5 71bd 297f fe3c 7042 503d
000003d0: a8ca a23d 97dd b4bd 6baa b03c 8f65 94bd
000003e0: a7f5 07bd 7b91 5cbd 654e 123d ea47 adbd
000003f0: e338 853d fa21 e1bb 8adb e23c e4ce 4f3d
-0.023453677 0.06440456 -0.015369492 0.022906942 0.08214055 0.043280996 0.00057727424 0.067921214
-0.077840224 0.08718049 0.067126796 0.108435035 -0.08154741 0.048835296 -0.0188675 0.013183237
0.029343374 0.0020453902 -0.035865735 0.14811595 0.037711762 0.029978167 0.047383506 0.025131468
0.046181794 0.045636225 -0.03907232 0.013145435 0.0870627 -0.04991855 0.026227595 -0.015053719
-0.0036341588 0.087503366 0.00040023815 -0.027678626 -0.031968888 0.068871915 0.064483285 -0.028578019
-0.003742762 0.053113442 0.019339412 -0.060734544 -0.030913845 0.10287684 0.11849536 0.06635805
-0.02659332 -0.049160697 0.040634297 0.019072566 -0.030382412 -0.08617754 0.05211264 -0.012610127
-0.025813185 0.018199496 -0.045233775 -0.06507826 0.048820905 -0.11409381 0.08110412 0.0016877238
-0.0026280433 0.10168004 -0.0135074975 -0.108815044 0.029778803 0.02365091 0.0031501893 0.09462081
-0.050080035 0.112438254 0.032710474 -0.01338486 -0.017404145 0.09501723 -0.020471292 -0.13924938
0.036139622 0.026904294 0.07940695 -0.01168978 0.059988193 0.049966525 -0.051128943 0.103652015
0.0026053116 0.04836635 0.08362618 0.13201182 0.05771753 0.07352673 -0.048112456 0.09262483
0.0142832035 0.05404556 -0.054097034 -0.15828659 0.084684335 0.025876753 0.046405572 0.02829746
0.058448333 0.00589789 -0.06645618 0.06717049 0.020100232 -0.07866509 0.11136606 -0.02095749
0.018159091 -0.028227556 -0.046296414 -0.09469872 -0.009760451 0.016985746 -0.022387875 -0.007678265
-0.048376206 0.042878572 -0.0119653875 -0.049370263 0.058449693 -0.029533846 -0.08867471 0.0650366
0.03710696 -0.03782139 0.07371234 -0.0074188253 0.02280391 -0.017321259 0.070295066 -0.030298116
0.059026986 0.0030887949 0.080255315 0.06534644 -0.04842739 -0.00015520577 -0.02889592 0.025941543
0.0871838 -0.063696556 0.025800709 0.06375385 0.056868564 0.08497833 -0.07037331 -0.078956366
0.08427575 -0.01826854 0.017690139 0.06846408 -0.03135261 0.018183172 -0.0056277527 0.057351597
0.021427626 0.072186634 -0.023635035 0.027276175 0.080570355 -0.06353562 -0.058902718 0.040059734
-0.05562955 -0.05965994 -0.0841954 0.048669506 0.058997832 0.0521213 -0.066536546 -0.06228082
-0.022261817 0.08247762 -0.0573511 0.041150086 -0.07275397 -0.06552782 0.002833522 -0.047719892
0.045024328 -0.051580008 0.004910487 -0.07306882 -0.050020944 0.08576384 -0.07113699 0.0576656
-0.0015656289 -0.065864004 0.007973784 -0.08317222 0.04733483 0.06083282 0.0696893 -0.08678195
0.020868633 0.020098083 -0.080392465 -0.036149647 -0.033863958 0.03520976 0.012903795 0.022251312
-0.015670545 -0.0071905577 0.037008516 -0.01037314 0.05292973 -0.059101745 -0.08659506 -0.011433017
-0.011348755 -0.0075954627 0.06827877 -0.028452568 -0.074589595 -0.06095594 0.013554037 -0.052477714
0.02664099 -0.014731725 0.08556925 -0.03394875 0.0117467055 -0.084114246 -0.034209974 -0.0870497
0.011029029 0.06488044 -0.054692045 0.027447302 -0.065372944 -0.016657477 0.04287882 0.038776144
0.07192005 -0.05899525 0.031066494 0.05084461 0.0794881 -0.088313274 0.021565637 -0.07245933
-0.033193257 -0.05384968 0.035719294 -0.08460982 0.06504991 -0.0068705054 0.027692575 0.050734416

layers.1.bias f4 [128]
00000000: 6cde 8a3d ca33 71bd db8f dcba 7997 2cbd
00000010: e4fa 34b9 5ba0 1dbb 4088 84bd 3e47 683d
00000020: 679a fe3b 21c2 113d 4f03 a2bd a2b1 a43d
00000030: b354 5b3c 8d84 24bc a921 00be 2eb4 533b
00000040: a13e 683d 8f19 043d 25b2 923d 2aad 9dbb
00000050: 3aa4 ad3d 3fc5 a63c 002f ec3c e75e f9bc
00000060: fb53 743d 8660 d2bc 1ab7 263d 21a5 033d
00000070: 57c1 873d 6f94 193d ff83 4dbd a29d a6bc
00000080: d2e1 b4bd 2323 a13c d190 673d c399 33bc
00000090: f297 cc3b 73b0 943d 44b5 d4bc 68de 023e
000000a0: 9d65 b1bc e3c5 c0bb 2ae8 933d 499c f4ba
000000b0: c9cb 4ebd e363 a3bd dbfd abbd 8611 ebbd
000000c0: 2cdf 88bd 9db6 d5bc 3cfa 30bd 472d 84bc
000000d0: 13b4 90bb 11ae 0d3c 2c98 81bd a1b9 0e3d
000000e0: 33d7 52bc bc98 31bd ed78 313d 8966 ef3c
000000f0: bd16 1dbd 50aa 413c 98a7 963c 9e92 f23c
00000100: 0a37 99bb 3085 e6bc e5da 5cbd 520f ae3c
00000110: b545 0fbd bc3d ab3d 46b7 993c adf8 c4bd
00000120: a6e0 41bd 2ede aebc c4ef dcbc eeba 47bd
00000130: 6293 80bd fdfa e6bc 32cb 573d 6fac 2fbd
00000140: 60de d13c dfaa 363d 0796 ae3c 34be 5abd
00000150: 11c7 78bc 6d4c 4aba 215e cb3c 6a45 babd
00000160: da00 ab3d c698 af3c 80f6 3fbc 9690 923b
00000170: bb6c e9bc f561 3ebd 6881 7abd a096 ec3a
00000180: be8a a6bc 5dfd 8b3c 2117 af3c d2ae ea3c
00000190: 7ace b8bb 5d04 183d 9592 ad3d 82cf 973d
000001a0: 42b4 b4bd 7387 b73c e637 54bd 2ef2 82bb
000001b0: f551 ee3d 20c8 ee3c 691f 9e3d be36 6d3d
000001c0: 26f7 e9bc e35e e6bd 0ae1 16bd 6f7d 05bd
000001d0: 672d 6b3c 6cc4 c43d ac7f 89bd 2a43 7ebd
000001e0: 0f7e 95bc 3565 173c efec 8a3d 8532 91bd
000001f0: d731 863b 340a dc3c e38e d43a 36f7 02be
0.06780705 -0.05888728 -0.001682754 -0.042136643 -0.00017259602 -0.0024051878 -0.064713 0.056708567
0.007769871 0.035585526 -0.07910787 0.08041693 0.013386893 -0.010041368 -0.1251284 0.003230344
0.056700353 0.032250937 0.071628846 -0.0048119025 0.08478589 0.020357726 0.028831005 -0.03044076
0.059650403 -0.025680792 0.040701963 0.0321399 0.066286735 0.037495073 -0.05017471 -0.020338837
-0.08832134 0.019670075 0.056534592 -0.010961953 0.006243699 0.072602175 -0.02596534 0.12780154
-0.021654898 -0.005882965 0.07222016 -0.0018662299 -0.050487313 -0.07978036 -0.083980285 -0.11477952
-0.06683192 -0.026088053 -0.043207392 -0.016134871 -0.004415998 0.008647458 -0.063278526 0.034845
-0.01286869 -0.04335855 0.043328214 0.029223697 -0.038351763 0.011820391 0.018390462 0.029610928
-0.0046757506 -0.02813968 -0.05391969 0.02124754 -0.034978587 0.08361384 0.01876415 -0.09617744
-0.047333382 -0.021346178 -0.026969798 -0.048762254 -0.06278111 -0.028195852 0.052684017 -0.042889055
0.025618732 0.04459655 0.021311773 -0.053404048 -0.01518418 -0.0007717077 0.024825158 -0.09095271
0.08349772 0.021435153 -0.011716485 0.0044728024 -0.02849423 -0.046480138 -0.061158568 0.0018050261
-0.02032983 0.017088586 0.021373333 0.028647814 -0.0056398483 0.037113536 0.08475224 0.07412626
-0.08823444 0.022403454 -0.05181112 -0.003996155 0.11636726 0.029148161 0.07720835 0.057913534
-0.028560232 -0.11248567 -0.036835708 -0.032590326 0.0143540865 0.09607777 -0.067138046 -0.06207577
-0.018248586 0.009240438 0.06783473 -0.07089714 0.004095297 0.026860334 0.00162169 -0.12789616

layers.3.weight f4 [128, 128]
00000000: 8f43 3f3d 797d 803d 4d82 e53c e711 c9bb
00000010: 02d1 9b3d b2cd 1fbe a7f0 8a3c 6f08 133e
00000020: 76c2 6f3d 60ed b3bd 3c52 cabc a7dd 743d
00000030: 516e 333d f578 37bd da8c 73bd a678 dcbd
00000040: d7a1 d13b 17ac 02be 92c7 9ebd 5586 bfbd
00000050: ebbc d4bc 6e60 10bd 7418 c23d d7ab 57bd
00000060: b19c c5bd 437e 84bb 4af0 063d e2c9 883d
00000070: b52e c0bd b7d3 1dbd 98ac 5a3d 41d7 1c3e
00000080: 7e25 ff3e 1df5 063d 26a5 1b3a 882c 6c3d
00000090: e3ad 47bd 9c82 3abc f507 6dbd b568 a93d
000000a0: f9c4 123e 4e97 9f3d 6b4c f3bc bf61 9cbe
000000b0: 292e b6bb e4ee d83c fcc4 f23c 1c93 d0bd
000000c0: f009 f2bc a6df 573d a026 04bc 0c82 2d3d
000000d0: e6d2 02be c57f 57bd 7fe5 ec3c 32c8 d3bd
000000e0: 855b 443d 6cfd 97be 5d86 a33c 946f 903d
000000f0: 9b6f 11bd c9c2 52bd 1b32 863d ed08 863d
00000100: 00bd 24be 4f0d bdbc b7f0 5dbd b44a 083d
00000110: 066b efbd df39 e13d 91d5 8b3d f51a f03c
00000120: 2c41 0c3d 62fd f3bc 8c75 0e3e 6a5c b53d
00000130: a9ea a73c ba74 233d 3d48 2a3b bcc1 e6bc
00000140: 2675 e1b8 b05a 803d 3bf3 2d3d a37b a0ba
00000150: 7b93 e63c 89b0 993d dd03 bc3b 37e9 e03d
00000160: b671 d43d 38e7 1c3d 84ca adba 6c64 0d3d
00000170: 8b19 40bc ce64 143d 9339 a23d 4e62 d2bc
00000180: a33b 4abd 3871 0c3d fbfc 00bc 4177 b4bd
00000190: de92 e53c 5d53 dc3c a8e7 ce3d d13e 9ebc
000001a0: f9f3 22bc b0a3 3c3d 49d2 88bd fb25 68be
000001b0: fafd 0d3e f6eb 6e3d 8beb aabc 7236 493c
000001c0: 87e0 b53d 07eb 1d3d c467 04bd b3d7 afbd
000001d0: 2503 133d c691 d23d d198 913c 08fe ab3c
000001e0: b17b e6bc 9c8d 75bc bcff 65bd b477 d53a
000001f0: 2f6f f23c 00fb aabd 34d3 09bd deee 483d
00000200: 18dc 15be 002e 47bb bce9 88be d596 fc3a
00000210: dd84 4c3d 00c2 683d 3f12 cf3c 69ff 673c
00000220: 3e72 c5bd 9833 3bbd c568 ec3b 512b 563d
00000230: d3b1 bf3c d451 133f 8bc2 07be ddb3 27be
00000240: 813b 8f3d da61 063d 0c09 a03b c07a 493c
00000250: 7ab3 47bd 6f9a 203d 5b88 b0bf 8854 983d
00000260: 7444 76bc d870 dabc 0844 82bd ce67 04be
00000270: 9649 543d 197f a2be 6751 8f3d d445 f6bd
00000280: acca 88bd dfc4 b5bc 5f74 023d ae4b debc
00000290: 760b 6bbd 99ed 9d3d 018d eb3d c692 583d
000002a0: 3c98 763c 8739 15bf a42b 5a3d 2a20 c7be
000002b0: 7d0a 83bd f14c 023e 3221 8bbd e84a c13c
000002c0: dad9 eabe 4581 d9bc c170 55bf f6f2 32ba
000002d0: 9b04 433a 3044 67bc 8b18 79bd 7507 b63d
000002e0: 8426 303d 8683 04bd 01ef 353d 519b 973d
000002f0: 0251 1bbe f269 20bd da30 593c b344 173d
00000300: c135 fdbb fe70 b03d bf90 a33c 4484 5bbc
00000310: ee04 53bc 63e4 e33d 77df 2bbc de51 9bbd
00000320: b3ae a63d 7b6a a03d f1ff 2ebe 78e0 913d
00000330: e103 2dbe 87be 9abd 1b4d 5b3c 81f2 233e
00000340: 2fa7 d53e 918e 93bd 7f09 1b3e 3864 70bd
00000350: 65ec 0b3f 301a d13d 7b51 223c a25f b43d
00000360: 8824 083c b901 f2bd 61b1 adbb 3d4b 02be
00000370: 88a3 373e a690 e73d 5cb8 1e3a a480 e1bd
00000380: e197 5ebd 1375 f53c 8611 ed3c 1cb0 96be
00000390: 133a 133c 05d1 47be 1c73 563d 5866 bb3d
000003a0: b13d 773d d328 1f3e 3c91 893d 1361 273d
000003b0: e9f1 32bb 7632 2f3c d2d8 e03d 5958 4bbf
000003c0: 8473 c53d f92c 15be 89e8 c4bd 7cf8 0e3c
000003d0: a051 52bc f13a ab3b bfab 943d 168d e7bd
000003e0: ec63 583d e63d f83d 5cca 3bbd e332 b9bc
000003f0: 2399 49bd bc1c 6bbf 63e3 fa3c 8047 83bd
0.04669529 0.06273932 0.028016234 -0.0061361673 0.076082245 -0.1560581 0.016960455 0.14358686
0.05853506 -0.0878551 -0.024697416 0.059781697 0.043806378 -0.044793088 -0.0594605 -0.10765199
0.0063974666 -0.1276096 -0.07752909 -0.09351794 -0.02596899 -0.035248213 0.0947732 -0.052654114
-0.09649027 -0.004043372 0.032944 0.06679131 -0.09383909 -0.038531985 0.053387254 0.15316488
0.49833292 0.032948602 0.000593739 0.057659656 -0.048749816 -0.011383679 -0.057868917 0.082719244
0.14332952 0.07792531 -0.029699525 -0.30543324 -0.005559702 0.0264811 0.029634945 -0.10184309
-0.029545754 0.052703522 -0.00806585 0.04236035 -0.12775764 -0.052612085 0.028918026 -0.103409186
0.047938842 -0.29685533 0.01996153 0.07052532 -0.035506826 -0.051455293 0.065525256 0.06544671
-0.16087723 -0.023077635 -0.05418464 0.033274367 -0.11690335 0.10997366 0.06827844 0.02930973
0.03424184 -0.029783908 0.13912028 0.08855517 0.020497637 0.03990624 0.0025982999 -0.028168552
-0.00010750657 0.06267297 0.04246829 -0.0012243878 0.028146496 0.075043745 0.005737765 0.10981982
0.10373251 0.038306445 -0.0013259207 0.034519598 -0.01172484 0.036228947 0.07921138 -0.025681641
-0.04937328 0.03428766 -0.007872815 -0.088118084 0.028024133 0.02689522 0.10102779 -0.019317063
-0.009945863 0.046054542 -0.06680734 -0.22670738 0.13866416 0.0583305 -0.020864269 0.012281047
0.08880716 0.038554218 -0.03232552 -0.08586063 0.03589167 0.1028171 0.017773064 0.020995155
-0.028135153 -0.014987376 -0.05615209 0.0016286285 0.029594032 -0.08348656 -0.033648685 0.049055927
-0.1463474 -0.0030392408 -0.26740825 0.0019271026 0.049931396 0.056825638 0.025277255 0.014160016
-0.096409306 -0.0457035 0.007214638 0.052287403 0.023400223 0.57546735 -0.13257806 -0.16377206
0.06993771 0.032808162 0.004883891 0.012297332 -0.048755147 0.03920978 -1.3791612 0.07437998
-0.015030969 -0.026665136 -0.06360632 -0.12930223 0.05182799 -0.31737593 0.06997948 -0.120250374
-0.066792816 -0.022188602 0.03184926 -0.027135696 -0.057383977 0.07711334 0.11501504 0.05287435
0.015050944 -0.58290905 0.053264275 -0.38891727 -0.06398485 0.12724663 -0.06793441 0.023595288
-0.45869333 -0.026550898 -0.83375174 -0.0006826365 0.0007439346 -0.014115378 -0.06081442 0.08888141
0.04300548 -0.032351993 0.044417385 0.07402671 -0.15167621 -0.039163537 0.013256276 0.03693075
-0.007727355 0.086153015 0.019966481 -0.013398234 -0.012879593 0.11127546 -0.01049029 -0.07583974
0.0813879 0.078328095 -0.17089821 0.07122892 -0.16896011 -0.075558715 0.013385083 0.16010477
0.41729113 -0.07204927 0.15140341 -0.058689326 0.54657584 0.10210073 0.009907122 0.08807303
0.008309491 -0.11816735 -0.005300686 -0.12724014 0.17933476 0.113068864 0.00060546934 -0.110108644
-0.05434406 0.029963052 0.02893902 -0.29431236 0.008986014 -0.19513328 0.05235587 0.0915038
0.060361568 0.15542917 0.067171544 0.04086406 -0.0027304834 0.010693183 0.10978855 -0.7943168
0.096411735 -0.14567937 -0.09614665 0.0087262355 -0.012836844 0.005225532 0.072593205 -0.11306207
0.052829668 0.12121181 -0.04584728 -0.022607272 -0.04921831 -0.9184072 0.030626005 -0.06410122

layers.3.bias f4 [128]
00000000: 0bb8 5abd 3dda 3e3d 56e2 39bd 7ea0 823d
00000010: 6072 9a3b c68d 9f3d 95f3 abbb e3df bf3d
00000020: 6abd 18bd 52b1 88bc a012 d4b9 a8a1 7dbc
00000030: 5c14 eb3d ae49 fbbd 1b18 70bd dc47 07bd
00000040: a3fe 0fbd edbd 8f3c a44a bcbc d616 64bd
00000050: 3903 c63c 873d 513d 2951 87bd 4945 333d
00000060: 9233 63bc 2f20 31bb dc81 953d 822d 613d
00000070: 4c3a a93b bb23 093d 576e afbc bc71 ae3b
00000080: da0d 7b3c fb21 87bc a4a3 0c3e 7e5c b1bd
00000090: a652 643d 2dd5 74bc 5ae9 81bd befb ac3d
000000a0: dbd2 49bd ddcd 433d 0b7f a33d 5edb 583c
000000b0: f146 1d3d c062 02bd 01a6 2c3d 3c2f b83c
000000c0: 16ad c53d b23d d1bb 85b6 0d3e 36d7 043e
000000d0: 8c8f 3c3d f5aa dc3c 2120 c33d 9656 43bc
000000e0: 9338 c33d 3952 8dbd 6723 6abc c337 923d
000000f0: 0bf7 0e3d 98a0 61bd c7a3 c3bc 2d80 a0bc
00000100: bb38 943d ed32 ce3d 8f91 ef3d 2def 58bc
00000110: 4cb2 8cbb 52d9 bf3d 24bc b73d 9077 c6bd
00000120: f02f 253c 75f4 e63d 52ff 52bc 2fb1 f4ba
00000130: f2e1 263b 56c1 bc3c 907c 9c3d 7868 793c
00000140: 7089 083c d880 c93d b282 423c 81f3 903d
00000150: d2fb b93d 036b 163d 59f8 84ba 03c9 983d
00000160: e478 57bd 6cf7 b03d 1ef4 4d3d a2bc 80bd
00000170: 970d 753d 1860 52ba 431d cb3a 841b c33d
00000180: 7e43 4c3c 1a18 643d 45c8 c53d abc9 25bd
00000190: 5f4a 533d 59ad bf3d 7cf2 9cbc d8bf b53c
000001a0: e73c 9c3d 2965 0a3e d2d0 77bc 46cc 47bd
000001b0: 5cef 9d3b 223e 913d 74c4 913d d691 1e3e
000001c0: 9e5e ee3d 9012 d6bc d1e7 92bd d016 4f3d
000001d0: 01f5 8abd b7f5 c83c 6ac9 733c cf10 c23c
000001e0: 8204 05be cab4 6ebd 419a 6a3d aa1c e83b
000001f0: 34b0 b73c 4654 a2bc fe77 fa3b da56 a63d
-0.053398173 0.046594847 -0.045381866 0.06378268 0.0047133416 0.07790713 -0.005247543 0.09368875
-0.037290014 -0.016686115 -0.00040449668 -0.015480436 0.114784926 -0.12269913 -0.05861674 -0.033027515
-0.03515495 0.017546618 -0.02298481 -0.05568584 0.024171459 0.051084068 -0.06607277 0.043767247
-0.013867276 -0.002702724 0.07300159 0.05497504 0.00516442 0.03348134 -0.021414919 0.005323617
0.015323127 -0.016495695 0.13734299 -0.086602196 0.055742882 -0.014943403 -0.063433364 0.084464535
-0.049273353 0.04780375 0.07983216 0.013235895 0.038397733 -0.031832457 0.0421505 0.02248346
0.09652154 -0.0063855285 0.13839157 0.12972721 0.046035334 0.026936987 0.095276125 -0.011922499
0.09532275 -0.06900448 -0.014290667 0.07139542 0.034903567 -0.055084795 -0.023881806 -0.019592369
0.07237383 0.10068307 0.11697685 -0.013240618 -0.0042937156 0.093676224 0.08971432 -0.096907735
0.01008223 0.11277095 -0.012878256 -0.0018668527 0.0025464264 0.023041409 0.07640946 0.015222661
0.008333549 0.09839028 0.0118719805 0.07077695 0.09081234 0.036723148 -0.0010144814 0.07460215
-0.052605525 0.08640942 0.050281636 -0.06285979 0.059827413 -0.00080251833 0.0015496392 0.095267326
0.012467263 0.055687048 0.09657339 -0.04047553 0.051584598 0.09359235 -0.019158594 0.022186205
0.07628804 0.13515152 -0.01512547 -0.048778795 0.0048197936 0.07091929 0.071175486 0.1548532
0.116391405 -0.026131898 -0.07173122 0.050558865 -0.06785012 0.024531228 0.014879564 0.023689656
-0.12990001 -0.058277883 0.057276014 0.007083495 0.022422887 -0.019815575 0.0076436987 0.08122034

layers.5.weight f4 [2, 128]
00000000: bddd 2b3b 75f5 3a3e 7dab aa3c ad02 d33c
00000010: 18ef 573e 4b7b b43d 16da a3ba f2b2 463b
00000020: 0fd1 2a3e f6e6 75bd 2db1 3cbb 9346 70bc
00000030: ac86 09be 6b84 00be 40a4 e2bb 2ef4 f03c
00000040: 34fd 7e3d 92d3 f63d 895a 803b 0794 44bd
00000050: 42f1 f73c e5eb 153b 748e fb3c 7e1b 60be
00000060: 55c9 e33b f109 a73e 053f ea3c 6757 94bc
00000070: 03bf c83d 64e4 db3d 26a3 cf3a 43a1 e93d
00000080: 4e7b 56be c909 98bd 5027 44bc 0dcc f33c
00000090: 3168 2bbc 5b60 093d 8928 0c3d 1e48 efbc
000000a0: a3d2 653d 3023 c53c f4b7 94bc 5513 553d
000000b0: 3ebc 5d3c 7359 813d a0f5 a5bc 5b03 35bd
000000c0: 73a0 1d39 e13f 683e 7cd4 72be 5b94 2ebe
000000d0: 4b5d 5fbe 5130 443d 00c1 253e 68a7 1ebc
000000e0: 4894 b3bc e5a9 4a3c 7e8a 26bd 4141 0b3d
000000f0: 35d0 3cbe 12a8 1c3d d316 173d ef0c 103e
00000100: 3eb8 8b3e 75a4 87be bea8 0fbe 8be6 14bc
00000110: de72 733d 8ee2 86bc 0d1c 8d3d 8532 8b3e
00000120: ded0 113d bf5b 59be 0371 343d 80b5 c83d
00000130: 8c16 ca3b f3ed 573c 42cf e83c 52de 87bd
00000140: 4b3a a5bc f9b7 a73e 3755 03bd 2674 3f3d
00000150: 36ed 22bc 951f 263c 355a 90be 0aeb 90bc
00000160: 1abe 34be 4c66 de3d 9365 4f3c 52f4 d0bd
00000170: b4e0 183e da48 7c3e 8428 043e b67a 9ebc
00000180: abdc 653d 317f 8bbe 294e 37bd 57a9 c93d
00000190: 1114 223d 8c0f bcbd fb77 503d 2c2a 1fbe
000001a0: d6cd f6bd cf99 19be 7bf6 8c3e 1439 8abe
000001b0: 5a8a b23d 9575 aebd 9d27 81be 5622 adbe
000001c0: be72 34be 41e3 923d 730b 0f3c dc66 eb3c
000001d0: bc91 a7bc cd63 743d dae0 793c c14a 1cbd
000001e0: 0c8d 163d 2ecb e9bb 4435 72bd 3dfb 80be
000001f0: 97fb 15bc 679d ce3d a680 473e d35f 23be
00000200: 2bc1 43be b19c 8ebb 19aa 7cbd 7cac 673e
00000210: e509 023d 42a8 403c 9640 52be db5c 2d3e
00000220: bb1a ad3d 7171 033d ed73 5a3d 05a3 b1be
00000230: 11d8 9c3c fd83 953a 51cd 2bbe d260 293e
00000240: baa5 8cbd e8ad b23a 7922 03be 46e2 80bb
00000250: 1d51 ebbd 0a63 e7bd 1d2a abbc 81bb 9d3c
00000260: 87e3 093e 5dc7 bb3c 14d1 073d d491 513b
00000270: 9967 18be 654b fb39 0818 ee3d 1cf6 113c
00000280: 6612 3d3b f06a e83c a1d3 83bb a883 813d
00000290: ddc0 d238 df61 8ebd 81d4 053d 7d8c ddba
000002a0: 01de 8f3d 7c02 0b3d ffdf 8bbe 0a5c 49bd
000002b0: 89bd 913c 00cc 443c 59b4 4abe e0d9 2ebb
000002c0: d360 55be 3a32 adbc e894 ce3b e5fd babc
000002d0: 4284 ab3b d378 21be c8d0 35bb 9c29 97bc
000002e0: d6e8 30ba 0ac3 df3e bf59 003e 4009 07bb
000002f0: dc21 953b 0df5 843e bcaf 953c 834d f2bc
00000300: 394a d6bc f39b 90bb b1a1 0c3b 926b 9a3b
00000310: 1350 613e f415 5cba 816d 2f3c d910 a8bc
00000320: 1f6e 963d 8ee3 963b 10da 0839 f442 5fbe
00000330: 64a9 cdbd 46c5 babc e6b5 2b3d 0a74 f3bc
00000340: 489c f0bd a740 dd3b b7c7 75bd 2be9 fc3b
00000350: 16a9 d3bd ec31 a5be 3866 72bb 2416 0cbd
00000360: e80f 43bb ac8a 6f3d b4b1 d73d 022f ddbe
00000370: bb83 213c 4192 bdbc 0a60 de39 1da5 c53d
00000380: 2fd5 2d3e b93d 42bc 7b19 99bb 9a61 8bbe
00000390: 3e86 253d 1d5d f2bb 3813 fd3c b968 8a3c
000003a0: 7715 3e3c ab21 c4bc a3c8 023b 3b62 c039
000003b0: 0369 633d b20f ad3e 4f8d 2cbc d10b a73c
000003c0: 21ea a9bc 221f a3bb 5ede 1dbe 6fc8 ab3b
000003d0: 6ec4 3c3a a0d8 80be 3799 37be d605 39be
000003e0: 01d6 e1bc ad38 803e d96c 523c 9748 0e3c
000003f0: 5654 59bc 1193 853b 678e 2a3b 8e52 afbb
0.0026224696 0.18257697 0.020833725 0.025758112 0.21087301 0.08812579 -0.0012500908 0.0030319062
0.16681312 -0.060034715 -0.0028792128 -0.014665264 -0.1343028 -0.12550513 -0.006916553 0.029413309
0.062253192 0.120520726 0.0039170426 -0.047992732 0.030266408 0.00228762 0.030707575 -0.21885487
0.006951491 0.32624772 0.028594503 -0.018108083 0.098020576 0.107369214 0.0015841469 0.11407711
-0.20945475 -0.07423741 -0.011972263 0.029760385 -0.010461853 0.033539157 0.034218345 -0.029209193
0.056109082 0.02406463 -0.018154122 0.05202039 0.01353365 0.06315889 -0.020258725 -0.044192653
0.00015032459 0.22680618 -0.23713869 -0.1704878 -0.21812932 0.04789764 0.16186905 -0.009683467
-0.021921292 0.012369608 -0.04065942 0.033997778 -0.184388 0.03824622 0.036887 0.14067434
0.27289003 -0.26492658 -0.14029214 -0.009088169 0.059435718 -0.016465452 0.06890116 0.2718698
0.035599582 -0.21226405 0.04405309 0.098002434 0.0061672386 0.01317929 0.02841914 -0.06634201
-0.020169398 0.32757547 -0.03206369 0.046741627 -0.009944251 0.010139366 -0.28193823 -0.0176902
-0.17650643 0.10859355 0.0126584945 -0.102028504 0.14929467 0.24637166 0.1290608 -0.019345623
0.05611865 -0.27245477 -0.044752274 0.09846752 0.039569918 -0.09182653 0.050895672 -0.15543431
-0.12050979 -0.1500008 0.275318 -0.26996672 0.08717795 -0.08518521 -0.25225535 -0.3381526
-0.17621896 0.071722515 0.008730757 0.02873557 -0.020455234 0.05966549 0.015251363 -0.03815723
0.036755607 -0.0071348166 -0.05913283 -0.2519168 -0.009154222 0.10088616 0.19482669 -0.15954523
-0.19116656 -0.004352175 -0.061685655 0.22624391 0.031747717 0.011758866 -0.2053245 0.16929953
0.08452364 0.032090608 0.05333321 -0.34694687 0.019145997 0.0011407133 -0.1677754 0.1654084
-0.06867547 0.001363215 -0.12806119 -0.003933224 -0.114900805 -0.11298187 -0.020894105 0.019254448
0.13465701 0.022922212 0.033158377 0.003197779 -0.1488327 0.00047930624 0.11625677 0.008908775
0.0028850078 0.028371304 -0.004023031 0.063239396 0.00010049504 -0.06952261 0.032673363 -0.0016902831
0.07024766 0.033937916 -0.27319333 -0.04916004 0.017790573 0.012011528 -0.1979536 -0.0026680157
-0.20837717 -0.021142114 0.006304372 -0.022826144 0.005234272 -0.15768747 -0.0027742852 -0.018452458
-0.00067485624 0.4370349 0.12534235 -0.0020604879 0.0045511555 0.2596821 0.018272273 -0.029577976
-0.026158439 -0.004413122 0.002145868 0.0047125304 0.22003202 -0.0008395605 0.01070726 -0.020515846
0.07345223 0.0046047634 0.00013051205 -0.21802884 -0.10042074 -0.022799145 0.04192152 -0.029718418
-0.11748558 0.006752092 -0.060004916 0.0077182255 -0.10334985 -0.3226465 -0.0036987197 -0.034200802
-0.002976412 0.058481857 0.10531941 -0.43199927 0.009858067 -0.023141028 0.00042414694 0.096506335
0.16975854 -0.011855536 -0.004672227 -0.27222902 0.040411226 -0.007396354 0.030892953 0.016895639
0.011601797 -0.023941835 0.0019956015 0.0003669428 0.05552007 0.33801037 -0.0105317375 0.020391377
-0.020741524 -0.0049780766 -0.15416858 0.0052423994 0.0007200901 -0.25165272 -0.1792954 -0.18068632
-0.027567865 0.2504324 0.012843334 0.008684299 -0.013264736 0.0040763696 0.002602482 -0.0053504175

layers.5.bias f4 [2]
00000000: 7f7b 0e3d bfd1 3e3c
0.034785744 0.011646687
