model_zoo/DAgger/MountainCarContinuous-v0/net_12.pth (torch, 137536 bytes, 7 tensors)

layers.0.weight f4 [128, 2]
000000 20 dc c5 3e b5 b6 2b bf 5f ee 1f bf 4f 8f ff be
       0.38644505 -0.67075664 -0.624731 -0.49914023
000010 66 d7 27 3f 72 71 4f bf a6 e1 62 be 3e 24 8f 3f
       0.65563047 -0.8103248 -0.2215639 1.1182935
000020 6c 8e e3 bd 8c e0 65 bf 23 c5 07 be 0d d1 2b 3f
       -0.11111149 -0.89795756 -0.13258795 0.6711586
000030 7f 81 14 bf f4 7e 8b 3d af 16 34 3f 4b 20 d8 be
       -0.58010095 0.06811324 0.7034711 -0.42212138
000040 68 42 28 3f f7 69 40 bf 99 f6 a5 be 94 64 e2 be
       0.6572633 -0.7516169 -0.32414702 -0.4421736
000050 fa eb 2a bf dd cf 26 bf 1f 34 df 3e 28 7b 84 bf
       -0.6676632 -0.65160924 0.43594453 -1.0350084
000060 32 0d 76 3e 73 9a 02 3e fc e3 d4 bd 74 df 62 3f
       0.24028471 0.1275423 -0.10395047 0.8862221
000070 f7 3a a5 3e 95 49 49 bf 01 34 9f be f7 a0 b4 be
       0.3227155 -0.786279 -0.31094363 -0.35279056
000080 ef 3d 32 3f fd ed 7d bf d3 c9 f5 3e df e5 8c 3f
       0.69625753 -0.99191266 0.48005542 1.1007651
000090 fa 35 19 3f db fa 1a 3f 10 f0 b4 3e 7d 08 8c be
       0.59847987 0.60539025 0.35339403 -0.27350226
0000a0 b2 95 b6 3e cf a0 a0 3f 3d ff 50 be 87 c3 63 3f
       0.35661083 1.2549075 -0.20409866 0.88970226
0000b0 07 61 fa 3d 5d 3f 86 bf 5f 39 09 bf 62 13 3e 3f
       0.12225538 -1.0488087 -0.53603166 0.74248326
0000c0 59 c8 ee bd bf 32 6f bf ec 35 c2 3e 00 0a 48 bf
       -0.11659307 -0.9343681 0.37931764 -0.7814026
0000d0 3e fe b4 be e7 b8 27 3f ea 82 0a be e2 b9 98 bf
       -0.3535022 0.65516514 -0.13526502 -1.1931727
0000e0 cf 09 68 be b9 b3 52 bf 62 18 8e be 59 a4 3e 3f
       -0.22659992 -0.82305485 -0.27752978 0.74469525
0000f0 13 51 ff bd 8d da 3f bf 60 25 6b 3e c8 db 0d bf
       -0.124666356 -0.7494286 0.22963476 -0.55413485
000100 a6 29 0b bf 6a e0 a3 bf 6e c3 06 3f 68 2f 91 bf
       -0.54360425 -1.2802861 0.5264195 -1.1342592
000110 84 1d 41 3f 70 a9 55 3f c3 79 19 3f be e9 90 bf
       0.7543566 0.83461666 0.5995142 -1.1321332
000120 08 5b 85 3e 36 1f 97 bf b3 00 44 3e 7b af 3c 3f
       0.26046014 -1.18064 0.19140892 0.7370526
000130 0c 8b ae 3d 25 d0 42 bf 8a 35 94 be b9 e7 df 3e
       0.08522615 -0.76098853 -0.28947097 0.43731478
000140 50 14 32 3f dd 20 3c 3f 9b 3d 00 3f 75 eb 3b bf
       0.69562244 0.73487645 0.50094 -0.73406154
000150 d7 ba 24 3e 0a f8 7e bf 54 47 ac bd 4c aa 72 bf
       0.16086899 -0.9959723 -0.08412042 -0.947911
000160 37 0a a5 3e 96 32 0d 3f 16 99 c6 3d 32 8e 8d 3f
       0.32234356 0.55155313 0.096971676 1.105902
000170 d9 62 31 bf 80 78 3f 3f 65 f1 c9 3e 0e 5a a1 3f
       -0.69291455 0.74793243 0.39441982 1.2605608
000180 b8 90 29 3e ea 60 98 bf c7 dd f9 3e 9c 22 b8 3e
       0.16559112 -1.1904576 0.48802015 0.35963905
000190 fd 9f 74 3e 3c 5e 7c bf cd d9 8a 3c 4a 50 a1 3f
       0.23889156 -0.9858129 0.016949559 1.2602627
0001a0 18 a7 81 3e 8b e8 82 3f d2 8a 0f 3e 2d 8e 95 3f
       0.25322795 1.0227216 0.140178 1.1684014
0001b0 15 5e 1e bf df be 40 3f 61 9f 2c 3f f1 3d 75 3f
       -0.6186231 0.75291246 0.6743069 0.9579764
0001c0 e4 a4 e8 3e 01 d0 8a 3f b1 d9 1b 3f ca 6d 84 bf
       0.45438302 1.0844728 0.60879046 -1.0346005
0001d0 97 ac 09 3e 57 27 87 bf 8d 51 eb 3e 6a e9 c8 3e
       0.13444744 -1.055888 0.45960656 0.3924058
0001e0 18 47 0c bf b6 e3 8a 3e c6 56 01 bf 2c b4 16 3f
       -0.5479598 0.27126855 -0.5052303 0.5886867
0001f0 a0 a8 d7 be a1 9a 39 3f a4 ee 2f bf 64 a7 93 3e
       -0.42120838 0.7250157 -0.6872351 0.28838646
000200 84 6c 1a 3f 97 ba 91 3f 71 da 1e 3f f9 d7 fd 3e
       0.6032183 1.1385068 0.62052065 0.49578837
000210 7b 79 01 bf 9e f2 3a 3f 73 71 9b be c8 22 2d bf
       -0.5057599 0.73026454 -0.30359992 -0.67631197
000220 e7 3e d9 3e d0 96 16 3f bc 22 c6 3e f4 6b 5c 3f
       0.42430803 0.5882387 0.38698375 0.86102223
000230 c0 31 ec 3d 7f 62 9c bf 39 89 49 3e d6 10 5c 3f
       0.115329266 -1.2217559 0.19681253 0.8596319
000240 6c ef fa 3c 58 de 98 bf ef a4 26 3f e7 45 91 bf
       0.030631743 -1.1942854 0.6509542 -1.1349458
000250 e2 a8 0b 3f 3e de 72 3e 6d c0 08 3f 71 d0 90 bf
       0.5455457 0.23717591 0.5341862 -1.1313611
000260 80 00 39 3f e9 f8 2d 3f fe 2b 3c 3f 27 2c f9 3e
       0.7226639 0.6795793 0.73504627 0.48666498
000270 39 93 05 3f 05 78 f8 bd e4 4b 57 be 40 6b 9a 3f
       0.5217777 -0.12132267 -0.21025044 1.206398
000280 fd f9 08 3f 41 c4 46 3e b2 a3 1e 3c 83 61 20 bf
       0.5350645 0.19410802 0.009682583 -0.6264879
000290 e6 8a 45 bf 05 f6 68 3e cb 17 e7 be b1 bf 04 bf
       -0.7716507 0.22750099 -0.4513534 -0.51855
0002a0 e5 a8 48 be 87 7d 91 3f 3d ed 87 3e c2 a4 95 bf
       -0.19595678 1.1366433 0.26548186 -1.1690905
0002b0 29 0d cf 3e dd 73 72 3f 44 23 92 3e 3a de 65 3f
       0.40439728 0.94708043 0.2854253 0.89792216
0002c0 3b 6f 8e 3e 6a 1e 00 bf 0b 61 2e bf 76 3a 07 bf
       0.27819237 -0.5004641 -0.68116826 -0.5282358
0002d0 1a 78 e7 3e 2b 1f 65 3e 7c 54 1e 3f 57 94 84 be
       0.45208818 0.22375171 0.6184766 -0.25894424
0002e0 e8 60 35 3f 22 4a 26 bf dc 59 af be a3 c9 42 3f
       0.7085099 -0.6495687 -0.34248245 0.76088923
0002f0 aa 17 b6 be a7 d5 0d 3f 14 df 89 3d bc 90 57 bf
       -0.3556493 0.5540413 0.06732002 -0.8420522
000300 14 8a 2b 3e 0d 12 a2 3f 0f 8e c9 3e 34 85 9e bf
       0.16751891 1.2661759 0.39366195 -1.23844
000310 e8 0e 9c 3e e3 ab 27 3f 68 83 00 3f 75 93 77 be
       0.30480123 0.65496653 0.5020051 -0.24177344
000320 0c 68 1a 3f a0 d8 94 3f 55 ab 4c 3c 5c 64 0d bf
       0.6031501 1.1628609 0.012492021 -0.5523126
000330 45 45 1c 3f 5b 60 ef 3e df bd a4 3e 1d 4b 8c be
       0.61043197 0.467532 0.3217611 -0.27401057
000340 1a 29 b6 3e f0 3c 2f bf 47 c6 d4 be ab 2e 66 3f
       0.35578233 -0.6845236 -0.41557524 0.8991496
000350 03 64 ad 3e c5 a3 fa bd 39 2b 98 3e d1 f3 55 bf
       0.33865365 -0.12238268 0.29720476 -0.8357516
000360 19 90 b2 3e 18 e1 7c 3f 71 24 0b 3f 10 fc 1f 3f
       0.34875563 0.98780966 0.5435248 0.6249399
000370 d0 52 8c 3e 03 43 95 3f a2 00 1c be 69 dc 35 bf
       0.2740693 1.1661075 -0.15234616 -0.71039444
000380 d8 1d 38 3f f5 09 89 3e cd 01 74 be 34 7c c0 be
       0.7192054 0.2676541 -0.23828812 -0.3759476
000390 f0 19 b3 be 62 bd 0b bf 3c a6 00 3f c5 b3 32 3f
       -0.34980726 -0.5458585 0.50253654 0.69805557
0003a0 28 13 28 bf a0 21 6d bf 5b 2c 13 3f 01 d2 0b bf
       -0.6565423 -0.9262943 0.57489556 -0.54617316
0003b0 69 2d 2a bf 58 6b 5d 3f 1a f9 22 bf 1a 1b 0c 3e
       -0.6647554 0.8649192 -0.6366135 0.13682213
0003c0 9f 46 7a 3e 9d 9d 94 bf 8f af 21 be 78 ea 69 be
       0.24441002 -1.16106 -0.15789627 -0.22843349
0003d0 49 43 cd be e3 d8 f3 3e b2 3e 61 3e 4c 96 e6 3e
       -0.40090397 0.4762641 0.21996573 0.45036542
0003e0 9f 0e cf be c6 20 92 3f 89 dd 0c bf 71 2b 3b bf
       -0.40440843 1.1416252 -0.55025536 -0.7311316
0003f0 ea 6b 07 bf 2a 35 09 bf 41 45 13 be 7c 85 23 3f
       -0.5289904 -0.53596747 -0.14381887 0.63875556

layers.0.bias f4 [128]
000000 06 f6 ff 3e 25 ee 72 3c b1 21 0a bf 31 43 29 3f
       0.49992388 0.014827286 -0.5395766 0.6611815
000010 9c d4 a2 3d ba 89 29 3f 9e 35 09 3f 66 e7 db be
       0.07950708 0.6622578 0.5359744 -0.4294998
000020 d1 2e de 3e 2a d1 a2 bd bf 20 a0 be 52 be f3 3e
       0.43395093 -0.07950051 -0.31274983 0.4760614
000030 64 51 07 bf 45 18 b4 be 72 44 ac be 9f 08 ae be
       -0.5285857 -0.35174766 -0.3364597 -0.33990952
000040 70 20 0f be 7c b9 29 be 25 ab 1d 3e 22 89 ee 3e
       -0.13977218 -0.16574663 0.15397318 0.46589
000050 9f a6 7a be ee 59 14 3f ff 40 27 3f 3d a7 8e be
       -0.24477623 0.5794972 0.6533355 -0.27861968
000060 56 59 ac 3d 2e 7a 87 bd 57 6c a2 be d6 2d a9 bd
       0.08415477 -0.06615101 -0.31723282 -0.08260696
000070 a4 2f 08 3f 7b 93 25 3e 2e 07 01 bf bd 2d ff 3e
       0.53197694 0.1616954 -0.5040158 0.49839583
000080 a2 1c d7 3e aa b4 d3 be a5 51 6c bd df 8e 13 3f
       0.42014033 -0.41348773 -0.05769505 0.5763988
000090 aa 3d 29 be aa 50 a7 be 40 2b 90 be 23 a9 bf bd
       -0.16527429 -0.3267873 -0.28157997 -0.09358432
0000a0 c4 61 34 3f f7 20 db 3e 6d c5 0f bc 42 b8 5a 3e
       0.7046168 0.42798588 -0.008775097 0.21359351
0000b0 cd d8 b2 3e b3 79 02 3f c0 6b fd 3e 9c 6e 8a be
       0.3493103 0.5096695 0.4949627 -0.27037513
0000c0 86 19 68 3e 3f 88 e8 be 71 71 b2 bd 4a 58 b2 bd
       0.22665986 -0.45416448 -0.087130435 -0.08708246
0000d0 81 45 af 3e 2c ec b0 be c6 13 e0 3e 3f 0a f8 be
       0.34232715 -0.34555185 0.43765086 -0.48445317
0000e0 61 92 1a be 7b a6 cb be 22 0a 92 3e 3f 5a 90 3e
       -0.15094902 -0.39775452 0.28523356 0.28193852
0000f0 32 7f 9c be 49 52 bf be 59 35 23 bd 7e b6 bc 3d
       -0.30565792 -0.37367466 -0.0398458 0.09214495
000100 81 00 f9 bc 11 40 04 bf 71 cf ad 3e 40 7f eb be
       -0.030395748 -0.5166026 0.33947328 -0.45995522
000110 9d 68 0d bf 7f 36 11 3f 49 3f 73 bd 60 41 a4 be
       -0.5523775 0.5672378 -0.059386525 -0.32081127
000120 2c 10 83 3e d3 ae 21 bf f4 2f 2f 3f 8a 8a 9a 3e
       0.25598276 -0.63157386 0.68432546 0.30183822
000130 4c 61 f7 be 5d af 18 be 70 47 12 bf 37 ee 90 3e
       -0.4831642 -0.14910646 -0.57140255 0.28306744
000140 bb d9 1e bf 69 27 1f 3f cb db e0 be cc 58 32 3e
       -0.6205098 0.6216951 -0.4391769 0.17416686
000150 4d df 00 bf 67 88 f5 be a2 d8 30 bf 44 20 85 be
       -0.5034073 -0.4795563 -0.69080555 -0.2600118
000160 9e ee 03 bf 4d 10 ae be 3b bd 94 be c8 e3 13 3e
       -0.51535976 -0.33996812 -0.2905062 0.1444236
000170 7a a5 94 3e 4b 0c 8f 3e 49 4d 09 3f 5c 1a 37 be
       0.290325 0.27939066 0.5363355 -0.17881149
000180 72 1f 76 be 24 b4 00 3e 56 79 05 bf c6 81 08 be
       -0.24035433 0.12568718 -0.5213827 -0.13330755
000190 4b 32 0c bf e3 86 06 3f 3b 91 ba bd 17 45 1d 3d
       -0.5476424 0.5254957 -0.09109732 0.038395967
0001a0 5d c8 13 3f 0e af 02 3f f6 8f 19 be f0 f1 79 3e
       0.57727605 0.5104836 -0.14996323 0.24408698
0001b0 06 44 ce 3e e3 0b fa be f7 f2 1a bf 1d 31 2e bf
       0.40286273 -0.48837194 -0.60526985 -0.6804369
0001c0 9e d6 ad 3e 86 1e 1e 3f e6 8e 8b be 31 0c 12 3f
       0.33952802 0.61765325 -0.2725746 0.5704985
0001d0 51 dc b2 3e 0b 1b 88 3e 67 71 56 bd 99 5f 2a bf
       0.34933713 0.26583132 -0.052354243 -0.6655212
0001e0 62 40 31 bf d7 04 1f 3f 09 78 5d be 47 71 4b 3e
       -0.69238865 0.6211676 -0.21627821 0.1986743
0001f0 f9 6c d7 3d 3f e5 1e 3f dd cf 10 bf dc a2 95 be
       0.10518832 0.6206855 -0.56567174 -0.29225814

layers.1.weight f4 [128, 128]
000000 79 44 ec 3c c0 75 8b 3d dc 28 9f 3d c4 63 76 bc
       0.028841244 0.068095684 0.07771465 -0.015038434
000010 61 26 3f 3d 59 ed 56 bc e6 ee 4c 3d a4 99 bf bc
       0.04666746 -0.0131181115 0.05003252 -0.023388691
000020 24 b2 68 bd d2 22 19 bd 93 8c 23 3d 9b d4 e9 bc
       -0.056810513 -0.037386723 0.039928984 -0.028543761
000030 9c ee a1 3c 54 44 99 3d 08 e5 ae bd c2 41 12 bd
       0.019767098 0.07483736 -0.08539778 -0.035707243
000040 59 70 f2 bc 8d 59 8b 3d d2 af 84 bd 24 81 27 3d
       -0.029594587 0.0680419 -0.064788476 0.040894642
000050 30 c0 81 3d 2e a6 81 3d 3c 36 e6 3c 55 6b 9a bd
       0.06335485 0.063305244 0.028102033 -0.07540003
000060 6f 54 f5 bc 6f 77 3c 3d 46 cd a8 bd ab bd 53 3d
       -0.029947488 0.04601234 -0.08242278 0.051694553
000070 cb ce 53 bd 89 6b d2 3c 7f d7 e0 3c 07 94 b0 bd
       -0.051710885 0.025686042 0.027446507 -0.08621984
000080 86 cf 48 bd c2 35 90 bd 32 9b fc bc 7b 44 e3 3c
       -0.049026035 -0.070415035 -0.030835722 0.027742615
000090 00 d4 f3 3c a6 7c 44 3d 57 28 5a 3c 8a 4f 87 b9
       0.029764175 0.047970437 0.013315282 -0.00025808468
0000a0 cb 09 14 ba 9d 6a a4 3c f1 eb 16 bd f1 a3 87 bc
       -0.0005647211 0.020070368 -0.036846105 -0.016557666
0000b0 6c 39 c6 bc 4b 9c 5f 3d d9 5a 46 bd 45 a0 95 bd
       -0.024197303 0.054592412 -0.048426483 -0.073059596
0000c0 29 b9 8d bd b0 26 99 38 61 f9 19 bd 3a 85 88 bb
       -0.06920082 7.3028146e-05 -0.037591342 -0.0041662725
0000d0 ed 67 92 3d 17 25 f2 3c 8a 23 97 bb f6 f7 6a 3d
       0.071487285 0.029558701 -0.004612391 0.05736538
0000e0 a6 4f 25 bd 84 b0 34 bd 72 a0 84 bc 67 48 97 bd
       -0.04035916 -0.04411365 -0.016189788 -0.073868565
0000f0 34 c4 ad 3d a7 44 b9 3c d7 9a fc 3b 83 1c a1 bd
       0.084846884 0.022615744 0.007708888 -0.07866766
000100 2c ad 78 bd 31 a1 8d bd 6e 1d b3 bd a6 56 53 bd
       -0.060712025 -0.069155104 -0.08745848 -0.051596306
000110 de 5f 9e bd 99 02 7c bd df 99 4d 3b ca 1a 6b bd
       -0.07733129 -0.061525915 0.0031372232 -0.057398595
000120 3a 88 e4 bc b1 28 a9 3d bb 39 b6 bc 95 c7 1f 3d
       -0.02789699 0.082597144 -0.022244325 0.039008696
000130 ef 84 a7 3d 3d 64 2e bc 70 37 47 3d 66 45 8e 3d
       0.08179652 -0.010644016 0.048636854 0.069468305
000140 71 16 e6 bc bd 36 fd bc 18 d5 a6 bd 09 e5 75 bd
       -0.028086873 -0.03090989 -0.08146113 -0.060032878
000150 92 d9 9e bd cf 19 fd bc 69 25 46 bd e1 85 97 bd
       -0.07756342 -0.030896096 -0.04837552 -0.07398582
000160 e4 6f 02 3d 2b 81 a5 3c 0e 6d 07 bd 81 3c c4 bc
       0.03184499 0.020203194 -0.033062987 -0.023954632
000170 f0 bc 43 3c ee 73 8a 3d c1 bc 4a 3d 4a 4e 7f 3c
       0.011946902 0.06760393 0.049496416 0.01558263
000180 9f 65 98 bb 41 56 95 3c 59 bd 0d 3c 18 d0 c4 3c
       -0.004650786 0.018229606 0.008651101 0.024025008
000190 7b b6 9c bc 31 ba 69 bc 8d f2 c8 bc 47 a6 73 3d
       -0.019129982 -0.014265583 -0.02452972 0.059484746
0001a0 31 91 14 bd 38 fa 98 bd 0f 7d 89 ba 03 4c 09 bd
       -0.036271278 -0.074696004 -0.0010489541 -0.033519756
0001b0 9b a0 2e bd 18 da 83 3d 26 2c 96 bd 5a fd 58 bd
       -0.042633634 0.064380825 -0.073326394 -0.05297599
0001c0 67 4d 8c 3d 3e 3b 9c 3d 0d c4 7a bd 0d 22 80 3d
       0.06850701 0.07628487 -0.061222125 0.06256495
0001d0 0e 4e a7 bd c5 ca af 3c 77 a3 79 3b 83 ce 5e 3d
       -0.081691846 0.021458993 0.0038091817 0.054396164
0001e0 39 d2 9a 3d be 90 b1 bb 79 a2 17 bd 64 87 95 bd
       0.07559628 -0.005418866 -0.03702018 -0.07301214
0001f0 ae 16 25 3c 2e 02 03 bd 12 93 7b bd be 70 43 bc
       0.010076208 -0.0319845 -0.061419554 -0.011928735
000200 31 0c 99 bc c3 1c 84 bd 5a 8d 3e 3b 72 20 51 bd
       -0.018682571 -0.06450798 0.0029075951 -0.051056333
000210 8b a0 96 bd 9f 2d 04 bd 56 85 e7 ba 7e 1f 41 3a
       -0.0735484 -0.03227007 -0.0017663639 0.00073670584
000220 5c 9d 81 bc 23 c8 a2 3d f9 bf 08 3d c4 4b 80 3d
       -0.015822105 0.07948329 0.033386204 0.06264451
000230 72 83 9f bd 21 07 17 3d 85 87 29 3d ca be 06 3c
       -0.07788743 0.036872033 0.041389007 0.008224199
000240 73 f5 0a bd c6 05 a7 bc ef 07 4c 3d 6f 22 8c bd
       -0.033925485 -0.020388495 0.049812254 -0.06842505
000250 09 93 20 bd e7 1e a6 bd 3b 6c b5 3c 95 ad 2b bd
       -0.039202724 -0.08111363 0.022146335 -0.041913588
000260 e7 47 a1 bd 3d 46 6b bd 4a 64 a6 3b 0d 27 4b 3d
       -0.078750424 -0.05744003 0.0050778734 0.04959779
000270 d0 e6 c4 3c c2 bc 30 bb 70 bf d9 bb b8 7f 40 bd
       0.024035841 -0.0026967977 -0.0066451356 -0.046996802
000280 2d 9d 1c bc 1f a1 3d bd 31 7d 2a 3d 77 1b 53 bb
       -0.009558958 -0.046296235 0.041623298 -0.0032212415
000290 df ac 71 3d 42 21 54 3d e2 0b 79 3c ee 05 6a 3d
       0.059002753 0.05178953 0.015200587 0.05713456
0002a0 11 97 c8 bc fb e5 0a bd 69 bd a4 bd 6a fa 31 3d
       -0.024486097 -0.033910733 -0.080439396 0.043451704
0002b0 eb 0d 3a 3c ef 29 8a 3d 68 b4 aa 3d 54 45 9e bc
       0.011355857 0.067462794 0.08335191 -0.019320168
0002c0 cc d0 06 bd 0f 76 47 3d 41 2a 99 3d ea f6 81 3d
       -0.032913968 0.048696574 0.074787624 0.06345923
0002d0 5e 88 8e 3d cc d5 51 bd 24 f3 73 bd 9d e5 82 bc
       0.06959604 -0.051229283 -0.05955805 -0.015978629
0002e0 8e 2a 12 bd ea 65 2e 3d 78 d5 63 3d 6c 8c aa 3d
       -0.035685115 0.04257766 0.0556235 0.083275646
0002f0 44 9e 10 bd a8 f3 d0 bc a6 0a 35 bc 82 e1 51 bb
       -0.035307184 -0.02550681 -0.011049902 -0.0032025282
000300 d2 cd 40 bb 04 22 79 3d cf bf a0 bd 9d 93 89 bd
       -0.0029419553 0.060823455 -0.078490846 -0.06717608
000310 90 95 1a bd 61 cf 2b 3d 51 8e 00 bd b8 db e6 3b
       -0.03774029 0.04194582 -0.031385724 0.0070452355
000320 5f 38 56 3c 94 f6 64 3d be 2c 96 bd 84 45 c6 bc
       0.013074963 0.055899218 -0.07332753 -0.02420307
000330 2a 99 ff 3c 47 79 dd bc 05 b5 7a bd bc 76 05 3d
       0.031200964 -0.027035369 -0.06120779 0.032583937
000340 78 ba 99 3d 90 91 ee bc f7 2a ff 3c d3 d7 a4 bc
       0.07506269 -0.029122144 0.031148417 -0.020122444
000350 57 bd 50 3c d8 67 4c 3b 96 e2 54 bd 06 07 90 3d
       0.012740455 0.0031189825 -0.0519739 0.070325896
000360 e9 cc 86 3c 43 2a 11 bd 20 c2 e7 3c 24 76 ae 3d
       0.01645513 -0.035440695 0.028290808 0.08518627
000370 e7 44 9b 3d b3 f4 d7 bb ee cb 98 bc 94 01 89 3d
       0.075815015 -0.0065904497 -0.018651929 0.06689754
000380 22 e5 57 3d 23 45 0c 3c a8 ea 8e bd bb f3 5f 3c
       0.052708752 0.008561405 -0.06978351 0.01366895
000390 3b 16 67 3d 00 f7 f4 bb b8 aa fd bc 12 78 4f 3d
       0.056417685 -0.0074757338 -0.030965194 0.050651617
0003a0 78 52 47 3d d2 38 2f 3d 90 6a a3 3d 8b e0 8c 3d
       0.048662633 0.042778797 0.079793096 0.06878766
0003b0 8a a7 af bd 3c 07 01 3d 9c 64 2a 3d 1c 4a 40 bd
       -0.085768774 0.03150104 0.041599855 -0.046945676
0003c0 98 7f b4 bd 24 14 a4 bd 1f a0 f7 bb ef 50 fa 3c
       -0.08813399 -0.08011654 -0.0075569297 0.03055617
0003d0 68 87 b6 bc 9c a7 5c bd 8e f7 ad 3d 9a fe a3 3d
       -0.022281364 -0.053870782 0.08494483 0.08007546
0003e0 df 39 fd bb 0b 4e a5 3b 0f d5 20 3b 2a bc 4d bd
       -0.007727846 0.005044704 0.0024541055 -0.050228275
0003f0 a3 44 8b bd fc 0b 86 3d 62 97 53 bd 54 6c 77 bd
       -0.06800201 0.065452546 -0.05165804 -0.060406044

layers.1.bias f4 [128]
000000 3c 59 8b bd 20 38 c6 bc b4 e1 09 3d 1f 4e 9e 3d
       -0.068041295 -0.024196684 0.033662513 0.07729744
000010 35 72 5b bd 9f 80 64 bd 08 3f 55 bc 87 3d 17 3d
       -0.053575713 -0.055786725 -0.013015516 0.03692391
000020 cf 4e d9 bc f9 24 2b bd 9f 3c 40 3c 6e c0 82 bd
       -0.026526837 -0.041783307 0.011733203 -0.06384359
000030 23 3c 21 3d f5 0a 7e bd 13 1e 3b bd 08 af 77 3d
       0.03936399 -0.06202217 -0.045682978 0.060469657
000040 15 b8 7a bd 3a d7 74 3c 68 c4 37 3d 18 72 d5 3b
       -0.06121071 0.014943892 0.044865042 0.006513845
000050 3c 2b 8f 3d 43 12 1e bd ed c7 ce bc 46 84 76 3c
       0.06990668 -0.038591634 -0.025241816 0.015046185
000060 06 15 0e 3d 19 be 87 3d ae ce 9c bd bc fd 6d 3d
       0.03468802 0.06628055 -0.076566085 0.058103308
000070 c9 c7 72 bd 3f c4 47 3d cc ba 4f 3b ad bf 5e 3d
       -0.05927256 0.04877114 0.0031697033 0.054382015
000080 d9 da 0a bd 0d 28 eb bc 20 09 26 bd cf b3 9b bd
       -0.033900116 -0.028705621 -0.040536046 -0.07602655
000090 5b 32 fc 3c d9 a3 1e 3d bd e4 3b 3d 49 f5 3c 3d
       0.03078573 0.038730476 0.04587244 0.04613236
0000a0 b0 52 31 bc 85 a5 ff bc 0d b2 83 bd 19 f3 7a bd
       -0.010822937 -0.031206856 -0.06430445 -0.061266992
0000b0 83 14 1e bd eb cc 26 3d e4 ed 5e 3d 87 87 33 bc
       -0.03859378 0.04072277 0.05442609 -0.010957605
0000c0 20 d7 42 bd a4 d2 51 3d da f1 55 bc b6 c5 1e bd
       -0.04756844 0.051226273 -0.01305815 -0.03876277
0000d0 16 d4 a8 3d b3 6f 3b 3d 2d c8 98 3c 8e 87 97 bc
       0.08243577 0.04576082 0.018650139 -0.018497255
0000e0 66 f7 df 3c 69 31 b6 bc a8 cc 59 bd d2 3b 67 bd
       0.027339648 -0.022240357 -0.05317369 -0.056453533
0000f0 2f 00 9e bd 6e ff 9a 3d 79 64 84 bd 13 11 3c 3d
       -0.07714879 0.075682506 -0.06464476 0.04591472
000100 6c 90 23 bd 5b e4 40 3d bc df 19 bc 06 d8 a5 bd
       -0.039932653 0.047092777 -0.009391721 -0.08097844
000110 67 30 55 3c 4a e2 91 bd 5e 74 d9 3d 46 e5 91 bd
       0.013012028 -0.07123239 0.106178984 -0.071238086
000120 33 05 a0 bc 6a cc 61 3c 39 3a 2c 3c 62 6c 2b bd
       -0.01953373 0.013781646 0.010511928 -0.04185141
000130 5b 82 56 3d 6f 00 8b 3d 94 d6 2e 3c 4f 72 a1 bd
       0.05237041 0.06787192 0.010671277 -0.07883131
000140 d4 01 9f bd 5b af 97 3d 38 d4 83 bc 77 2f b0 3d
       -0.077640206 0.07406493 -0.016092405 0.08602803
000150 89 8c 42 bb 92 aa 2b bd 5d 24 4e 3d 85 f3 c8 bc
       -0.0029685816 -0.041910715 0.050327647 -0.024530182
000160 45 6f 8e ba 13 a9 70 bd fa 8e 28 bd 00 c5 75 3d
       -0.0010866901 -0.05875499 -0.041151978 0.060002327
000170 a5 a1 3a 3d e4 4f 0e 3d 80 c6 a3 3c fb 9c 9e 3c
       0.045564312 0.03474416 0.019992113 0.019361963
000180 48 b9 21 3d 45 85 67 3d dd ba 69 3d f8 87 a1 3d
       0.03948334 0.05652358 0.057062972 0.07887262
000190 6a 1e ce 3b a2 cb 88 bb a6 fc 0a 3d 4e 98 15 bd
       0.0062902467 -0.0041746655 0.03393235 -0.036522202
0001a0 36 49 aa 3d 66 73 53 3a 63 77 52 bd de 3c 23 3d
       0.08314745 0.0008066207 -0.051383387 0.03985297
0001b0 d1 b9 47 3d 3c f8 15 3c 2d 63 85 bd 5c 35 8a 3d
       0.048761193 0.009153422 -0.06513057 0.06748459
0001c0 91 32 47 3d 83 12 23 3d 46 af 21 3d 65 8d a1 3d
       0.04863221 0.039812576 0.039473794 0.07888297
0001d0 44 b6 63 3c a9 92 3f 3d b9 81 1a 3d b7 2a 20 3d
       0.013898436 0.046770725 0.03772137 0.039103236
0001e0 0a 10 63 bd 6a 80 59 bc d7 38 c8 3d 90 0c 14 3d
       -0.055435218 -0.013275245 0.09776466 0.036144793
0001f0 b6 49 b0 bd 84 6b 82 bd a3 4c 5e 3d b9 4b 95 ba
       -0.08607809 -0.06368163 0.054272305 -0.0011390365

layers.3.weight f4 [128, 128]
000000 ec 58 93 bc 0c 3a 6c 3d ff 45 ee bc b1 2a 96 bf
       -0.017986737 0.057672545 -0.029086111 -1.1731778
000010 1a 8c 4b bd f4 7e 12 3d 31 75 84 3d 6b 70 10 3b
       -0.049694158 0.035765603 0.06467665 0.0022039663
000020 79 ed 0e bd 84 60 c6 3c c0 87 0b 3d ba e3 10 bd
       -0.03489444 0.024215944 0.03406501 -0.035373427
000030 8b bd 9d 3d d4 e4 a4 bc cd 56 7e 3d c3 e2 11 bc
       0.07702168 -0.020128645 0.0620945 -0.008904162
000040 7c 04 8f bb 61 a4 2b bd cd b1 74 bd bf 19 86 bf
       -0.0043645483 -0.04190481 -0.059739877 -1.0476607
000050 4a 91 a4 bd e1 e4 46 3d 80 c7 92 3d 9d 3e 8c 3d
       -0.08035524 0.04855812 0.07166958 0.0684788
000060 c7 f2 ae 3c 69 59 e0 3d 6c ca 2b 3d 48 d4 b0 bc
       0.021356 0.10954554 0.04194109 -0.021585599
000070 32 8d 85 bd 0c b9 6d 3d 1c e2 67 3d 9c 2e a6 bf
       -0.065210715 0.058037803 0.05661212 -1.2982974
000080 dc bf 45 bc 81 0f b4 bf 4c 4b 14 bd 8a 77 a1 bd
       -0.012069669 -1.4067231 -0.03620462 -0.078841284
000090 dd fc 34 3d 13 af 97 3c 28 ad a4 bf 5b 5c 14 3d
       0.04418646 0.0185161 -1.2865343 0.03622089
0000a0 bd 04 aa 3c 80 4e 68 3c 88 71 af bb c4 69 2a 3d
       0.020754213 0.014178872 -0.00535411 0.041604772
0000b0 44 40 88 bf 5f 42 2e bb ec 1e 42 bd 4e 32 a2 bf
       -1.0644612 -0.0026589853 -0.04739277 -1.2671602
0000c0 b1 c0 c3 bc d4 df b7 3d 13 68 ee 3d eb 19 a0 3c
       -0.023895593 0.08978239 0.11640944 0.019543609
0000d0 09 91 55 bd 48 94 b6 bf 01 02 86 3d 24 d1 5c be
       -0.05214027 -1.4264002 0.06543351 -0.21564156
0000e0 7b ec 53 bd c6 a6 85 bb 2c 73 d3 3d 09 5d ad bd
       -0.051739197 -0.004078719 0.10324702 -0.08465011
0000f0 63 75 1b 3d 93 f5 b5 bd e6 11 14 bd 55 52 11 3c
       0.037953746 -0.0888473 -0.03614988 0.008869727
000100 88 a9 8e 3b 9e 48 34 bc 8b a4 b8 3d 6f 8f 56 3d
       0.004353706 -0.011003641 0.09015759 0.052382883
000110 c8 ec 8e 3d 48 f8 6c bd 65 98 46 bd 7e 58 60 bd
       0.06978756 -0.057853967 -0.04848518 -0.054771893
000120 98 61 a4 3d 00 58 8b bd 37 ac 4b 3c dd d4 82 bd
       0.08026427 -0.06803894 0.012431196 -0.06388257
000130 e7 40 85 bc 8f 15 c5 bd 4a e7 7c bf 98 09 04 bc
       -0.0162663 -0.096232526 -0.9879042 -0.008058928
000140 1f 20 06 bd 34 7a 62 3c 22 78 aa bd df 0b ad 3a
       -0.032745477 0.013823081 -0.08323695 0.001320239
000150 e7 b9 a1 bd 9e 78 d6 bd 03 d9 4f 3d 6e c4 80 3d
       -0.07896786 -0.10472225 0.050744068 0.06287466
000160 49 d6 86 bf c0 40 b4 3c 9b 9a 73 bd 43 63 50 3d
       -1.0534145 0.022003531 -0.059473615 0.050875913
000170 2e 0b 3e 3d 20 df 21 bb 2f 46 64 bf 6d 8f f3 3d
       0.04639738 -0.0024699643 -0.8916959 0.11892591
000180 53 b8 0b 3d 42 64 bf bb 4a ce 66 3d 9c 4d e6 bd
       0.034111332 -0.005840809 0.056349076 -0.112452716
000190 d6 af 24 bc 44 12 50 3d a7 7f fa bc c3 b1 a9 3d
       -0.010051688 0.05079867 -0.030578448 0.082858585
0001a0 39 c2 8a 3d 53 95 39 bf a1 2d fc 3c d4 7a 5f bf
       0.06775326 -0.72493476 0.030783476 -0.87296796
0001b0 cf 13 42 bc a6 f8 0a be d6 00 af 3d 33 76 35 bd
       -0.011845543 -0.13571414 0.08545081 -0.044302177
0001c0 fd 2b 55 3d 59 9e 8b bd 2a 7c 4b bd d2 e6 1c 3c
       0.052043904 -0.06817312 -0.04967896 0.009576516
0001d0 3f b8 44 3c cd 08 84 bc a0 45 34 bd 87 62 c0 bd
       0.012006818 -0.016117478 -0.044011712 -0.093937926
0001e0 06 e6 a8 3c b0 ff 97 bd bb f3 7a 3b 77 03 f5 bc
       0.020617496 -0.074218154 0.0038292247 -0.029908879
0001f0 d7 13 58 3b a6 e9 88 bd 4f 6a 58 bf 8a 1c 74 3d
       0.003297081 -0.0668519 -0.84537214 0.05959753
000200 fc 5c 8b 3d 56 9e a6 3c e4 76 84 3d c6 3e 91 bf
       0.06804845 0.020339172 0.06467989 -1.1347282
000210 46 52 a0 bd a6 90 bd 3c e4 d7 3b 3d 5a 85 74 bc
       -0.078281924 0.023140263 0.045860186 -0.014924372
000220 a0 0f 39 3d 88 bb 3c bc 96 f3 09 bc 30 b3 89 bc
       0.045180917 -0.01151932 -0.008419892 -0.016809076
000230 51 7a 15 bd 79 11 70 bb aa c1 6d bd 85 f5 e4 bb
       -0.036493603 -0.0036631508 -0.05804602 -0.006987276
000240 a9 5a 2e bc ac 2e ae 3d 19 6d 98 3d 0e c6 8f bf
       -0.010641732 0.08504996 0.07442684 -1.1232316
000250 75 f1 a6 3d ca cb 39 bd ea 9f be bc 5d b0 aa bd
       0.08151523 -0.045360364 -0.023269612 -0.0833442
000260 d8 df b3 3d 97 f0 66 3d 77 03 dc bc c6 3f c7 bd
       0.08782929 0.056381788 -0.02685712 -0.09728961
000270 2b d3 e9 3a 38 fa b2 bd 01 4c 67 bd 99 4e a3 bf
       0.0017839422 -0.08739132 -0.056468967 -1.2758361
000280 2e 38 c0 3d bd e9 ae bf 99 f4 23 bd 4d d5 92 3d
       0.093857154 -1.3665081 -0.04002819 0.0716959
000290 c7 a5 91 bd f1 65 d8 3b 33 07 b2 bf 4f 96 34 3d
       -0.07111698 0.0066039492 -1.3908447 0.044088658
0002a0 ee f3 30 3e c5 d9 ad 3d ff 87 d1 3b 34 b3 4d 3d
       0.17280552 0.08488802 0.006394386 0.05021973
0002b0 25 47 8f bf 33 93 c1 bd 8a 8a c2 bd 31 f2 93 bf
       -1.1193587 -0.09451904 -0.094990805 -1.1558286
0002c0 45 e7 90 3d 71 24 19 3e f8 9f 83 3d 04 5d 9f 3d
       0.07075361 0.14955308 0.06426996 0.07781413
0002d0 10 36 5d 3d 50 c5 a9 bf 28 7f 5b bd 8c 56 09 be
       0.054006636 -1.326334 -0.053588063 -0.13411921
0002e0 a9 b0 49 3d e5 5a a2 3c 76 95 02 3e 91 13 92 3d
       0.049240742 0.019818733 0.12752327 0.07132638
0002f0 10 d4 77 bd 12 fa 9d bc 34 7f e6 3c c8 73 a3 bc
       -0.060504973 -0.019284282 0.028136827 -0.01995267
000300 97 c7 37 3d 8a c1 13 bd 7c 69 89 3d 6b 24 91 3d
       0.044868078 -0.036073245 0.06709573 0.07087024
000310 d0 5d 63 3d 00 06 ea bd 80 8a 18 be 7c 1a 4b bd
       0.05550939 -0.11426926 -0.14896584 -0.049585804
000320 16 30 c5 bb d8 28 32 3c 8b 2d a0 3d be 95 d0 3c
       -0.006017695 0.010873996 0.07821187 0.025462028
000330 97 7e 34 3c 12 05 7c bb b6 05 8d bf f5 df 9f 3d
       0.0110165095 -0.003845517 -1.1017368 0.07806388
000340 86 65 fd 3c ef e8 57 3d fe 88 33 3d 2f 8d 18 3c
       0.0309322 0.052712377 0.043831818 0.009311005
000350 40 a2 e1 bc 4c 67 15 be 11 0c b1 3d 94 ed 83 bd
       -0.027543187 -0.14590186 0.086448796 -0.06441799
000360 43 14 99 bf 83 2d 3d bd 57 97 6d bd 7a b3 eb bc
       -1.1959308 -0.04618598 -0.058005657 -0.028772105
000370 62 cd 9d 3d 06 62 82 bd 29 0a 74 bf 8b 94 fc 3c
       0.07705189 -0.06366353 -0.95328003 0.03083255
000380 a7 26 3a bd 7d be bb 3d 5f 90 49 3d 77 c7 a1 bd
       -0.045447018 0.09167192 0.04920995 -0.07899373
000390 77 9e 2e bd 52 20 2a bc 2a a6 a7 3c ce e6 07 3e
       -0.042631593 -0.010383682 0.020464975 0.13271639
0003a0 49 c9 a1 bc c3 2d 4a bf 97 6a e4 3d 3e f1 79 bf
       -0.0197493 -0.78976077 0.11153143 -0.9763373
0003b0 ee 4c 00 be b8 86 0c be 4b 19 09 3e 28 9a b8 3c
       -0.12529346 -0.13723266 0.13388555 0.022534445
0003c0 49 60 78 bd e6 7e 98 3d e0 ee 0f bd eb b9 d6 bd
       -0.0606387 0.07446079 -0.03513992 -0.1048468
0003d0 52 13 bf 3b 29 81 c3 3c b1 cb dc bc 2f d4 6a bd
       0.0058311606 0.0238653 -0.026952596 -0.05733126
0003e0 90 d9 2d bd 89 a3 b3 3d dc a2 94 bd b7 44 af 3c
       -0.042443812 0.08771426 -0.072576255 0.02139507
0003f0 1f 8c a4 bd 3e 6b 32 3d dd 0e 78 bf d9 07 6f 3d
       -0.080345385 0.043559305 -0.9689768 0.058357093

layers.3.bias f4 [128]
000000 29 62 9b 3d 50 1f 84 bd 5f 33 73 3d be 6c b5 3d
       0.07587082 -0.06451285 0.059375163 0.088586316
000010 8f 8d 9d 3d f8 39 d8 3c 33 27 50 bd 5f 34 21 bd
       0.07693016 0.02639483 -0.050818633 -0.039356586
000020 64 64 3f bd 27 be a7 bd 3c ce 0b 3d 01 f9 22 bd
       -0.0467266 -0.081905656 0.034132227 -0.03978825
000030 99 ed 1a bd 9f 49 e3 3d bc 5d d4 3d fd 4a f7 bc
       -0.037824247 0.110980265 0.10369441 -0.030187124
000040 a7 fa 4d bd fd 82 9d 3c 8e 3c a7 3d 4b 49 21 bd
       -0.05028787 0.0192275 0.08165847 -0.03937654
000050 45 2f 7f bb 1a a6 86 bd 76 97 5d 3c 60 2a 99 bd
       -0.0038938087 -0.0657465 0.013524881 -0.074787855
000060 ff 21 ab bc ad c4 a8 3d dd 45 fc bc c9 60 5a 3d
       -0.020890234 0.08240638 -0.030795032 0.053314958
000070 1b c7 57 3d c9 fa 8e bd 63 00 ee bc 5d 4e 47 3d
       0.052680116 -0.06981427 -0.029052919 0.048658717
000080 86 b4 83 bc c2 90 a7 3d b7 26 aa 3d 60 82 99 3d
       -0.016077291 0.08181907 0.083081655 0.0749557
000090 90 b3 16 3d 1b 7b b2 bd 78 d0 32 3d 50 53 24 bd
       0.036792338 -0.08714887 0.043655843 -0.040118515
0000a0 fa 47 8c 3c 30 ec 78 bd 59 48 dc 3d e9 b2 15 3c
       0.017124165 -0.06077212 0.10755987 0.009136894
0000b0 2e ae 8b 3d a0 56 25 3d 2f ab 95 3d 78 e1 93 3d
       0.068203315 0.040365815 0.07308041 0.07220739
0000c0 94 c8 39 3d 61 a6 9e 3d c1 67 40 3d bb 0c 78 bc
       0.0453573 0.07746578 0.046973947 -0.015139754
0000d0 c2 0f 8f bd 57 79 aa bc 23 6e 3a bc f6 7a ac bd
       -0.069854274 -0.020809812 -0.011378798 -0.084218904
0000e0 3f bf 89 3d 7a e8 95 3d 3d f2 5b 3d 80 3b b1 bd
       0.067259304 0.07319732 0.053697813 -0.08653927
0000f0 04 e8 b6 3d 95 83 66 3d f6 f6 0b bd fd 8c 56 3c
       0.08930972 0.05627783 -0.034171067 0.013095138
000100 ab 02 11 3d 3c 6e 8d 3a 52 ea 22 3a ba f6 45 3d
       0.035402935 0.0010790299 0.0006214726 0.048331
000110 0b 05 8e 3d 55 7b db 3c 79 86 be 3c ad a4 89 3a
       0.069345556 0.026792208 0.023257481 0.0010501348
000120 54 14 0a bd fd 01 37 3d 15 e5 cd bc 53 77 e7 bb
       -0.033710793 0.04467963 -0.025133649 -0.007063785
000130 46 9f 71 bb 39 43 2a 3c 07 b3 1e bd f7 fd d9 b9
       -0.0036868616 0.010392004 -0.038744953 -0.00041578684
000140 c9 18 80 3d f3 32 6e 3d 47 c6 87 3d f9 a8 bb 3d
       0.062547274 0.058154058 0.06629615 0.09163088
000150 72 52 ba bc 95 0f 81 bd 91 ec 87 bd 75 da 5c bd
       -0.022744391 -0.063018 -0.06636918 -0.053919274
000160 d3 ce 2d 3c f7 f8 a6 bd 89 8a 8c bd 71 e6 f5 3c
       0.010608393 -0.08152955 -0.06862361 0.03001711
000170 da 89 14 3d 89 55 60 3d 3d 1d 33 3d 94 cb 3a bd
       0.036264278 0.054769073 0.043729056 -0.045604303
000180 0f 6f 5b bd 8d 60 b3 bd d6 17 40 3c 6c 63 83 bd
       -0.05357271 -0.0875865 0.011724433 -0.064154476
000190 4c 6b ac bd 6e 68 e8 bc 63 61 a1 3d 3a e1 14 bb
       -0.08418903 -0.028370108 0.07879903 -0.0022717253
0001a0 0f c3 6f 3d 43 42 89 3d 54 28 b9 3d d0 5e 7b bc
       0.05853563 0.067020915 0.09040895 -0.015342429
0001b0 20 96 3d 3d 22 c7 ac bd 77 36 7b 3b a6 10 15 bd
       0.04628575 -0.08436419 0.0038332024 -0.03639283
0001c0 b4 82 a2 bd 51 c0 bd bc 36 9c 29 3d d6 c0 71 bd
       -0.07935086 -0.023162993 0.04140874 -0.059021793
0001d0 25 fd 59 bd b4 f3 1d bd 66 99 90 bd 4e 47 b0 3c
       -0.053219933 -0.03856249 -0.070605084 0.021518376
0001e0 e0 ae b4 bd d6 e2 3f 3d 83 09 ac 3d d4 49 78 bc
       -0.08822417 0.046847187 0.08400252 -0.015154321
0001f0 69 60 ab bc 87 36 a8 3d f0 7e 93 bd d8 06 40 3d
       -0.020919995 0.08213525 -0.07201946 0.046881527

layers.5.weight f4 [1, 128]
000000 95 29 cf 3e 5d 34 b5 3e 47 4d 38 3e 0d 82 c2 bd
       0.40461412 0.35391513 0.17998229 -0.094974615
000010 3b 88 74 bd de 76 98 3d 4d a1 94 3e 59 07 5c bd
       -0.059700232 0.07444547 0.29029313 -0.053717945
000020 62 87 c6 be 6f 82 35 be 3f 57 bb be 69 ee 23 3c
       -0.38775164 -0.17725538 -0.3659 0.010005572
000030 d8 b5 60 3d d5 0f cc bd d5 57 69 bd 09 50 e3 3d
       0.05486092 -0.09963957 -0.05696853 0.1109925
000040 3c d9 10 3e 4d 2a 86 bd 9a 2d 97 3e d4 1d 7a 3d
       0.14145368 -0.06551037 0.2952698 0.061063603
000050 de a7 fc bd 4b 89 a2 bc bf bc cd 38 cf 2d f0 bc
       -0.123367056 -0.019840857 9.8103184e-05 -0.029318718
000060 4b 30 d4 3e de b9 bd 3d 9b 88 a1 be 4e 1b ca 3e
       0.41443095 0.09263967 -0.31549534 0.39473957
000070 01 98 77 3e e5 7c 8f bd 76 14 e2 bd 76 dc 65 3e
       0.24179079 -0.070062436 -0.11039059 0.2244738
000080 f2 37 98 3e ec fe cb 3e b8 c7 1d be 58 68 9d 3c
       0.29730183 0.39842927 -0.15408218 0.019214794
000090 26 21 b6 3d 9b ef 3c bc cc 56 fd 3e 99 09 3f 3e
       0.08893041 -0.011531736 0.49480283 0.18656005
0000a0 5b fb c7 3e 1a 04 63 bd 2e 47 bd bd 4f 00 b1 3c
       0.39058957 -0.055423833 -0.09242092 0.021606592
0000b0 1f 59 2c 3c 86 b2 d9 3e e8 36 14 bc 0b be 99 3e
       0.010519295 0.42519015 -0.009046294 0.30027804
0000c0 09 b6 94 3e b0 3a a3 3e 68 e2 f1 bd 15 63 a9 3e
       0.29045132 0.31880713 -0.11810762 0.33083406
0000d0 79 2c 6d 3c a8 ff bc 3e 4e ef 08 3f 2a 13 39 bf
       0.014475935 0.369138 0.5349015 -0.7229487
0000e0 01 1e 98 3d 8e 2b 03 be a5 bb 19 be 96 93 fa 3c
       0.07427598 -0.12809584 -0.15012987 0.030587953
0000f0 88 af 9b bd fb 07 98 bd 58 69 91 bd 7e be 3b be
       -0.07601839 -0.07423397 -0.07100171 -0.18334386
000100 76 99 36 bd 7d 8c a9 bd 3f 6f 23 bd e7 d6 c9 3e
       -0.044579946 -0.08278749 -0.039901014 0.3942177
000110 d5 3c e1 3e c0 5e d1 3e eb 4e 3c bd 8b bf 87 3e
       0.43991724 0.408926 -0.0459737 0.26513323
000120 26 65 e9 bd dd 89 e6 3e 98 7e 33 be 07 b3 fb bd
       -0.11396246 0.45027056 -0.1752876 -0.12290006
000130 3c e6 0a 3f d8 a2 29 bf e2 c7 35 be 57 91 03 be
       0.5425756 -0.66264105 -0.1775203 -0.12848412
000140 ad 57 47 bd b4 59 a8 3e 34 b7 37 bd 11 f6 14 be
       -0.0486676 0.32880938 -0.04485245 -0.14546992
000150 2e 85 0d 3e f6 4f 80 3d 18 f5 5b 3d b9 b5 23 bd
       0.13820335 0.06265251 0.053700536 -0.039968226
000160 e1 96 04 3f 12 cc b4 3c bf 9b 92 3c 5e ad 09 3d
       0.5179272 0.022069965 0.017896531 0.0336126
000170 2c 50 04 be 7f be 95 bd 80 7b cd bd 5d ec 84 bd
       -0.12921208 -0.07311725 -0.100333214 -0.06490395
000180 d4 80 b9 bc c3 e4 cc 3c b5 87 78 bd bb 61 8d be
       -0.022644438 0.025011426 -0.060676295 -0.27613625
000190 16 b5 b5 3c 6b 53 c8 3e 70 93 5d be 86 bc c8 3e
       0.022181075 0.39126143 -0.21638274 0.39206332
0001a0 88 67 86 bd 43 de 89 3b 1b 5e 12 be af 6f cf bd
       -0.06562716 0.004207404 -0.14293711 -0.10128724
0001b0 3e eb c5 3e 9d d1 18 3a c3 f1 29 bd 22 21 a9 3d
       0.38656038 0.00058295747 -0.041490328 0.08258273
0001c0 56 28 30 bd 37 d5 d1 be 67 b7 c9 bd 1d 15 d9 3e
       -0.043007217 -0.40982983 -0.09849434 0.4239892
0001d0 81 5f 1f bd d8 21 04 3e a5 e6 80 3e 66 6a 01 be
       -0.03890944 0.12903535 0.25175968 -0.12638244
0001e0 09 43 8d be 85 ae 99 bd de b6 bd 3e 6e 18 4c 3c
       -0.27590206 -0.0750399 0.3705358 0.012456996
0001f0 55 ce 16 3f 0e 51 0e bd 3f 36 5b bd ac 7a 58 3e
       0.5890859 -0.03474527 -0.05351853 0.21140546
